results/SandingEnvDifficult/ddpg/model/model_parameters_1.pt (torch, 36162 bytes, 22 tensors)

value.0.weight f4 [32, 20]
0	0xbd225025	-0.039627213
1	0xbbba8aac	-0.0056928005
2	0xbdaee060	-0.0853889
3	0x3d7a1ff8	0.061065644
4	0x3c71b5c9	0.014752814
5	0xbdde4451	-0.10852874
6	0x3d8d1eba	0.06890626
7	0xbe560535	-0.20900424
8	0xbdd5f68a	-0.10447414
9	0xbdc6f128	-0.09713966
10	0xbddb2c1f	-0.10701775
11	0x3d9c3ed5	0.07629172
12	0x3dead219	0.11465854
13	0xbd378698	-0.044806093
14	0xbe833af8	-0.25630927
15	0xbcd594d3	-0.026071941
16	0xbe2f3761	-0.17110969
17	0xbd38ed37	-0.0451481
18	0xbecd5d36	-0.40110177
19	0xbe4f3b34	-0.20237428
20	0x3e45270a	0.19253173
21	0xbd903aa4	-0.07042435
22	0x3dfe66ea	0.12421973
23	0xbe8d8bfa	-0.27645856
24	0xbd0aabcc	-0.033855245
25	0xbeab80d7	-0.33496734
26	0x3d6a22cc	0.05716209
27	0x3dca5004	0.09878543
28	0x3d43c63f	0.047796484
29	0xbdc7d242	-0.097569
30	0x3e28342e	0.16426155
31	0xbcce487e	-0.025181051
32	0x3e0e10ed	0.13873644
33	0xbdeb907f	-0.1150217
34	0xbe8a26a8	-0.26982617
35	0x3db0553d	0.08610008
36	0x3e00ff6e	0.12597439
37	0xbe12da57	-0.14341103
38	0xbece574f	-0.40300986
39	0x3efa02c4	0.48830235
40	0xbd859614	-0.06522766
41	0x3c8e27b6	0.01735292
42	0x3d935307	0.071935706
43	0xbd1ae338	-0.03781435
44	0x3e08f6b5	0.13375361
45	0x3d373dc8	0.044736654
46	0xbdee6a7d	-0.11641405
47	0x3e2035e7	0.15645562
48	0x3e2fc3f2	0.17164591
49	0x3d46e639	0.0485594
50	0x3d030753	0.031989407
51	0x3e1b4c69	0.15165867
52	0xbe0ff9e3	-0.14060168
53	0x3d91772e	0.0710281
54	0x3e886b21	0.26644233
55	0x3e22f8a1	0.15915157
56	0x3ae730ca	0.0017638442
57	0xbd73e1cd	-0.059541512
58	0x3fb70a37	1.4299992
59	0x3f217579	0.63069874
60	0x3d9bf9c2	0.07615997
61	0xbdad4a25	-0.084614076
62	0x3ee33e6e	0.44383568
63	0x3e3ebfc7	0.18627845
64	0x3dd6dfba	0.10491891
65	0x3d67a287	0.056551483
66	0xbdf02fa4	-0.11727837
67	0xbd62779f	-0.05528986
68	0x3e7ead8d	0.24870892
69	0xbc180ab4	-0.009279896
70	0x3dbab2d1	0.09116138
71	0x3c49328f	0.0122801205
72	0xbd26382d	-0.040580917
73	0xbe554561	-0.20827247
74	0xbdf2dcb7	-0.11858504
75	0x3e4c5831	0.19955517
76	0xbda9f316	-0.08298318
77	0xbdc8b998	-0.09801024
78	0x3ea1447a	0.31497556
79	0x3e972c19	0.2952583
80	0xbdec62af	-0.1154226
81	0xbd2b6d87	-0.0418525
82	0xbdc2a356	-0.0950381
83	0xbd8deeae	-0.0693029
84	0xbd5f0dc4	-0.054456487
85	0xbcccdb57	-0.025006933
86	0x3d8da769	0.069166966
87	0xbdc4c244	-0.09607366
88	0x3bf53e52	0.007484236
89	0xbd9408c9	-0.07228238
90	0xbe1b4d0e	-0.15166113
91	0xbe0d85cc	-0.1382057
92	0xbd8d94bf	-0.06913137
93	0xbd196a99	-0.037455175
94	0x3e643563	0.2228599
95	0x3da6b903	0.08140757
96	0xbe145c86	-0.1448842
97	0x3e31f514	0.17378646
98	0x4014f15e	2.327232
99	0xbecd8e77	-0.40147755
100	0x3e3ef7d2	0.18649223
101	0xbdfb5f1b	-0.12273999
102	0x3e2ff068	0.17181551
103	0xbdd324f2	-0.10309781
104	0xbb91c8de	-0.004448994
105	0xbd6f1eb9	-0.05837891
106	0xbdb1df69	-0.0868519
107	0x3e0ba6a8	0.13637793
108	0xbd109fc2	-0.035308607
109	0xbcb7b417	-0.02242474
110	0xbd13a3cb	-0.036044877
111	0xbe3318ec	-0.17489976
112	0xbda2cae8	-0.079488575
113	0x3da883d6	0.08228271
114	0x3e0db312	0.13837841
115	0xbd9d943f	-0.07694291
116	0x3d676606	0.05649378
117	0xbdd7a87d	-0.105301835
118	0xc018b2d3	-2.3859146
119	0x3e73149e	0.23738334
120	0x3d6013be	0.054706328
121	0xbecb22eb	-0.39675078
122	0x3e2dffe1	0.16992141
123	0xbdb13153	-0.08651986
124	0x3c76b9a8	0.015058912
125	0x3c5aab41	0.013346494
126	0x3d393be9	0.04522315
127	0x3d48f89a	0.04906521
128	0xbb9355c3	-0.0044963076
129	0xbe828ac8	-0.25496507
130	0x3d9bc4d7	0.076059036
131	0x3df9c0bf	0.121949665
132	0x3d7146b2	0.05890531
133	0x3de9e833	0.114212416
134	0xbd0fbbac	-0.035091087
135	0x3cf111f2	0.029427502
136	0x3d4319d7	0.047632065
137	0x3e51055d	0.20412202
138	0xbeaae5d1	-0.3337846
139	0xbf3731ba	-0.7156025
140	0x3e52fab9	0.20603456
141	0xbd173dd7	-0.03692421
142	0x3ea28f00	0.31749725
143	0x3ee41cef	0.44553325
144	0x3e1812c8	0.14850914
145	0xbe089645	-0.13338573
146	0xbbf31c91	-0.007419177
147	0x3d6ba889	0.057533775
148	0xbe9fa3d5	-0.3117968
149	0xbc952900	-0.018208027
150	0x3dcab619	0.098980136
151	0xbe2221f0	-0.15833259
152	0x3e93c44e	0.28860706
153	0x3e1311d3	0.14362268
154	0xbde88d65	-0.11355094
155	0x3be1f850	0.0068960562
156	0xbe2045db	-0.15651648
157	0x3e4f0d08	0.20219815
158	0x3f642df3	0.8913261
159	0xbdd30386	-0.103034064
160	0x3d8b7428	0.068092644
161	0x3da5a156	0.08087413
162	0xbd679d04	-0.056546226
163	0xbdae4326	-0.08508901
164	0x3d40dec0	0.04708743
165	0x3c8d8d8b	0.017279407
166	0xbd805df7	-0.06267922
167	0xbda85c01	-0.08220673
168	0x3c9a50f8	0.018837437
169	0xbd4228b4	-0.0474021
170	0xbcec17dc	-0.02881997
171	0xbdce305f	-0.1006782
172	0xbd0611d8	-0.03273186
173	0xbe258e87	-0.16167651
174	0x3ce5ba0b	0.028042814
175	0x3ea53075	0.32263532
176	0xbe08d378	-0.13361919
177	0x3e0436a4	0.12911469
178	0x3fbeac37	1.4896306
179	0x3f0a63c1	0.5405846
180	0x3e5f74a5	0.2182184
181	0xbdb337f8	-0.087509096
182	0x3eabea70	0.335773
183	0x3eae104a	0.33996803
184	0xbe0dd0f1	-0.13849236
185	0x3ceaf9bb	0.028683534
186	0xbbea7a18	-0.007155668
187	0x3ca44d15	0.020056287
188	0x3ddfd47f	0.10929202
189	0x3ceefcb9	0.029173242
190	0xbddb5c9d	-0.10711024
191	0x3e3abce2	0.18236116
192	0xbe124dad	-0.14287443
193	0x3d4fab24	0.05070032
194	0xbe36feb7	-0.17870604
195	0xbdd2b70d	-0.102888204
196	0x3e41512f	0.18878625
197	0x3e2af6a1	0.16695644
198	0x4017f613	2.3743942
199	0xbbd40d00	-0.0064712763
200	0x3be64484	0.0070272107
201	0xbdcf1385	-0.10111145
202	0x3dd3e412	0.10346235
203	0x3e3514a5	0.17683657
204	0xbe316e25	-0.17327173
205	0x3db21d0d	0.08696947
206	0x3d9e42b2	0.07727565
207	0xbd9491a5	-0.07254342
208	0xbda38e1f	-0.07986092
209	0xbdc70a53	-0.09718766
210	0xbd520e52	-0.05128319
211	0xbe417114	-0.18890792
212	0xbb27f1ab	-0.0025626223
213	0xbcdbfd3b	-0.026854148
214	0xbc75f03f	-0.015010892
215	0xbe7018a4	-0.234469
216	0xbbe36984	-0.0069400687
217	0xbc2760c7	-0.010215945
218	0xbf6b1e2e	-0.91842926
219	0x3cf55f63	0.02995271
220	0x3be2b157	0.006918113
221	0xbe97c63b	-0.29643425
222	0xbc126ae5	-0.008936618
223	0xbcf90f3a	-0.030402768
224	0xbc217b58	-0.009856068
225	0xbb700907	-0.0036626474
226	0xbc473256	-0.012157997
227	0x3ce3a0d9	0.02778666
228	0x3e02910a	0.1275064
229	0x3d94922c	0.072544426
230	0xbe38b583	-0.18037991
231	0x3e4dfabd	0.2011518
232	0x3dfe9e10	0.12432492
233	0x3eb82e9d	0.35973063
234	0xbe024a1d	-0.12723584
235	0x3e2cc653	0.1687253
236	0x3e3a77d8	0.1820978
237	0xbe63668a	-0.22207084
238	0xbed8f651	-0.42375425
239	0xbf8e16f8	-1.110076
240	0xbd233972	-0.039849706
241	0x3c06f50b	0.008237134
242	0x3e4ffd8e	0.20311567
243	0xbe4c0422	-0.19923452
244	0xbe17ee68	-0.14837039
245	0xbe35f386	-0.17768678
246	0xb9579cc2	-0.00020562395
247	0x3db42064	0.087952405
248	0xbb8fd907	-0.0043898853
249	0x3dca7f86	0.098876044
250	0xbe07cd71	-0.13261963
251	0xbcfa6310	-0.030564815
252	0xbd940ee2	-0.07229401
253	0x3d384654	0.044988945
254	0xbd730a0c	-0.059335753
255	0x3dc87e2c	0.097896904

value.0.bias f4 [32]
0	0x3e18707e	0.14886662
1	0xbd8ea47b	-0.06964966
2	0x3d2c34c6	0.042042516
3	0xbdbcb065	-0.09213332
4	0xbc2a2449	-0.010384628
5	0xbd977806	-0.073959395
6	0xbd6ac1e2	-0.057313807
7	0xbe565df0	-0.20934272
8	0xbdcc36dd	-0.09971402
9	0xbd09eeed	-0.033675123
10	0xbe80f4bc	-0.25186718
11	0x3d00a2b9	0.031405184
12	0xbe5042c0	-0.20337963
13	0x3dc8375a	0.097761825
14	0x3df937c1	0.12168837
15	0xbd7c2f61	-0.06156862
16	0x3d8f8f83	0.070097946
17	0xbdac8ff9	-0.08425898
18	0xbe3dc83a	-0.18533412
19	0xbd934e9f	-0.0719273
20	0x3d8e7222	0.06955363
21	0xbe735f1c	-0.2376675
22	0xbcca60ea	-0.024704415
23	0xbc28156a	-0.010259012
24	0x3e34137e	0.1758556
25	0x3e571f36	0.21008
26	0xbe7366ac	-0.23769635
27	0xbe110b83	-0.14164548
28	0xbd205058	-0.03913912
29	0x3d25ddbd	0.04049467
30	0x3e18e544	0.14931208
31	0xbe18d822	-0.14926198

value.2.weight f4 [32, 32]
0	0x3bd8203d	0.00659564
1	0xbd54faad	-0.051996876
2	0xbe099470	-0.1343553
3	0xbe378f7b	-0.17925827
4	0x3d818586	0.06324296
5	0x3d6e57d1	0.058189217
6	0xbc0c1e48	-0.0085521415
7	0x3d485343	0.04890753
8	0xbca07b0c	-0.019589923
9	0x3a3531b0	0.0006912006
10	0x3db3ef0d	0.0878583
11	0xbe0c5acf	-0.13706516
12	0x3cfb2011	0.030654939
13	0x3e035ce8	0.1282841
14	0x3e2fec62	0.17180017
15	0x3da35e98	0.07977027
16	0x3e08ab78	0.1334666
17	0xbd325149	-0.04353455
18	0x3de745f1	0.11292637
19	0x39a9d2f1	0.00032391355
20	0xbdeca201	-0.11554337
21	0x3e6e993a	0.23300639
22	0x3cfd3c57	0.030912561
23	0xbcd1ce24	-0.02561099
24	0xbcd4a01a	-0.025955249
25	0xbd9a816a	-0.07544215
26	0xbe5c71a3	-0.21527724
27	0xbd82c410	-0.06385052
28	0x3dbd06ae	0.0922979
29	0xbcdaf64d	-0.026728773
30	0x3c6b8135	0.014374067
31	0xbdb3c435	-0.08777658
32	0x3d5f4458	0.054508537
33	0xbd4417c5	-0.04787423
34	0x3ce30fb7	0.027717454
35	0xbdb94853	-0.09046998
36	0x3e11c845	0.14236553
37	0xbd7e0923	-0.062020432
38	0x3e0d2073	0.1378191
39	0x3d9e6d3e	0.0773568
40	0xbcd9e0bc	-0.02659642
41	0x3daa7b40	0.08324289
42	0x3cb639bb	0.022244325
43	0xbd8bb465	-0.06821517
44	0xbe142322	-0.14466527
45	0xbe0e28a1	-0.13882686
46	0x3ce4acb9	0.027914392
47	0x3e062e70	0.13103652
48	0x3d9fc96e	0.078020915
49	0xbeb475fe	-0.3524627
50	0x3a3bf9c5	0.00071707024
51	0x3d81d614	0.0633966
52	0x3d92fdfe	0.071773514
53	0xbd9125ce	-0.07087289
54	0x3e2f70ac	0.17132825
55	0x3c843515	0.016138593
56	0xbdef461d	-0.11683295
57	0x3ded09f5	0.11574165
58	0xbd4e9113	-0.050431322
59	0xbcd33051	-0.025779875
60	0xbe2f927d	-0.17145725
61	0xbb24f254	-0.0025168853
62	0xbe6d365a	-0.23165265
63	0xbdd95a9f	-0.10612988
64	0xbe086860	-0.13321066
65	0xbe2d23a7	-0.16908132
66	0xbde4a5c1	-0.111644275
67	0x3dead5c6	0.11466555
68	0x3e19ec7c	0.15031618
69	0x3e249c62	0.1607528
70	0xbdb0dc59	-0.08635778
71	0xbe5cebe0	-0.21574354
72	0x3da86b48	0.08223587
73	0xbe0a6c90	-0.13517976
74	0xbe3b0c8d	-0.18266506
75	0x3dae7ebe	0.08520268
76	0x3d752765	0.059852023
77	0xbd1a0a96	-0.03760775
78	0xbdc79ead	-0.09747062
79	0x3dbe9123	0.093050264
80	0xbd67681a	-0.056495763
81	0xbd961ddd	-0.07329915
82	0x3e3d686d	0.18496867
83	0x3dc01af1	0.09380139
84	0xbe15b6ca	-0.1462051
85	0xbe01a83a	-0.1266183
86	0x3d010025	0.03149428
87	0xbb435bde	-0.0029809396
88	0x3d9f9b7a	0.07793327
89	0xbd35dcf4	-0.04440017
90	0xbc8d196e	-0.01722404
91	0x3e0838e7	0.13302957
92	0x3c9dc390	0.01925829
93	0x3d3089d5	0.043100197
94	0x3cc1947f	0.023630379
95	0xbda00f0a	-0.078153685
96	0x3da367de	0.079787955
97	0x3ce6f923	0.02819497
98	0xbebcbacf	-0.36861274
99	0x3e8ee5c3	0.2790967
100	0xbe0933ab	-0.13398616
101	0x3e83931a	0.25698167
102	0xbf97dc01	-1.1864015
103	0xbe538fac	-0.20660275
104	0xbe70b94e	-0.23508188
105	0xbe3f877d	-0.18704028
106	0xbd2fe28f	-0.042940672
107	0xbe054df5	-0.1301802
108	0xbe7cf648	-0.24703324
109	0xbd42beec	-0.04754536
110	0xbd37215c	-0.04470955
111	0xbdf99980	-0.12187481
112	0x3e0cd2fd	0.1375236
113	0x3e77a777	0.24184977
114	0x3c2bdd15	0.010489722
115	0x3d3dd496	0.046345316
116	0xbe318847	-0.17337142
117	0xbe5fe977	-0.21866404
118	0x3dc1d074	0.094635874
119	0xbd81fc28	-0.06346923
120	0x3e826b96	0.25472707
121	0x3e1b084c	0.15139884
122	0xbb1ce876	-0.0023942268
123	0x3dedef16	0.11617868
124	0xbdf0305a	-0.11727972
125	0xbda8a8dd	-0.08235333
126	0x3df819e5	0.12114314
127	0xbd39dabb	-0.045374613
128	0x3da9e991	0.082965024
129	0x3e00c26a	0.12574163
130	0xbd9e5e10	-0.07732785
131	0xbd880335	-0.06641237
132	0xbdc1307d	-0.094330765
133	0x3e4d8136	0.20068821
134	0xbe7fd2f8	-0.24982822
135	0xbf81e344	-1.0147481
136	0x3ccc5468	0.024942592
137	0xbe11802a	-0.14209047
138	0xbd477b45	-0.048701543
139	0x3e30063b	0.17189877
140	0xbe36818e	-0.17822859
141	0xbc023057	-0.007946095
142	0x3e2aa47a	0.16664305
143	0xbc2869ff	-0.010279178
144	0xbe439381	-0.19099237
145	0xbc778b1c	-0.01510885
146	0x3cced563	0.025248235
147	0x3e12de0f	0.14342521
148	0xbd2f7301	-0.042834286
149	0x3af8a3e1	0.0018969738
150	0xbe55fd39	-0.20897378
151	0x3d0d5539	0.034505103
152	0xbdb23dc0	-0.08703184
153	0x3d15440f	0.03644186
154	0xbd8f13ed	-0.069862224
155	0xbe6ec2a5	-0.23316438
156	0xbdd06865	-0.10176162
157	0xbd2bb6e3	-0.04192246
158	0xbe169292	-0.1470435
159	0x3df652ce	0.120275125
160	0x3c370876	0.011171451
161	0xbd7eb272	-0.062181897
162	0xbdf53c43	-0.11974385
163	0xbde51405	-0.11185459
164	0x3cff87c8	0.031192675
165	0x3b211460	0.0024578795
166	0xbe1a7202	-0.15082553
167	0x3cb8f645	0.022578368
168	0x3d95283c	0.07283065
169	0xbda0c72e	-0.078504905
170	0xbc94d2f4	-0.018166997
171	0x3e1e5871	0.15463425
172	0xbe111262	-0.14167169
173	0x3d9852a0	0.074376345
174	0x3de32f1f	0.11092972
175	0x3df8248e	0.12116347
176	0x3e223157	0.15839134
177	0xbe07c5a4	-0.13258988
178	0x3cddb2a7	0.027062727
179	0x3e17ce7c	0.14824861
180	0xbe08f5a4	-0.13374954
181	0xbdf316dc	-0.118695945
182	0x3da154f2	0.0787753
183	0xbdb7adde	-0.089687094
184	0x3bd9d73f	0.006647974
185	0xbe99cdf3	-0.3003994
186	0xbe0c61a5	-0.13709123
187	0xbd8dec69	-0.06929857
188	0x3da2d364	0.07950476
189	0x3e23aa74	0.15982991
190	0x3d78e59d	0.06076585
191	0xbb3bd6ea	-0.0028662034
192	0xbce6ff04	-0.028197773
193	0x3d2dc1b4	0.042421058
194	0xbbf74b7f	-0.0075468416
195	0xbd8e53c2	-0.06949569
196	0x3e1bec92	0.15226963
197	0xbe9f0e76	-0.3106572
198	0xbeea2a6e	-0.45735496
199	0x3e96144b	0.29312357
200	0xbe161a0d	-0.14658375
201	0xbcd3d021	-0.02585608
202	0xbe03591e	-0.12826964
203	0xbd0c0ff6	-0.03419491
204	0x3db799ce	0.08964883
205	0xbe0fc677	-0.14040552
206	0xbce2922d	-0.027657593
207	0x3d9a7181	0.075411804
208	0xbd845ee9	-0.06463415
209	0xbea82905	-0.32843795
210	0x3d8888ae	0.066666946
211	0xbd697317	-0.056994524
212	0x3d4b1ee8	0.04959002
213	0x3e61ef3d	0.22063918
214	0x3d6254de	0.055256717
215	0x3ca8d9bd	0.020611638
216	0xbd696754	-0.056983307
217	0x3c067ebd	0.008208928
218	0x3e0311e8	0.127998
219	0xbc1341a1	-0.008987815
220	0x3dacd0bd	0.08438251
221	0x3d177240	0.03697419
222	0x3eb3b179	0.35096338
223	0x3c04baf8	0.008101217
224	0xbcb954cb	-0.02262344
225	0xbd23e597	-0.040013876
226	0xbd91e02b	-0.07122835
227	0xbe1d5f5b	-0.15368406
228	0x3cf23fc9	0.02957143
229	0x3e28ad2a	0.16472307
230	0xbd883fd8	-0.06652802
231	0x3d092684	0.033483997
232	0xbd83adae	-0.06429611
233	0x3dc9fe2f	0.09862935
234	0xbb926457	-0.004467528
235	0x3dc38a1a	0.09547825
236	0xbd83cfe4	-0.06436136
237	0x3e246f83	0.16058163
238	0x3dd4962b	0.10380205
239	0x3c1c6374	0.009545196
240	0x3cfcf0bb	0.030876508
241	0xbd319a5f	-0.04336011
242	0xbda3597a	-0.07976051
243	0x3e01a1f8	0.12659442
244	0xbe843eec	-0.25829256
245	0x3cfac234	0.030610181
246	0x3d06b632	0.0328886
247	0x3e259a69	0.16172184
248	0x3e231503	0.15925984
249	0xbe48ca92	-0.19608524
250	0xbe09faf9	-0.13474645
251	0xbde7291a	-0.112871364
252	0xbb6a7a43	-0.003577844
253	0xbca40c60	-0.020025432
254	0x3dfe2c15	0.12410752
255	0x3ddad631	0.10685385

value.2.bias f4 [32]
0	0xbdb95f26	-0.09051351
1	0x3e47cd1a	0.19511834
2	0x3c748a65	0.014925574
3	0xb8cc6510	-9.7463024e-05
4	0x3dbe7ddc	0.093013495
5	0xbdddfe7b	-0.10839554
6	0x3e1335fd	0.14376064
7	0x3d96a990	0.0735656
8	0x3e0709e6	0.1318737
9	0x3def907f	0.11697482
10	0x3e8f94c6	0.28043193
11	0x3def315b	0.11679336
12	0xbe920931	-0.28522637
13	0x3e138abe	0.14408395
14	0xbe23a619	-0.1598133
15	0x3b105c75	0.0022027765
16	0xbd8c3f5a	-0.06848021
17	0x3e0ac137	0.13550268
18	0xbdcf9e6e	-0.1013764
19	0x3d0e5242	0.034746416
20	0xbd86e85c	-0.06587288
21	0xbe8af36f	-0.2713885
22	0xbd1ccae0	-0.038279414
23	0x3d28030e	0.04101854
24	0x3e7a8554	0.24464923
25	0xbdf299f5	-0.11845771
26	0x3dac7b7f	0.084219925
27	0xbe18ab5e	-0.14909121
28	0xbe8b4075	-0.27197614
29	0xbe13afac	-0.14422482
30	0xbd9a2b70	-0.07527816
31	0x3d7d4013	0.061828684

value.4.weight f4 [1, 32]
0	0xbd2df491	-0.042469565
1	0xbd258252	-0.040407486
2	0xbcfe8e76	-0.03107379
3	0xbda51752	-0.080610886
4	0xbd8bba47	-0.06822639
5	0x3d1763c0	0.036960363
6	0xbd30069d	-0.042975057
7	0xbd183f9f	-0.03717005
8	0xbd41a29d	-0.04727422
9	0x3da5dae8	0.08098394
10	0xbd20ab3e	-0.03922581
11	0x3d5574cd	0.052113343
12	0x3d377c60	0.044796348
13	0xbcf21adc	-0.029553823
14	0x3dbc49ec	0.09193787
15	0x3dc4d3c2	0.09610702
16	0x3da2dc20	0.07952142
17	0x3d9c419c	0.076297015
18	0x3d95fb7c	0.073233575
19	0xbd6ee385	-0.05832245
20	0xbe427112	-0.18988445
21	0xbe0f9e04	-0.14025122
22	0x3d7bea15	0.061502535
23	0xbd1e2bdb	-0.038616043
24	0xbce8edf1	-0.028433772
25	0x3d640bf2	0.055675454
26	0xbcf48adf	-0.029851375
27	0x3d120246	0.0356467
28	0x3dc6b5bc	0.09702632
29	0x3d18cfdc	0.037307605
30	0x3e89349c	0.2679795
31	0x3da010cd	0.078157045

value.0.weight f4 [32, 20]
0	0xbd1cfd6e	-0.038327627
1	0xbb9401dd	-0.0045168237
2	0xbdaee62e	-0.08539997
3	0x3d7a145c	0.061054572
4	0x3c4f7711	0.012662665
5	0xbde01d4d	-0.10943089
6	0x3d8eb36c	0.06967816
7	0xbe5782d0	-0.21045995
8	0xbdd9bf04	-0.106321365
9	0xbdcbed72	-0.099573985
10	0xbdda8ccb	-0.106713854
11	0x3d9cde29	0.07659561
12	0x3deb8f31	0.11501921
13	0xbd2f86c1	-0.04285312
14	0xbe8250ee	-0.2545237
15	0xbcc6f471	-0.02428648
16	0xbe2e3018	-0.17010534
17	0xbd391676	-0.045187436
18	0xbececdeb	-0.40391478
19	0xbe4cda2b	-0.200051
20	0x3e446c37	0.19181906
21	0xbd9262d1	-0.07147754
22	0x3e00610a	0.12537017
23	0xbe8cf529	-0.27530792
24	0xbcfe87ff	-0.031070707
25	0xbeab2f3a	-0.33434469
26	0x3d6ecceb	0.058300894
27	0x3dce6b4f	0.10079061
28	0x3d43800c	0.047729537
29	0xbdce4429	-0.10071594
30	0x3e29bac9	0.16575159
31	0xbcc213b3	-0.023691034
32	0x3e0fe230	0.14051127
33	0xbdebeb56	-0.11519496
34	0xbe89993d	-0.26874724
35	0x3db28ae2	0.08717896
36	0x3e013fd4	0.12622005
37	0xbe10cedb	-0.14141409
38	0xbecd6972	-0.4011951
39	0x3ef9e22a	0.48805362
40	0xbd83d500	-0.06437111
41	0x3c92d954	0.017925896
42	0x3d911063	0.07083204
43	0xbd1f6883	-0.03891803
44	0x3e08c953	0.13358049
45	0x3d3a86d3	0.045538735
46	0xbdf0c8f2	-0.11757077
47	0x3e2237af	0.15841554
48	0x3e307dcc	0.17235488
49	0x3d413d21	0.047177438
50	0x3d03c342	0.032168634
51	0x3e1b7b65	0.1518379
52	0xbe0f2f64	-0.13982922
53	0x3d912f6a	0.07089122
54	0x3e8817f4	0.26580775
55	0x3e22524f	0.1585171
56	0x3aab89db	0.0013087349
57	0xbd710aa3	-0.058848035
58	0x3fb72ac2	1.4309924
59	0x3f214e4a	0.63010085
60	0x3d997b3a	0.07494207
61	0xbdb1959e	-0.08671115
62	0x3ee22d3b	0.44175133
63	0x3e3c9d74	0.18419439
64	0x3dd8209b	0.10553094
65	0x3d6cf79b	0.057853322
66	0xbdeea9a0	-0.11653447
67	0xbd61e01e	-0.055145375
68	0x3e8061e8	0.25074697
69	0xbc103289	-0.008801111
70	0x3db68dc4	0.089137584
71	0x3c280a3d	0.010256347
72	0xbd2f3c8c	-0.04278235
73	0xbe56410b	-0.2092325
74	0xbdf521cd	-0.119693376
75	0x3e4b35a2	0.19844678
76	0xbdaa55c7	-0.08317142
77	0xbdcd0b13	-0.10011878
78	0x3e9d7b5a	0.30758172
79	0x3e9765b7	0.2956979
80	0xbdf032d0	-0.11728442
81	0xbd2bbf72	-0.041930623
82	0xbdbcb283	-0.09213736
83	0xbd87fddb	-0.06640216
84	0xbd618e36	-0.055067264
85	0xbcc9a953	-0.024616873
86	0x3d8aae80	0.067715645
87	0xbdc57dbf	-0.09643125
88	0x3bc7f00e	0.006101615
89	0xbd9580a3	-0.07299926
90	0xbe1ad170	-0.15118957
91	0xbe0d0a2e	-0.13773414
92	0xbd8c3ffd	-0.06848142
93	0xbd160832	-0.03662891
94	0x3e64adfa	0.22331992
95	0x3da7aa2d	0.08186755
96	0xbe151447	-0.14558516
97	0x3e32082b	0.17385928
98	0x4014fba2	2.3278584
99	0xbecd071e	-0.40044492
100	0x3e40c352	0.18824509
101	0xbdfad9f8	-0.122486055
102	0x3e31a386	0.17347535
103	0xbdcfbeba	-0.101438
104	0xbba89666	-0.005144882
105	0xbd67efc5	-0.056625146
106	0xbdb43179	-0.08798499
107	0x3e0aa2ef	0.13538717
108	0xbd13e382	-0.03610564
109	0xbcbe19f0	-0.023205727
110	0xbd13c9c3	-0.036081087
111	0xbe332267	-0.17493592
112	0xbda370fe	-0.07980536
113	0x3da7f515	0.082010426
114	0x3e0f8cf4	0.14018613
115	0xbd99e073	-0.075135134
116	0x3d6a44b0	0.05719441
117	0xbdd768fd	-0.10518072
118	0xc0189645	-2.3841717
119	0x3e7140f1	0.2355993
120	0x3d5a65f3	0.053319883
121	0xbeca778b	-0.3954433
122	0x3e2f5a18	0.17124212
123	0xbdae7ce6	-0.08519916
124	0x3c6532bd	0.013989148
125	0x3c6b2340	0.014351666
126	0x3d4045e2	0.046941645
127	0x3d4fef25	0.050765175
128	0xbb68e760	-0.00355383
129	0xbe813e26	-0.25242728
130	0x3da1e2fa	0.079046205
131	0x3dffdee2	0.124936834
132	0x3d749dfa	0.05972097
133	0x3de9e592	0.1142074
134	0xbd0f3b37	-0.03496858
135	0x3cf212e7	0.029550029
136	0x3d434925	0.047677178
137	0x3e51dcb5	0.2049435
138	0xbea9bbaa	-0.3315099
139	0xbf35aec0	-0.7096977
140	0x3e537eec	0.20653886
141	0xbd137b12	-0.03600604
142	0x3ea28e9c	0.31749427
143	0x3ee41c8b	0.44553027
144	0x3e161ad7	0.14658676
145	0xbe0b019d	-0.13574834
146	0xbc0a9e26	-0.008460557
147	0x3d6e4e5e	0.058180206
148	0xbe9fc73f	-0.312067
149	0xbc97f974	-0.018551566
150	0x3dc7d57b	0.09757515
151	0xbe239242	-0.15973762
152	0x3e934260	0.28761578
153	0x3e126603	0.14296727
154	0xbde99d01	-0.11406899
155	0x3bd0ff35	0.0063780793
156	0xbe1e37e2	-0.15451005
157	0x3e4f2fca	0.20233074
158	0x3f64ea9a	0.89420474
159	0xbdd84550	-0.10560095
160	0x3d88f80b	0.066879354
161	0x3da8bbfa	0.08238979
162	0xbd62dc82	-0.055386074
163	0xbdabe2e0	-0.08392882
164	0x3d3f4ac9	0.04670218
165	0x3c9c9c18	0.0191174
166	0xbd7602a4	-0.060061112
167	0xbda71309	-0.081579275
168	0x3c9ff46e	0.019525733
169	0xbd40434f	-0.04693919
170	0xbcd34585	-0.025789985
171	0xbdc7fbce	-0.09764825
172	0xbd0b74d3	-0.03404696
173	0xbe27fe62	-0.16405633
174	0x3cfb89d9	0.03070538
175	0x3ea68d70	0.32529783
176	0xbe09426f	-0.13404249
177	0x3e03c4fc	0.12868112
178	0x3fbe22b3	1.4854339
179	0x3f0a540b	0.5403449
180	0x3e646ba5	0.22306688
181	0xbdad94c7	-0.08475643
182	0x3eabea0c	0.33577
183	0x3eae0fe6	0.33996505
184	0xbe0ac68d	-0.13552304
185	0x3cd20e21	0.025641503
186	0xbbdbb157	-0.00670449
187	0x3c8e0562	0.017336551
188	0x3dd4fd11	0.10399831
189	0x3cdc2ea1	0.026877703
190	0xbddd621b	-0.10809728
191	0x3e39ba18	0.18137395
192	0xbe126b66	-0.14298782
193	0x3d4b22de	0.0495938
194	0xbe382c2a	-0.17985597
195	0xbdd511ea	-0.104038075
196	0x3e40ecb2	0.18840292
197	0x3e2b30a6	0.16717777
198	0x40181148	2.3760548
199	0xbb9aa946	-0.004719886
200	0x3c18b326	0.009320056
201	0xbdc977a2	-0.09837271
202	0x3dcf8b64	0.101340085
203	0x3e32e850	0.17471433
204	0xbe31ff9a	-0.1738266
205	0x3dae0064	0.08496168
206	0x3d9bd9b3	0.07609882
207	0xbd958f8e	-0.073027715
208	0xbda64f53	-0.08120599
209	0xbdc69e16	-0.09698121
210	0xbd4d2407	-0.050083186
211	0xbe40367d	-0.18770786
212	0xbaf70c5e	-0.001884829
213	0xbcecb63f	-0.028895495
214	0xbc898797	-0.016788287
215	0xbe71ea94	-0.2362464
216	0xbbdbaae2	-0.0067037204
217	0xbc0b53ab	-0.008503835
218	0xbf6b4064	-0.9189513
219	0x3cdd1051	0.02698532
220	0x3c050ad7	0.00812026
221	0xbe97b121	-0.29627326
222	0xbc1467d5	-0.009057959
223	0xbcfa0db4	-0.030524112
224	0xbc251fe3	-0.010078403
225	0xbb6f05df	-0.0036472005
226	0xbc32ef6d	-0.010921341
227	0x3ce051d5	0.02738277
228	0x3e00f376	0.12592873
229	0x3d9489c7	0.072528414
230	0xbe393df1	-0.18090035
231	0x3e4d724f	0.20063137
232	0x3e007db9	0.1254796
233	0x3eb793e2	0.35855013
234	0xbe03c929	-0.12869705
235	0x3e2b4747	0.16726409
236	0x3e380e59	0.17974223
237	0xbe62c623	-0.22145896
238	0xbedbad25	-0.42905536
239	0xbf8d7636	-1.10517
240	0xbd1beeaf	-0.038069423
241	0x3c16a848	0.009195395
242	0x3e4da2cf	0.20081638
243	0xbe4e5ee1	-0.20153381
244	0xbe17aa96	-0.14811167
245	0xbe37fd31	-0.17967679
246	0xbb451dae	-0.0030077505
247	0x3db05346	0.08609633
248	0xbb9daff7	-0.0048122364
249	0x3dc7ed09	0.09762008
250	0xbe07fcc5	-0.13280018
251	0xbcfbddb0	-0.030745357
252	0xbd94feda	-0.072751716
253	0x3d33bc91	0.043881003
254	0xbd745d91	-0.059659544
255	0x3dc7d467	0.097573094

value.0.bias f4 [32]
0	0x3e18cdc5	0.14922245
1	0xbd91622d	-0.07098804
2	0x3d299b86	0.041408084
3	0xbdb9bdc8	-0.09069401
4	0xbc2e7dd1	-0.010650114
5	0xbd973122	-0.07382418
6	0xbd6d1b87	-0.05788758
7	0xbe55d00d	-0.20880146
8	0xbdcbd8d1	-0.09953464
9	0xbd0b1259	-0.033953045
10	0xbe818ad3	-0.25301227
11	0x3cf7bd67	0.030241681
12	0xbe50418f	-0.20337509
13	0x3dc6c1a9	0.097049065
14	0x3df638c2	0.120225444
15	0xbd7b393c	-0.06133388
16	0x3d8f743a	0.0700459
17	0xbdaae50d	-0.08344469
18	0xbe3cef0d	-0.18450566
19	0xbd937cf4	-0.07201567
20	0x3d8db448	0.069191515
21	0xbe72db51	-0.23716475
22	0xbcc845fe	-0.024447437
23	0xbc2f47b4	-0.010698248
24	0x3e33d738	0.17562568
25	0x3e564f8f	0.20928787
26	0xbe72c770	-0.23708892
27	0xbe11e0f7	-0.14245974
28	0xbd1d51be	-0.038408034
29	0x3d20dd9c	0.039273843
30	0x3e17a8cc	0.14810485
31	0xbe197b24	-0.1498838

value.2.weight f4 [32, 32]
0	0x3c01a4c6	0.00791282
1	0xbd5151f4	-0.051103547
2	0xbe093e37	-0.1340264
3	0xbe38e8dc	-0.18057579
4	0x3d83d45f	0.06436991
5	0x3d6fd248	0.05855015
6	0xbc2a56a7	-0.010396636
7	0x3d456e18	0.048200697
8	0xbc9a307a	-0.018821944
9	0x3b0a502c	0.0021104915
10	0x3db1201e	0.08648704
11	0xbe0cd05a	-0.13751355
12	0x3d066bdb	0.032817703
13	0x3e028837	0.12747274
14	0x3e2ece07	0.1707078
15	0x3da41f9d	0.08013842
16	0x3e086ef0	0.1332357
17	0xbd26a735	-0.040686805
18	0x3de59bb8	0.112113416
19	0xba51e8eb	-0.0008007425
20	0xbdeb9087	-0.11502176
21	0x3e6cbcf5	0.23118956
22	0x3d0401f3	0.03222842
23	0xbccb3f4e	-0.02481046
24	0xbcd4d9b5	-0.025982717
25	0xbd983907	-0.07432752
26	0xbe5d8ac5	-0.21634968
27	0xbd79f63d	-0.061025847
28	0x3dc18ce9	0.094507046
29	0xbcdb4651	-0.026766928
30	0x3c4277b0	0.011869356
31	0xbdb3fae8	-0.08788091
32	0x3d61d584	0.055135265
33	0xbd4e16f6	-0.050314866
34	0x3ce13236	0.027489763
35	0xbdb78a98	-0.089619815
36	0x3e125289	0.14289297
37	0xbd7c15d2	-0.061544247
38	0x3e0de526	0.13856944
39	0x3d9de921	0.077104814
40	0xbcd9cd96	-0.026587289
41	0x3dadee41	0.08492709
42	0x3cd943ad	0.026521528
43	0xbd8b39dc	-0.06798145
44	0xbe138edb	-0.14409964
45	0xbe0ba88f	-0.13638519
46	0x3ce22fb5	0.02761064
47	0x3e07073d	0.13186355
48	0x3da25e16	0.07928102
49	0xbeb2fc8a	-0.34958297
50	0x3abe5f87	0.0014524319
51	0x3d82f6e7	0.06394749
52	0x3d92146b	0.07132801
53	0xbd8dfa0e	-0.0693246
54	0x3e2fcb32	0.17167357
55	0x3c948b99	0.018132972
56	0xbdea2ff6	-0.11434929
57	0x3def3117	0.11679285
58	0xbd4853a7	-0.048907902
59	0xbcd11f83	-0.025527721
60	0xbe3020e1	-0.17200042
61	0xbb5aab06	-0.0033366098
62	0xbe6e94d3	-0.2329896
63	0xbdd60aac	-0.10451254
64	0xbe08f92d	-0.13376303
65	0xbe2d247f	-0.16908453
66	0xbde696fe	-0.11259268
67	0x3dea5abc	0.114430875
68	0x3e1a16a7	0.15047704
69	0x3e2473b8	0.16059768
70	0xbdb1c793	-0.08680644
71	0xbe5d860a	-0.21633163
72	0x3da90c29	0.082542725
73	0xbe09e8e6	-0.1346775
74	0xbe397949	-0.18112673
75	0x3dab8a5e	0.08376001
76	0x3d756dd4	0.059919193
77	0xbd1a6075	-0.037689645
78	0xbdc84598	-0.09778899
79	0x3dbee2dd	0.093206145
80	0xbd62ea59	-0.055399273
81	0xbd967087	-0.07345682
82	0x3e3e6571	0.18593384
83	0x3dbfcefc	0.09365651
84	0xbe161f96	-0.14660487
85	0xbdff61ab	-0.124698006
86	0x3d001a91	0.031275336
87	0xbb26520a	-0.002537849
88	0x3da0effc	0.078582734
89	0xbd340294	-0.04394777
90	0xbc8a5915	-0.01688818
91	0x3e07b32e	0.13251945
92	0x3c93e34c	0.01805272
93	0x3d33f1b0	0.043931663
94	0x3cc6fbda	0.024290014
95	0xbda04825	-0.078262605
96	0x3da3c84c	0.07997188
97	0x3cdd23a7	0.02699454
98	0xbebab305	-0.36464706
99	0x3e902c81	0.28158954
100	0xbe094988	-0.13406956
101	0x3e843706	0.2582323
102	0xbf97654a	-1.1827786
103	0xbe511ec3	-0.20421891
104	0xbe6d93d6	-0.23200926
105	0xbe3c7888	-0.18405354
106	0xbd3054a5	-0.043049473
107	0xbe02ac05	-0.12760933
108	0xbe7eb7fd	-0.24874873
109	0xbd3ecd88	-0.04658273
110	0xbd2d14c2	-0.042256124
111	0xbdf6d8b2	-0.1205305
112	0x3e0ea0b6	0.13928494
113	0x3e785534	0.24251252
114	0x3c2993c2	0.01035017
115	0x3d466662	0.048437484
116	0xbe2da315	-0.16956742
117	0xbe5c7dcc	-0.21532363
118	0x3dbd0a77	0.09230512
119	0xbd8d84ca	-0.06910093
120	0x3e82bb91	0.25533727
121	0x3e1d537d	0.1536388
122	0xbaf8a8b4	-0.0018971176
123	0x3de90196	0.113772556
124	0xbdf4d4cf	-0.119546525
125	0xbda5410a	-0.08069046
126	0x3dfdc0be	0.12390278
127	0xbd3af1d5	-0.045640785
128	0x3dab1b38	0.08354801
129	0x3dfdfab3	0.12401333
130	0xbda2020f	-0.07910549
131	0xbd8712fa	-0.06595416
132	0xbdc0fb77	-0.09422963
133	0x3e4d6d9f	0.20061348
134	0xbe7fd893	-0.2498496
135	0xbf81f376	-1.0152423
136	0x3cc9cbf5	0.024633387
137	0xbe11b3ed	-0.14228792
138	0xbd498212	-0.04919631
139	0x3e308f38	0.17242134
140	0xbe36a13e	-0.17834947
141	0xbc083cb8	-0.008315258
142	0x3e2aff6f	0.16699003
143	0xbc1fd090	-0.009754315
144	0xbe40f65c	-0.18843979
145	0xbc50902c	-0.012729686
146	0x3ccaa99b	0.024739077
147	0x3e12ba8f	0.14328979
148	0xbd2d990d	-0.04238229
149	0x3b3d50c5	0.0028887254
150	0xbe54504d	-0.20733757
151	0x3d0dcfce	0.034622006
152	0xbdb14ecc	-0.086576074
153	0x3d10509c	0.035233125
154	0xbd8f93ae	-0.070105895
155	0xbe703a5f	-0.23459767
156	0xbdd0de5b	-0.10198661
157	0xbd2f9b5c	-0.04287277
158	0xbe0d21b9	-0.13782395
159	0x3df7d4a7	0.12101107
160	0x3c343ffa	0.011001581
161	0xbd7dc6c0	-0.06195712
162	0xbdf4378e	-0.11924659
163	0xbde67e73	-0.11254587
164	0x3d05fdd6	0.03271278
165	0x3b00b79d	0.0019640692
166	0xbe1a4d40	-0.15068531
167	0x3cb3e326	0.021958899
168	0x3d93fa06	0.072254226
169	0xbda0fdb4	-0.0786089
170	0xbc9b9207	-0.01899053
171	0x3e1f6e10	0.1556933
172	0xbe107063	-0.14105372
173	0x3d99bf18	0.07507151
174	0x3de47341	0.111547954
175	0x3df5ac99	0.11995811
176	0x3e212e27	0.15740262
177	0xbe0b413b	-0.13599102
178	0x3ccf92c4	0.025338538
179	0x3e17bc28	0.1481787
180	0xbe08e505	-0.13368614
181	0xbdefa257	-0.11700886
182	0x3da518e2	0.08061387
183	0xbdb18be0	-0.08669257
184	0x3bd31be6	0.0064425347
185	0xbe97a444	-0.29617512
186	0xbe0b5cfc	-0.1360969
187	0xbd8901f9	-0.066898294
188	0x3da3155b	0.079630576
189	0x3e225ef9	0.15856542
190	0x3d75f7b6	0.06005069
191	0xbb342c29	-0.0027492142
192	0xbcebfd19	-0.02880721
193	0x3d339584	0.04384376
194	0xbbcaa4f7	-0.006184216
195	0xbd8df46c	-0.069313854
196	0x3e1cacbb	0.15300266
197	0xbe9e6802	-0.30938727
198	0xbee8767f	-0.45402905
199	0x3e95ac49	0.29233006
200	0xbe15fae1	-0.14646484
201	0xbcd59de6	-0.026076268
202	0xbe02ef77	-0.12786661
203	0xbd043873	-0.032280397
204	0x3db83fab	0.08996519
205	0xbe0e7198	-0.1391052
206	0xbcda68b2	-0.02666125
207	0x3d98ce8d	0.074612714
208	0xbd881c9f	-0.06646084
209	0xbea6530f	-0.32485244
210	0x3d85ee2a	0.06539567
211	0xbd6343a1	-0.055484418
212	0x3d4cc788	0.049994975
213	0x3e619d07	0.22032557
214	0x3d68e488	0.05685857
215	0x3ca44840	0.020053983
216	0xbd61b659	-0.05510554
217	0x3c0de293	0.008659977
218	0x3e037507	0.12837611
219	0xbc06f5f6	-0.008237353
220	0x3dab7122	0.08371188
221	0x3d15d59e	0.036580674
222	0x3eb45544	0.35221303
223	0x3c17673b	0.009240921
224	0xbcb4e47d	-0.022081608
225	0xbd1ee910	-0.038796484
226	0xbd9621e0	-0.0733068
227	0xbe1e340e	-0.15449545
228	0x3cfe216b	0.031021794
229	0x3e27eb30	0.1639831
230	0xbd883acf	-0.06651842
231	0x3d065313	0.03279407
232	0xbd805bac	-0.06267485
233	0x3dcca86b	0.09993061
234	0xbb8e6c4a	-0.004346405
235	0x3dc3b13f	0.095552914
236	0xbd828935	-0.063738264
237	0x3e24ff39	0.16112985
238	0x3dd2cf65	0.102934636
239	0x3c21b440	0.009869635
240	0x3d01938f	0.031634863
241	0xbd28152d	-0.04103582
242	0xbda39e9b	-0.07989236
243	0x3e01ff9b	0.12695162
244	0xbe83b6eb	-0.25725493
245	0x3cefc51b	0.029268792
246	0x3d0855d5	0.03328498
247	0x3e242f46	0.16033658
248	0x3e23eb1b	0.16007654
249	0xbe493f91	-0.19653155
250	0xbe0a18e0	-0.13486052
251	0xbde9fabb	-0.11424776
252	0xbb142394	-0.0022604214
253	0xbc97a6bf	-0.018512128
254	0x3e0201cf	0.12696002
255	0x3ddad365	0.106848516

value.2.bias f4 [32]
0	0xbdb643e5	-0.088996686
1	0x3e488f8a	0.19586006
2	0x3c742d0e	0.01490332
3	0x3a4c4263	0.0007791875
4	0x3dbdba98	0.092641056
5	0xbddea771	-0.10871781
6	0x3e140d3b	0.14458172
7	0x3d980776	0.07423298
8	0x3e071fab	0.13195674
9	0x3deecb16	0.11659829
10	0x3e8f7918	0.28022075
11	0x3df01b0c	0.11723909
12	0xbe924821	-0.28570655
13	0x3e13cbc8	0.14433205
14	0xbe2329f7	-0.15933977
15	0x3a97ed02	0.001159102
16	0xbd8aa746	-0.06770186
17	0x3e0d159e	0.13777778
18	0xbdd1c2a6	-0.10242204
19	0x3d0e2a5c	0.034708366
20	0xbd881728	-0.06645042
21	0xbe89c85e	-0.2691068
22	0xbd1d45ea	-0.038396753
23	0x3d28669f	0.041113492
24	0x3e79c8ed	0.24393053
25	0xbdf40b25	-0.11916188
26	0x3dac077d	0.08399866
27	0xbe19cd05	-0.15019615
28	0xbe8ac948	-0.2710669
29	0xbe12fc4d	-0.14354058
30	0xbd9a9275	-0.07547466
31	0x3d7e1021	0.0620271

value.4.weight f4 [1, 32]
0	0xbd2bc70d	-0.041937876
1	0xbd24f359	-0.040271137
2	0xbcff191c	-0.031139903
3	0xbda612de	-0.081090674
4	0xbd8b1d88	-0.06792742
5	0x3d10b593	0.035329413
6	0xbd2d0946	-0.042245172
7	0xbd18be91	-0.037291113
8	0xbd416cee	-0.047223024
9	0x3da358f2	0.07975949
10	0xbd1f9f41	-0.038970236
11	0x3d5250e4	0.051346675
12	0x3d36fa7e	0.04467248
13	0xbcf12396	-0.029435914
14	0x3dc2335f	0.094824545
15	0x3dc75532	0.097330466
16	0x3da08c1e	0.07839225
17	0x3d9f2c32	0.077721015
18	0x3d969f29	0.07354576
19	0xbd6f5ac6	-0.058436178
20	0xbe431931	-0.19052579
21	0xbe119105	-0.14215477
22	0x3d7cf620	0.06175816
23	0xbd27d833	-0.040977668
24	0xbce7aa3a	-0.028279413
25	0x3d67a37f	0.056552406
26	0xbcf5cc3f	-0.030004619
27	0x3d10de99	0.035368536
28	0x3dc553a8	0.09635097
29	0x3d18f133	0.0373394
30	0x3e88b6c9	0.26701954
31	0x3d9efc56	0.07762973

actor.0.weight f4 [32, 18]
0	0xbee57fba	-0.4482401
1	0xbd81e031	-0.06341589
2	0x3e1e0737	0.1543244
3	0x3d3ecc60	0.046581626
4	0x3dbc6b45	0.092001475
5	0x3ed33e29	0.41258362
6	0xbe5ce20a	-0.21570602
7	0x3eaa0010	0.33203173
8	0x3ebb4828	0.36578488
9	0xbd5ae9de	-0.05344569
10	0x3d796f24	0.060897008
11	0x3d60eb78	0.05491206
12	0xbdc4388e	-0.095810995
13	0x3eb8de23	0.36106977
14	0x3e99dbb8	0.30050445
15	0x3ead89ce	0.338942
16	0x3e536363	0.20643382
17	0xbde1cb8e	-0.11025153
18	0xbee4650f	-0.44608352
19	0xbeaa1eb9	-0.33226565
20	0x3de49779	0.111617036
21	0x3d458356	0.048220955
22	0x3efad1ca	0.4898818
23	0x3e220bc4	0.158248
24	0xbe00d1d6	-0.12580046
25	0x3cde2e46	0.027121674
26	0xbeb246c2	-0.3481961
27	0x3e13d9d8	0.1443857
28	0xbe09ccff	-0.13457106
29	0xbd989cf9	-0.07451815
30	0xbe8fc7e8	-0.28082204
31	0x3e212da3	0.15740065
32	0x3c028bcf	0.007967903
33	0x3e55d0b0	0.20880389
34	0x3d99b536	0.07505266
35	0xbdb3d32d	-0.08780513
36	0xbeb4b2f9	-0.35292795
37	0x3f2adfe1	0.6674786
38	0x3c8fd3b5	0.017557004
39	0xbe5e8b03	-0.21732716
40	0x3ca70210	0.020386726
41	0x3e466809	0.19375624
42	0xbe19a0cb	-0.15002744
43	0x3c0001dd	0.007812944
44	0xbe9c6629	-0.30546692
45	0x3e5c2a6d	0.21500559
46	0xbe301d98	-0.17198789
47	0xbdb5dac4	-0.08879617
48	0xbe6bb6f3	-0.23019008
49	0xbefeda60	-0.49775982
50	0x3d9a7976	0.07542698
51	0x3ddc030c	0.10742769
52	0x3d683381	0.056689743
53	0x3e6ca994	0.23111564
54	0xbe3ccdeb	-0.18437926
55	0x3e56ac13	0.20964079
56	0xbdc0596a	-0.093920544
57	0xbde74af0	-0.1129359
58	0xbd521c0c	-0.05129628
59	0x3e2ebf6d	0.1706521
60	0x3e4a5fed	0.19763155
61	0xbe8c137e	-0.2735862
62	0xbd478000	-0.048706055
63	0xbe3d6139	-0.18494119
64	0xbe925cf1	-0.28586534
65	0xbe27bdf1	-0.1638105
66	0xbec0f913	-0.3769003
67	0xbf1322e7	-0.5747513
68	0x3d0e688d	0.034767676
69	0x3d8c48a1	0.0684979
70	0xbced644d	-0.028978491
71	0x3e4eb75c	0.20187134
72	0xbe2bf265	-0.16791685
73	0xbe8c5e0e	-0.27415508
74	0x3dbd2639	0.09235806
75	0x3e3b8f22	0.1831632
76	0x3eb34d86	0.35020083
77	0xbea188f7	-0.31549808
78	0xbe9f632e	-0.31130356
79	0xbe0bfe1c	-0.13671154
80	0x3e3a8d66	0.18218002
81	0x3ef236ef	0.47307536
82	0xbdb4a689	-0.088208266
83	0xbe12f73b	-0.14352123
84	0xbd727ddc	-0.05920206
85	0x3e1353c7	0.14387427
86	0xbe7c3ee2	-0.24633363
87	0x3d2d7f5b	0.042357784
88	0xbd4426fc	-0.04788874
89	0xbe198b37	-0.14994512
90	0x3e879772	0.2648273
91	0x3e23c239	0.15992059
92	0x3dd3208d	0.10308943
93	0xbdda00a7	-0.10644656
94	0x3e9a67be	0.30157274
95	0xbc69d970	-0.014273033
96	0x3dfa344e	0.122170076
97	0xbd1ae47c	-0.037815556
98	0x3d70f1b9	0.058824275
99	0xbec6f93c	-0.38862026
100	0xbddd5fc3	-0.10809281
101	0xbd9f5d71	-0.077814944
102	0x3cb4a7f4	0.022052743
103	0xbe9c9e6b	-0.30589613
104	0x3e52e68e	0.20595762
105	0x3e9bfc36	0.3046586
106	0x3e37ebac	0.17960995
107	0x3e991a8c	0.29903066
108	0xbe9da97d	-0.30793372
109	0xbe8b087d	-0.27154914
110	0x3e594995	0.21219476
111	0xbdbd08a3	-0.09230163
112	0xbe6edc94	-0.23326331
113	0xbeead2a8	-0.45863843
114	0x3e44bad6	0.19211897
115	0xbed62ed8	-0.41832614
116	0x3e04799d	0.12937017
117	0xbedea083	-0.43481836
118	0x3e35cf65	0.17754896
119	0xbe1be457	-0.15223823
120	0x3cfc4357	0.030793829
121	0x3d804f75	0.06265155
122	0xbd0caf13	-0.03434665
123	0x3d808d57	0.062769584
124	0x3c3a8477	0.011384121
125	0x3bed9261	0.0072501157
126	0x3dc4dca3	0.096123956
127	0xbde820fd	-0.11334417
128	0xbc5a407f	-0.013321041
129	0x3dff8632	0.124767676
130	0x3edfef5f	0.43737313
131	0xbd086ebf	-0.03330874
132	0xbe977f22	-0.29589182
133	0xbd5d7d12	-0.054074354
134	0xbefb0758	-0.4902904
135	0x3cc662a0	0.02421695
136	0x3d51a71b	0.051184755
137	0x3e371abe	0.17881295
138	0x3e17db9e	0.14829871
139	0x3e59b774	0.21261388
140	0xbe2f399a	-0.17111817
141	0xbd51862d	-0.05115335
142	0x3d1877f2	0.037223764
143	0xbe0daffa	-0.13836661
144	0xbd592b9d	-0.05302011
145	0xbcec8dbd	-0.02887618
146	0xbe771c76	-0.2413195
147	0x3e5ae8e4	0.21377903
148	0x3b500835	0.0031743173
149	0x3e320485	0.17384537
150	0xbd8bfcf8	-0.06835359
151	0xbe047df8	-0.12938678
152	0xbe46e371	-0.194227
153	0xbdca7b3e	-0.09886788
154	0x3ef21c3b	0.47287163
155	0x3e436265	0.19080503
156	0x3e67a701	0.226223
157	0xbe58b51f	-0.21162842
158	0xbcf0835b	-0.02935951
159	0xbe5dc63d	-0.21657653
160	0xbe574d51	-0.21025588
161	0x3e40c1c4	0.18823916
162	0xbe2d9248	-0.16950333
163	0xbe6d1f6e	-0.2315652
164	0x3db38441	0.0876546
165	0x3e193691	0.14962222
166	0x3e8244ef	0.25443217
167	0x3bcf1e0d	0.006320721
168	0x3d015a10	0.03158003
169	0x3cdf6441	0.027269484
170	0x3d866138	0.06561512
171	0xbedb25fc	-0.42802417
172	0x3da08981	0.07838727
173	0x3ddca239	0.10773129
174	0x3db0a431	0.08625067
175	0x3ee88002	0.45410162
176	0x3c75512e	0.014972968
177	0x3e8ed7fe	0.27899164
178	0x3e8e6634	0.2781235
179	0xbe698e6a	-0.22808233
180	0xbe85968e	-0.26091427
181	0xbf0dd08d	-0.5539635
182	0x3e2e168b	0.17000787
183	0xbce4a495	-0.02791051
184	0xbe8b98ed	-0.2726511
185	0xbc98faa1	-0.018674197
186	0xbe271a97	-0.16318737
187	0xbe02017a	-0.12695876
188	0x3e862a0c	0.26203954
189	0xbd057f65	-0.032592196
190	0x3e678d91	0.22612597
191	0x3d7d96d9	0.061911438
192	0xbcff6bf5	-0.031179408
193	0xbd62604f	-0.05526763
194	0x3df96f96	0.121794865
195	0xbd1ed923	-0.038781296
196	0x3ca91d97	0.020643992
197	0xbe89b559	-0.2689617
198	0xbe6821e9	-0.22669186
199	0xbe38eb05	-0.18058403
200	0xbe967af8	-0.29390693
201	0x3d73abd1	0.05949003
202	0x3e0401d7	0.12891327
203	0xbeb13cf1	-0.34616807
204	0xbe1040a6	-0.14087161
205	0xbebe5672	-0.37175328
206	0x3ef2b2d7	0.4740207
207	0xbec35b01	-0.38155368
208	0x3e985271	0.29750398
209	0xbdcbc418	-0.09949511
210	0xbddbe1d2	-0.10736431
211	0x3cd4ed92	0.025992189
212	0xbdcc56be	-0.09977482
213	0x3d50067a	0.050787427
214	0xbe3c05cf	-0.18361591
215	0x3d6f8110	0.058472693
216	0xbdf139cf	-0.11778604
217	0xbe22f2d5	-0.15912946
218	0xbe4e7125	-0.20160349
219	0xbd9474c7	-0.07248836
220	0x3eccc42d	0.3999342
221	0x3d54ea75	0.05198141
222	0xbe80630a	-0.2507556
223	0xbcddc3be	-0.027070876
224	0xbea67511	-0.3251119
225	0xbeb9bbd5	-0.36276117
226	0x3ea9df81	0.33178332
227	0x3e4d94be	0.20076272
228	0xbd8188e0	-0.06324935
229	0xbea2b774	-0.3178059
230	0x3d1fa684	0.03897716
231	0xbc059e55	-0.008155425
232	0x3debc5c1	0.11512328
233	0xbd78e2c3	-0.06076313
234	0xbdfac0ec	-0.12243828
235	0xbdf9610d	-0.12176714
236	0xbe7168cd	-0.23575135
237	0x3e2c19bb	0.1680669
238	0xbecd0d8a	-0.40049392
239	0xbd584484	-0.052799717
240	0x3ec41fd8	0.38305545
241	0xbe3a091e	-0.1816754
242	0xbd580661	-0.05274046
243	0x3e708d3c	0.23491377
244	0x3e209ea0	0.1568551
245	0x3da6f5a7	0.08152323
246	0x3e6906c4	0.22756487
247	0x3e5211f5	0.20514663
248	0xbe30bd21	-0.17259647
249	0x3e315783	0.1731854
250	0x3d3d2b3f	0.04618382
251	0x3deaa492	0.114571705
252	0xbe764406	-0.24049386
253	0xbcdb10d9	-0.026741432
254	0x3e1d8be7	0.153854
255	0xbe00afc6	-0.12567052

actor.0.bias f4 [32]
0	0x3e440aa5	0.19144686
1	0x3deb3b5c	0.11485931
2	0x3da40542	0.08008815
3	0x3de19512	0.11014761
4	0x3c0568c7	0.008142657
5	0xbe945775	-0.28972974
6	0xbd7111ad	-0.058854748
7	0xbe8860ea	-0.2663644
8	0xbde60efb	-0.11233326
9	0xbb0214c1	-0.0019848796
10	0xbd21a662	-0.039465316
11	0xbd7ce7f2	-0.061744638
12	0x3e17093f	0.14749621
13	0xbde6a054	-0.11261049
14	0xbd2e3b8c	-0.042537257
15	0x3e11e290	0.14246583
16	0xbb5fae4b	-0.0034130986
17	0xbe101556	-0.14070639
18	0xbd9e5a5c	-0.077320784
19	0x3e589f70	0.2115457
20	0xbc5f0af1	-0.0136134485
21	0xbdaf0c6f	-0.085472934
22	0xbcae8fd4	-0.021308817
23	0xbd1cf504	-0.038319603
24	0x3d6a6f8e	0.057235293
25	0xbdbbc112	-0.091676846
26	0x3d806f18	0.062711895
27	0x3e5b3687	0.2140752
28	0x3d2c2df6	0.04203602
29	0x3e751e46	0.2393733
30	0x3e1daaa4	0.15397125
31	0x3dfe9171	0.124300845

actor.2.weight f4 [32, 32]
0	0x3e527d1e	0.20555541
1	0x3db46090	0.0880748
2	0xbe2c9fe5	-0.1685787
3	0xbe61b794	-0.22042686
4	0x3ddbab78	0.107260644
5	0xbe240397	-0.16016994
6	0x3d9d98ac	0.076951355
7	0x3e9fe36b	0.31228194
8	0xbd585377	-0.052813973
9	0x3e3a89fe	0.18216702
10	0xbded635d	-0.11591218
11	0x3dbf10c4	0.0932937
12	0xbe2a1e94	-0.16613227
13	0xbed0b45e	-0.4076261
14	0xbdc7294a	-0.09724672
15	0xbe275c94	-0.1634391
16	0x3c7c1e67	0.015388108
17	0xbea937ef	-0.33050486
18	0x3e9bd807	0.30438253
19	0xbf361f03	-0.7114107
20	0x3e4a565e	0.19759509
21	0x3d7a8d44	0.061169878
22	0xbe5ab0ee	-0.21356556
23	0x3dea48d0	0.11439669
24	0x3e98ee1b	0.2986916
25	0x3da9871d	0.08277724
26	0xbf02e780	-0.5113449
27	0x3ea96037	0.3308122
28	0xbec3cce0	-0.38242245
29	0x3cea9eec	0.028640233
30	0x3e210cf3	0.15727596
31	0x3e3f0561	0.18654396
32	0xbdb60678	-0.088879526
33	0x3d9e62ee	0.07733713
34	0x3be127ce	0.0068712
35	0x3dfc33de	0.123145804
36	0x3d35f0fa	0.044419266
37	0x3eaa4c02	0.33261114
38	0xbe1ce06b	-0.15319984
39	0x3e0a7c1a	0.13523903
40	0xbf1dc7be	-0.6163291
41	0xbea1dd5a	-0.3161419
42	0xbec68169	-0.38770607
43	0xbc52d4ba	-0.012868101
44	0xbce0573d	-0.027385348
45	0x3e91d419	0.2848213
46	0xbcd0c873	-0.025486207
47	0x3dab1fcd	0.08355675
48	0xbe35e15f	-0.17761753
49	0x3e9e12a5	0.308736
50	0xbd6a9204	-0.057268158
51	0x3dfa7365	0.12229041
52	0x3e1c3cf3	0.15257625
53	0xbe2fd7c9	-0.17172159
54	0x3e8d1a70	0.27559233
55	0xbeaff964	-0.34369957
56	0xbd6f8323	-0.05847467
57	0x3e55b9b1	0.20871617
58	0x3d1b5010	0.03791815
59	0x3e9aa031	0.3020034
60	0xbd19625a	-0.03744731
61	0x3e317754	0.17330676
62	0xbe4db772	-0.2008951
63	0xbf31fa9f	-0.6952304
64	0x3eb79821	0.35858253
65	0x3d84345d	0.064553
66	0x3ec0de30	0.37669516
67	0x3e68ac4f	0.2272198
68	0xbd8e3a7b	-0.06944748
69	0xbcb9f3fc	-0.022699349
70	0xbde52b83	-0.1118994
71	0xbe0820bd	-0.13293739
72	0x3ece4507	0.4028704
73	0xbdce3bc8	-0.10069996
74	0xbf35287c	-0.707649
75	0xbe580f3a	-0.21099558
76	0x3dfaf7da	0.12254305
77	0xbecfcc90	-0.40585756
78	0x3deb44b4	0.114877135
79	0x3edcee77	0.43150684
80	0xbe871d3b	-0.2638949
81	0x3e89eaaf	0.26936862
82	0x3e98757d	0.29777136
83	0xbea38195	-0.319348
84	0xbcc81a34	-0.024426557
85	0xbeb2ad7f	-0.34897992
86	0x3d148b43	0.036265623
87	0x3df49b6c	0.11943707
88	0xbd9a00ab	-0.07519659
89	0x3e298fc6	0.16558751
90	0x3e175640	0.14778996
91	0x3e0268bb	0.12735264
92	0xbd96d6c6	-0.073651835
93	0x3e06b36e	0.13154384
94	0xbcb15eb9	-0.021651613
95	0x3f165194	0.5871823
96	0x3ee4246d	0.4455904
97	0xbdf2e6f2	-0.118604556
98	0xbe69e70b	-0.22842042
99	0xbea7fd1b	-0.32810292
100	0x3e460d8d	0.19341107
101	0x3e67a504	0.22621542
102	0x3e2af6e9	0.16695751
103	0xbd40a4d8	-0.047032207
104	0xbc337b35	-0.010954668
105	0x3ea504a3	0.322301
106	0x3e061e35	0.1309746
107	0x3d4cb721	0.049979333
108	0xbe493dcf	-0.19652484
109	0x3daa4c81	0.08315373
110	0x3eb3b8d3	0.35101947
111	0xbd8471bb	-0.06467005
112	0x3ea525e2	0.32255465
113	0xbdb5c075	-0.08874599
114	0x3d7da76f	0.061927255
115	0xbc5ed80b	-0.013601313
116	0x3df5ea20	0.120075464
117	0xbd02b90d	-0.03191476
118	0xbe5e4786	-0.21706972
119	0x3c33ab7f	0.010966181
120	0x3e52d3f8	0.20588672
121	0xbe7839ed	-0.24240847
122	0x3da73e4c	0.08166179
123	0xbd880ace	-0.06642686
124	0xbda32ebd	-0.07967899
125	0xbdcc8268	-0.099858105
126	0x3dbd8452	0.09253754
127	0x3de74af8	0.11293596
128	0xbd56bb3e	-0.05242466
129	0xbcd65433	-0.026163196
130	0xbf1b882e	-0.6075467
131	0xbe1a5762	-0.15072396
132	0x3e82d31a	0.25551683
133	0xbc8b4704	-0.017001636
134	0x3d84082e	0.06446873
135	0xbd6e0ba8	-0.058116585
136	0x3e1efbf5	0.15525801
137	0x3e5bd2a2	0.21467069
138	0x3e2f4deb	0.17119567
139	0xbd8815a7	-0.06644755
140	0x3d9c786b	0.076401554
141	0x3e954aac	0.29158533
142	0xbe4799ba	-0.19492236
143	0xbd7c6fa6	-0.061629914
144	0x3e3cc3cb	0.18434064
145	0xbcecf5d3	-0.028925812
146	0xbec99c86	-0.3937723
147	0x3cf791f2	0.03022096
148	0x3ce0b980	0.027432203
149	0xbe876825	-0.26446643
150	0x3e9cffdf	0.30663964
151	0x3ee2eb5c	0.4432019
152	0xbe6b6968	-0.22989428
153	0x3cce71c2	0.025200728
154	0x3e077f2d	0.13232107
155	0x3e0bfca0	0.13670588
156	0x3eb78ba0	0.35848713
157	0xbea0e434	-0.31424105
158	0xbecf10d1	-0.40442517
159	0xbe82bb6f	-0.25533625
160	0x3d7555a7	0.059896138
161	0xbe9de586	-0.30839175
162	0x3db990ed	0.090608455
163	0x3e8ea7ff	0.27862546
164	0x3ac11e76	0.001473381
165	0xbe7bdfde	-0.24597117
166	0xbcaa4ea1	-0.020789446
167	0xbf228a27	-0.63492054
168	0xbe82aa55	-0.25520578
169	0x3c6eab45	0.014567201
170	0x3e3ef8ad	0.1864955
171	0x3e802e9d	0.25035563
172	0x3dd0486a	0.10170062
173	0xbf4e896e	-0.8067845
174	0xbe8d1d7d	-0.2756156
175	0x3e54281f	0.2071843
176	0xbd06be25	-0.03289618
177	0xbde45ec0	-0.11150885
178	0x3eb09424	0.34488022
179	0x3e2c8dc3	0.16850953
180	0xbcd667bf	-0.026172517
181	0x3e983fac	0.29736078
182	0xbe750890	-0.23929048
183	0xbda25de4	-0.079280645
184	0xbe4fffd4	-0.20312434
185	0xbe58ed92	-0.21184376
186	0xbe066749	-0.13125338
187	0xbe144d8b	-0.14482705
188	0xbe621a2e	-0.220803
189	0x3e7fb751	0.24972273
190	0x3e1f666a	0.15566412
191	0x3eb481ac	0.35255182
192	0x3d7ee104	0.06222631
193	0x3ce58388	0.02801682
194	0x3db07c15	0.08617417
195	0x3beba901	0.0071917777
196	0xbea076b9	-0.31340578
197	0x3e026112	0.12732342
198	0x3e159f02	0.14611438
199	0x3e279b82	0.16367915
200	0x3eeeb745	0.466242
201	0x3c85821b	0.01629739
202	0x3ea89df2	0.32933003
203	0x3d01f1a7	0.0317246
204	0x3ddea151	0.108706124
205	0x3d167be8	0.03673926
206	0xbd9c468c	-0.07630643
207	0xbe35cd22	-0.17754033
208	0x3d4bfb16	0.0498
209	0xbe67acec	-0.22624558
210	0xbc6052d6	-0.013691625
211	0xbe3ef40a	-0.18647781
212	0xbd0e290b	-0.03470711
213	0xbcc7a0c4	-0.024368651
214	0x3e2921db	0.16516821
215	0xbea5e947	-0.3240454
216	0x3e713be7	0.23558007
217	0x3dd9ac8f	0.10628616
218	0xbe155b5c	-0.14585632
219	0x3e1aa285	0.15101059
220	0x3e0c622b	0.13709323
221	0xbde2f24b	-0.1108137
222	0xbc6ef649	-0.014585086
223	0xbe1af216	-0.15131411
224	0xbe928307	-0.2861559
225	0xbdfcca77	-0.123433046
226	0x3e891e16	0.26780766
227	0x3d5fc9b8	0.054635733
228	0xbe626e84	-0.22112471
229	0x3e552980	0.20816612
230	0x3b20a4e2	0.002451234
231	0x3de64b2c	0.11244807
232	0x3ed37f73	0.41308174
233	0xbe960e17	-0.29307625
234	0x3e2b4ebe	0.16729257
235	0xbe9ef27a	-0.3104437
236	0x3e0751d3	0.13214807
237	0x3edacaba	0.42732793
238	0x3d98342b	0.07431825
239	0x3e5c4ce7	0.21513711
240	0x3eb5f7c4	0.35540593
241	0xbe0670fa	-0.13129035
242	0xbf5ef0e0	-0.87086296
243	0xbe29fb2e	-0.16599724
244	0xbdce79bd	-0.100818135
245	0x3db8b2aa	0.090184525
246	0x3e893160	0.26795483
247	0x3e3d72da	0.18500844
248	0xbdc35e72	-0.095394984
249	0x3e483db6	0.19554791
250	0xbe557559	-0.20845546
251	0x3da8ecf9	0.08248324
252	0x3e059083	0.13043408
253	0x3bd6264c	0.006535327
254	0xbe4fffbe	-0.20312402
255	0xbe036d5d	-0.12834688

actor.2.bias f4 [32]
0	0x3e85103d	0.2598895
1	0x3cd96545	0.026537547
2	0xbd8f8053	-0.07006898
3	0xbd0bdb53	-0.03414471
4	0xbd905760	-0.070479155
5	0xbce102b5	-0.027467111
6	0xbc80fbf7	-0.015745146
7	0x3bc02470	0.0058637187
8	0xbdc03e3a	-0.09386869
9	0xbc89b5ac	-0.01681026
10	0xbe1e6fb2	-0.15472296
11	0xbe237a44	-0.1596461
12	0xbda3d3f3	-0.079994105
13	0x3cf27898	0.02959852
14	0xbe3c0ee4	-0.18365055
15	0xbcc3f828	-0.023922041
16	0xbde13b4b	-0.10997637
17	0x3d99d3cd	0.07511101
18	0x3e09d508	0.13460171
19	0xbd660681	-0.056158546
20	0x3d89baa3	0.06725051
21	0x3e6c7bdb	0.23094122
22	0xbe06447f	-0.13112067
23	0xbd539530	-0.05165595
24	0xbde836e6	-0.11338596
25	0x3db6cb1a	0.08925457
26	0xbde84f88	-0.113432944
27	0x3e4ed3c2	0.20197967
28	0xbe681528	-0.2266432
29	0xbc8e0c22	-0.01733977
30	0x3e756ba1	0.23966838
31	0xbc7a5b86	-0.01528061

actor.4.weight f4 [2, 32]
0	0xbf0f652f	-0.5601377
1	0x3e58ba7c	0.21164888
2	0x3d925e90	0.071469426
3	0xbeb0d21f	-0.3453531
4	0x3f5f40c9	0.8720823
5	0x3ef5b1d2	0.4798723
6	0xbdb57e43	-0.08861973
7	0xbe97300c	-0.29528844
8	0xbe3399ea	-0.17539182
9	0xbe4315dd	-0.19051309
10	0xbedd024f	-0.43165824
11	0x3e9680d5	0.29395166
12	0x3eb7ad93	0.35874614
13	0xbe4f64e9	-0.20253338
14	0xbec473bc	-0.38369548
15	0xbeccee1c	-0.40025413
16	0x3ea1aeb4	0.315786
17	0x3ee6d365	0.45083156
18	0x3ee6dcee	0.4509043
19	0xbf13ae80	-0.5768814
20	0x3ec3eb73	0.3826557
21	0xbd706a9c	-0.05869542
22	0xbf1ba957	-0.6080527
23	0x3f08cec5	0.53440505
24	0xbee75266	-0.45180053
25	0x3e4dda3b	0.2010278
26	0xbbd74db4	-0.006570542
27	0xbe73920a	-0.23786178
28	0xbedaa668	-0.42705083
29	0xbeb88aef	-0.36043498
30	0xbed7a82c	-0.42120492
31	0xbb9adcbc	-0.0047260206
32	0xbcd29602	-0.025706295
33	0xbe0a2156	-0.13489279
34	0x3f4afa40	0.792881
35	0xbdc27fcc	-0.094970316
36	0x3db1863a	0.0866818
37	0xbe7ff9e0	-0.24997663
38	0xbdd8fa3b	-0.10594603
39	0xbeaa81ce	-0.33302158
40	0x3f4bb306	0.79570043
41	0xbe5c2a51	-0.21500517
42	0xbecf87ac	-0.40533197
43	0x3ef2c35c	0.47414672
44	0xbea2b513	-0.31778774
45	0x3e92090f	0.28522536
46	0xbe566b14	-0.20939285
47	0x3dd49b79	0.103812166
48	0x3df99e47	0.12188392
49	0xbeb7ee7f	-0.35924146
50	0x3f0dde6b	0.5541751
51	0x3e8c133b	0.27358422
52	0x3d14f8af	0.036369976
53	0x3f6e3179	0.9304424
54	0x3ecc6094	0.39917433
55	0xbf0843c7	-0.5322842
56	0x3ea50e6b	0.32237563
57	0x3f354b20	0.70817757
58	0xbea8bc7f	-0.3295631
59	0xbebd1056	-0.36926526
60	0x3ef2dce7	0.4743416
61	0x3ce1c823	0.027561253
62	0x3eb30900	0.34967804
63	0x3f8f32b5	1.118735

actor.4.bias f4 [2]
0	0x3dccbfdd	0.099975325
1	0x3dcf98ef	0.10136592
