results/SandingEnvDifficult/ddpg/model/model_parameters_2.pt (torch, 36162 bytes, 22 tensors)

value.0.weight f4 [32, 20]
0	0xbe049f19	-0.12951316
1	0xbda4e8c5	-0.0805221
2	0xbd753acd	-0.05987053
3	0x3e0964d9	0.13417377
4	0xbd0c8642	-0.034307726
5	0xbd3c7e3a	-0.046018817
6	0xbcb24c2b	-0.021764835
7	0x3d3e5bb4	0.046474174
8	0x3dc0acd1	0.09407962
9	0xbd9f4be4	-0.07778147
10	0xbd1f1c99	-0.038845632
11	0x3d3b55c5	0.045736093
12	0x3d99e70c	0.07514772
13	0x3d6646d8	0.056219906
14	0x3dd3bd8e	0.10338889
15	0xbe0a2150	-0.1348927
16	0x3e37d7ce	0.17953417
17	0xbccbcf00	-0.024878979
18	0x3f32d78a	0.69860137
19	0xc00dc088	-2.2148762
20	0x3d122f65	0.03568973
21	0xbc788422	-0.015168222
22	0x3d66bff2	0.056335397
23	0xbd183e38	-0.03716871
24	0x3cc8837f	0.024476765
25	0xbd716960	-0.058938384
26	0x3d8c0624	0.06837109
27	0xbd8e3a50	-0.06944716
28	0xbd45dd3c	-0.04830669
29	0x3e2645c3	0.1623755
30	0x3dad4138	0.08459705
31	0x3e7822f0	0.24232078
32	0xbd62776e	-0.05528968
33	0x3e3d1977	0.18466745
34	0x3ddcbd5f	0.10778307
35	0xbdd5117d	-0.10403726
36	0x3bc9f6ce	0.0061634546
37	0xbe77700a	-0.24163833
38	0x3fd03665	1.62666
39	0x3d4f84d4	0.050663784
40	0xbe5ca20d	-0.21546192
41	0x3e2ae3f8	0.16688526
42	0x3e308965	0.17239912
43	0xbe1e1d73	-0.15440921
44	0xbdbbaf62	-0.09164311
45	0x3d7cd5b0	0.061727226
46	0xbd7f2b11	-0.06229693
47	0x3d217ea1	0.039427403
48	0x3d0da523	0.034581315
49	0xbc67d4f3	-0.014149892
50	0x3d9418d4	0.07231298
51	0xbe8eaa39	-0.27864245
52	0x3d0aa60a	0.033849753
53	0x3c9c4336	0.019075017
54	0xbe013202	-0.12616733
55	0xbdaaac34	-0.083336264
56	0xbe3068d9	-0.17227496
57	0xbe1e247a	-0.15443602
58	0xbfad0a4e	-1.351877
59	0x3f4afaf0	0.7928915
60	0x3dda4389	0.106574126
61	0xbe01caaf	-0.12674974
62	0x3e40e3b0	0.18836856
63	0x3ea574e2	0.32315737
64	0xbdb1f9fc	-0.08690259
65	0x3dc2966e	0.095013484
66	0x3cde7376	0.027154665
67	0x3dcf8342	0.10132457
68	0xbd872c40	-0.06600237
69	0xbda61d5d	-0.08111069
70	0x3d377943	0.04479338
71	0xbe09e0d1	-0.13464667
72	0x3d5483c5	0.051883478
73	0x3c27c2f9	0.010239356
74	0xbe42bf8f	-0.19018386
75	0x3e073b19	0.13206138
76	0x3e0911ea	0.1338574
77	0xbae59b91	-0.0017517676
78	0x3f82e124	1.0224957
79	0xbcfc651e	-0.030809935
80	0xbdb1e63e	-0.08686493
81	0xbd8e041c	-0.069343776
82	0xbe59e174	-0.2127741
83	0xbd8a65c8	-0.067576945
84	0x3e5cbae9	0.21555676
85	0x3e4ee00c	0.20202655
86	0xbd35de3e	-0.0444014
87	0x3d2f50ec	0.042801782
88	0x3a97f83f	0.0011594369
89	0x3d34bcf7	0.044125523
90	0xbd2831ef	-0.041063245
91	0xbd66c873	-0.056343507
92	0x3d0f097c	0.034921154
93	0x3e1d7b03	0.15378956
94	0x3e0faa1a	0.14029732
95	0x3e26b98e	0.16281721
96	0xbe1e1d69	-0.15440907
97	0x3e286810	0.16445947
98	0xbe81f555	-0.25382486
99	0xbce64a8e	-0.028111722
100	0x3de03974	0.10948458
101	0x3d0c3b2c	0.03423612
102	0xbd2ec670	-0.042669713
103	0xbe611a50	-0.21982694
104	0xbdec9ad4	-0.115529686
105	0x3e19137e	0.14948842
106	0xbe00a2e1	-0.12562133
107	0x3cf7abc7	0.030233277
108	0xbd9bc2a2	-0.07605483
109	0x3c6a75c7	0.014310307
110	0xbe045d99	-0.1292633
111	0xbda4b035	-0.08041421
112	0x3e1f9420	0.15583849
113	0x3dc63662	0.096783414
114	0xbd00ee64	-0.031477347
115	0xbce5991f	-0.028027115
116	0x3d598684	0.0531068
117	0x3e34d255	0.1765836
118	0xbf85aa7d	-1.0442654
119	0x3fb6d1a6	1.428273
120	0xbe35a298	-0.17737806
121	0xbd686cf1	-0.05674452
122	0xbdcaabcd	-0.0989605
123	0xbdea28d5	-0.11433569
124	0xbd821ac1	-0.06352759
125	0x3d9cb765	0.07652167
126	0xbc44761d	-0.011991051
127	0x3db55b92	0.08855356
128	0x3ccf04ba	0.025270808
129	0xbcc0a8ed	-0.02351805
130	0x3d85d07e	0.06533907
131	0x3e38e797	0.18057095
132	0x3d4bd683	0.04976512
133	0xbdfbf6f5	-0.12302963
134	0x3e74c653	0.2390378
135	0x3e40ef69	0.18841328
136	0xbdd2f18a	-0.10299976
137	0x3d919fca	0.071105555
138	0xbff87148	-1.9409571
139	0xc01f78b0	-2.4917412
140	0xbe91b2af	-0.28456637
141	0x3d8a0cd1	0.06740726
142	0xbea62ee2	-0.32457644
143	0xbea20020	-0.3164072
144	0xbc0b3d09	-0.008498439
145	0x3c2ed420	0.010670692
146	0x3e0e2333	0.13880615
147	0x3e1bdfe8	0.15222132
148	0x3b7463de	0.003729097
149	0x3c5230db	0.012829031
150	0x3e811119	0.25208357
151	0xbdc36969	-0.0954159
152	0xbb22acc9	-0.0024822226
153	0xbdec9f49	-0.11553819
154	0x3e58d164	0.21173626
155	0x3c037e39	0.008025699
156	0x3dca05bc	0.09864375
157	0x3e2590bf	0.16168498
158	0x3fcc626b	1.5967535
159	0x3d1d8433	0.038456153
160	0xbdc5cc45	-0.09658102
161	0x3db6dd2b	0.08928903
162	0xbe0bc7c1	-0.13650419
163	0xbe4cede1	-0.20012619
164	0xbd01075e	-0.031501167
165	0xbb20d7cb	-0.0024542685
166	0xbd36c15f	-0.044618007
167	0x3e126890	0.142977
168	0x3e0a0296	0.13477549
169	0x3ca8e956	0.020619076
170	0xbd9bbd2d	-0.07604442
171	0x3e4ad3b4	0.19807321
172	0xbe3537e2	-0.17697099
173	0x3e8c6004	0.27417004
174	0x3e142d59	0.14470424
175	0xbddb5e6a	-0.107113674
176	0x3db33bc0	0.08751631
177	0xbe5fa5d5	-0.21840604
178	0xbf4c0d95	-0.79708225
179	0xc00c51fe	-2.1925044
180	0xbe3aaded	-0.1823041
181	0x3e695207	0.22785197
182	0xbdabac46	-0.08382468
183	0x3d64d1e0	0.055864215
184	0xbd6a88f5	-0.05725952
185	0x3d28f85c	0.04125248
186	0xbc7bbe84	-0.015365247
187	0x3d849569	0.0647381
188	0xbc14f241	-0.009090961
189	0x3cafd45a	0.021463562
190	0x3d146b4a	0.03623513
191	0x3c5b743b	0.013394411
192	0x3e06df8e	0.13171217
193	0xbd31c64d	-0.043402005
194	0xbdb1dac0	-0.086843014
195	0x3e8341d7	0.2563617
196	0x3d02961a	0.03188143
197	0xbd81b8df	-0.063340895
198	0xc01b8b50	-2.430378
199	0x40067f33	2.1015136
200	0xbc45bdd0	-0.012069181
201	0xbd4393c8	-0.047748357
202	0xbd186a4c	-0.037210748
203	0xbe26d397	-0.16291653
204	0x3d0301cc	0.031984136
205	0xbda628af	-0.081132285
206	0xbdded43e	-0.10880326
207	0xbd613a9e	-0.054987542
208	0x3dfd469c	0.12366983
209	0x3e4851c7	0.19562446
210	0xbdd5f1f5	-0.1044654
211	0x3d8260e5	0.063661374
212	0xbd9d5b4c	-0.07683429
213	0x3e21a088	0.15783894
214	0x3db618bb	0.08891436
215	0xbe4f4ac8	-0.2024337
216	0x3e32f9ae	0.17478058
217	0xbe11b43f	-0.14228915
218	0xbfc83e50	-1.5644016
219	0x3f986f37	1.190894
220	0xbd8946c1	-0.06702948
221	0xbe2813e4	-0.16413838
222	0x3d3aa6f7	0.045569386
223	0xbdcc27f7	-0.0996856
224	0x3dae14a0	0.08500028
225	0x3dfb2c82	0.122643486
226	0x3bd19d35	0.0063969144
227	0xbc84d913	-0.01621679
228	0xbe0d34e8	-0.13789713
229	0x3d8e94bb	0.06961962
230	0xbe6d6bb8	-0.23185623
231	0xbe538202	-0.20655063
232	0x3d93bc6f	0.07213675
233	0xbe08709e	-0.1332421
234	0x3e84339a	0.2582062
235	0x3dddb4e1	0.108255155
236	0x3e2664a9	0.16249336
237	0x3ddb77d9	0.107162185
238	0xbfbb3f54	-1.4628701
239	0xbf1fb43b	-0.62384385
240	0x3d49e016	0.04928597
241	0x3e4b6e8e	0.19866392
242	0x3c0ac9db	0.008470978
243	0x3d9f4317	0.07776468
244	0x3e1df0c8	0.15423882
245	0x3c4a51f7	0.0123486435
246	0x3e82fa7b	0.25581726
247	0x3e8fdd98	0.2809875
248	0xbd89346a	-0.0669945
249	0x3c6b2592	0.014352219
250	0x3e0ca573	0.13734989
251	0xbe1db227	-0.15399991
252	0x3e3861f6	0.18006119
253	0xbe5bf196	-0.21478876
254	0xbe782e32	-0.24236372
255	0xbe98ae42	-0.29820448

value.0.bias f4 [32]
0	0x3e21c3b3	0.1579731
1	0xbdf3b688	-0.119000494
2	0xbe2c873a	-0.1684846
3	0xbda2e194	-0.07953182
4	0xbda74277	-0.08166974
5	0x3df98168	0.121828854
6	0x3e06dfb7	0.13171278
7	0xbe1bfb2e	-0.15232536
8	0x3e5674ec	0.2094304
9	0x3e888ad1	0.2666841
10	0x3e5a1a2c	0.21299046
11	0x3c030d04	0.007998709
12	0xbe0ee254	-0.13953525
13	0xbd73d7f2	-0.059532113
14	0x3de2c1a9	0.11072094
15	0xbdf5c42f	-0.1200031
16	0xbe22b8de	-0.15890834
17	0x3e1e1f39	0.15441598
18	0x3dfb4b82	0.12270261
19	0x3d0477af	0.0323407
20	0xbdea6de3	-0.114467405
21	0x3e43074a	0.1904575
22	0x3d8e657d	0.06952951
23	0xbe5f4329	-0.21802963
24	0xbe329fea	-0.17443815
25	0xbde280d9	-0.11059732
26	0xbe4f06d4	-0.20217448
27	0x3df3b1c3	0.1189914
28	0x3e1d7b90	0.15379167
29	0x3e935e39	0.28782824
30	0xbd3f28d8	-0.04666981
31	0xbdeca7a5	-0.11555413

value.2.weight f4 [32, 32]
0	0x3dc25d3f	0.094904415
1	0x3d535a3f	0.051599737
2	0x3d91c584	0.07117751
3	0x3de1efc6	0.11032061
4	0x3dcf6922	0.10127474
5	0x3d0fb845	0.035087842
6	0x3d824595	0.06360928
7	0x3e62918b	0.22125833
8	0xbcd1b735	-0.025600055
9	0xbe486c6a	-0.19572607
10	0x3d77138d	0.06032138
11	0xbe51d0fa	-0.20489874
12	0xbe7cbb43	-0.2468081
13	0x3e114fc1	0.1419058
14	0x3df2c319	0.11853618
15	0x3cb7a6aa	0.022418339
16	0xbe47fbd5	-0.1952966
17	0xbdeffbcb	-0.117179476
18	0x3cc73f05	0.024322042
19	0x3e12fbda	0.14353886
20	0xbd2c3ba8	-0.04204908
21	0x3e51d389	0.2049085
22	0xbe1c216c	-0.15247124
23	0x3d87cbd9	0.06630678
24	0xbf00ac9a	-0.5026337
25	0x3d4e0860	0.050300956
26	0xbe9556b7	-0.2916772
27	0x3e7c9d0c	0.24669284
28	0x3dec9c7c	0.115532845
29	0xbf1a2560	-0.6021328
30	0xbc98db58	-0.018659279
31	0xbe0c4d6c	-0.13701409
32	0xbde40075	-0.111329
33	0x3d904979	0.07045264
34	0x3be20d4b	0.0068985573
35	0x3e828e05	0.25498977
36	0x3e062c0c	0.1310274
37	0xbd40218b	-0.04690699
38	0xbd4ea2ec	-0.050448343
39	0xbefb87f5	-0.49127164
40	0x3ba8afec	0.0051479246
41	0x3af55796	0.0018718119
42	0xbdc25897	-0.094895534
43	0xbdc23aa8	-0.09483844
44	0x3e21d27a	0.15802947
45	0xbdbbfa75	-0.0917863
46	0x3d885181	0.06656171
47	0xbdb3d046	-0.087799594
48	0x3dab4434	0.08362618
49	0xbe71c261	-0.23609306
50	0xbdd1aa28	-0.10237533
51	0xbe6895c1	-0.22713377
52	0xbd553e74	-0.052061513
53	0x3e57fe8a	0.21093193
54	0xbe14b6db	-0.14522879
55	0x3d969a7e	0.07353686
56	0x3c7c0426	0.015381848
57	0xbc36e220	-0.011162311
58	0xbc40e91b	-0.011774327
59	0xbed2e0dc	-0.4118718
60	0xbdd5cbaf	-0.1043924
61	0xbdd035dd	-0.101665236
62	0xbe85d111	-0.26136068
63	0x3d7b6600	0.06137657
64	0x3e153c2e	0.14573738
65	0x3e18827f	0.1489353
66	0xbe2cf529	-0.16890396
67	0xbd70b140	-0.05876279
68	0xbddddf3e	-0.10833596
69	0xbe182f80	-0.1486187
70	0xbc80429c	-0.015656762
71	0x3d20d01b	0.039260965
72	0x3e2a8ae4	0.16654545
73	0x3d8ca3c4	0.06867173
74	0xbd9d76d5	-0.07688681
75	0x3e1de2aa	0.15418497
76	0xbe51b86c	-0.20480508
77	0x3dcd53e0	0.100257635
78	0x3dfa850e	0.122324094
79	0x3db67d00	0.089105606
80	0xbe715312	-0.23566845
81	0xbe4c33f8	-0.199417
82	0x3cebf5a0	0.028803647
83	0xbe1c7d70	-0.15282226
84	0xbe4c9afe	-0.19981
85	0x3e034774	0.12820226
86	0x3e04ba98	0.12961805
87	0xbf2ad713	-0.6673443
88	0x3dc77ca9	0.09740574
89	0xbcd6bba9	-0.02621253
90	0xbe197590	-0.14986253
91	0xbe4374b8	-0.19087493
92	0x3d144b5f	0.036204692
93	0xbdd5094e	-0.10402165
94	0xbe512f57	-0.20428215
95	0xbe78bb77	-0.24290262
96	0x3dc078bf	0.093980305
97	0x3e79c3e2	0.2439113
98	0xbde3058a	-0.11085041
99	0xbd7f2943	-0.06229521
100	0xbd375778	-0.04476115
101	0xbe1c77b2	-0.15280035
102	0xbdd31b13	-0.10307898
103	0xbd97ce75	-0.074124254
104	0x3e1554b1	0.14583088
105	0x3d1be548	0.038060457
106	0xbec629ec	-0.3870386
107	0x3e25f0f7	0.16205202
108	0x3d1421e2	0.036165126
109	0x3e2a66de	0.16640803
110	0xbc280187	-0.01025427
111	0xbc115cb6	-0.008872202
112	0xbae9bc83	-0.001783267
113	0xbc72b9a8	-0.014814772
114	0x3d281da3	0.04104389
115	0xbea4db7a	-0.32198697
116	0xbe99a60c	-0.30009496
117	0x3e17cfa7	0.14825307
118	0x3de06428	0.10956603
119	0xbe72ca29	-0.2370993
120	0x3da7e3aa	0.0819772
121	0xbdbdbf5a	-0.09265013
122	0xbd893d2a	-0.06701119
123	0xbc882353	-0.016618406
124	0x3e260c21	0.16215564
125	0xbf131ebb	-0.57468766
126	0xbee6f414	-0.45108092
127	0xbd4f6159	-0.050629947
128	0xbf0b18c2	-0.5433465
129	0xbd431063	-0.04762305
130	0xbe2b1897	-0.16708599
131	0xbd9b6bc1	-0.07588912
132	0xbe08168b	-0.1328985
133	0x3ddcff19	0.107908435
134	0xbe402a6b	-0.18766181
135	0x3e0a79bf	0.13523005
136	0x3c773d99	0.01509037
137	0xbdc27a19	-0.094959445
138	0xbdb3979a	-0.0876915
139	0xbe30facd	-0.17283173
140	0x3e0c50d6	0.13702711
141	0x3db7981d	0.0896456
142	0xbd4b7d4f	-0.04968005
143	0xbec85773	-0.39129218
144	0xbe11af04	-0.1422692
145	0xbd36357a	-0.044484593
146	0xbdc76ef3	-0.09737959
147	0xbe5b1a89	-0.21396841
148	0xbe5af9a5	-0.21384294
149	0x3cfd3e6a	0.03091355
150	0xbd2df822	-0.042472966
151	0xbd91e988	-0.07124621
152	0xbe1bc58d	-0.15212078
153	0xbe7e7678	-0.2484988
154	0x3c87281a	0.016498614
155	0xbd1db20c	-0.038499877
156	0xbe219110	-0.15777993
157	0xbdbf042e	-0.09326969
158	0xbe727dd6	-0.23680815
159	0xbe45ef71	-0.19329621
160	0x3da99ecd	0.08282242
161	0xbe0b81b5	-0.13623698
162	0x3cec2238	0.02882491
163	0xbe3d48b9	-0.18484773
164	0xbdafe519	-0.08588619
165	0xbe716270	-0.23572707
166	0xbec7addb	-0.3899983
167	0x3d941223	0.07230022
168	0x3d3f2dd6	0.046674572
169	0xbd0c77b8	-0.03429386
170	0x3e380d52	0.17973831
171	0xbc2eb236	-0.010662606
172	0x3e35ea57	0.17765175
173	0x3db62978	0.08894628
174	0xbeeee603	-0.4665986
175	0xbca1a82b	-0.019733509
176	0xbb155d75	-0.00227913
177	0xbcbcd2fe	-0.023049828
178	0x3dbc6734	0.09199372
179	0xbd3142e8	-0.043276697
180	0xbccbd6bd	-0.024882669
181	0xbe8d72a0	-0.27626514
182	0x3dc74424	0.09729794
183	0xbdf77d20	-0.120844126
184	0xbd30a562	-0.04312647
185	0x3e03b5e8	0.1286236
186	0xbeb5c124	-0.35498917
187	0x3d50c644	0.05097033
188	0x3e4094e0	0.18806791
189	0xbe16e710	-0.14736581
190	0x3d8e8fa5	0.06960992
191	0xbe3dc615	-0.18532594
192	0x3d887a85	0.06663994
193	0x3d2bee09	0.041975055
194	0xbbb95a66	-0.0056565283
195	0x3e008b74	0.12553197
196	0x3d7d6b0e	0.061869673
197	0x3d826146	0.0636621
198	0x3e156439	0.14589013
199	0x3e8d43fc	0.2759093
200	0x3d3f02d5	0.04663356
201	0xbf0d3d8b	-0.5517203
202	0xbe209e39	-0.15685357
203	0xbcff9c39	-0.031202422
204	0xbec37a6a	-0.38179332
205	0x3de9e914	0.11421409
206	0x3d123210	0.035692275
207	0xbd79f8c9	-0.061028276
208	0x3d6bac35	0.057537276
209	0xbe910450	-0.28323603
210	0x3e247076	0.16058525
211	0x3d71c5fc	0.059026703
212	0xbe09946c	-0.13435525
213	0x3d98b216	0.07455842
214	0x3cde21c0	0.027115703
215	0xbd0ac233	-0.03387661
216	0xbea18430	-0.31546164
217	0x3d10e102	0.035370834
218	0xbdd7f22b	-0.10544237
219	0x3c5376c8	0.012906738
220	0x3a7481d2	0.0009327206
221	0x3d522102	0.05130101
222	0x3d5afb55	0.053462345
223	0xbe13fe2b	-0.14452426
224	0x3cdb32e5	0.026757667
225	0x3d8e14ba	0.06937547
226	0x3cb79797	0.02241115
227	0xbe62656b	-0.22109
228	0xbc42f701	-0.011899711
229	0x3caae8e2	0.020863
230	0xbc80dd6c	-0.015730582
231	0xbe6666d6	-0.22500166
232	0x3dcaf66c	0.099102825
233	0xbdb4a3f3	-0.08820333
234	0xbce1749e	-0.027521428
235	0x3d9059b6	0.07048361
236	0x3c2a47b4	0.010393072
237	0xbdbfecf9	-0.09371371
238	0xbc728bba	-0.014803821
239	0x3b3f150c	0.0029156832
240	0xbe3a1f96	-0.18176112
241	0xbdba43dd	-0.09094975
242	0x3e598e5c	0.21245712
243	0xbd1adf2b	-0.037810486
244	0xbe3b01cb	-0.18262403
245	0xbeead020	-0.45861912
246	0xbc0d02b5	-0.008606602
247	0xbe938aba	-0.28816777
248	0x3abc9298	0.001438695
249	0xbda32cd0	-0.07967532
250	0x3cf70a16	0.030156177
251	0xbf1cd9ea	-0.6127001
252	0xbdc92d8f	-0.09823143
253	0xbe393fe2	-0.18090776
254	0xbda1f45c	-0.07907936
255	0x3e3102aa	0.17286173

value.2.bias f4 [32]
0	0x3dd98f27	0.10623007
1	0x3d2e7352	0.042590447
2	0x3d90b721	0.07066179
3	0xbe412e17	-0.18865238
4	0xbdd27d9d	-0.10277865
5	0xb81bc163	-3.7134985e-05
6	0xb8b9979a	-8.8497254e-05
7	0x3dd433e1	0.103614576
8	0xbdef6b40	-0.11690378
9	0xbd9249ff	-0.0714302
10	0x3d492d2b	0.04911534
11	0x3d7d351d	0.06181823
12	0x3cf97c4c	0.030454777
13	0x3d5bd3a9	0.05366865
14	0xbddeaa35	-0.10872308
15	0xbe884077	-0.26611683
16	0xbd64ce14	-0.055860594
17	0xbe8323b6	-0.25613183
18	0xbe2c6173	-0.16834049
19	0x3e895d83	0.26829156
20	0xbdbfc6d6	-0.09364097
21	0xbe00ea0c	-0.12589282
22	0xbbfa6384	-0.0076412577
23	0x3e4e218b	0.20129983
24	0xbdafa344	-0.08576062
25	0xbe3f273a	-0.18667307
26	0xbdc839dd	-0.097766615
27	0x3e55ffc5	0.2089835
28	0x3e46018e	0.1933653
29	0xbe3889d8	-0.18021333
30	0x3db86d07	0.0900517
31	0x3d1b2333	0.037875365

value.4.weight f4 [1, 32]
0	0xbdce06c9	-0.10059888
1	0x3e5fb79a	0.21847382
2	0x3e2e6b6d	0.17033167
3	0xbe0fcd49	-0.14043154
4	0x3e83072f	0.25591418
5	0x3e1d8328	0.15382063
6	0x3da2679e	0.0792992
7	0x3dc9513a	0.09829946
8	0xbd935daf	-0.07195603
9	0xbd90660e	-0.070507154
10	0xbdad4e0c	-0.08462152
11	0x3e20dedf	0.15710019
12	0x3e0200d5	0.1269563
13	0x3d8161e6	0.06317501
14	0xbd41c379	-0.047305558
15	0xbd9f44d5	-0.077768005
16	0x3dade2f0	0.084905505
17	0xbda117aa	-0.07865842
18	0xbe0f91b9	-0.14020433
19	0x3dd60cd4	0.104516655
20	0xbd75140a	-0.059833564
21	0xbdacdeed	-0.08440957
22	0xbd9e4188	-0.07727343
23	0x3dd10ac4	0.102071315
24	0x3daaaec4	0.08334115
25	0xbe18d053	-0.1492322
26	0x3e0a6527	0.13515149
27	0x3d75bb05	0.05999281
28	0x3db9ae66	0.09066467
29	0xbe0a4983	-0.13504605
30	0x3dda06d4	0.106458336
31	0xbdb087eb	-0.08619674

value.0.weight f4 [32, 20]
0	0xbe035e39	-0.12828912
1	0xbda5780c	-0.08079538
2	0xbd789cc2	-0.06069637
3	0x3e088c5c	0.13334793
4	0xbd07ca5d	-0.033151973
5	0xbd3fc05e	-0.046814315
6	0xbcc295ab	-0.023753008
7	0x3d42196a	0.047387518
8	0x3dbe5b77	0.09294789
9	0xbda378eb	-0.07982048
10	0xbd20045e	-0.039066665
11	0x3d3a6e00	0.04551506
12	0x3d99df41	0.075132854
13	0x3d668dc4	0.056287542
14	0x3dd537f0	0.1041106
15	0xbe096419	-0.1341709
16	0x3e37d0b3	0.17950706
17	0xbccc48f6	-0.024937134
18	0x3f329ed4	0.697736
19	0xc00dabed	-2.2136185
20	0x3d0b9c57	0.034084644
21	0xbc68d981	-0.014212013
22	0x3d72b7d9	0.059257362
23	0xbd0c4651	-0.034246746
24	0x3cc2c926	0.023777556
25	0xbd70587c	-0.058678135
26	0x3d8f35e9	0.069927044
27	0xbd8f588f	-0.06999313
28	0xbd492837	-0.049110617
29	0x3e263cb3	0.16234092
30	0x3dacd061	0.084381826
31	0x3e77ea88	0.2421056
32	0xbd6179c0	-0.05504775
33	0x3e3e15d4	0.18563014
34	0x3dddcdbc	0.10830256
35	0xbdd40120	-0.10351777
36	0x3bc7d53b	0.006098417
37	0xbe7799db	-0.24179785
38	0x3fd02d97	1.6263913
39	0x3d46a762	0.048499472
40	0xbe5ccf49	-0.21563448
41	0x3e298b14	0.1655696
42	0x3e2eb1c9	0.17060007
43	0xbe1ff50f	-0.15620826
44	0xbdba714c	-0.09103641
45	0x3d770e9a	0.06031666
46	0xbd7a114a	-0.061051644
47	0x3d24dd4c	0.040250108
48	0x3d0c9dd2	0.034330197
49	0xbc780e60	-0.015140146
50	0x3d923b48	0.07140213
51	0xbe8f219f	-0.27955338
52	0x3d0c0016	0.03417977
53	0x3c96b107	0.01839496
54	0xbe01444a	-0.12623706
55	0xbdaad0cd	-0.08340607
56	0xbe2fabde	-0.17155406
57	0xbe1d4313	-0.15357618
58	0xbfacf489	-1.3512126
59	0x3f4a48df	0.7901744
60	0x3dd43f91	0.10363687
61	0xbe00ee72	-0.1259096
62	0x3e4228be	0.18960854
63	0x3ea61770	0.32439756
64	0xbdb33a21	-0.087513216
65	0x3dbfcf71	0.09365738
66	0x3ce6d1d2	0.028176222
67	0x3dd193dc	0.1023328
68	0xbd83f124	-0.06442478
69	0xbda49e47	-0.080380015
70	0x3d342ed6	0.04398998
71	0xbe0ab36c	-0.13545007
72	0x3d544ca3	0.0518309
73	0x3c2fcd27	0.0107300645
74	0xbe43c131	-0.19116665
75	0x3e063977	0.13107859
76	0x3e0b4ebc	0.13604254
77	0xba82fcce	-0.0009993555
78	0x3f82f686	1.0231483
79	0xbd06014e	-0.032716088
80	0xbdaf8c78	-0.08571714
81	0xbd927a8b	-0.071522795
82	0xbe56995e	-0.20956942
83	0xbd83d5af	-0.06437241
84	0x3e5a2d22	0.2130628
85	0x3e4eb89c	0.2018761
86	0xbd38b838	-0.04509756
87	0x3d3107b5	0.04322024
88	0x3a89e694	0.0010520988
89	0x3d2ce90b	0.042214435
90	0xbd2db894	-0.042412356
91	0xbd6c4f18	-0.057692617
92	0x3d098908	0.03357795
93	0x3e1f0726	0.1553007
94	0x3e12162c	0.1426627
95	0x3e2925a0	0.16518259
96	0xbe1ca193	-0.1529601
97	0x3e27315b	0.16327421
98	0xbe81a595	-0.25321642
99	0xbced42a7	-0.028962446
100	0x3dde78cb	0.10862883
101	0x3d0d23ef	0.034458097
102	0xbd303338	-0.043017596
103	0xbe617587	-0.2201749
104	0xbdee2024	-0.11627224
105	0x3e18ddf1	0.14928414
106	0xbe01e6c3	-0.12685685
107	0x3cfbe0e7	0.03074689
108	0xbd9bfd00	-0.07616615
109	0x3c52d0b2	0.01286714
110	0xbe039037	-0.12847982
111	0xbda3157e	-0.07963084
112	0x3e1eefd0	0.15521169
113	0x3dc216f0	0.09477031
114	0xbd02511a	-0.031815626
115	0xbce85e9c	-0.028365426
116	0x3d5d3cfa	0.05401323
117	0x3e357743	0.17721276
118	0xbf85bcbd	-1.0448223
119	0x3fb6dcfd	1.428619
120	0xbe33ebbe	-0.17570397
121	0xbd65d708	-0.056113273
122	0xbdc8d67f	-0.09806537
123	0xbde85387	-0.113440566
124	0xbd855cb0	-0.06511819
125	0x3d9c3968	0.07628137
126	0xbc514864	-0.012773607
127	0x3db6f4d1	0.08933414
128	0x3cd44195	0.025910178
129	0xbcaff4f4	-0.021479107
130	0x3d86abd6	0.06575744
131	0x3e395543	0.18098931
132	0x3d4df328	0.05028072
133	0xbdfe4a3d	-0.124165036
134	0x3e73c3c3	0.23805146
135	0x3e3fecd9	0.18742694
136	0xbdd477f7	-0.10374444
137	0x3d92f076	0.071747705
138	0xbff81289	-1.9380656
139	0xc01f7b47	-2.4918993
140	0xbe9179a0	-0.28413105
141	0x3d86375a	0.06553526
142	0xbea66cc1	-0.32504848
143	0xbea23dff	-0.31687924
144	0xbc16fe2a	-0.009215871
145	0x3c26a54a	0.010171244
146	0x3e0da3f0	0.13832068
147	0x3e1c3e7c	0.15258211
148	0x3afa3c5c	0.0019091475
149	0x3c4a822d	0.012360138
150	0x3e80a3ca	0.2512496
151	0xbdc51eb7	-0.09624999
152	0xbb8c3473	-0.0042787134
153	0xbdecfa43	-0.11571171
154	0x3e5979ee	0.21237919
155	0x3c0e06d2	0.008668618
156	0x3dcdc00c	0.10046396
157	0x3e249ddf	0.16075848
158	0x3fcd2fd5	1.6030222
159	0x3d217348	0.03941658
160	0xbdc498cf	-0.095994584
161	0x3db676db	0.08909389
162	0xbe0ba3d2	-0.13636711
163	0xbe4cc9f2	-0.19998911
164	0xbd03003f	-0.031982657
165	0xbb2846f5	-0.002567706
166	0xbd349db7	-0.04409572
167	0x3e123094	0.14276344
168	0x3e09f043	0.13470559
169	0x3ca80286	0.020509016
170	0xbd9b2e07	-0.075771384
171	0x3e4b1b56	0.19834647
172	0xbe3534a2	-0.17695859
173	0x3e8c9ca8	0.2746327
174	0x3e1441e9	0.14478268
175	0xbddb3556	-0.107035324
176	0x3db394cc	0.08768615
177	0xbe5fc2b5	-0.21851619
178	0xbf4b6343	-0.79448336
179	0xc00c56b1	-2.1927912
180	0xbe3b0f1b	-0.18267481
181	0x3e693b24	0.22776467
182	0xbdae85a3	-0.08521583
183	0x3d5f1f27	0.05447307
184	0xbd6e861e	-0.058233373
185	0x3d27c953	0.040963482
186	0xbc80a4fe	-0.015703674
187	0x3d84f545	0.06492094
188	0xbc0e6d3e	-0.008693038
189	0x3caf4124	0.021393366
190	0x3d144063	0.036194216
191	0x3c5ac8c9	0.013353535
192	0x3e0752b4	0.13215142
193	0xbd30e30a	-0.04318527
194	0xbdb28c63	-0.08718183
195	0x3e831573	0.25602302
196	0x3cf873e5	0.0303287
197	0xbd8262b6	-0.06366484
198	0xc01b8be7	-2.430414
199	0x40064aa9	2.098307
200	0xbc3157fc	-0.0108242
201	0xbd4dfe62	-0.050291426
202	0xbd19a110	-0.037507117
203	0xbe27214c	-0.16321295
204	0x3d0c4a56	0.03425058
205	0xbda2d898	-0.07951468
206	0xbddc63ad	-0.10761199
207	0xbd5982de	-0.05310332
208	0x3df92315	0.121648945
209	0x3e47d7c3	0.195159
210	0xbdd789da	-0.1052434
211	0x3d80c8fe	0.06288336
212	0xbd9efb9d	-0.07762835
213	0x3e22536f	0.1585214
214	0x3db4ec6f	0.08834159
215	0xbe4fe0e8	-0.20300639
216	0x3e316ad2	0.17325905
217	0xbe1378bf	-0.1440153
218	0xbfc8597f	-1.5652312
219	0x3f986178	1.1904745
220	0xbd896da7	-0.06710368
221	0xbe27d059	-0.16388072
222	0x3d3c4e15	0.045972902
223	0xbdcb546a	-0.0992821
224	0x3dafd0a4	0.08584717
225	0x3dfe44e3	0.12415483
226	0x3bf4ca4b	0.0074704043
227	0xbc8122dc	-0.015763693
228	0xbe0d11f0	-0.13776374
229	0x3d8dd7c1	0.069259174
230	0xbe6bdc86	-0.23033342
231	0xbe51f2d0	-0.20502782
232	0x3d94e297	0.07269781
233	0xbe09820a	-0.13428512
234	0x3e842fc2	0.25817686
235	0x3ddda56e	0.10822569
236	0x3e270071	0.16308762
237	0x3dddfc4f	0.1083914
238	0xbfbb345d	-1.4625355
239	0xbf1f8482	-0.62311566
240	0x3d4b0a54	0.049570397
241	0x3e4c53b5	0.19953807
242	0x3bd7fa47	0.0065911147
243	0x3d9b697f	0.07588481
244	0x3e1d61b2	0.15369299
245	0x3c4e77ff	0.0126018515
246	0x3e821015	0.25402895
247	0x3e8fb33d	0.28066435
248	0xbd88bbaa	-0.06676419
249	0x3c8033f8	0.01564978
250	0x3e0afa34	0.13572007
251	0xbe1f5d66	-0.15562972
252	0x3e382b69	0.1798531
253	0xbe5a8a2e	-0.21341774
254	0xbe7a199a	-0.24423829
255	0xbe99a3f9	-0.30007914

value.0.bias f4 [32]
0	0x3e21cc2b	0.1580054
1	0xbdf37405	-0.11887363
2	0xbe2d2db3	-0.16911964
3	0xbda274a8	-0.07932407
4	0xbda451e5	-0.08023433
5	0x3df915ce	0.12162362
6	0x3e05dd28	0.13072646
7	0xbe1a7bcb	-0.15086286
8	0x3e5699ad	0.2095706
9	0x3e886a57	0.2664363
10	0x3e5b04b8	0.21388519
11	0x3be99d98	0.0071293823
12	0xbe0e3a86	-0.13889512
13	0xbd6c0f48	-0.05763176
14	0x3de2c463	0.11072614
15	0xbdf4f9d8	-0.119617164
16	0xbe241b3e	-0.16026017
17	0x3e1db8d0	0.15402532
18	0x3dfb2235	0.12262384
19	0x3d013799	0.031547163
20	0xbde9436a	-0.11389811
21	0x3e4245f4	0.18971997
22	0x3d8e8845	0.06959585
23	0xbe5fbb3c	-0.21848768
24	0xbe330118	-0.17480886
25	0xbde2cf54	-0.11074701
26	0xbe4f5eff	-0.20251082
27	0x3df1125d	0.11771081
28	0x3e1e7cb3	0.15477256
29	0x3e93bcad	0.28854886
30	0xbd3efbca	-0.046626844
31	0xbdecd91e	-0.11564849

value.2.weight f4 [32, 32]
0	0x3dc1fb89	0.09471805
1	0x3d4ac003	0.049499523
2	0x3d944d65	0.07241324
3	0x3de31fa0	0.11090016
4	0x3dd52d4f	0.104090326
5	0x3d0e1c32	0.034694858
6	0x3d85d511	0.0653478
7	0x3e62590d	0.22104283
8	0xbccdb0a5	-0.025108645
9	0xbe47392f	-0.19455408
10	0x3d7321db	0.05935846
11	0xbe51a459	-0.2047285
12	0xbe7b7abc	-0.24558538
13	0x3e1297b5	0.14315684
14	0x3df42d06	0.1192265
15	0x3c98e16e	0.01866218
16	0xbe478442	-0.19484046
17	0xbdf2c87f	-0.11854648
18	0x3cc4c99d	0.024021918
19	0x3e12e77f	0.14346121
20	0xbd2f5169	-0.04280225
21	0x3e4e936e	0.20173427
22	0xbe1dea71	-0.15421464
23	0x3d83508d	0.06411848
24	0xbf00bb55	-0.50285846
25	0x3d521c7a	0.05129669
26	0xbe96a8dd	-0.29425707
27	0x3e7830f8	0.2423743
28	0x3dea37da	0.11436434
29	0xbf1b6e38	-0.60715055
30	0xbc8e4907	-0.017368807
31	0xbe0ad325	-0.13557108
32	0xbdea6622	-0.114452615
33	0x3d88496a	0.066546276
34	0x3c0f4dcb	0.008746575
35	0x3e81a255	0.25319162
36	0x3e05db58	0.13071954
37	0xbd3f08c0	-0.046639204
38	0xbd4c2818	-0.049842924
39	0xbf000fb8	-0.50023985
40	0x3b4b35be	0.0031007375
41	0x3a1ca4ad	0.00059754663
42	0xbdc13ac2	-0.09435035
43	0xbdc4d3f6	-0.09610741
44	0x3e24b2ef	0.16083883
45	0xbdbbdde5	-0.091731824
46	0x3d851b16	0.06499307
47	0xbdbb3f66	-0.09142952
48	0x3da68cc8	0.08132321
49	0xbe7450ff	-0.23859023
50	0xbdd1a8c0	-0.10237265
51	0xbe694f8e	-0.22784254
52	0xbd4cbc3d	-0.049984206
53	0x3e563428	0.20918334
54	0xbe1651a7	-0.14679585
55	0x3d929a00	0.071582794
56	0x3c905bd1	0.017621906
57	0xbc42cf65	-0.011890267
58	0xbc5b653b	-0.013390834
59	0xbed1a8e0	-0.40949154
60	0xbdd89a60	-0.1057632
61	0xbdd3946d	-0.10331044
62	0xbe86720d	-0.2625889
63	0x3d783a6a	0.060602583
64	0x3e1532aa	0.14570108
65	0x3e18015a	0.14844266
66	0xbe2cdb33	-0.16880493
67	0xbd705352	-0.05867321
68	0xbdddb3fe	-0.108253464
69	0xbe18726f	-0.14887403
70	0xbc8850d1	-0.016640099
71	0x3d1efc3b	0.038814764
72	0x3e2a1b8b	0.1661207
73	0x3d8bc11a	0.068239406
74	0xbd9dd026	-0.07705717
75	0x3e1e1714	0.15438491
76	0xbe52dc06	-0.20591745
77	0x3dcdd7ab	0.10050901
78	0x3df9d4b0	0.1219877
79	0x3db81637	0.08988612
80	0xbe6dea3b	-0.23233883
81	0xbe4b8d8c	-0.19878215
82	0x3ce4db9f	0.027936755
83	0xbe1c1176	-0.15241036
84	0xbe50a48b	-0.20375268
85	0x3e042992	0.12906483
86	0x3e03e5af	0.12880586
87	0xbf2ad11f	-0.66725343
88	0x3dc7fe1e	0.09765266
89	0xbcd27829	-0.025692062
90	0xbe193755	-0.14962514
91	0xbe43c211	-0.19116999
92	0x3d1d0c08	0.038341552
93	0xbdd66f69	-0.104704686
94	0xbe5013ca	-0.20320049
95	0xbe78b826	-0.24288997
96	0x3dc0e078	0.09417814
97	0x3e794192	0.2434142
98	0xbde3b63f	-0.11118745
99	0xbd7b045b	-0.06128345
100	0xbd33e938	-0.043923587
101	0xbe1c4aa0	-0.15262842
102	0xbdd2afa7	-0.10287409
103	0xbd9af4d9	-0.07566232
104	0x3e14b885	0.14523514
105	0x3d193f9e	0.037414186
106	0xbec64379	-0.38723353
107	0x3e257ae2	0.16160157
108	0x3d1bd961	0.038049106
109	0x3e297901	0.16550066
110	0xbc1c2dce	-0.009532405
111	0xbc166bd5	-0.009180983
112	0xba5e315e	-0.0008475984
113	0xbc77baf6	-0.015120259
114	0x3d2a1dc6	0.0415323
115	0xbea4ed81	-0.3221245
116	0xbe9969d5	-0.29963556
117	0x3e196e51	0.14983489
118	0x3ddf97ef	0.10917651
119	0xbe728a75	-0.2368563
120	0x3da6aba7	0.08138209
121	0xbdbd7daa	-0.09252484
122	0xbd86b951	-0.06578315
123	0xbca1c1aa	-0.019745667
124	0x3e264e53	0.16240816
125	0xbf143ead	-0.57908136
126	0xbee3a250	-0.44459772
127	0xbd51b4b3	-0.05119772
128	0xbf0b185e	-0.54334056
129	0xbd4310c7	-0.047623422
130	0xbe2c465e	-0.16823718
131	0xbd9b6b5d	-0.07588837
132	0xbe0816ef	-0.13289998
133	0x3dd8111c	0.10550138
134	0xbe402a07	-0.18766032
135	0x3e0f20aa	0.13977304
136	0x3c7b53bb	0.015339787
137	0xbdc279b5	-0.0949587
138	0xbdb116db	-0.086469375
139	0xbe334de4	-0.17510182
140	0x3e0d97f9	0.13827504
141	0x3db663c3	0.08905747
142	0xbd58a684	-0.052893177
143	0xbec7494d	-0.38923112
144	0xbe11aea0	-0.1422677
145	0xbd15a7c0	-0.036536932
146	0xbdcf94c0	-0.10135794
147	0xbe5b1a25	-0.21396692
148	0xbe538fcf	-0.20660327
149	0x3cfd3ece	0.030913737
150	0xbd0d4dbb	-0.034497958
151	0xbd91dc7c	-0.07122132
152	0xbe234872	-0.15945604
153	0xbe7653ec	-0.24055451
154	0x3c87287e	0.0164988
155	0xbcfaaa7e	-0.030598875
156	0xbe2190ac	-0.15777844
157	0xbdbf03ca	-0.093268946
158	0xbe77b4c3	-0.24190049
159	0xbe45ef0d	-0.19329472
160	0x3da8b0be	0.08236836
161	0xbe0c9cfa	-0.13731757
162	0x3cd5e75f	0.026111303
163	0xbe3f4dfa	-0.1868209
164	0xbdadfb51	-0.084952004
165	0xbe707d08	-0.23485196
166	0xbec7df4a	-0.39037544
167	0x3d8ff084	0.070282966
168	0x3d3b6f8f	0.045760687
169	0xbd0dcd28	-0.03461948
170	0x3e3831d1	0.17987753
171	0xbc345d5f	-0.0110085895
172	0x3e35ce09	0.17754377
173	0x3db3c3e6	0.08777599
174	0xbef12afd	-0.4710311
175	0xbc8d34ec	-0.01723715
176	0xbb8432dd	-0.0040343837
177	0xbcbd9f7b	-0.023147335
178	0x3dbb8edb	0.09158107
179	0xbd2855cf	-0.04109746
180	0xbca1faad	-0.019772852
181	0xbe8dcd2a	-0.2769559
182	0x3dc54ebb	0.09634157
183	0xbdf3e44e	-0.1190878
184	0xbd399a59	-0.045313213
185	0x3e03ee44	0.1288386
186	0xbeb47e7e	-0.35252756
187	0x3d5602aa	0.052248634
188	0x3e39f54e	0.18159983
189	0xbe16d115	-0.14728196
190	0x3d8d0259	0.068852134
191	0xbe3f524f	-0.18683742
192	0x3d88833b	0.06665655
193	0x3d300a33	0.042978477
194	0xbbf2480b	-0.007393842
195	0x3e012965	0.12613447
196	0x3d79edc6	0.061017774
197	0x3d80ece2	0.06295182
198	0x3e14ede8	0.14543879
199	0x3e8cc6e1	0.27495483
200	0x3d387b35	0.045039374
201	0xbf0e08bb	-0.5548207
202	0xbe220f8d	-0.15826245
203	0xbd002c94	-0.031292513
204	0xbec52388	-0.3850367
205	0x3de5cf5f	0.112211935
206	0x3d144e68	0.036207587
207	0xbd75fe69	-0.060057078
208	0x3d69aec9	0.057051454
209	0xbe9133d0	-0.28359842
210	0x3e24038d	0.1601698
211	0x3d7247a2	0.059150346
212	0xbe099e67	-0.13439332
213	0x3d99903d	0.074982144
214	0x3ce372de	0.027764734
215	0xbd081bd5	-0.033229668
216	0xbea0970c	-0.3136524
217	0x3d14ba0e	0.036310248
218	0xbdd6fae1	-0.1049707
219	0x3c348f7f	0.01102054
220	0x3a8492e8	0.0010114582
221	0x3d564032	0.052307315
222	0x3d55f65e	0.052236907
223	0xbe1509b8	-0.14554489
224	0x3cda6f33	0.026664352
225	0x3d919e5b	0.07110282
226	0x3cb07638	0.021540746
227	0xbe618f1b	-0.22027247
228	0xbc5d4bc0	-0.01350683
229	0x3cb23741	0.021754863
230	0xbc8ec093	-0.01742581
231	0xbe66cf2a	-0.22539964
232	0x3dcbe226	0.09955244
233	0xbdb34489	-0.087533064
234	0xbce5b6cd	-0.028041268
235	0x3d8ed65c	0.069744796
236	0x3c159334	0.009129334
237	0xbdc486c4	-0.09596017
238	0xbc6361ac	-0.013878267
239	0x3b5ec129	0.0033989644
240	0xbe3a5231	-0.18195416
241	0xbdbabf7d	-0.09118555
242	0x3e595352	0.2122319
243	0xbd166963	-0.0367216
244	0xbe3dac1f	-0.1852269
245	0xbeeafc98	-0.4589584
246	0xbbccf5de	-0.0062548956
247	0xbe93571e	-0.28777403
248	0x397d997a	0.00024185135
249	0xbda6ae40	-0.08138704
250	0x3cfa4370	0.030549735
251	0xbf1de39f	-0.6167545
252	0xbdc972bb	-0.09836336
253	0xbe37824f	-0.17920803
254	0xbda4c434	-0.08045235
255	0x3e30dae4	0.17271

value.2.bias f4 [32]
0	0x3dda4aea	0.1065882
1	0x3d2912d6	0.04127773
2	0x3d90916b	0.07058986
3	0xbe40fd32	-0.18846586
4	0xbdd0041c	-0.10157034
5	0xbab9f835	-0.0014188351
6	0xb88c6ee2	-6.696374e-05
7	0x3dd3ab92	0.10335459
8	0xbdeebfab	-0.116576515
9	0xbd92cc39	-0.07167859
10	0x3d492d8f	0.049115714
11	0x3d7e06bb	0.062018137
12	0x3cfaad4c	0.030600213
13	0x3d5a9049	0.053360257
14	0xbde09716	-0.10966317
15	0xbe885ee2	-0.2663489
16	0xbd667343	-0.056262266
17	0xbe836166	-0.25660247
18	0xbe2cc480	-0.16871834
19	0x3e8955ab	0.26823172
20	0xbdbfd448	-0.09366661
21	0xbe008969	-0.12552418
22	0xbc0797d6	-0.008275947
23	0x3e4d4436	0.20045552
24	0xbdb3ea30	-0.08784902
25	0xbe3e5eb7	-0.18590818
26	0xbdc8f988	-0.09813219
27	0x3e55db1b	0.20884363
28	0x3e452d48	0.19255555
29	0xbe38a339	-0.18031015
30	0x3db7bb95	0.08971325
31	0x3d1b382f	0.037895378

value.4.weight f4 [1, 32]
0	0xbdced292	-0.10098757
1	0x3e5f2c1b	0.21794169
2	0x3e2d58fb	0.16928475
3	0xbe0ee2bf	-0.13953684
4	0x3e821198	0.25404048
5	0x3e1edecf	0.15514682
6	0x3da55ff8	0.08074945
7	0x3dca22df	0.098699324
8	0xbd92030f	-0.0712949
9	0xbd8cf0a8	-0.06881839
10	0xbdad4da8	-0.084620774
11	0x3e2187e3	0.15774493
12	0x3e02301a	0.12713662
13	0x3d816ad9	0.06319208
14	0xbd44d640	-0.048055887
15	0xbd9e04c9	-0.077157564
16	0x3dacbd48	0.0843454
17	0xbda2004d	-0.079102136
18	0xbe0edb14	-0.13950759
19	0x3dd6d1fb	0.10489269
20	0xbd750dc4	-0.05982758
21	0xbdacaf27	-0.08431845
22	0xbd9e407f	-0.077271454
23	0x3dd141b5	0.10217611
24	0x3dab4038	0.08361858
25	0xbe1874ef	-0.14888357
26	0x3e0b0697	0.13576733
27	0x3d75539d	0.059894193
28	0x3dba25cc	0.090892404
29	0xbe0a7b17	-0.13523518
30	0x3dd9b7a0	0.10630727
31	0xbdb06f00	-0.086149216

actor.0.weight f4 [32, 18]
0	0x3dc1844d	0.094490625
1	0x3f4147cc	0.7550018
2	0xbeebc3e5	-0.46047893
3	0xbea6a9bb	-0.3255137
4	0xbde050e7	-0.10952931
5	0xbea44602	-0.32084662
6	0xbde5b7f9	-0.112167306
7	0x3dd1bcca	0.10241087
8	0x3eb433af	0.3519568
9	0x3ecdaedb	0.40172467
10	0xbda02721	-0.07819963
11	0x3d74dc49	0.059780393
12	0x3da003d0	0.07813227
13	0xbe29189d	-0.16513295
14	0xbed502cd	-0.416037
15	0xbe5ececd	-0.21758576
16	0xbe27e431	-0.16395642
17	0x3e04fc5e	0.12986895
18	0xbbc5a333	-0.0060314178
19	0xbdf801f3	-0.12109747
20	0x3bec9b24	0.0072206426
21	0x3e8f2d06	0.27964038
22	0xbab5d330	-0.0013872143
23	0xbe3839f4	-0.17990857
24	0xbcaa83fe	-0.020814892
25	0x3e12b588	0.14327061
26	0x3e9bdbf0	0.30441236
27	0xbef2f67c	-0.47453678
28	0xbcbfb220	-0.023400366
29	0x3d2de489	0.042454276
30	0xbecc8c54	-0.39950812
31	0xbe084feb	-0.13311736
32	0x3dab84a9	0.08374912
33	0xbdc4fa85	-0.09618095
34	0x3e4a0238	0.19727409
35	0x3d99e172	0.075137034
36	0x3ee7fff9	0.4531248
37	0x3e805a92	0.250691
38	0x3e1c5c56	0.15269598
39	0x3f091785	0.5355151
40	0xbc858f99	-0.016303824
41	0x3e2457e0	0.16049147
42	0xbea0c934	-0.31403506
43	0xbdc5fc6d	-0.09667287
44	0x3da9b65e	0.08286737
45	0x3dfd58a6	0.12370424
46	0xbc35c55d	-0.011094418
47	0xbde046ab	-0.10950979
48	0xbca0cb2d	-0.019628132
49	0x3eab3b6b	0.3344377
50	0x3ed9da16	0.425492
51	0x3cc5d975	0.024151543
52	0x3e8f67ba	0.28008825
53	0x3de13943	0.1099725
54	0x3ee86f27	0.45397303
55	0x3dddbebe	0.10827397
56	0xbcf0c27f	-0.029389618
57	0xbe7122f2	-0.23548487
58	0xbd6749ed	-0.056466985
59	0x3ec33755	0.38128152
60	0xbe8fb404	-0.2806703
61	0x3eae2478	0.34012198
62	0xbdbad96a	-0.091235
63	0x3d3f3c27	0.046688225
64	0xbe775000	-0.24151611
65	0xbb187728	-0.0023264382
66	0xbdbfeb8a	-0.093710974
67	0xbe1261b3	-0.14295082
68	0x3e4f00f2	0.20215204
69	0x3e437bfc	0.19090265
70	0xbd284b20	-0.04108727
71	0xbe34b1ff	-0.17646025
72	0x3e39b8d4	0.18136913
73	0xbdeefa34	-0.11668816
74	0x3d93bc88	0.07213694
75	0x3ec1000a	0.37695342
76	0x3ea771b1	0.32703927
77	0x3c0cd9c2	0.008596839
78	0x3e80e392	0.25173622
79	0xbe3c1fcc	-0.18371505
80	0x3dec83ed	0.115486
81	0xbe62d9c6	-0.22153386
82	0xbea632d9	-0.3246067
83	0xbebc4fd1	-0.36779645
84	0x3e756b7c	0.23966783
85	0x3e88fff7	0.26757786
86	0xbeed6d97	-0.46372673
87	0xbc7a0e14	-0.015262146
88	0xbdc1773d	-0.09446571
89	0xbd99c972	-0.07509126
90	0xbee5fd49	-0.44919804
91	0xbe728fe8	-0.23687708
92	0x3e45effe	0.19329831
93	0xbd517a7a	-0.051142193
94	0xbe27b040	-0.16375828
95	0x3e954426	0.29153556
96	0xbd6fbb0f	-0.058528002
97	0xbc80ed5b	-0.01573818
98	0xbe0805ae	-0.13283417
99	0xbca02680	-0.019549608
100	0xbe914fc2	-0.28381163
101	0xbea212d8	-0.31655002
102	0xbe6f5590	-0.23372483
103	0xbd63e956	-0.05564245
104	0x3e52f401	0.20600893
105	0xbe29a593	-0.16567068
106	0x3e9678f5	0.29389158
107	0xbd01ced4	-0.031691387
108	0x3f0f6e3a	0.5602757
109	0xbe88ca5f	-0.26716897
110	0x3e704dbe	0.23467156
111	0x3e264ba2	0.16239789
112	0xbc96d814	-0.018413581
113	0x3cb2e57f	0.021837948
114	0xbbbb08a9	-0.0057078195
115	0xbdd97136	-0.106172964
116	0x3ea2f7cb	0.31829676
117	0x3ebe5b42	0.37179
118	0x3b6f4387	0.0036508755
119	0x3ea82138	0.32837844
120	0x3cea7a0c	0.02862265
121	0x3d90a8af	0.07063424
122	0xbc94682d	-0.018116081
123	0xbd0dc43d	-0.034610976
124	0x3e8412e2	0.25795656
125	0x3e9ff0cb	0.31238398
126	0x3e5efdbd	0.21776481
127	0xbe046761	-0.12930061
128	0xbcafbf24	-0.021453448
129	0xb9178f16	-0.00014453786
130	0x3eead5b6	0.45866174
131	0xbe960b43	-0.29305467
132	0xbead6e14	-0.33873045
133	0xbea10362	-0.31447893
134	0x3da8d438	0.082436025
135	0xbc95d5b0	-0.01829037
136	0xbdf949e9	-0.121723
137	0x3d9b15af	0.07572495
138	0x3d3dc2ae	0.04632824
139	0xbe5b03a9	-0.21388115
140	0xbe56ec5d	-0.20988603
141	0x3dce89bc	0.100848645
142	0x3db93456	0.090431854
143	0xbc8f804d	-0.017517233
144	0x3e0250f3	0.12726192
145	0xbe6082b5	-0.21924861
146	0x3e71d86e	0.23617718
147	0x3e487ea3	0.19579558
148	0x3e0ecc84	0.13945204
149	0x3e203bc5	0.156478
150	0x3e3535c1	0.17696287
151	0xbe40da85	-0.18833359
152	0x3dbafbbd	0.091300465
153	0x3e7627f2	0.24038675
154	0x3def1f57	0.116758995
155	0x3ec25368	0.3795426
156	0xbd596cbb	-0.05308221
157	0x3ddc8170	0.10766876
158	0x3e63476d	0.22195216
159	0x3cd69610	0.026194602
160	0xbe95c1e4	-0.2924949
161	0xbe77a406	-0.24183664
162	0xbe7257e4	-0.2366634
163	0xbea3fa87	-0.32027075
164	0x3e05e3ae	0.13075134
165	0x3e233871	0.159395
166	0x3cbf9363	0.02338571
167	0xbd6ee4b9	-0.058323596
168	0x3d0b9a95	0.034082968
169	0xbe19bac4	-0.15012652
170	0xbd5bec83	-0.053692352
171	0x3eccaeaf	0.39977023
172	0x3d597d66	0.053098105
173	0xbd8b89b0	-0.06813371
174	0xbeca21e0	-0.3947897
175	0xbd784113	-0.060608935
176	0x3deb9533	0.11503067
177	0x3e01d6c3	0.12679581
178	0x3ecb6f95	0.39733568
179	0xbd35df04	-0.044402137
180	0x3db83184	0.08993819
181	0x3d935af7	0.071950845
182	0xbd1aecf8	-0.037823647
183	0xbe996870	-0.29962492
184	0xbe17b4a4	-0.14815003
185	0x3dfd84b2	0.12378825
186	0x3d590c28	0.05299011
187	0x3dc47ada	0.095937446
188	0xbdc8eac7	-0.09810405
189	0xbd49a764	-0.0492319
190	0xbdf5d76f	-0.12003981
191	0x3d6f7683	0.05846263
192	0xbe8e5c7d	-0.27804938
193	0xbe710e6c	-0.23540658
194	0xbc0e41b8	-0.008682661
195	0x3e481ebd	0.19542976
196	0x3e22d728	0.15902388
197	0xbe2f4fa0	-0.17120218
198	0xbcbe1341	-0.02320254
199	0x3e9d6ef4	0.30748713
200	0x3e8b8853	0.27252445
201	0x3e5d595b	0.21616118
202	0xbe16c59c	-0.1472382
203	0xbe631cdb	-0.22178976
204	0xbe32fb66	-0.17478713
205	0x3b1d0e4d	0.0023964823
206	0x3e898378	0.26858115
207	0xbe820293	-0.2539259
208	0x3ce1cdc8	0.027563944
209	0x3e1cf23a	0.15326777
210	0xbddc0ade	-0.1074426
211	0xbea60ed6	-0.32433194
212	0xbd528a4e	-0.05140143
213	0xbe63b909	-0.22238554
214	0x3ed72248	0.42018342
215	0x3e9aecf2	0.302589
216	0x3f2ab992	0.6668941
217	0xbe90583f	-0.28192326
218	0xbecf69a6	-0.4051029
219	0xbde3b9b4	-0.111194044
220	0x3e242a46	0.16031751
221	0x3de338b8	0.110948026
222	0xbe7d0b9c	-0.2471146
223	0x3de51759	0.11186094
224	0xbd42d5ec	-0.047567293
225	0xbea4dc1e	-0.32199186
226	0xbe743ea5	-0.23852022
227	0xbe9dceb2	-0.30821759
228	0x3e25484c	0.1614086
229	0x3c959b6b	0.018262586
230	0xbeadb9f8	-0.33930945
231	0xbedbb344	-0.42910206
232	0xbf0e4d39	-0.5558658
233	0xbeac6938	-0.33674026
234	0x3e1c9ede	0.15294978
235	0xbcffe91f	-0.03123909
236	0xbe72f4fb	-0.23726265
237	0xbe63f559	-0.22261561
238	0xbd3f0785	-0.04663803
239	0xbc018ea4	-0.007907543
240	0x3eba9e16	0.36448735
241	0xbd7ffdaf	-0.06249779
242	0xbe2dcd1e	-0.16972777
243	0x3ed491bd	0.4151744
244	0x3ccd153e	0.025034543
245	0xbe9f412f	-0.3110442
246	0xbe0a9359	-0.13532771
247	0x3d135574	0.035970166
248	0xbdcccd7a	-0.10000129
249	0xbd979318	-0.07401103
250	0x3e8a768e	0.27043575
251	0x3e3575bd	0.17720695
252	0xbe078e9c	-0.13237995
253	0x3d93976f	0.07206618
254	0xbdd53693	-0.104108
255	0x3e108db5	0.14116557

actor.0.bias f4 [32]
0	0x3e3a339a	0.18183747
1	0x3e13e269	0.14441837
2	0xbd8db750	-0.0691973
3	0x3d8ebf46	0.06970076
4	0x3e04770a	0.12936035
5	0x3e28a0df	0.16467617
6	0x3d494a30	0.049143016
7	0xbdbaf17b	-0.0912809
8	0xbd925605	-0.07145313
9	0x3e8197a0	0.25310993
10	0x3e8c4f30	0.27404165
11	0x3d90af8e	0.070647344
12	0x3e1e3c55	0.15452702
13	0xbdb0b57f	-0.08628368
14	0x3e450d3e	0.19243333
15	0x3e72c69d	0.23708577
16	0x3e7649c1	0.24051572
17	0x3e87e908	0.26544976
18	0x3e38270f	0.1798365
19	0xbd990c26	-0.0747302
20	0xbe2ec704	-0.17068106
21	0xbdbd1557	-0.09232586
22	0x3e38942c	0.18025273
23	0x3e47efe9	0.19525112
24	0xbdbaff83	-0.09130766
25	0xbd55f344	-0.05223395
26	0x3e53954c	0.20662421
27	0x3e9d3af0	0.30709028
28	0x3d724e4a	0.059156694
29	0x3de0f5f8	0.10984415
30	0x3e2cde84	0.16881758
31	0x3e1db867	0.15402375

actor.2.weight f4 [32, 32]
0	0xbf51de21	-0.81979567
1	0x3e503ea9	0.20336403
2	0xbc463e9b	-0.012099887
3	0xbd16430f	-0.036685046
4	0xbef7e019	-0.4841316
5	0xbdb5576b	-0.08854564
6	0x3d56c9e8	0.052438647
7	0x3e127ad2	0.14304665
8	0xbde749bf	-0.11293363
9	0xbe8c9b3a	-0.27462178
10	0x3e28c0bb	0.16479771
11	0xbc1d4efe	-0.009601353
12	0x3e09f088	0.13470662
13	0x3e9b995e	0.30390447
14	0xbe91e0d1	-0.28491834
15	0x3ea10db8	0.3145578
16	0x3d82c9ba	0.063861325
17	0x3e71775e	0.23580691
18	0xbeb748cc	-0.35797727
19	0x3e2a4684	0.16628462
20	0x3d05f782	0.032706745
21	0xbe16177a	-0.14657393
22	0xbec25bbe	-0.3796062
23	0xbe7a130a	-0.24421325
24	0x3c48d498	0.012257718
25	0xbe39858d	-0.18117352
26	0x3e1dc8da	0.1540865
27	0xbd8b2480	-0.06794071
28	0x3d21882e	0.03943651
29	0xbe36894d	-0.17825814
30	0xbe5ed3c5	-0.21760471
31	0xbef67e9d	-0.48143473
32	0x3e616d00	0.22014236
33	0x3d769096	0.06019648
34	0x3daaa5b1	0.083323844
35	0xbf32432c	-0.69633746
36	0x3e1e43a8	0.15455496
37	0x3e14c313	0.1452754
38	0xbef7565c	-0.48308074
39	0xbf2d6f81	-0.67748266
40	0xbf14bf48	-0.5810437
41	0x3cbf6f06	0.02336837
42	0xbe0323af	-0.12806581
43	0x3ea945fa	0.330612
44	0x3e3a0cb6	0.18168911
45	0xbd094e1f	-0.033521768
46	0x3dd07889	0.1017924
47	0x3e44f922	0.19235662
48	0x3d90327a	0.07040878
49	0xbd35a94c	-0.044350907
50	0xbf802e2f	-1.0014094
51	0x3e84d24f	0.25941703
52	0xbe1a11ef	-0.15045904
53	0xbdd88405	-0.10572056
54	0x3e9b3433	0.30313262
55	0xbe0b8775	-0.13625892
56	0x3ebd8522	0.37015635
57	0x3e4b6f66	0.19866714
58	0xbdefef0b	-0.11715516
59	0xbd820131	-0.063478835
60	0x3e04d070	0.12970138
61	0x3ecb86bb	0.3975123
62	0x3eb118a9	0.34589127
63	0xbe6110ff	-0.2197914
64	0xbe870a8d	-0.26375237
65	0xbe01288b	-0.12613122
66	0x3e039aad	0.12851973
67	0x3e8ac56c	0.27103746
68	0xbe937eb5	-0.28807607
69	0x3e4a74af	0.19771074
70	0xbe0d3aac	-0.13791913
71	0xbda4ac26	-0.08040647
72	0x3e8d0f19	0.2755058
73	0x3eaa6464	0.33279717
74	0xbc976307	-0.018479837
75	0xbd977e8b	-0.07397183
76	0xbd656947	-0.056008603
77	0xbe45b1d7	-0.19306122
78	0x3e5a2afb	0.21305458
79	0x3c96c9f8	0.018406853
80	0xbe50164e	-0.20321009
81	0xbe1d03c3	-0.15333466
82	0x3c1a807f	0.00943005
83	0xbe08493d	-0.13309188
84	0xbdc4cdc9	-0.09609563
85	0x3b9cb191	0.0047819098
86	0xbddedf5a	-0.10882445
87	0x3de490bd	0.11160419
88	0x3f1928d5	0.5982793
89	0x3e014bb4	0.12626535
90	0xbc624dd5	-0.013812502
91	0x3ebafe10	0.3652196
92	0xbdf58bb4	-0.11989537
93	0x3af5643b	0.0018721888
94	0x3ecc8865	0.3994781
95	0x3e264d14	0.1624034
96	0x3e0dda65	0.13852842
97	0x3d2ab525	0.04167666
98	0x3e9c8da3	0.3057681
99	0x3c59588e	0.013265742
100	0x3e69e781	0.22842218
101	0xbe21298b	-0.15738504
102	0x3e022387	0.12708865
103	0x3ca4c898	0.020115182
104	0x3c4fe538	0.012688927
105	0x3e25457e	0.1613979
106	0xbd27f781	-0.041007522
107	0x3de45dbb	0.1115069
108	0xbea0ce27	-0.31407282
109	0xbe982f46	-0.29723567
110	0x3e03331e	0.12812468
111	0xbdc01b0c	-0.09380159
112	0x3c109dad	0.008826655
113	0xbe6f2933	-0.2335556
114	0x3c61843f	0.01376444
115	0xbcf4830e	-0.029847648
116	0x3d02c694	0.03192766
117	0x3de8434c	0.11340961
118	0xbdf5768b	-0.11985501
119	0x3e59c6cc	0.21267241
120	0xbd5c945d	-0.053852428
121	0xbcdd6787	-0.027026905
122	0x3ec04d46	0.37558955
123	0x3dd36658	0.10322255
124	0x3f04b591	0.5183955
125	0x3e5a606e	0.21325848
126	0xbeb7918a	-0.35853225
127	0x3e916fb3	0.28405532
128	0x3ea663ce	0.3249802
129	0xbd4e93d6	-0.050433956
130	0x3eb15cf5	0.34641233
131	0x3e19e45e	0.15028521
132	0xbde00a51	-0.10939468
133	0xbdfc4aef	-0.1231898
134	0x3eb8918f	0.36048552
135	0x3d684b62	0.056712516
136	0xbbb4fec5	-0.005523535
137	0x3def1d52	0.11675514
138	0x3d746f9b	0.059676748
139	0x3d655c21	0.055996064
140	0xbe09e1ba	-0.13465014
141	0xbebef8be	-0.3729915
142	0x3e010532	0.12599638
143	0xbc73632c	-0.014855187
144	0x3c875663	0.016520685
145	0xbe89805d	-0.26855746
146	0xbcc75ef2	-0.024337266
147	0xbd07c428	-0.033146054
148	0xbddfed9e	-0.10933994
149	0x3e2ecc64	0.17070156
150	0x3e4697bb	0.19393818
151	0x3ea61d17	0.3244407
152	0xbed2a9fc	-0.41145313
153	0x3d93482b	0.07191499
154	0x3c9de0dc	0.01927226
155	0xbcb8122c	-0.022469603
156	0x3e68fb6a	0.22752157
157	0x3daa54f9	0.083169885
158	0xbf1b12d7	-0.6057562
159	0xbeba257e	-0.3635673
160	0x3da91b87	0.082572035
161	0xbdaa5d27	-0.08318549
162	0xbe8b7bd7	-0.2724292
163	0xbe223849	-0.15841784
164	0x3d95744f	0.07297575
165	0x3de87c33	0.11351814
166	0x3d21db3e	0.039515726
167	0xbed7fbd2	-0.4218431
168	0xbdee3f05	-0.11633114
169	0x3de045a6	0.109507844
170	0xbb97e44b	-0.004635369
171	0x3db332c1	0.08749915
172	0xbe3601e3	-0.17774157
173	0x3e04de4d	0.12975426
174	0x3e27f66b	0.16402595
175	0xbe266ac2	-0.16251662
176	0x3dc08aa7	0.09401446
177	0x3e0e7f67	0.13915788
178	0xbe0b0839	-0.13577355
179	0xbe0826b4	-0.13296014
180	0xbdc2f0b5	-0.095185675
181	0xbe095ac7	-0.13413535
182	0x3e7be993	0.2460082
183	0xbc4621a7	-0.012092984
184	0x3e73e546	0.2381793
185	0x3d0f3948	0.034966737
186	0x3e615ab1	0.22007252
187	0xbe1a98dd	-0.15097375
188	0x3e05c89d	0.13064809
189	0xbe9d8adc	-0.30770004
190	0xbe7ed9da	-0.24887791
191	0xbdb7a6d1	-0.089673646
192	0xbeab31a1	-0.334363
193	0xbcbd64a8	-0.023119286
194	0xbecd77dd	-0.4013051
195	0x3ddbdf0c	0.10735902
196	0x3e080fbc	0.13287252
197	0xbc9fcd7c	-0.019507162
198	0xbe4c7dbe	-0.19969842
199	0xbb223df0	-0.0024756156
200	0xbeea331c	-0.45742118
201	0x3c335036	0.010944417
202	0xbededb89	-0.43526867
203	0xbea5f786	-0.32415408
204	0x3da51318	0.080602825
205	0xbe9abe92	-0.3022352
206	0xbedf96dd	-0.43669787
207	0xbe13d8be	-0.1443815
208	0xbd490b6f	-0.04908317
209	0x3e4fa793	0.20278768
210	0xbdb6f86f	-0.08934104
211	0x3ed20ad4	0.41023886
212	0x3bdda8ff	0.0067645307
213	0x3e6a7948	0.22897828
214	0x3e7ecd38	0.24882972
215	0x3c4a228d	0.012337339
216	0x3e2f35aa	0.17110315
217	0x3e71e988	0.23624241
218	0x3d05e862	0.03269232
219	0xbe686d13	-0.22697859
220	0x3dc4ce4a	0.09609659
221	0x3e005444	0.12532145
222	0x3dfb6449	0.12274987
223	0xbdf0e154	-0.11761728
224	0xbd0f0d83	-0.034924995
225	0x3ea9b767	0.33147737
226	0xbe5dbae5	-0.21653326
227	0x3e66ff04	0.22558218
228	0xbf4407c1	-0.7657433
229	0x3e0cc7ca	0.13748088
230	0xbd987bc8	-0.074454844
231	0x3c23e680	0.010003686
232	0x3da5ed42	0.08101894
233	0x3e39fd57	0.18163048
234	0x3ebeda32	0.37275845
235	0xbd31ca93	-0.04340608
236	0xbf1c5c72	-0.6107856
237	0xbdfc5efe	-0.12322806
238	0x3d9c186a	0.07621844
239	0x3c6b0529	0.014344492
240	0x3c2f5d14	0.010703344
241	0xbe88c904	-0.26715863
242	0xbcc8308f	-0.024437217
243	0xbebacb01	-0.36483005
244	0x3e9acc4a	0.30233985
245	0xbecf3137	-0.40467235
246	0x3e238a16	0.15970644
247	0x3d028497	0.03186473
248	0x3ebf9711	0.37419942
249	0xbd0fc070	-0.035095632
250	0xbdc7053a	-0.09717794
251	0x3c1df539	0.009640985
252	0xbd1bb227	-0.038011696
253	0xbc8a2a74	-0.016865946
254	0x3ea000c1	0.31250575
255	0x3e651885	0.22372635

actor.2.bias f4 [32]
0	0x3cb90e3a	0.022589792
1	0x3dd2a1a6	0.10284738
2	0x3ca679de	0.020321783
3	0x3dd05a34	0.10173455
4	0x3e474cbc	0.19462866
5	0xbe383510	-0.17988992
6	0x3d2763b6	0.040866576
7	0x3dca2d6c	0.09871945
8	0x3e24a495	0.16078408
9	0x3e14555b	0.14485686
10	0xbe3131dd	-0.17304178
11	0xbdb0966d	-0.086224414
12	0xbd30cb0a	-0.043162383
13	0x3dcfbe91	0.101437695
14	0x3dbee6a6	0.093213364
15	0x3de5d8cc	0.11222991
16	0xbd6bf7df	-0.057609435
17	0x3e52fb68	0.20603716
18	0x3cb48206	0.022034656
19	0x3e2009b2	0.15628698
20	0x3e3060d3	0.17224436
21	0xbd6939cd	-0.05693989
22	0xbe09c098	-0.13452375
23	0xbe13e7ae	-0.14443848
24	0xbda9a5bd	-0.08283565
25	0xbe7e74ca	-0.24849239
26	0xbe1314cf	-0.14363407
27	0x3d82013d	0.063478924
28	0x3d6945a8	0.056951195
29	0x3dd44c58	0.10366124
30	0x3d97d3c5	0.07413439
31	0xbc912480	-0.0177176

actor.4.weight f4 [2, 32]
0	0xbeb9787b	-0.36224732
1	0x3f19b2b9	0.60038334
2	0xbe191172	-0.14948061
3	0x3ea36a8a	0.3191722
4	0x3c2a3535	0.010388662
5	0xbe1e09ef	-0.15433477
6	0xbdcb13a1	-0.09915853
7	0x3f1e2364	0.6177275
8	0xbe6c166e	-0.23055431
9	0xbcc3cb90	-0.023900777
10	0x3eb2e5fb	0.34941086
11	0xbf14f2dd	-0.5818308
12	0xbe8b32d3	-0.27187213
13	0x3dac3874	0.08409205
14	0x3f2cc031	0.6748076
15	0x3e8708ae	0.2637381
16	0x3f3ab0fd	0.7292631
17	0xbf02a11a	-0.5102707
18	0x3efd56f1	0.49480394
19	0xbe4c3905	-0.19943626
20	0x3f005ef2	0.50144875
21	0x3ee3a9aa	0.4446538
22	0x3e9d1716	0.30681676
23	0x3ea2ab5c	0.31771362
24	0xbf4c86e3	-0.7989332
25	0xbef481ac	-0.47755182
26	0xbef1bedc	-0.47215927
27	0xbee11a12	-0.43965203
28	0xbf113663	-0.5672361
29	0x3f85fbc0	1.0467453
30	0xbe7ffac2	-0.24998
31	0xbe51b2c4	-0.2047835
32	0x3ea7d886	0.32782382
33	0xbf2dbac4	-0.67863107
34	0xbf418932	-0.7559997
35	0x3c6a1ec9	0.014289566
36	0x3f25ea1e	0.6481036
37	0xbe4ce822	-0.20010427
38	0xbefaa589	-0.48954418
39	0x3f37faee	0.71867263
40	0x3ebb0361	0.36526015
41	0xbf443dbf	-0.7665672
42	0xbdc917ff	-0.0981903
43	0xbf04a00a	-0.518067
44	0x3ec7fa1c	0.39058006
45	0x3f43165f	0.7620601
46	0xbef6fefc	-0.48241413
47	0xbd8836e4	-0.066510946
48	0x3ef5a688	0.47978616
49	0x3ecd26cb	0.4006866
50	0x3e7d78fa	0.2475318
51	0x3f03781c	0.5135515
52	0xbf18396c	-0.5946262
53	0xbd4a6428	-0.049411923
54	0xbe9135c3	-0.2836133
55	0xbbca7627	-0.0061786356
56	0xbe9997f1	-0.29998735
57	0xbf3b5428	-0.7317529
58	0xbced5b12	-0.02897409
59	0xbf43bf1e	-0.76463497
60	0xbf122e70	-0.5710211
61	0x3e933a96	0.28755635
62	0x3f2e7e48	0.6816144
63	0x3ee4dd2b	0.44699988

actor.4.bias f4 [2]
0	0xbdadf8e7	-0.0849474
1	0xbdcacc9e	-0.09902309
