results/SandingEnvDifficult/ddpg/model/model_parameters_0.pt (torch, 36162 bytes, 22 tensors)

value.0.weight f4 [32, 20]
00000000: 19a9 59be 4601 dc3c b49f 0cbe 3fba a5bd
00000010: 20d4 0dbe 6669 91be c431 093d 45cf 5d3e
00000020: 9406 a9bd 893a 603b ee3b 263e e00c a73d
00000030: 9257 473e 2ab1 19be 01ed 623d eb3e 15bc
00000040: 3712 bbbd 5969 f1bd bf8b 3f3e 1691 5cbf
00000050: df07 7bbc e44e e83c b331 48bd bc97 843d
00000060: dd76 36b9 9313 ee3b 9887 063b 64e5 4cbb
00000070: 0c69 b93d e66f 06bf 83a2 663d 3da4 4bbd
00000080: 38a8 7f3e aa2e f73d d3ae 73be 45c6 fe3d
00000090: 4e05 943d 5378 8b3e 2da9 103d 01b2 b43e
000000a0: 03c9 0a3e e457 583d e42b da3c 9ba3 0f3d
000000b0: 2a6d 033e b251 923d 9d82 30be 3fd1 a33b
000000c0: f36e 383e 0043 a23d ac67 133d 70ea 3e3e
000000d0: a3ba 26be 249e 39bc 5680 f5bd 3dfa 7dbd
000000e0: d68f 743d 2d86 e3bc c5cd 213f 5d5f bfbe
000000f0: fad9 4bbd 3a6d 313d 3dad 2c3e be1a d33d
00000100: b137 e83d 1148 a13c f01f e13d b200 e6bd
00000110: 7b91 2a3e 3e4d aabd 9c64 1d3e 5683 443d
00000120: e8e3 cbbd baee ecbd 762a 023e 0266 363e
00000130: a050 30bd efb3 d6bd 27d4 d0be c1b8 51be
00000140: cabd 603d 73c5 92bc d8cd e5bd 75c3 4cbe
00000150: a077 01be 9563 ecbb 68c9 003d 3663 69bc
00000160: c2b4 c6bd 14a4 bd3d 78c0 2bbe 5c0b e6bd
00000170: e826 2dbe 2454 3c3e ca96 3abe dc8f 9dbd
00000180: c556 1b3e 5d89 203e 2fde 53be 0716 413f
00000190: ce5d 313d f5c3 6d3d fccd 4bbe 5fc0 f53d
000001a0: 1eaf d83d d975 063c 7e3e 83bd 390a 6fbe
000001b0: c2a4 02be 00a9 0abd bd25 463d abd7 8fbe
000001c0: 4e8d 0d3e d2fa db3d b8d2 31be 5c3e 45be
000001d0: db5a f5bd d95c f43d 0fdf 983d 3d36 7fbe
000001e0: 5c2e e5bd 3daa 64bd 55ec caba 119f 5cbe
000001f0: 6a35 303e 5f7d afbd 684c 0abe bd8a e1bd
00000200: 828f 09be aa7c 22bc a67e 92bd 5225 d13d
00000210: e66e 22bd 5691 41bd dec4 74bd 163b 373e
00000220: 0dfc 7b3a 8ae5 853e d501 ebbd b26d 993d
00000230: 9212 fabd 1449 afbc eadd 043e f8b9 333e
00000240: 71fc a5bd 1fa2 fcbd f368 853d b967 8b3e
00000250: 62dd d33d b53b 96bd 58b6 fcbd 9d59 d0bd
00000260: 84c5 853e b0c2 093e 4831 53be 1cc0 ca3d
00000270: af29 2b3d c2dd 0cbc 724f 63be 32db 3ebf
00000280: f5fc 4e3d 7a31 f13c 7dec 17be f75e c13c
00000290: e72a 943c 0e01 b53c b2a0 443d 447e 073e
000002a0: 77c5 84be 800a 03be 1919 193e 8431 64bd
000002b0: a2cb 02be fcf9 8bbd 0c88 1dbe 582e 363e
000002c0: fb4d b73d 85e6 dc3d 903c 79bd 27df 7fbe
000002d0: d9bb 98bd 86b7 843d 102b 413e 791c b33d
000002e0: a51a 1bbe 11ba 27bd 1403 a2bd 623e 67be
000002f0: 9caa c1bc 880d 0f3d 42a9 c7bd 99ad 913b
00000300: 162b 583e a437 3d3e 0809 3dbe 061f 153e
00000310: 49b5 f8bd dee4 00be 6fba 533e bd74 8dbe
00000320: e015 ecba 3da1 1f3d 19b1 8bbd dd91 25be
00000330: 0e1f c83d f6ad f4be 3267 4abc 236b efbb
00000340: fdfe 12ba 4f32 533c 029b 64bc 7b4a 9e3d
00000350: 6cc4 c13c f6ca 58be 5a6b 0bbc 9d66 ef3d
00000360: 600d 473d 4b86 393e 1331 1e3e d685 4e3e
00000370: 8adb e23d 218c 54bd 6b44 fa3d f1dc 08be
00000380: 4f8e ecbd d198 073e 5e61 96bc 748b 80bb
00000390: 8ab3 febd dab9 d03d 26a6 d23d fba6 203e
000003a0: c9b8 5a3c 2879 703e 2958 0fbd 1696 273e
000003b0: 193f 93bd d603 ec3d fb89 423f 1261 91be
000003c0: 77d5 f1bd d3de 9a3d 7859 893d 60ee bcbb
000003d0: f052 c9bd 4400 e2bd bbf8 073e 875a 923d
000003e0: 97db 4ebe e5c0 be3d 70d2 243e d05f 253e
000003f0: c4d3 763c 36a0 cdbc 8e14 de3d 0adc ecbd
-0.21255912 0.026856076 -0.13732797 -0.08092164 -0.1385045 -0.28400725 0.033494726 0.21661098
-0.08253208 0.0034214577 0.16233799 0.081567526 0.19466999 -0.15008989 0.055401806 -0.009109239
-0.091343336 -0.117876716 0.18705653 -0.86158884 -0.015321701 0.02835793 -0.048875522 0.064742535
-0.00017401153 0.007265517 0.0020527598 -0.0031264657 0.09053239 -0.52514493 0.056307327 -0.049717177
0.24966514 0.12069447 -0.23797159 0.12440161 0.07227574 0.27240238 0.03531759 0.35292056
0.13553242 0.052818194 0.026632257 0.035068136 0.12834612 0.071444884 -0.17237325 0.0049993093
0.18011074 0.079229355 0.03598754 0.18644118 -0.16282134 -0.011329208 -0.11987369 -0.062006224
0.059707485 -0.027773941 0.63204604 -0.37377444 -0.049768426 0.043317057 0.1686296 0.10307835
0.11338747 0.019687684 0.1099242 -0.11230601 0.16657059 -0.08315514 0.1537041 0.047976814
-0.09955579 -0.11568971 0.1271151 0.1781235 -0.04304564 -0.10483538 -0.4078686 -0.20480634
0.054868497 -0.017916417 -0.11220902 -0.19996436 -0.1264329 -0.0072140195 0.031442076 -0.014244845
-0.097024456 0.09259811 -0.1677264 -0.112326354 -0.16909373 0.18391472 -0.18221584 -0.076934546
0.15169819 0.156774 -0.20690225 0.75424236 0.04330235 0.058048207 -0.19902796 0.119995825
0.10580276 0.008206808 -0.06408404 -0.23343743 -0.12758163 -0.033852577 0.048375834 -0.2809423
0.13823435 0.107411996 -0.17365539 -0.1926207 -0.1198022 0.11931772 0.0746442 -0.24923034
-0.11190483 -0.055826414 -0.0015481809 -0.21545054 0.17207876 -0.085688345 -0.13505709 -0.1101279
-0.1343365 -0.009917418 -0.071530625 0.102121964 -0.039656542 -0.047257744 -0.05975806 0.17893633
0.00096124486 0.26151687 -0.11474959 0.07491626 -0.12210573 -0.021397151 0.12975278 0.1755141
-0.0810479 -0.1233561 0.06514158 0.27227572 0.1034496 -0.07335607 -0.12339467 -0.101733424
0.26127255 0.13453174 -0.20624268 0.09899923 0.0417878 -0.008597793 -0.22198275 -0.74553216
0.050534207 0.029442538 -0.14836307 0.023604853 0.018086864 0.02209523 0.048004813 0.1323176
-0.25931904 -0.12796974 0.1495098 -0.055711284 -0.12772992 -0.0683479 -0.15383929 0.17791116
0.089504205 0.107861556 -0.060848773 -0.2498747 -0.07457704 0.06480317 0.18864083 0.08745665
-0.15146883 -0.04094893 -0.07910743 -0.22582391 -0.023640923 0.034925014 -0.0974908 0.0044457433
0.21110186 0.18478256 -0.18460476 0.14562616 -0.121439524 -0.12587306 0.20676588 -0.27628127
-0.001801189 0.03897213 -0.06820888 -0.16168924 0.09771548 -0.47788972 -0.012353705 -0.007306473
-0.0005607454 0.0128904125 -0.013952972 0.0772905 0.023653232 -0.21171173 -0.008509481 0.11689494
0.04859674 0.18117635 0.15448408 0.20168242 0.1107703 -0.05189145 0.12220081 -0.13365532
-0.11550581 0.13241889 -0.018356975 -0.003922874 -0.12436588 0.10191698 0.102855965 0.15688698
0.01334972 0.23483717 -0.034996185 0.16365847 -0.07189769 0.11524169 0.7599179 -0.2839437
-0.11808293 0.075620316 0.06706518 -0.005765721 -0.09830272 -0.11035207 0.13278477 0.07146173
-0.20200954 0.093141355 0.160959 0.16149831 0.015065137 -0.025100809 0.10843764 -0.115654066

value.0.bias f4 [32]
00000000: d4c8 0fbe 4e90 afbd 6b2c fa3c 3310 69bd
00000010: fdba af3d 7654 363e 2bad 69be f75c 1cbe
00000020: 845c 0abe ff51 32be 5aba 2ebe 5db4 2ebe
00000030: 130c 4abd e32e 1a3d ba3d 46be 8c4a cfbd
00000040: 7c67 05be e249 1dbe b940 dabd b63e 81bc
00000050: b3ca cabd f148 2d3d 6297 493e 998b 27be
00000060: f7bb 183e a5ee 103e 1a8e 953d 4d2d cebd
00000070: a478 84be 13bb a5bd 85df 38be 23ae 89be
-0.14041454 -0.08572446 0.030538758 -0.056900214 0.08580587 0.17805657 -0.22819965 -0.15269838
-0.13511854 -0.17414092 -0.17063275 -0.1706099 -0.04932792 0.03764237 -0.19359484 -0.101216406
-0.13027757 -0.15360215 -0.10656876 -0.015776973 -0.09901943 0.04230589 0.19686654 -0.16361846
0.14915453 0.14153536 0.07302494 -0.10067234 -0.25873291 -0.08092322 -0.18054016 -0.26890668

value.2.weight f4 [32, 32]
00000000: d19b 4d3e 5b98 513d d878 ea3c 4adb ba3d
00000010: eb51 5e3d cff5 1c3d 993d 993d 9562 7abd
00000020: f515 9d3d 07b5 4e3e 678b f33e cacc c3bd
00000030: b2ff 1bbe bd21 0e3d 676d c63d a6f2 e4bd
00000040: 90f5 bbbc 20e4 dabe 9db3 20be 61d9 c13d
00000050: bca3 0cbb 69d0 f53d 7e11 c8bd 4eea a4bd
00000060: a5fd c53b 2b38 04be 805c 17be 06d7 fc3d
00000070: d3ad 6bbd d681 adbe 6e56 ce3c d492 d93d
00000080: 8168 07be f107 7cbc e779 ac3c 95ed 00bd
00000090: 1521 6bbe b476 f83c 6867 8c3d 5b4b c53d
000000a0: 7d95 8b3d 16d0 25be ecab 1c3e 51c8 07be
000000b0: dd99 35be 9645 da3d 7f6a 17be 8d7a acbd
000000c0: 7f23 8bbd 2d02 aebd 8b20 bfbd 6920 aa3d
000000d0: 8777 523d b666 bd3c 31b8 e03d f117 913d
000000e0: e277 b33d 9f2d 63bd d303 1e3e b550 39be
000000f0: 196d 243d 2146 91bc 8ebd c6bd 8b37 bdbd
00000100: 76cf 613c 26e2 813d 8d22 97bd d697 dd3c
00000110: 3b24 1cbe 095c 063d 93e1 db3d 3f33 d23c
00000120: 0406 213d 48a4 293e e85e 7f3e e0db 903d
00000130: 9d28 bcbc d5a0 5d3e 5f85 983c b51e 09be
00000140: ad7b 3cbe 7fbf 22be f195 35be 9804 273e
00000150: c6b2 a33c 3ba6 983d 505b bcbb 3b97 ae3d
00000160: 3d1d a53d 5e6f 9c3c 43c4 acbd eba8 b0bd
00000170: 9155 1d3e d95e 84bd 0782 92bc 7c4c ad3d
00000180: 5986 ac3d 5759 a3bc ff28 69bd db96 68bb
00000190: 7d1f df3d 8405 cb3d f977 883c ecbf 36bc
000001a0: 896e 3cbd d540 183d b1e7 c3bc 1a24 f63c
000001b0: ba3b 8c3d b894 cc3d 6d11 253e 204a 56be
000001c0: 8db9 62bd 2164 07be 338c 093e 2ba8 323e
000001d0: 0550 00bc d4ad b23c 2356 eabd ea14 313c
000001e0: af4f 2fbd 204f f93d a978 ca3b 3963 8a3d
000001f0: 559d 37be 7b7a 263e a8c7 c4bd a68a 233d
00000200: de64 0bbd f79e 98bc 9ab4 8e3d 3b29 6f3e
00000210: ca10 f2bd fa9f 4dbe 6ffc e03d 8d24 0e3e
00000220: e26f 06be 13a8 023c 1f9d 71bb ce5f a6bd
00000230: 5fb3 3fbe 42c0 e93d f97d 1fbe ba46 7dbd
00000240: a526 dabd 6187 9c3d d714 dc3d c04b d3bd
00000250: 08ca f5bd 08d0 ddbc 4dfd 2e3d d8f3 273e
00000260: cd2c 3dbd dacd 4f3d f9bd c4bc 6e25 5a3d
00000270: 948d 6ebe be9d 4fbe 3cdc 703d 4a0d 56bb
00000280: 0b51 56be 5eee 47bd 248e 7fbd cb9b d2bc
00000290: 4824 07be 0f68 023d bdaf dcbd 5211 77bd
000002a0: 5ea4 09bd 23b7 16be 7842 56be 6cb1 683d
000002b0: 9b9b 263e fee4 0c3d 44e3 95bd 1e55 573e
000002c0: 7c23 00bb 0901 813e 43c1 b53b 990f 8bbd
000002d0: dc33 c03c 53d7 3fbd 10c7 9b3d 8045 943a
000002e0: 3571 35be 74ed 163e f31b 7b3d 47e9 493e
000002f0: 4d26 2f3d d4f5 293e 1648 1dbe 1d75 473d
00000300: 5328 623d f402 acbb 736f c33d d9a8 18bc
00000310: 2851 af3d 3926 553d 65c6 f7bd cde5 803b
00000320: 16cd e43d 7647 f8bd 90ba b43e 3c21 4ebc
00000330: ae0c b2bd 9d10 ae3d f885 64bc db50 4fbd
00000340: 595a 64bd fe3c ab3d 408f 333c 9480 933d
00000350: deba 0d3d adf3 b5bd 874a 053e c74e 9fbd
00000360: 9858 5d3e b5d0 bc3d f411 80be d4ee 20be
00000370: 4a8b e4bd f423 13be 674d f73d b0f1 fe3c
00000380: 01c3 30bd 5304 303e d8b0 77be 9eda 18bc
00000390: 9343 a93b 5e06 75bc 4d8c a6be da8d 7e3c
000003a0: 2458 0fbe d80b 193e 6b72 7cbe 9d34 9ebd
000003b0: 1462 95be c4fe 733c e298 043e 2e7f a43e
000003c0: 04a9 01be 2127 663e d38c 8c3c 8b6f 86bd
000003d0: 81b0 113e f9d2 28bd 12cf 6b3d d701 80be
000003e0: 4bc2 383d 52f9 873d 813f 6b3d dc00 c8bd
000003f0: 0f58 8bbd ca91 f03d 21a3 cb3d 64d5 0f3d
0.2007897 0.051170688 0.028622076 0.09123857 0.05427734 0.03832036 0.07482452 -0.06112917
0.076702036 0.20186244 0.47567293 -0.09560545 -0.15234259 0.034700144 0.096888356 -0.11179094
-0.022944242 -0.4275217 -0.15693517 0.0946529 -0.0021459898 0.12002642 -0.09768961 -0.080525026
0.0060421997 -0.12912051 -0.1478138 0.123457 -0.05753882 -0.3388812 0.025187697 0.10623708
-0.13223459 -0.015382753 0.021054221 -0.031476576 -0.22961839 0.03033004 0.06855661 0.096335135
0.06815622 -0.1619266 0.15299958 -0.13260008 -0.17734475 0.10657804 -0.14786719 -0.08421812
-0.0679388 -0.08496509 -0.09332379 0.08306963 0.05138352 0.023120265 0.10972632 0.070846446
0.087631 -0.05546343 0.15431146 -0.18097194 0.040143106 -0.017733635 -0.097041234 -0.092391096
0.013782373 0.063419625 -0.07379637 0.02704994 -0.15248196 0.032802615 0.10736384 0.025659202
0.039312378 0.16566575 0.24938548 0.07073188 -0.022968585 0.21643384 0.018618284 -0.1339062
-0.18406554 -0.15893362 -0.1773298 0.16310346 0.019982707 0.07453581 -0.00574819 0.08524939
0.080622174 0.019096073 -0.084358715 -0.086259685 0.15364672 -0.06463403 -0.017884267 0.08461854
0.08424062 -0.019940061 -0.056923863 -0.0035490307 0.10894678 0.099131614 0.01665877 -0.011154156
-0.046003852 0.037171204 -0.02391419 0.030046511 0.068473294 0.09989303 0.16119929 -0.20926714
-0.055352736 -0.1322179 0.13432388 0.17446963 -0.007831578 0.021811403 -0.114422105 0.010808209
-0.0428006 0.12173295 0.0061789346 0.067572065 -0.17931111 0.1625766 -0.09608394 0.039927147
-0.03403174 -0.018630488 0.06968041 0.23355572 -0.118196085 -0.20080557 0.10985648 0.1388113
-0.13128617 0.007974642 -0.0036867333 -0.08123742 -0.18720768 0.114136234 -0.15575399 -0.06183503
-0.10651902 0.07643009 0.107461624 -0.103171825 -0.12001425 -0.027076736 0.042722035 0.16401613
-0.046185303 0.050733425 -0.024016367 0.053258352 -0.23296195 -0.20275018 0.058803782 -0.003266173
-0.20929353 -0.04881131 -0.062391415 -0.025709054 -0.13197434 0.03183752 -0.10775707 -0.060319252
-0.03360402 -0.14718299 -0.20923793 0.056809828 0.16270296 0.03439807 -0.07318738 0.21028563
-0.00195524 0.25196102 0.00554672 -0.067900844 0.023462228 -0.04683621 0.076063275 0.0011312217
-0.17718966 0.14739019 0.06130595 0.19717894 0.042761136 0.16597682 -0.1535953 0.048695672
0.055214237 -0.0052493755 0.095427416 -0.0093176 0.08560401 0.052038405 -0.12098388 0.0039336444
0.111719295 -0.12123005 0.35298586 -0.012581166 -0.08693825 0.084992625 -0.013947956 -0.05061422
-0.055750225 0.08361243 0.010959446 0.07202259 0.03460204 -0.08884368 0.13016711 -0.077786975
0.21615827 0.09219495 -0.25013697 -0.15716106 -0.1115938 -0.14369184 0.1207531 0.031121105
-0.04315472 0.1718915 -0.24188554 -0.009329466 0.005165526 -0.014955131 -0.32528916 0.01553675
-0.13998467 0.14945924 -0.24653022 -0.07724879 -0.2917639 0.014892284 0.12948945 0.3212828
-0.1266213 0.22475864 0.017156994 -0.06564244 0.14227487 -0.041216824 0.057570525 -0.25001404
0.045107167 0.06639351 0.05743361 -0.09765789 -0.06803905 0.11746557 0.09943224 0.035115615

value.2.bias f4 [32]
00000000: 939b d23c e2a7 8abd bc9d 37bd be92 a43d
00000010: e1a9 0b3e 9fc5 aa3d c5b3 7bbd b1f9 61bc
00000020: a28e 353d 5e91 1cbe d0f7 a33d 56cb 21be
00000030: c433 b9bd 502f 973d 4f2f 38bd 1f6f 613d
00000040: 656b 323e aa2b e4bd ddc3 213e 45de 6fbe
00000050: cccc 29bd 1f9d 8abe ff54 14be ac8e 6bbc
00000060: 3d16 933d a1c7 5e3c 46ba 633d e6a0 4abc
00000070: 28bf 0f3e 283e ebbd 3399 b0bc 7398 233e
0.02570895 -0.06770302 -0.04482816 0.08035801 0.13639022 0.083384745 -0.06145074 -0.013792441
0.04432548 -0.15289828 0.08006251 -0.15800223 -0.09043077 0.07382071 -0.044966992 0.055037614
0.1742378 -0.11141141 0.15797372 -0.23424633 -0.041455075 -0.27073 -0.14485548 -0.014377277
0.07181976 0.0135974 0.055597566 -0.012367463 0.14037764 -0.11486465 -0.021557426 0.15976124

value.4.weight f4 [1, 32]
00000000: 3b9f 353d bda8 123d 596e e23d fe0b 533c
00000010: 7fd7 1e3d e7e8 253d 5dac 60bd 411e 1a3d
00000020: b367 753d 6429 75bd 369d f9bc 77c4 bbbd
00000030: baeb b13d dcb0 acbd aaa0 38bd 8c85 d4bc
00000040: 9ba9 d93d 1e9f 223d 10f8 e2bc 2047 9bbd
00000050: c7d7 41bd bcd8 8cbd 0394 debc c0d5 c33d
00000060: 81d8 3bbd cfdb cabd b928 15be d838 bebd
00000070: 2ca5 b83d aed1 013d 8a13 b13d a453 98bc
0.044341307 0.035805453 0.110562034 0.012881277 0.03877973 0.040505316 -0.05485188 0.03762651
0.05991335 -0.059853926 -0.030470472 -0.09168332 0.086875394 -0.08432171 -0.045075096 -0.025942586
0.10628053 0.039702527 -0.027706176 -0.075819254 -0.047324922 -0.06877276 -0.027170187 0.09562254
-0.04586077 -0.099052064 -0.14566316 -0.09288186 0.09015879 0.031694107 0.08646305 -0.01859457

value.0.weight f4 [32, 20]
00000000: 9c5d 59be a937 da3c b49f 0cbe 3fba a5bd
00000010: 6fb9 0fbe bde3 91be d66c 0e3d 38c0 5c3e
00000020: eb0c a6bd b284 943b de43 263e ba1c a73d
00000030: 2e60 473e c6b9 19be aaca 623d 4cc8 15bc
00000040: eb26 bdbd 2c41 f2bd 967d 3e3e ad3c 5cbf
00000050: 8a4d 8bbc 2979 e93c b331 48bd bc97 843d
00000060: a27b d8ba fb13 d13b 9734 4aba 0dc7 e1ba
00000070: b363 b63d c161 06bf b01d 653d 1029 4dbd
00000080: 224e 7f3e d8e2 f73d bd54 73be 727a ff3d
00000090: 7cb9 943d 3c4b 8b3e a4ad 173d 22af b33e
000000a0: 2029 0b3e de9d 543d e42b da3c 9ba3 0f3d
000000b0: 9300 043e 47b1 933d a4ad 2ebe ae02 8e3b
000000c0: 2ce7 393e 3c5f a13d 7f31 0f3d dfdc 3d3e
000000d0: adcf 27be 744d 28bc 3e56 f3bd 0da6 79bd
000000e0: f2cf 763d 37b1 edbc 1dd1 213f f922 bfbe
000000f0: c5fe 48bd d92f 333d 3dad 2c3e be1a d33d
00000100: 919a e93d c859 a63c ab63 df3d 02b8 e8bd
00000110: 60ac 293e 018d abbd d122 1e3e 417c 473d
00000120: 90a3 cabd 122f eebd 498a 013e d5c5 353e
00000130: 81e5 33bd edb8 d5bd d73a d0be 5fc0 50be
00000140: d3f4 5e3d c038 97bc d8cd e5bd 75c3 4cbe
00000150: 4f71 00be 0d14 e1bb f72a f83c 1abc 53bc
00000160: ba87 c6bd aaf9 c03d 3521 2cbe c5cc e6bd
00000170: f4a2 2dbe 30d0 3c3e be1a 3abe b997 9cbd
00000180: c4df 1b3e 4313 203e d248 53be a7ae 403f
00000190: 5d6a 303d 08d3 6e3d fccd 4bbe 5fc0 f53d
000001a0: 1695 d73d 8daf 1e3c 0b48 81bd f5f2 6fbe
000001b0: 36f0 01be a30f 00bd 581e 483d 9598 8fbe
000001c0: 6f76 0d3e 8328 dc3d d9bb 31be 7d27 45be
000001d0: 3808 f6bd edce f33d b2b2 9a3d 173e 7fbe
000001e0: e3ce e5bd c124 66bd 55ec caba 119f 5cbe
000001f0: 0dcb 313e 9d1c b0bd 8176 0abe 50b5 dfbd
00000200: efa9 09be 3ff1 37bc b0b7 94bd 48ec ce3d
00000210: 2972 23bd 138e 40bd 9bc1 73bd e47b 373e
00000220: 361d a93a 8eca 853e 399a ebbd d221 9a3d
00000230: 22e7 fdbd 63cf aebc eadd 043e f8b9 333e
00000240: c1ef a9bd 0e96 ffbd dc84 7e3d 1251 8b3e
00000250: 8d32 d53d 5582 98bd c6e5 fcbd 0b89 d0bd
00000260: a19a 853e 7718 0a3e 81db 52be b26b cb3d
00000270: b63b 2d3d 2fca 10bc 2f0b 5fbe 7a87 3ebf
00000280: 11eb 4d3d 8bf3 f73c 7dec 17be f75e c13c
00000290: 40af 933c 1903 bb3c 405b 383d e8b2 0a3e
000002a0: 7ac2 84be 70aa 03be 256d 193e 40e1 62bd
000002b0: 6664 02be 7cc8 8cbd 48ef 1dbe 1cc7 353e
000002c0: 79b4 b73d 623f de3d 2551 6fbd a90d 80be
000002d0: a246 95bd 6868 853d 102b 413e 791c b33d
000002e0: f15c 1abe 4c98 20bd 9e15 a4bd b843 67be
000002f0: baf6 c7bc 1e7f 043d 1cc6 c6bd c2df 9f3b
00000300: f56e 583e c5f3 3c3e e74c 3dbe 27db 143e
00000310: 1d29 f7bd 9432 00be 5bcc 543e ae43 8dbe
00000320: 93ef 1dbb f332 243d 19b1 8bbd dd91 25be
00000330: 4670 c93d 2932 f4be c203 50bc 6c53 07bc
00000340: a821 c1ba bc83 473c fe81 6ebc 9a0d 9d3d
00000350: 378d c83c 0ea4 59be f6fc 18bc 67b4 ed3d
00000360: b295 443d 7378 3a3e 4a1f 1c3e 8e3c 4f3e
00000370: 8e5f e43d 92de 56bd 6b44 fa3d f1dc 08be
00000380: 429b edbd 520b 073e 180a 9dbc 69d9 95bb
00000390: e402 fdbd a77a cf3d 82ac d13d 232a 203e
000003a0: b097 513c 3f0b 713e e20f 0dbd 2d28 283e
000003b0: b6d0 91bd c007 eb3d d17e 423f ea6a 91be
000003c0: 9958 f6bd 0f10 993d 7859 893d 60ee bcbb
000003d0: a516 c9bd 52da e1bd 0e81 083e f279 953d
000003e0: 4dad 4dbe e77d be3d 18d4 233e 7861 243e
000003f0: 82a6 663c 9489 c5bc 3a1a e03d 5ed6 eabd
-0.21227115 0.026637869 -0.13732797 -0.08092164 -0.14035581 -0.28494063 0.034771763 0.215577
-0.08107933 0.00453242 0.16236827 0.08159776 0.19470283 -0.15012273 0.055369057 -0.009141993
-0.09235939 -0.11828837 0.18602595 -0.86030084 -0.017004747 0.028500156 -0.048875522 0.064742535
-0.0016516338 0.0063805557 -0.0007713525 -0.001722546 0.08905735 -0.5249291 0.055936515 -0.05008799
0.24932149 0.12103814 -0.23762794 0.124745265 0.07261941 0.27205837 0.03703083 0.35094553
0.13589907 0.051908366 0.026632257 0.035068136 0.12890844 0.07211547 -0.17058426 0.0043338155
0.18154591 0.07879493 0.034959313 0.18541287 -0.16387816 -0.0102723725 -0.11881684 -0.060949374
0.060256906 -0.029015167 0.63209707 -0.3733137 -0.049071092 0.043746803 0.1686296 0.10307835
0.11406434 0.020306483 0.10907682 -0.11363222 0.16569662 -0.08376504 0.15442969 0.048702482
-0.09894478 -0.11630072 0.12650408 0.17751248 -0.043920044 -0.104356624 -0.4066989 -0.20385884
0.0544327 -0.018459678 -0.11220902 -0.19996436 -0.12543224 -0.0068688453 0.030293925 -0.012923265
-0.096938565 0.0942262 -0.16809542 -0.112695254 -0.16956693 0.18438792 -0.18174264 -0.07646126
0.15222079 0.15632348 -0.20633247 0.752665 0.043070186 0.058306724 -0.19902796 0.119995825
0.10526483 0.009685409 -0.06312569 -0.23432525 -0.1268929 -0.031264912 0.048857063 -0.28046098
0.1381471 0.107499145 -0.17356814 -0.19253345 -0.12013286 0.11904702 0.07553615 -0.24926029
-0.11221101 -0.056187395 -0.0015481809 -0.21545054 0.17362614 -0.085992076 -0.13521768 -0.109232545
-0.13443731 -0.011226951 -0.07261598 0.10103661 -0.039903793 -0.047010493 -0.05951081 0.17918354
0.0012902382 0.261311 -0.11504025 0.07525982 -0.12397601 -0.021339124 0.12975278 0.1755141
-0.082976826 -0.124797925 0.062138423 0.2721029 0.104100324 -0.07446734 -0.12348513 -0.10182389
0.26094535 0.13485895 -0.20591547 0.099326506 0.042293273 -0.008837267 -0.2178161 -0.7442547
0.050273005 0.030267498 -0.14836307 0.023604853 0.018027902 0.022828626 0.045008898 0.1354481
-0.25929624 -0.12857985 0.14983042 -0.055390596 -0.12733611 -0.06874177 -0.1542331 0.17751735
0.08969969 0.10851933 -0.058426995 -0.25010422 -0.07288863 0.065140545 0.18864083 0.08745665
-0.15074517 -0.03920774 -0.08011936 -0.22584426 -0.02440964 0.03234779 -0.09705755 0.004878969
0.21136077 0.18452366 -0.18486367 0.14536725 -0.120683886 -0.12519294 0.2078108 -0.27590698
-0.0024099096 0.04008765 -0.06820888 -0.16168924 0.098358676 -0.4769452 -0.012696208 -0.008259635
-0.0014734762 0.012177404 -0.01455736 0.0766861 0.024481399 -0.21253988 -0.009337654 0.11606675
0.047994323 0.1821001 0.15246311 0.20237944 0.11151038 -0.052458353 0.12220081 -0.13365532
-0.11601879 0.13187912 -0.019169852 -0.0045730365 -0.12354067 0.10130816 0.102379814 0.15641074
0.012792513 0.23539446 -0.034438975 0.16421576 -0.071198866 0.114760876 0.75974756 -0.2840188
-0.120286174 0.07473766 0.06706518 -0.005765721 -0.09818772 -0.110279694 0.1333048 0.0729865
-0.2008564 0.09301358 0.15998876 0.16052806 0.0140777845 -0.024113454 0.10942502 -0.114666685

value.0.bias f4 [32]
00000000: 71d1 0fbe 21dc aebd 466a 013d d090 6bbd
00000010: 22b3 b03d 536b 363e 596c 69be 3007 1cbe
00000020: bfc3 0abe dc95 32be 7193 2fbe 4d22 2ebe
00000030: e800 46bd 9c3e 1b3d 6abc 45be 9f96 d0bd
00000040: ac5e 05be 10f5 1cbe 3eac d9bd 6fe0 7ebc
00000050: a27c ccbd b046 2e3d 4951 493e 4aa3 27be
00000060: 6486 183e 550c 113e f10d 953d 2f6b ccbd
00000070: 652e 84be efb3 a4bd d3f4 38be 16f0 89be
-0.1404474 -0.0853808 0.03159549 -0.05751115 0.08627917 0.17814378 -0.22795238 -0.15237117
-0.13551234 -0.1743998 -0.17146088 -0.17005272 -0.048340708 0.037901506 -0.19310156 -0.10184979
-0.13024396 -0.15327859 -0.10628556 -0.015556439 -0.09984709 0.04254788 0.19659914 -0.16370884
0.14895016 0.1416486 0.0727805 -0.09981381 -0.25816646 -0.08042132 -0.18062143 -0.26940984

value.2.weight f4 [32, 32]
00000000: a5d2 4c3e eb4d 543d edf2 e43c a6b2 b93d
00000010: c844 5d3d 7a8a 1e3d b86a 9a3d 87f1 77bd
00000020: aaf7 9e3d 4d4b 4e3e 4998 f33e d7ef c3bd
00000030: 6ad6 1ebe 822e 0f3d 4344 c63d e839 e5bd
00000040: 7a51 bbbc aff1 dabe 8bcf 21be 40b9 c03d
00000050: 6e8c 64bb 495a f53d ab48 c6bd 8d4e a6bd
00000060: 98f3 b73b 8d4f 04be c368 17be 28ad fe3d
00000070: 9620 6dbd 0d74 adbe c8ee c43c 6981 d93d
00000080: 1486 07be 6b45 79bc 1e7c b33c d40d fcbc
00000090: 4387 6bbe f93d 063d 683a 8e3d cb04 c53d
000000a0: c3a9 8a3d 51a3 27be f9eb 1b3e 545c 07be
000000b0: fd29 37be 40a0 d93d 54db 16be ccf5 abbd
000000c0: 6ed6 8abd 3373 b2bd e9f9 bfbd d5ae a93d
000000d0: 43f8 4f3d ef92 bb3c f28a e03d 2411 8f3d
000000e0: 36fc b33d f2ef 62bd d91e 1e3e 9f85 39be
000000f0: 417e 2a3d 3ae8 93bc 4fbc c6bd b5d2 bdbd
00000100: f326 653c 9a5d 823d a929 97bd abe0 dd3c
00000110: be23 1cbe e466 073d 3e3e dc3d 9b47 d43c
00000120: 92bb 203d e08f 293e c99b 7f3e 42f9 903d
00000130: 6d3d c5bc 9f6c 5d3e a129 993c a5be 08be
00000140: 54a2 3cbe f1b6 22be 9ecb 35be af2c 273e
00000150: d9c3 a33c 0782 983d c2fb b6bb 795a ae3d
00000160: 491b a53d 8582 9c3c c924 acbd 66dd b0bd
00000170: a62a 1d3e c6b6 85bd 90ff 97bc 02d6 ac3d
00000180: ea50 ac3d 9742 a6bc c732 68bd 3709 54bb
00000190: b2c2 de3d 5cc1 cb3d 09d6 8b3c 43d8 33bc
000001a0: a8c3 3fbd 226d 183d f0f0 c5bc 9d95 f43c
000001b0: 8956 893d e035 cc3d ac3a 253e 18e7 55be
000001c0: e6e6 62bd af49 07be 948c 093e 6ed6 323e
000001d0: f3ca fbbb 4e64 b23c 18e1 eabd ec66 2c3c
000001e0: 5fd5 2dbd 806d f93d 52a4 ce3b 91bf 883d
000001f0: 87d5 37be ebe6 253e 23e5 c5bd c9a6 243d
00000200: 9d06 06bd 06c2 9abc 7246 8d3d 7a7f 6f3e
00000210: 9348 f2bd e83a 4abe 241f e43d 3881 0e3e
00000220: 442e 07be 1697 0e3c 97ea 1cbb 9711 a4bd
00000230: da0b 3fbe 65c5 e83d bf5a 1fbe f112 77bd
00000240: 8a45 dabd 70e2 9d3d 4f11 db3d df82 d4bd
00000250: 9b73 f8bd ef03 dfbc fb4e 393d 4846 273e
00000260: c9f4 3bbd ca24 513d f4e3 d6bc 1ea7 5e3d
00000270: 12d5 6dbe 60ff 50be 0c4f 6e3d 1e8c 92bb
00000280: 12b0 56be 8802 46bd 101a 81bd fde8 e2bc
00000290: b8a2 06be f8b0 ff3c 837a dcbd 257c 77bd
000002a0: d5ff 07bd f770 16be dd32 56be 7c0c 6a3d
000002b0: 325c 263e 094b 0c3d 8563 93bd b546 583e
000002c0: 209b b3ba 87e9 803e e94b 8a3b 32b2 89bd
000002d0: 80fb be3c 5ba2 3cbd 945e 9c3d 0260 fe3a
000002e0: d33c 34be e623 173e 8345 803d 0c43 4a3e
000002f0: 4b69 2e3d 3938 293e 1a70 1bbe 1707 4c3d
00000300: 3f09 623d 042c bebb 3137 c33d d2c7 20bc
00000310: e694 ae3d df99 543d 9f1c f9bd 402b 2e3b
00000320: 6a76 e43d 48d2 f7bd 6c42 b43e 348e 52bc
00000330: 28dd aebd 166b ae3d 706e 70bc f8cb 4dbd
00000340: 00a0 68bd e978 ab3d fd6b 313c 5d42 923d
00000350: 8e8e 0e3d dc66 b7bd 872d 053e 8180 a0bd
00000360: e94f 5d3e 2128 bd3d 1a12 80be ebf6 20be
00000370: 455a e4bd c0fc 12be 220e f63d 92e5 f93c
00000380: 690c 30bd f5a8 2c3e 12e4 77be 370e 4bbc
00000390: 3c77 9c3b 6f7f 7dbc 4a3e a7be 1f77 513c
000003a0: 81e5 10be caab 183e 2b2b 7dbe eee6 9cbd
000003b0: 5405 95be 517e 4b3c 778c 013e 1b52 a43e
000003c0: 46e3 03be 39c1 653e a8fd 833c 306d 8abd
000003d0: ab48 113e d02c 34bd 5a8d 6b3d beb0 80be
000003e0: 25bd 343d efd8 873d c675 623d aec3 cabd
000003f0: dd2e 8bbd 3935 ed3d b81e cc3d 9bed 2d3d
0.2000223 0.05183212 0.027947867 0.090672776 0.054020673 0.03870628 0.07539886 -0.060533073
0.07762082 0.20145912 0.47577122 -0.0956723 -0.1551148 0.034956463 0.09680989 -0.11192685
-0.022866 -0.42762515 -0.15801828 0.09410334 -0.0034873742 0.11980111 -0.09681829 -0.08120451
0.0056137554 -0.12920971 -0.14786057 0.12435371 -0.057892404 -0.33877602 0.024039641 0.10620386
-0.1323474 -0.015214304 0.02190977 -0.030768313 -0.23000817 0.032773945 0.06944734 0.09620055
0.06770661 -0.16370894 0.15226735 -0.13218814 -0.17887111 0.106262684 -0.14732105 -0.083964914
-0.067791805 -0.08713379 -0.093738385 0.082853 0.05077387 0.022897212 0.10964002 0.06985691
0.0878834 -0.05540461 0.15441455 -0.18117379 0.04162431 -0.01805507 -0.09703886 -0.09268705
0.013986337 0.06365509 -0.07380993 0.02708467 -0.1524801 0.03305711 0.10754059 0.02591305
0.03924138 0.1655879 0.24961771 0.07078792 -0.024077142 0.21623467 0.018696608 -0.13353975
-0.18421298 -0.15890099 -0.17753455 0.16325639 0.019990848 0.07446676 -0.005584211 0.0851335
0.08061845 0.019105205 -0.08405454 -0.086359784 0.153483 -0.06529002 -0.018554479 0.08439256
0.08413871 -0.020295424 -0.05668905 -0.0032354125 0.10876979 0.0994899 0.017069833 -0.010976854
-0.04681745 0.037213452 -0.02416274 0.029856497 0.067059584 0.09971213 0.16135663 -0.20888937
-0.055395983 -0.13211702 0.13432533 0.17464611 -0.0076841055 0.021776345 -0.114687145 0.010522585
-0.042439815 0.121790886 0.0063062096 0.066771634 -0.17952548 0.1620137 -0.09662845 0.04019812
-0.03272115 -0.018891346 0.06898202 0.23388472 -0.11830249 -0.19749033 0.11138752 0.1391648
-0.13201243 0.008703014 -0.0023943537 -0.080111675 -0.18656865 0.11365775 -0.1556196 -0.0603208
-0.10657795 0.07709205 0.10696661 -0.10376524 -0.12131425 -0.027223555 0.045241337 0.16335404
-0.045887742 0.051060475 -0.026231743 0.054358594 -0.23225811 -0.20409918 0.058180854 -0.0044722697
-0.20965603 -0.048342258 -0.06303799 -0.027698988 -0.1314801 0.031212315 -0.10765555 -0.060421128
-0.033202965 -0.1469153 -0.2091784 0.057140812 0.16246107 0.034251247 -0.07196716 0.21120723
-0.0013702847 0.25178167 0.004220475 -0.06723441 0.023313284 -0.04605327 0.07635227 0.0019407275
-0.17601328 0.14759788 0.06263258 0.19752139 0.042580884 0.16525353 -0.15179482 0.04981145
0.0551846 -0.005803587 0.09532011 -0.009813266 0.08524494 0.051904555 -0.12163662 0.0026576072
0.11155398 -0.12100655 0.35206926 -0.012851287 -0.08538276 0.08516519 -0.014674768 -0.050243348
-0.056793213 0.08372671 0.010828969 0.07141564 0.03480392 -0.08955166 0.13005649 -0.0783701
0.21612515 0.092361696 -0.2501381 -0.15719192 -0.1115003 -0.14354229 0.12014414 0.030504975
-0.042980585 0.16861327 -0.24208096 -0.012393526 0.004774956 -0.015472277 -0.3266471 0.012784748
-0.14150049 0.14909282 -0.24723499 -0.07661234 -0.29105628 0.012420253 0.1265124 0.32093892
-0.12879667 0.2243699 0.016112164 -0.06759107 0.14187877 -0.04398805 0.05750785 -0.25134844
0.044125695 0.06633174 0.0552881 -0.09900604 -0.06796048 0.11582417 0.09966797 0.042462926

value.2.bias f4 [32]
00000000: b5d5 cc3c a7cf 8bbd 9c09 38bd ed4d a43d
00000010: 5547 0b3e d4d3 ab3d 3028 7dbd 5619 6fbc
00000020: a827 333d 2cbc 1cbe 35db a33d f64b 22be
00000030: 8043 b9bd be49 963d 837b 37bd 7957 623d
00000040: 5672 323e 775d e4bd 5acd 213e 1b69 6fbe
00000050: 04a0 29bd 6ab2 8abe 036c 13be 6ff5 7dbc
00000060: b141 943d 0dd3 563c 5354 643d d60e 4fbc
00000070: ddc4 0f3e 3c9c ebbd 3fba adbc ce81 233e
0.025004247 -0.06826716 -0.04493104 0.08022676 0.1360143 0.083900124 -0.061805904 -0.014593443
0.04373899 -0.15306157 0.08000795 -0.1584929 -0.09046078 0.07338284 -0.044795524 0.0552592
0.17426428 -0.111506395 0.15800992 -0.23379938 -0.04141237 -0.27089244 -0.14396672 -0.01550041
0.07239092 0.013111842 0.05574448 -0.0126378145 0.14039941 -0.11504409 -0.021206973 0.15967485

value.4.weight f4 [1, 32]
00000000: 431d 383d 7c9a 153d 38c9 e23d 2d30 523c
00000010: 4d0c 203d ea5b 253d f5dc 5fbd 2617 1d3d
00000020: 6c62 743d bbc4 74bd 6297 f8bc ca32 bbbd
00000030: c948 b23d f91b adbd cde8 3cbd 583e d5bc
00000040: 0eff d83d 31a8 203d ddae e4bc d36e a0bd
00000050: d828 41bd 7ebc 8cbd 427f e0bc cbae c33d
00000060: c8cb 39bd 02d7 cabd 0722 14be 4e5d c1bd
00000070: 8de0 b73d c8bd 013d 7a75 af3d ec99 98bc
0.04494978 0.03652428 0.11073536 0.012828869 0.03907423 0.04037086 -0.05465408 0.038352154
0.059664175 -0.05975793 -0.030345622 -0.091405466 0.08705289 -0.08452601 -0.046120454 -0.026030704
0.10595523 0.0392229 -0.027915413 -0.07833638 -0.047158092 -0.068718895 -0.027404431 0.095548235
-0.045360357 -0.09904291 -0.14466105 -0.094416246 0.089783765 0.03167513 0.08567329 -0.018628083

actor.0.weight f4 [32, 18]
00000000: cba1 efbd 444d 5cbe 2ee3 04be 0b68 393e
00000010: 33d1 30be 2997 b43d 39c0 90bd 4380 81bd
00000020: cb3e 093e a7b7 133e fc48 783d ded3 2f3d
00000030: f567 c0bd 4ff0 f7bc c599 1ebe 084d f73d
00000040: 3162 2cbe a9ed 0a3e 05f8 d1bd 1fa1 d13b
00000050: ee93 3e3e 5cbd 48be 5b54 7d3c 146a dcbd
00000060: c904 79be 3d1b f0bd 8006 29be b64e 81bd
00000070: d827 203e a4c2 3b3e f814 b73b 8320 c8bd
00000080: 3ab1 183e a2f1 e0bd 4c9e 6bbd 5ee6 7abd
00000090: f1a0 d5bd 35a9 93bd ac62 d2bd 7897 dfbd
000000a0: 24e3 81bd 3903 79bd 5c75 103e 92d7 d0bc
000000b0: 5db6 1fbe 1956 59bc d563 4fbe 7f1a ae3d
000000c0: febb f0bd 4037 24bd 8836 343e fcbd 7cbd
000000d0: bd73 533e 1f35 d9bd 2964 513e 6a3c d3bc
000000e0: 484c 5fbe 8418 0cbe 08d9 0abd a8a5 55be
000000f0: 32ed 31bd 06a6 43be 5d34 b73d 68ed c73d
00000100: 0940 803d a59f 1cbd 23b0 01be dfd0 483e
00000110: b276 8f3d 6386 09be 7e32 08be 33f3 8d3d
00000120: dc2c b3bd de8a 0b3d 2d63 29be 8404 35be
00000130: 6201 90bd 037d 3d3e e147 d53c 3063 2abe
00000140: fab0 23be 5938 09bd 539a 3f3e ccc4 1dbe
00000150: 6a13 603d a697 2a3e d232 323d 44bd d43b
00000160: a134 e93d ae2b 6f3e d365 7fbe 1ed8 0bbe
00000170: 6d44 3b3e aa80 15be b758 0dbe ca7e 3c3e
00000180: d553 2cbe 1932 5cbe 4889 d73c c21c 633e
00000190: 887e 6dbe f189 51be 0abe 25be cc64 f1bd
000001a0: 24ff 3d3e cfca 0b3e 5f0b b7bd 644b 5cbe
000001b0: 0cf4 62be b88c 613e 9f56 623e 362b 45be
000001c0: 45ad eb3c 2c0b f0bc 65e4 91bc b8e8 38bc
000001d0: b059 55be 1710 663d caf7 4e3e e64e 04be
000001e0: 6773 b93d 14de b7bb 0b7d 39bd 263a 5fbe
000001f0: de3b 583c 55f9 54be 8138 183e 4eb1 4e3e
00000200: c227 2c3e 3cdb 193d 25b3 64bd 0392 3d3d
00000210: a348 083e ae2d b9bd 2548 4a3c 3a65 be3d
00000220: 57b5 163d f7e9 6fbd 7ef6 713e 3bb1 52be
00000230: e1f6 1bbc 82d4 df3d 5f64 e7bd fc08 46be
00000240: 7053 cabd f529 0fbc d8bc bc3d 83c4 0d3e
00000250: 0444 a83c 7946 8e3d e7bf 1f3e c1f1 0d3c
00000260: 0905 0fbe 27a5 6fbd 4b4d 5ebe 9246 e7bd
00000270: d828 f13d 57a8 5d3e d13b 8ebb 7752 2dbe
00000280: 4dbd 383e e8cd e3bd 210b 54be 0eb8 e6bd
00000290: f7e8 3a3e 4c1e 66be ddde 583e 7658 bb3d
000002a0: eaeb 383e bd69 b93d 22fa 423d 46d1 78bd
000002b0: 81a1 a6bc 7a27 7e3c ab22 02be 7d81 3abd
000002c0: 12d3 373e 3afb 86bd cf05 f23d c801 50be
000002d0: cf79 08bd dcc6 013d c006 603e 0338 10be
000002e0: 684d 143e 76b2 273e db69 36be c577 37be
000002f0: afba 9dbd bc7d f83d fff0 5eba 37e4 013e
00000300: 9e8f 82be f922 363e 7939 903d fe1e 12bc
00000310: a24c e0bd acc6 633c 641a 61be f237 1bbe
00000320: f760 553e 6ca8 c23d 3389 583e 5e55 30be
00000330: 5cb5 da3d f063 103e 072f b1bd c1c4 71bd
00000340: 9e32 88bc fdeb 47be bdbe 38be da3f 0cbe
00000350: 4906 a2bd 50f5 243e 71b5 6c3e d1bc d0bd
00000360: ac8d c1bc b3b5 2d3d 8508 31be 619b 23be
00000370: 7eb5 513e 00d4 60be 7ff4 6abe c632 2abd
00000380: 5afe 62be b729 dc3d 8b36 023d daa4 c63b
00000390: 0fbe 65be 134f 35bd a3de 1fbe bcce a73c
000003a0: 0b24 bc3d c006 593c abad 0b3e 8646 063d
000003b0: 09d2 a5bc 9ca7 103e 38d6 9fbd 3a7d 3ebe
000003c0: e3dc ce3d e27e b73d b298 f03c 7f76 fabc
000003d0: 6e46 ef3d dc37 53bd 9a0f 363e a94a 053e
000003e0: 4b90 783e ab5b d3bd 562a 97bd 3719 613e
000003f0: 1476 c93d 49e4 4ebd 7ff2 053d 1886 553d
-0.117007814 -0.2151385 -0.12977287 0.18106095 -0.17267303 0.08817894 -0.070679136 -0.06323292
0.1340286 0.14425527 0.06061648 0.04292666 -0.09394828 -0.030265955 -0.15488346 0.120752394
-0.16834332 0.13567223 -0.10252384 0.006397381 0.18611118 -0.19603485 0.015462006 -0.1076242
-0.24318232 -0.11723945 -0.16506386 -0.06313841 0.15640199 0.18335968 0.0055872165 -0.09771826
0.14911357 -0.10983588 -0.05752401 -0.06125485 -0.10431088 -0.07210008 -0.102727264 -0.10917562
-0.06342152 -0.06079409 0.14107269 -0.025493417 -0.1559691 -0.013265156 -0.20252927 0.085011475
-0.11754607 -0.040091753 0.17598927 -0.06170462 0.2064962 -0.10605835 0.20448364 -0.025785644
-0.21806443 -0.13681227 -0.033898383 -0.20863974 -0.043439098 -0.19106302 0.089455344 0.097620785
0.06262214 -0.038238186 -0.12664847 0.19610928 0.07005061 -0.1343017 -0.13300511 0.06931152
-0.087487906 0.03406798 -0.16541739 -0.17677504 -0.07031514 0.1850472 0.026035251 -0.166394
-0.1598548 -0.033501003 0.18711214 -0.15407103 0.054706015 0.16659412 0.043505497 0.006492289
0.11386991 0.23356506 -0.24941187 -0.13656661 0.18287821 -0.14599863 -0.13803373 0.18407741
-0.16828854 -0.21503486 0.026310578 0.22178939 -0.23192799 -0.20462777 -0.16185775 -0.117868036
0.1855436 0.13651584 -0.08937716 -0.21513134 -0.22163409 0.22026336 0.22103356 -0.19254765
0.028769145 -0.029302202 -0.017809102 -0.011285953 -0.20834994 0.05616769 0.20211712 -0.12920722
0.090552144 -0.0056111906 -0.045285266 -0.21799526 0.013197867 -0.20798238 0.14865305 0.20184824
0.16812041 0.037562594 -0.055834908 0.046281826 0.13308959 -0.09041916 0.012346302 0.09296651
0.036794033 -0.058572736 0.23629186 -0.2057542 -0.00951931 0.109292045 -0.11298441 -0.19339365
-0.09879196 -0.008738031 0.092157066 0.13844495 0.020540245 0.06947035 0.15600549 0.008663596
-0.13966765 -0.05850711 -0.21709172 -0.11292757 0.117753685 0.21646248 -0.0043406268 -0.16925989
0.18040963 -0.11123258 -0.2070737 -0.112655744 0.18252932 -0.22472495 0.21178766 0.09147732
0.18058744 0.09053371 0.047601826 -0.060746454 -0.020340683 0.015512342 -0.12708537 -0.045533646
0.1795161 -0.065908864 0.11817514 -0.2031318 -0.03331929 0.031683788 0.21877575 -0.14083867
0.14482653 0.16376671 -0.17813818 -0.17916782 -0.07701623 0.12133357 -0.0008504539 0.12684713
-0.25500196 0.17786779 0.07042212 -0.008918522 -0.109521165 0.013902348 -0.21982723 -0.1515806
0.2083777 0.0950478 0.21146087 -0.17220065 0.10679123 0.14100623 -0.08651548 -0.05902553
-0.016625699 -0.19523616 -0.18041511 -0.13696232 -0.07911355 0.16109204 0.2311609 -0.10192264
-0.023627125 0.04240961 -0.17288406 -0.15977241 0.2047939 -0.21955872 -0.2294483 -0.041552328
-0.2216734 0.10750144 0.031790297 0.0060621323 -0.22435783 -0.044264864 -0.15612273 0.02048432
0.09186562 0.013246238 0.13640468 0.0327821 -0.020241754 0.14126438 -0.07804531 -0.18602458
0.101007245 0.08959748 0.029369686 -0.030574081 0.11683355 -0.051566944 0.17779389 0.13016762
0.24273793 -0.10320219 -0.07381122 0.21982275 0.09836975 -0.05051068 0.032701965 0.052129835

actor.0.bias f4 [32]
00000000: 1b3f ffbd 86f0 75be 827c bebc bc24 12be
00000010: 5ed7 2ebe 268d 5d3e 30f0 34be 0c52 493e
00000020: 217d fc3d f5b4 d1bc bc53 3d3e 6cc1 b13d
00000030: f45f 3ebe 8cdb debd 9de5 653d 1dac 10bd
00000040: 730a 2d3e 08bf e53c 0a21 b93c e954 793e
00000050: 32bd cf3b 60bc 853c 685e 09be fd59 ddbd
00000060: 491c 88bc 74d1 fcbc bde7 123e 7d2f e03d
00000070: 6645 583d 31d1 b9bd d719 883c 79e8 353e
-0.12463208 -0.24017534 -0.02325273 -0.14271826 -0.17074344 0.21635875 -0.1766975 0.19660205
0.12328554 -0.025598982 0.18488973 0.086794704 -0.1859129 -0.10881719 0.05612718 -0.03532039
0.16898517 0.028045192 0.022598762 0.24348797 0.0063396925 0.016325176 -0.1341492 -0.108081795
-0.01661505 -0.030861594 0.14346214 0.10946558 0.05280056 -0.09073103 0.016613884 0.17764463

actor.2.weight f4 [32, 32]
00000000: 4a16 c33d 2c05 213e 7260 f8bc 4ec1 283e
00000010: d84a 213d 9da6 503c 6aa6 193e f31e 983c
00000020: c8df afbc 7cd7 783d 6220 6d3e 5612 14bd
00000030: 8ad7 37bc 1a3a 8cbd 9672 013e 7268 63bc
00000040: e530 6e3c 6285 13be 0bd6 b43d d8cc 3cbd
00000050: 3ec7 a33d 3941 5b3e b26b 0e3e e160 7c3b
00000060: b49c 963b 4554 e33d 3fb2 17bd 33aa 7b3d
00000070: 6625 293e 45bd 463e a6d9 6c3d 136d 05bd
00000080: 7ddb 9ebc 1bac 11bc 8712 66bd 59aa 213c
00000090: 566d 8c3d 6e3c 99bc 9a6b d73d 7bc4 b5bd
000000a0: 629e b33d 119f 18bd b2fc 0cbd 2b7b 99bb
000000b0: 3824 09be c8cd fd3d 94ff 8f3d 0e5b 98bc
000000c0: 823c 12be 9406 b4bd 1fd8 5dbd 67b9 b53d
000000d0: 4a31 b9bd 6980 1abe b337 02be 6894 2dbe
000000e0: 5302 8f3d bc7a 2dbe d5db a2bc a460 083e
000000f0: 57ae 303e af48 9fbd 3617 973d 5795 eabc
00000100: 8c02 d13d 7d37 29be 39f9 ddbc 4b83 94bc
00000110: 1c3d 463d 0586 1dbe 8974 283e a858 04be
00000120: 1af1 e83d d64d 003e 3d75 943d aa40 0ebe
00000130: efb9 333e 104e 99bd b2e9 75bd 4539 1e3e
00000140: 61c5 9ebd 973b a93d d70e 07bd 631e 1f3e
00000150: 32fc 053e 7a2f 2ebd cacd 4a3d 3c66 3dbe
00000160: a01d f6bd 9e4c 37be 5ac5 08be e6d3 df3d
00000170: f5b0 0fbe e589 89bd d9d3 033c a001 dbbb
00000180: 8e48 54bd 5eb3 aabd 3344 b53d b158 913d
00000190: 9dad b1bc 9182 f33d ee60 fdbd 417e c6bb
000001a0: 0dca 2a3d 58d0 98bd ce4b 53bd b79e f9bb
000001b0: 7a52 6c3d 7b50 b0bc 8d3e 873c d118 12be
000001c0: 7815 a3bd ec04 203e 5b20 24be 9812 5cbd
000001d0: c224 163d 78d5 9c3d 35df 38be 88cf c33c
000001e0: c33e cfbd 74e3 2cbd bad7 26be d5a8 9dbc
000001f0: c9f4 9a3d db93 0bbd ff1a 5c3d f20a 063d
00000200: 2a87 0a3e 33b1 6b3d 64c6 773d d0a0 d2bc
00000210: 8c28 b7bd 2dc1 9cbd 5498 20be 80af 863d
00000220: 8cb2 c5bc 36f1 c8bd 8cc7 30be 86fb 5ebc
00000230: d1af 82bd a85e 063c 4370 c03d 2c10 ccbc
00000240: 07ef 41be 5a6b 973d 5fe6 d43d 74c1 1cbe
00000250: e96e 153e 26e3 a9bd b547 073e d741 e03d
00000260: 0303 123b dbe9 9d3c 46ce 783d 390c f3bd
00000270: db51 11bd 0654 04be e9c2 07be a583 acbd
00000280: b8d1 f0bd 07d8 fa3d acc5 8cbd 7747 fdbd
00000290: 4176 213e e1d4 d53d 95a7 c8bd abf3 cc3d
000002a0: ac31 d3bd fe92 fdbd a102 593d 77ff d93d
000002b0: cc92 103e 71e1 313e 26e8 b6bd 7f3b 28be
000002c0: 537f a73d 68ba 043e 3874 d23d 979b 13be
000002d0: b786 fabb 0bfd 093e fd81 36be 2e9c 7fbc
000002e0: bf86 883d 69f6 04be 2813 04be f208 8cbd
000002f0: a294 2fbc f73c e23b 65cc 043e 5758 0a3e
00000300: ac38 ca3c 2702 aabd 81a0 13be ccae 8c3c
00000310: f99c 97bd 2ccd 313d 3d63 41bb c634 1cbd
00000320: b9bf a2bd c88e a9bd 2003 15be f2bd f63d
00000330: 70cf 91bd 697b 85bd fd4b dabd cf9b 7f3d
00000340: 15f8 79bc ed5e e13c 7b1e 07bd aa4d 133e
00000350: c9ab 073e d5cc 44be 63ad ba3d d8c0 4abd
00000360: 6e01 98bd 7686 c5bd b319 bd3b 9f00 e63d
00000370: d325 c4ba 83f4 61bd 6514 c6bd 0303 603d
00000380: 20ea dcbd 1a59 2f3e b85d 333e 9471 893d
00000390: 8a06 c0bd ff5c 25bd 48a8 d83c af07 063e
000003a0: b04a 073e 4e97 d1bd 8b6e 2abd 4220 d7bd
000003b0: 809c e8bd f46a 9dbc 5971 56bd 5e2e 663d
000003c0: 47a8 313e 9d07 963d c952 0abe 3bc7 94bc
000003d0: 40c7 663b c4c9 243e bc74 383e 787e 093d
000003e0: 9a1f 373e 678b 00be 3247 363e f002 a9bd
000003f0: 411e 9a3d 4c26 66bc 468a 113e 0c0f f2bd
0.09525736 0.15724629 -0.030319426 0.1647999 0.039378017 0.012735036 0.15004888 0.018569445
-0.021469012 0.060752377 0.23156884 -0.0361503 -0.011220822 -0.068470195 0.12641367 -0.013879882
0.014538025 -0.1440635 0.08829888 -0.04609379 0.07996987 0.21411599 0.1390827 0.0038509893
0.004596317 0.111000575 -0.037035223 0.06144161 0.16518173 0.19408138 0.057824753 -0.032574724
-0.01939177 -0.008891131 -0.056170013 0.009867274 0.06856792 -0.018705573 0.1051857 -0.08875366
0.087704435 -0.037261073 -0.034420677 -0.004683872 -0.13392723 0.12392765 0.070311695 -0.018598106
-0.14280894 -0.08790317 -0.054161187 0.08873253 -0.09042604 -0.15088047 -0.1271656 -0.16951144
0.06982865 -0.1694135 -0.019880215 0.13318115 0.17254005 -0.07777535 0.07377474 -0.028635664
0.10205564 -0.16525073 -0.027096378 -0.018129012 0.048398122 -0.15383156 0.16450705 -0.12924445
0.113741115 0.12529692 0.07248924 -0.13891855 0.17551397 -0.07485592 -0.060037322 0.15451534
-0.07752491 0.08263319 -0.032973137 0.15538935 0.13084486 -0.042525746 0.049512662 -0.1849603
-0.12017369 -0.17900321 -0.13356534 0.10929088 -0.14032348 -0.067157544 0.008046114 -0.0066835433
-0.051827006 -0.08334993 0.088508986 0.07096995 -0.02168923 0.11890138 -0.123720035 -0.006057531
0.041696597 -0.074616134 -0.051585965 -0.0076177972 0.057695843 -0.021522751 0.016509319 -0.14267279
-0.07963079 0.15626878 -0.16027968 -0.05372867 0.03665615 0.076579034 -0.18053897 0.02390267
-0.10119393 -0.042209104 -0.1629323 -0.019245544 0.0756622 -0.034076553 0.053736683 0.032725282
0.13528123 0.057542037 0.060491934 -0.025711447 -0.089432806 -0.07654033 -0.15683109 0.06576443
-0.02413299 -0.09811632 -0.17263621 -0.013609773 -0.063811906 0.008201279 0.09396412 -0.024910055
-0.18938838 0.073935226 0.10395502 -0.15308172 0.1459309 -0.08295278 0.13210948 0.10950058
0.0022279627 0.01927655 0.060743593 -0.11867566 -0.035478454 -0.12922677 -0.13257946 -0.08423547
-0.11758751 0.12248235 -0.068736404 -0.123671465 0.15767767 0.10440994 -0.09797589 0.100074135
-0.103122085 -0.12381552 0.052981023 0.10644429 0.14118499 0.17371155 -0.089309976 -0.16428946
0.08178582 0.12961733 0.10276073 -0.14414822 -0.007645454 0.13475434 -0.17823024 -0.015601201
0.06666326 -0.12984623 -0.12897933 -0.06837644 -0.010716589 0.00690424 0.12968595 0.13510261
0.024685226 -0.08301192 -0.14416696 0.017173193 -0.07402987 0.043408558 -0.0029508614 -0.038136266
-0.079467244 -0.082791865 -0.14551973 0.12047948 -0.07119644 -0.06517679 -0.10659025 0.06240445
-0.015256901 0.027511084 -0.032988053 0.14385095 0.13249125 -0.19218762 0.09115102 -0.049500316
-0.07422148 -0.09644787 0.005770886 0.11230587 -0.0014964886 -0.055164825 -0.09671859 0.054690372
-0.10786843 0.17123833 0.1751622 0.067111164 -0.09376247 -0.04037189 0.02644743 0.13088869
0.13212085 -0.10233937 -0.04160933 -0.105041996 -0.11357975 -0.019216038 -0.05235419 0.056196563
0.17349349 0.07325671 -0.13508143 -0.018161407 0.0035213977 0.16092592 0.1801328 0.033567876
0.17883149 -0.12553178 0.17800596 -0.082525134 0.07525302 -0.014047217 0.14212903 -0.11819276

actor.2.bias f4 [32]
00000000: c32c 5d3e 247c 723d 617c 153e d895 7e3d
00000010: 7cd0 1fbe 14e0 933d b689 8cbd c71f 943d
00000020: 0944 643d 7a75 b33d 4579 b1bd 4347 cfbc
00000030: ccea 283d 55c2 b83d 645a 91bc c056 3bbe
00000040: cc8f 2fbd ee75 453e c8ea f23d 0ba7 293d
00000050: 31a3 efbd 9c05 0cbe b5bb 18be 4e53 773c
00000060: 4510 fdbc b7ab ed3d e108 6bbd c742 f8bc
00000070: 9d0f 1a3e 56a9 173e 5a62 acbd 942a a83c
0.21599106 0.05920042 0.14598228 0.06215462 -0.15606874 0.07220474 -0.06862204 0.072326235
0.055728946 0.08762641 -0.086657085 -0.025302535 0.041239545 0.09021441 -0.017743297 -0.18294811
-0.042861745 0.19283268 0.11861187 0.04141907 -0.11701048 -0.13674015 -0.14915355 0.015095545
-0.030891547 0.11605018 -0.057381514 -0.03030528 0.15045018 0.1481069 -0.084171966 0.020528115

actor.4.weight f4 [2, 32]
00000000: 61c0 263e 7537 2ebe 5dcc b3bd f2e5 e6bd
00000010: ba11 dbbd c199 91bb ab91 8abd c276 653d
00000020: 8e41 08bd 8ec1 153e 36d9 bdbd 421d 58bd
00000030: 7ef6 033e 1192 3d3e 25ee d23d 4b69 eabd
00000040: 460e e03d ac1a ef3c d7c0 f6bd 9f93 04be
00000050: 56ac 2bbe 3117 1f3e b85f b83d f7dd afbd
00000060: 4fda 9bbc be8e 01be f798 c03d 9085 abbc
00000070: d713 e8bd 4839 18bd 6faf 153e 8ce1 283e
00000080: e945 bbbd 7461 863d bb41 a0bd 6532 093e
00000090: 11cb e6bc 803a 11be 7df8 fc3d 20a5 ac3d
000000a0: c100 c33d f00c 60be 0828 efbd 97e4 9ebd
000000b0: 8fc5 94bd 8805 31be ec52 40be 01ab ffbd
000000c0: ab95 0dbe 53a2 0dbe c394 02be effe 093d
000000d0: 166c 833a f86d 21be 0a9f 083d 64b0 a93d
000000e0: f264 10be 4e83 813d a50d f63d 3251 2e3d
000000f0: 1042 123e 8cb1 053e 7264 35be 214a 89be
0.16284324 -0.17013343 -0.087792136 -0.11274327 -0.106967404 -0.0044433777 -0.06766065 0.05602146
-0.033265643 0.14624617 -0.09269945 -0.052762277 0.12886998 0.18512751 0.10299329 -0.11445864
0.109402224 0.029187523 -0.120485 -0.12946938 -0.1676496 0.1553619 0.09002632 -0.08587258
-0.019024996 -0.12652108 0.09404176 -0.020937711 -0.11331909 -0.037164003 0.14617704 0.1649229
-0.09144194 0.065615565 -0.07825037 0.1339813 -0.028173001 -0.14182472 0.12352083 0.084299326
0.09521628 -0.21879935 -0.11677557 -0.07758444 -0.07264244 -0.17287266 -0.18781632 -0.12483788
-0.13826625 -0.13831453 -0.1275206 0.03369039 0.0010026719 -0.15764606 0.033354796 0.08285597
-0.14101008 0.063238725 0.12014321 0.042557903 0.14283013 0.1305601 -0.17714098 -0.26814368

actor.4.bias f4 [2]
00000000: 4755 9a3a b59e f7bd
0.0011774682 -0.12090818
