results/SandingEnvDifficult/ddpg_extension/model/model_parameters_2.pt (torch, 36162 bytes, 22 tensors)

value.0.weight f4 [32, 20]
-0.035997972 0.051828094 -0.25968397 0.09762494 0.29984394 -0.2405709 0.074843794 0.12483356
0.092706576 -0.16256353 0.30442455 0.2105294 -0.12594405 -0.13854659 -0.04623921 0.237171
-0.012702641 -0.052966565 0.53410107 -0.6563536 0.08444965 0.03561788 -0.00033650934 0.08900028
0.14587556 -0.03404909 -0.14588757 0.09135911 0.13474807 0.052186746 -0.19894622 0.18898211
0.09817604 0.09941171 0.034834165 -0.08126967 0.118234664 0.014623685 0.040364258 2.011426
-0.025491921 0.0030023402 -0.045203533 -0.026564399 0.2664495 0.052948624 0.01644189 0.20977265
0.019831147 0.15568025 -0.16364661 0.20416424 0.012512528 0.019384833 -0.1154274 0.028074004
0.066309005 -0.17091686 0.30117768 1.051767 -0.13252965 -0.11881235 0.19799215 0.13820642
0.09811499 -0.003417759 0.080085956 0.0017624755 -0.38548097 -0.0026753342 -0.15338536 0.15672721
0.15322801 -0.035091143 -0.12938161 -0.031537056 -0.04207432 0.016682511 -0.9838862 -0.14642207
-0.08593858 -0.030061608 -0.027987584 -0.10408259 0.005089964 0.029481713 0.23483919 0.18125916
0.0467146 0.03738773 -0.13933448 0.072192796 0.07302312 0.16058789 0.065768175 -0.1455762
0.018368788 -0.14965728 -0.18896367 0.11903461 -0.012842215 0.06780241 0.09645213 -0.006242394
0.09653708 0.22495161 0.2219748 0.18825603 -0.24693735 0.20095177 0.029538518 -0.118246324
-0.040627237 0.016960392 0.08169174 -0.25318405 0.04239255 -0.11401177 0.17684977 0.43610892
4.659323e-05 -0.06686941 0.06223518 -0.112705365 -0.31396544 0.18189034 -0.14377606 0.068417385
0.080905534 -0.06156815 0.04407346 0.1201025 0.16199611 0.041741185 0.07351756 -0.07697742
0.13856232 0.02835095 -0.2178288 -0.51301146 -0.020083085 0.020426868 -0.0354901 -0.19857922
-0.03629793 0.037144512 0.11672347 -0.32371682 0.039742302 -0.0046454365 -0.11442263 -0.105375774
0.1704954 0.044761974 -0.0320917 0.026525335 0.074910104 0.29555848 0.20661695 -0.4418171
-0.025594177 -0.029947996 0.059874948 0.16046318 0.051834617 -0.08357433 0.13943884 -0.101132326
0.06207863 -0.39355233 -0.080565475 -0.04927166 0.12676829 0.07948036 -0.12384653 -0.042703617
-0.12152992 0.2964698 1.0656673 0.62435454 -0.1011978 -0.015376101 -0.04104898 -0.13848858
-0.1310777 -0.18663538 -0.118822664 -0.015457169 -0.070544936 -0.028675126 0.19485763 0.04280039
-0.014987095 -0.13726008 0.17091542 0.14618093 0.17345946 -0.1670449 0.078073695 -0.98935807
-0.25133896 0.1045413 0.13931526 0.24583276 0.06691802 -0.09681224 -0.022299165 -0.25454015
0.08443063 -0.15031667 0.24562372 0.00091617735 0.1365953 -0.1908139 -0.045540106 0.013874045
-0.17122772 -0.19689177 -0.55127966 -0.012336112 -0.049163964 -0.018456701 0.025120892 -0.19486782
-0.027488131 0.16309494 0.30915603 0.28615212 0.0945404 -0.011463851 0.049432162 0.06957523
0.19699188 0.2004559 -0.036002383 0.03939575 -0.101083405 0.027018243 0.62113065 0.6089807
-0.117933005 -0.0048967525 0.0905176 -0.09757171 0.23455642 0.24119775 -0.06301305 0.2399393
0.2232651 0.12645641 0.113564014 0.13711116 0.24145932 0.093459934 -0.005713638 0.082263425
00000000: 9c72 13bd b249 543d 4cf5 84be 96ef c73d
00000010: 2585 993e 3858 76be b447 993d bda8 ff3d
00000020: f2dc bd3d 0e77 26be 89dd 9b3e 0595 573e
00000030: 7af7 00be 28df 0dbe 5365 3dbd f4dc 723e
00000040: bd1e 50bc 78f3 58bd d9ba 083f ca06 28bf
00000050: f0f3 ac3d 0ee4 113d 856d b0b9 c745 b63d
00000060: 6760 153e 0f77 0bbd 8d63 15be 7c1a bb3d
00000070: 66fb 093e c5c1 553d 8fb8 4bbe 8784 413e
00000080: 8510 c93d 5e98 cb3d 45ae 0e3d b670 a6bd
00000090: 0425 f23d 2e98 6f3c fe54 253d 34bb 0040
000000a0: 6fd4 d0bc e9c2 443b 5727 39bd 959d d9bc
000000b0: 126c 883e a8e0 583d 24b1 863c a4ce 563e
000000c0: ee74 a23c a56a 1f3e fa92 27be 6e10 513e
000000d0: 5901 4d3c f1cc 9e3c 3365 ecbd 74fb e53c
000000e0: 04cd 873d d404 2fbe f633 9a3e 4da0 863f
000000f0: dab5 07be e453 f3bd 74be 4a3e fc85 0d3e
00000100: 83f0 c83d 7bfc 5fbb 1b04 a43d dd02 e73a
00000110: c35d c5be a954 2fbb 0d11 1dbe 197d 203e
00000120: cee7 1c3e bbbb 0fbd 9d7c 04be 002d 01bd
00000130: 1f56 2cbd c3a9 883c f7df 7bbf abef 15be
00000140: 9100 b0bd c343 f6bc 3846 e5bc 4129 d5bd
00000150: b6c9 a63b a283 f13c af79 703e 009c 393e
00000160: cf57 3f3d e023 193d b3ad 0ebe d1d9 933d
00000170: 258d 953d 2771 243e 77b1 863d ed11 15be
00000180: 247a 963c c23f 19be b17f 41be 6bc8 f33d
00000190: 2768 52bc fddb 8a3d b288 c53d ff8c ccbb
000001a0: 3cb5 c53d b759 663e 5d4d 633e 30c6 403e
000001b0: 25dd 7cbe 4dc6 4d3e c3fa f13c 212b f2bd
000001c0: bf68 26bd 85f0 8a3c 004e a73d 57a1 81be
000001d0: cfa3 2d3d 017f e9bd 1b18 353e ab49 df3e
000001e0: 1a6d 4338 d4f2 88bd 51ea 7e3d 12d2 e6bd
000001f0: 14c0 a0be 7641 3a3e 083a 13be 6a1e 8c3d
00000200: cdb1 a53d e22e 7cbd 5f86 343d 4df8 f53d
00000210: 4fe2 253e cef8 2a3d 6090 963d 56a6 9dbd
00000220: 48e3 0d3e 4040 e83c 830e 5fbe b854 03bf
00000230: 4885 a4bc 3f56 a73c 115e 11bd 5a58 4bbe
00000240: 23ad 14bd d824 183d b70c ef3d 36be a5be
00000250: d3c8 223d bf38 98bb 6956 eabd 41cf d7bd
00000260: 5996 2e3e 5558 373d 9672 03bd a94b d93c
00000270: 786a 993d 7153 973e 6593 533e da35 e2be
00000280: e1aa d1bc 8055 f5bc 6f3f 753d 7650 243e
00000290: 8950 543d 0529 abbd 0ec9 0e3e 771e cfbd
000002a0: 2946 7e3d b17f c9be 83ff a4bd 15d1 49bd
000002b0: 8ccf 013e 99c6 a23d 40a3 fdbd fde9 2ebd
000002c0: aee4 f8bd e4ca 973e c967 883f b3d5 1f3f
000002d0: cb40 cfbd 0bec 7bbc fa22 28bd f3cf 0dbe
000002e0: 3c39 06be 581d 3fbe 4c59 f3bd 1140 7dbc
000002f0: dd79 90bd 19e8 eabc c288 473e 764f 2f3d
00000300: 6f8c 75bc e88d 0cbe 7404 2f3e 74b0 153e
00000310: 5b9f 313e d10d 2bbe 1ae5 9f3d 9246 7dbf
00000320: 80af 80be c019 d63d a9a8 0e3e 95bb 7b3e
00000330: 510c 893d 7f45 c6bd bdac b6bc 1653 82be
00000340: f7e9 ac3d 9dec 19be c984 7b3e 9f2b 703a
00000350: a3df 0b3e b864 43be 4388 3abd f64f 633c
00000360: 5256 2fbe ff9d 49be aa20 0dbf 671d 4abc
00000370: 2760 49bd 8232 97bc 54ca cd3c 6e8b 47be
00000380: ca2e e1bc 5c02 273e b349 9e3e 8882 923e
00000390: 669e c13d e0d2 3bbc 6179 4a3d 757d 8e3d
000003a0: 3db8 493e 5044 4d3e 3c77 13bd 705d 213d
000003b0: d104 cfbd 5d55 dd3c 6b02 1f3f 29e6 1b3f
000003c0: dc86 f1bd f074 a0bb 4b61 b93d add3 c7bd
000003d0: 8f2f 703e 8bfc 763e fc0c 81bd a6b2 753e
000003e0: 9b9f 643e ca7d 013e 4094 e83d de66 0c3e
000003f0: 1d41 773e ec67 bf3d 7839 bbbb ba79 a83d

value.0.bias f4 [32]
-0.040743247 0.064691894 -0.13734816 -0.08327297 0.098356165 -0.23224816 -0.2047052 -0.00046400813
-0.022505412 0.0032869729 0.12527235 0.003976148 -0.0033743982 -0.05518991 -0.058683228 -0.007506574
-0.05621793 -0.13264465 -0.25012934 0.062528245 0.19078697 0.14898248 0.118293606 -0.09587723
0.01086338 -0.18930244 -0.22690424 -0.0010328278 0.048235368 0.01329035 0.12894371 0.17228945
00000000: 64e2 26bd 2f7d 843d ffa4 0cbe 058b aabd
00000010: f56e c93d 76d2 6dbe 3d9e 51be 1e46 f3b9
00000020: 455d b8bc 416a 573b 6547 003e 594a 823b
00000030: 0225 5dbb d10e 62bd d35d 70bd b5f9 f5bb
00000040: c644 66bd 00d4 07be f410 80be cf0e 803d
00000050: a95d 433e dd8e 183e eb43 f23d 485b c4bd
00000060: 51fc 313c 80d8 41be 9659 68be f35f 87ba
00000070: 7392 453d c5bf 593c d209 043e a56c 303e

value.2.weight f4 [32, 32]
-0.2505346 -0.039910972 0.21661644 0.017814258 -0.25259596 0.103771076 -0.07770236 -0.13811314
-0.33477333 0.11235518 -0.15072492 0.21920092 0.20009828 0.14484647 0.03673296 -0.23850961
0.02390901 -0.036934838 -0.03558212 0.021244798 -0.138489 0.16800597 -0.06981446 -0.48585492
0.019134184 -0.18546994 0.21076892 0.03302393 -0.026908789 0.010987546 -0.037495833 0.16579029
-0.15718247 0.14494087 -0.06875693 -0.14302883 0.0953218 -0.08284591 0.09897342 0.012168647
0.028163128 -0.009319361 -0.13563034 0.023386737 -0.02690849 -0.23166852 0.0774369 -0.19091953
0.0045325244 0.09044254 -0.06960086 -0.09049669 0.0753046 0.046487406 0.109036274 0.26740792
0.117647685 0.1412348 -0.18671794 0.106611304 0.008200461 0.08542811 0.075157985 -0.2984649
0.16932635 -0.014979338 0.16423213 -0.1783383 -0.14779098 0.13699614 0.2118277 -0.33279
-0.1624537 0.1565567 0.008084949 0.11971157 -0.06758653 0.059821803 0.083729275 -0.1464919
-0.07584211 -0.014880223 -0.108445354 0.013333494 -0.23229031 -0.0005825241 -0.7126038 -0.20282967
-0.14458261 -0.019179005 -0.16145511 -0.07412163 -0.12139533 -0.048729528 -0.045927092 0.065973744
0.085266516 0.031636696 -0.12575376 -0.0037672543 -0.058127522 -0.23922166 -0.13854706 0.029067978
0.029131098 -0.039268665 -0.205417 0.31589738 -0.02129955 0.1480435 -0.10775917 -0.007342495
-0.04800962 -0.051440973 0.15000235 -0.13239996 0.06480159 -0.1236883 0.20590179 -0.17692924
0.06641408 0.039079946 -0.013810507 -0.034295168 0.096800774 0.123529606 0.024371725 -0.044326473
0.20659162 0.23968835 0.03638106 0.17189017 -0.034315586 0.12519865 0.0023982509 -0.108793125
-0.045225386 -0.19127181 0.026854433 -0.07556422 -0.02651924 -0.0071354 0.03705869 0.07042818
-0.091826625 -0.299051 -0.0061877463 -0.120725065 0.10931188 0.20234853 0.056792136 0.16536072
-0.08222897 -0.12677601 0.15643089 -0.14568451 0.1446843 -0.029148515 -0.120446526 0.027597733
-0.4417912 -0.09611172 0.035599157 -0.13490659 -0.055130098 -0.1643623 0.11227502 0.23709573
0.044092737 0.068186276 -0.08348097 0.0096879 -0.070144765 -0.4150345 0.040442593 -0.08804317
0.022856217 -0.21699373 0.19245866 0.089831226 -0.0350715 -0.23056997 -0.040612448 0.008248881
-0.106342316 0.19294006 0.08470064 0.031722464 0.038086087 -0.062089186 -0.27998704 -0.21970065
0.12248729 -0.16387673 -0.09399877 0.11192037 0.14347616 -0.18425436 0.070410885 -0.08730891
-0.2712351 0.22483867 0.05202825 0.15475318 -0.24209012 0.15774749 -0.13607481 -0.24391481
0.087934 -0.11653647 0.032353044 -0.044346277 0.042102214 0.17125809 -0.053882252 -0.001576315
0.043741677 0.11991343 -0.03291659 -0.019880591 -0.043581728 -0.077796124 0.039509777 0.04716119
-0.09127113 0.011728681 -0.024107555 -0.017711177 -0.050535645 0.058323506 0.22595702 0.067217
0.10311032 -0.19657184 -0.21864562 -0.03879252 0.26595202 0.04752982 -0.029896973 0.12582593
0.14098711 0.032199915 -0.06022902 0.13569748 0.14326657 0.17257382 -0.08759727 -0.019635228
0.032329936 0.042271245 0.12063441 0.08877129 -0.14544307 0.113417566 0.14310625 -0.0198814
00000000: 1246 80be b079 23bd b3d0 5d3e 35ef 913c
00000010: 4254 81be ee85 d43d 6a22 9fbd 886d 0dbe
00000020: 6967 abbe 791a e63d a257 1abe 3576 603e
00000030: 90e6 4c3e a252 143e 4d75 163d dd3b 74be
00000040: d4dc c33c fc48 17bd 8fbe 11bd 9209 ae3c
00000050: 0fd0 0dbe c209 2c3e e2fa 8ebd fac1 f8be
00000060: 4bbf 9c3c d5eb 3dbe cfd3 573e 1a44 073d
00000070: d26f dcbc 1c05 343c 3b95 19bd eec4 293e
00000080: 71f4 20be 616b 143e 6fd0 8cbd 2676 12be
00000090: 1338 c33d 1eab a9bd 94b2 ca3d 015f 473c
000000a0: 5cb6 e63c 3cb0 18bc aee2 0abe 8b95 bf3c
000000b0: 326f dcbc 833a 6dbe 3d97 9e3d 6980 43be
000000c0: 9285 943b f039 b93d e58a 8ebd 5456 b9bd
000000d0: 4c39 9a3d 9469 3e3d 694e df3d b1e9 883e
000000e0: 45f1 f03d db9f 103e fd32 3fbe 0757 da3d
000000f0: 3a5b 063c eff4 ae3d 6eec 993d 64d0 98be
00000100: e363 2d3e e66b 75bc 782c 283e 519e 36be
00000110: 8556 17be b748 0c3e 5ce9 583e 7363 aabe
00000120: 435a 26be 6650 203e bc76 043c 572b f53d
00000130: cf6a 8abd b507 753d 417a ab3d f901 16be
00000140: 1c53 9bbd 2ecc 73bc 9918 debd ba74 5a3c
00000150: 83dd 6dbe 88b4 18ba 346d 36bf 95b2 4fbe
00000160: 770d 14be 4a1d 9dbc 7d54 25be 15cd 97bd
00000170: 1d9e f8bd 9d98 47bd 0c1e 3cbd 3e1d 873d
00000180: 36a0 ae3d 7b95 013d 98c5 00be 0ae4 76bb
00000190: 2017 6ebd 86f6 74be 48df 0dbe f81f ee3c
000001a0: 57a4 ee3c 2ed8 20bd d658 52be 4dbd a13e
000001b0: 657c aebc b798 173e d7b0 dcbd 5099 f0bb
000001c0: bca5 44bd c5b3 52bd 379a 193e db93 07be
000001d0: b2b6 843d 4b50 fdbd ebd7 523e f02c 35be
000001e0: 1b04 883d 4b12 203d 7745 62bc 1779 0cbd
000001f0: 7c3f c63d 17fd fc3d 36a7 c73c ad8f 35bd
00000200: c18c 533e dd70 753e 4e04 153d fa03 303e
00000210: 808e 0cbd 1334 003e f92b 1d3b eece debd
00000220: 413e 39bd c2dc 43be d4fd db3c 6ac1 9abd
00000230: e13e d9bc 13d0 e9bb daca 173d a63c 903d
00000240: 990f bcbd 361d 99be 94c2 cabb b43e f7bd
00000250: e8de df3d 7434 4f3e df9e 683d 5254 293e
00000260: aa67 a8bd 92d1 01be 6b2f 203e 522e 15be
00000270: 1f28 143e dec8 eebc abac f6bd a414 e23c
00000280: 7532 e2be 39d6 c4bd 6cd0 113d f424 0abe
00000290: 19d0 61bd 974e 28be 72f0 e53d 39c9 723e
000002a0: 969a 343d 3fa5 8b3d 12f8 aabd ffb9 1e3c
000002b0: 0fa8 8fbd 677f d4be 22a7 253d fa4f b4bd
000002c0: f63c bb3c 9b33 5ebe e213 453e 6ff9 b73d
000002d0: 22a7 0fbd 891a 6cbe 3d59 26bd 5126 073c
000002e0: 00ca d9bd 1492 453e 8777 ad3d 6aef 013d
000002f0: 2800 1c3d 3b51 7ebd 765a 8fbe 35f9 60be
00000300: 9eda fa3d 4dcf 27be 6d82 c0bd 8236 e53d
00000310: 6aeb 123e 2dad 3cbe 9533 903d 04cf b2bd
00000320: 54df 8abe 1c3c 663e 931b 553d 9e77 1e3e
00000330: 79e6 77be 8f88 213e 3257 0bbe cec4 79be
00000340: be16 b43d acaa eebd a084 043d 71a4 35bd
00000350: 5f73 2c3d 485e 2f3e a3b3 5cbd 5b9c ceba
00000360: 792a 333d 2c95 f53d 8cd3 06bd 9fdc a2bc
00000370: c182 32bd 9353 9fbd 01d5 213d 182c 413d
00000380: 5cec babd a729 403c 357d c5bc 0817 91bc
00000390: 77fe 4ebd a1e4 6e3d 4761 673e 11a9 893d
000003a0: 812b d33d 214a 49be a3e4 5fbe e8e4 1ebd
000003b0: dd2a 883e a1ae 423d 7fea f4bc 83d8 003e
000003c0: ed5e 103e 0fe4 033d b4b2 76bd 48f4 0a3e
000003d0: 79b4 123e 31b7 303e 3366 b3bd 0fda a0bc
000003e0: 656c 043d 9d24 2d3d 2c0f f73d b9cd b53d
000003f0: 07ef 14be 7847 e83d 728a 123e 51de a2bc

value.2.bias f4 [32]
-0.091611765 0.14479263 0.06898322 -0.071113616 -0.108257726 0.1726115 0.016216563 0.11357982
-0.17335676 -0.1774728 0.019851673 0.15259738 -0.08254492 0.24606657 -0.082993835 0.023516225
0.056163196 0.00509894 -0.11905356 -0.10754977 0.0013396612 0.074447595 0.1604563 0.0026035202
0.03790691 -0.13236317 -0.17079079 0.014873455 -0.021625146 -0.0094841365 -0.0582047 -0.060852576
00000000: f39e bbbd 8544 143e 1347 8d3d 04a4 91bd
00000010: 3ab6 ddbd 12c1 303e 99d8 843c 899c e83d
00000020: 6f84 31be 6ebb 35be fa9f a23c 7d42 1c3e
00000030: 500d a9bd e0f8 7b3e acf8 a9bd 19a5 c03c
00000040: 610b 663d 0215 a73b 5ad2 f3bd 0e43 dcbd
00000050: 9297 af3a fb77 983d a84e 243e d29f 2a3b
00000060: 4744 1b3d 368a 07be c8e3 2ebe cbaf 733c
00000070: 3827 b1bc 5a63 1bbc 0d68 6ebd 8d40 79bd

value.4.weight f4 [1, 32]
0.033441577 -0.06571269 0.10621771 -0.06938061 -0.059289664 0.13866559 0.077221796 0.06417442
0.06491001 -0.085786164 0.05789617 -0.049642466 -0.072192825 -0.06005517 0.07897692 0.049701765
0.083585106 0.06428624 0.08556933 0.058374543 0.028082004 0.07522984 -0.109476864 -0.06687634
-0.05406166 0.09937656 0.07091701 -0.05459425 0.06289129 0.06472428 -0.041112065 0.061780732
00000000: 09fa 083d 6094 86bd ac88 d93d 6c17 8ebd
00000010: b8d9 72bd 5afe 0d3e 7626 9e3d e16d 833d
00000020: 8aef 843d a8b0 afbd 8924 6d3d e655 4bbd
00000030: d5d9 93bd 69fc 75bd a7be a13d 1494 4b3d
00000040: ab2e ab3d 81a8 833d f93e af3d 251a 6f3d
00000050: 3b0c e63c 1a12 9a3d 6835 e0bd 76f6 88bd
00000060: c26f 5dbd f085 cb3d f03c 913d 389e 5fbd
00000070: 26cd 803d 2a8e 843d 2065 28bd cb0d 7d3d

value.0.weight f4 [32, 20]
-0.034505833 0.049866404 -0.26000696 0.097302176 0.29914674 -0.23918198 0.077143535 0.12483111
0.090589665 -0.16411462 0.30355668 0.20966151 -0.12697898 -0.13866107 -0.045902696 0.23750745
-0.013108086 -0.0541839 0.5373024 -0.6576834 0.08256668 0.035973705 0.00029544934 0.08963222
0.14529304 -0.034541924 -0.14750026 0.09093171 0.13564794 0.05013344 -0.19736166 0.19056667
0.09924208 0.09849823 0.033863515 -0.082240336 0.11702522 0.015405172 0.041552264 2.0147333
-0.023924433 0.006345776 -0.046741404 -0.02810225 0.26623464 0.054521803 0.016386755 0.20976439
0.019620012 0.15707774 -0.16442902 0.20338182 0.011980479 0.018033324 -0.11585878 0.027642604
0.06688587 -0.17060103 0.2994788 1.0521057 -0.13123246 -0.118883096 0.19797434 0.13818862
0.095863394 -0.0017546575 0.080671325 0.0005763812 -0.38513854 -0.0034960653 -0.15293606 0.15717651
0.15338762 -0.036573097 -0.13120483 -0.03336029 -0.043996107 0.016549181 -0.9794719 -0.1430254
-0.08670785 -0.030624837 -0.025587635 -0.10168267 0.0055732126 0.032188673 0.23644333 0.18008128
0.048180096 0.037991386 -0.13913359 0.07239379 0.07284877 0.1601979 0.065853424 -0.14549099
0.020554597 -0.14868522 -0.18668048 0.118421584 -0.013468758 0.06606036 0.100574546 -0.002120028
0.09883941 0.2238724 0.2240425 0.18619388 -0.24864557 0.2017713 0.030064749 -0.11772006
-0.040477607 0.019432977 0.08327297 -0.2516029 0.04112791 -0.115479164 0.17435355 0.4322858
-0.00041959976 -0.06603358 0.062499233 -0.11244132 -0.31411487 0.18120037 -0.14525789 0.06718508
0.08195967 -0.060832616 0.04402947 0.12005854 0.16199918 0.0418072 0.073503084 -0.07699189
0.1382086 0.028169468 -0.22202334 -0.5091445 -0.02066668 0.019157462 -0.03697452 -0.20006365
-0.034169056 0.03274188 0.11613628 -0.32066184 0.039254524 -0.0045249895 -0.113347895 -0.10430104
0.17206544 0.04530469 -0.033125434 0.0254916 0.07589547 0.29724595 0.21048588 -0.44819558
-0.022535315 -0.029291108 0.059547633 0.16013594 0.052412756 -0.08146505 0.13905226 -0.101016134
0.062431686 -0.39392295 -0.08169238 -0.050398502 0.12540637 0.07867874 -0.123365216 -0.042222288
-0.123565 0.29453406 1.0640837 0.6303663 -0.10137724 -0.015637053 -0.040234506 -0.13767414
-0.13131443 -0.18809351 -0.11907289 -0.01554961 -0.0696889 -0.028168892 0.19458574 0.042528555
-0.014585609 -0.13782161 0.17022957 0.14549507 0.17369214 -0.16629632 0.08539555 -1.00074
-0.25109434 0.10224131 0.1405803 0.24709779 0.067486316 -0.097735204 -0.02176331 -0.25374654
0.087706275 -0.15242782 0.24761094 0.0029033646 0.13773093 -0.18934421 -0.04461077 0.014803391
-0.16879329 -0.19537349 -0.5466595 -0.014488782 -0.047227252 -0.017912706 0.02483096 -0.19515768
-0.02649791 0.16395763 0.3089926 0.28393424 0.09388173 -0.0090435175 0.049200002 0.06934301
0.19746469 0.20069633 -0.03646059 0.038937543 -0.10112179 0.027256712 0.6145434 0.61421937
-0.12079353 -0.0031858203 0.09378613 -0.09430318 0.23294143 0.23541188 -0.06490747 0.24390285
0.22130537 0.1264854 0.11482838 0.13837557 0.24216552 0.09401016 -0.006390125 0.08158691
00000000: fd55 0dbd b740 4c3d a21f 85be 5d46 c73d
00000010: c329 993e 1fec 74be 6efd 9d3d 74a7 ff3d
00000020: 1387 b93d aa0d 28be c86b 9b3e 82b1 563e
00000030: c706 02be 2bfd 0dbe 7704 3cbd 2735 733e
00000040: 4cc3 56bc f0ef 5dbd a68c 093f f05d 28bf
00000050: b818 a93d 2a59 133d 8ae6 9a39 1991 b73d
00000060: b3c7 143e d57b 0dbd 4f0a 17be 683a ba3d
00000070: 4be7 0a3e b958 4d3d 2d19 4abe e923 433e
00000080: 6e3f cb3d 71b9 c93d 78b4 0a3d 9f6d a8bd
00000090: ebaa ef3d f965 7c3c b532 2a3d 64f1 0040
000000a0: 2cfd c3bc 3af0 cf3b ea73 3fbd b136 e6bc
000000b0: e84f 883e 4152 5f3d 843d 863c 7acc 563e
000000c0: 26ba a03c fdd8 203e 1560 28be 5343 503e
000000d0: c549 443c 9fba 933c 5e47 edbd be72 e23c
000000e0: 76fb 883d 09b2 2ebe 4955 993e 66ab 863f
000000f0: cd61 06be fb78 f3bd c9b9 4a3e 5181 0d3e
00000100: 0754 c43d 89fc e5ba 0237 a53d 4a18 173a
00000110: e130 c5be 3e1e 65bb 459b 1cbe e1f2 203e
00000120: a511 1d3e accd 15bd 8f5a 06be cda4 08bd
00000130: 4335 34bd 2692 873c acbe 7abf 4075 12be
00000140: e393 b1bd f0e0 fabc 299d d1bc 013f d0bd
00000150: 7f9f b63b 45d8 033d 331e 723e 3a67 383e
00000160: 7e58 453d db9c 1b3d 0979 0ebe 3243 943d
00000170: bc31 953d eb0a 243e 29de 863d 97fb 14be
00000180: 1d62 a83c f040 18be 2b29 3fbe 0487 f23d
00000190: 11ac 5cbc a74a 873d 07fa cd3d 2bf0 0abb
000001a0: 516c ca3d ce3e 653e 666b 653e 9ca9 3e3e
000001b0: f29c 7ebe 239d 4e3e 594a f63c 3717 f1bd
000001c0: d9cb 25bd e831 9f3c 058b aa3d 18d2 80be
000001d0: bd75 283d 5780 ecbd bd89 323e 9054 dd3e
000001e0: bafd dbb9 9d3c 87bd 32ff 7f3d a347 e6bd
000001f0: aad3 a0be 978c 393e 7cbe 14be 5598 893d
00000200: 79da a73d 9f2b 79bd 3f58 343d 40e1 f53d
00000210: 1de3 253e 073e 2b3d c988 963d edad 9dbd
00000220: 8e86 0d3e a8c3 e63c 165a 63be 4b57 02bf
00000230: 2b4d a9bc 1cf0 9c3c 9872 17bd 7cdd 4cbe
00000240: daf4 0bbd 591c 063d dcd8 ed3d ca2d a4be
00000250: 5ac9 203d 5d46 94bb f122 e8bd c99b d5bd
00000260: ec31 303e 6991 393d 89ae 07bd c3d3 d03c
00000270: 166f 9b3d 9f30 983e 9c89 573e e479 e5be
00000280: fb9b b8bc e8f3 efbc 38e8 733d adfa 233e
00000290: c2ae 563d 26d7 a6bd b763 0e3e 8ce1 cebd
000002a0: 5eb8 7f3d 45b0 c9be 564e a7bd a96e 4ebd
000002b0: 876a 003e 5222 a13d e7a6 fcbd 47f1 2cbd
000002c0: a60f fdbd 2bcd 963e e533 883f b05f 213f
000002d0: df9e cfbd 4719 80bc f0cc 24bd 73fa 0cbe
000002e0: 4a77 06be 969b 40be 7ddc f3bd cbc3 7ebc
000002f0: 0eb9 8ebd 73c2 e6bc 7c41 473e 6c32 2e3d
00000300: 7af8 6ebc 1c21 0dbe a950 2e3e a9fc 143e
00000310: 5adc 313e 9549 2abe dde3 ae3d 4018 80bf
00000320: 708f 80be e463 d13d 48f4 0f3e 3407 7d3e
00000330: 4436 8a3d 6529 c8bd f848 b2bc 11eb 81be
00000340: 599f b33d 0a16 1cbe b98d 7d3e 6046 3e3b
00000350: 5609 0d3e 73e3 41be c8b9 36bd ec89 723c
00000360: 26d8 2cbe fd0f 48be e1f1 0bbf 5b62 6dbc
00000370: 5d71 41bd abbd 92bc 4c6a cb3c 6ad7 47be
00000380: 2512 d9bc 82e4 273e 4734 9e3e d45f 913e
00000390: 1145 c03d 432b 14bc f185 493d b503 8e3d
000003a0: 2f34 4a3e 5783 4d3e b357 15bd f97c 1f3d
000003b0: f118 cfbd 7849 df3c b752 1d3f 7b3d 1d3f
000003c0: 9962 f7bd 32c9 50bb f112 c03d 0722 c1bd
000003d0: 3388 6e3e d00f 713e 35ee 84bd abc1 793e
000003e0: e09d 623e 6485 013e 242b eb3d 53b2 0d3e
000003f0: 3dfa 773e 6688 c03d 4164 d1bb 0a17 a73d

value.0.bias f4 [32]
-0.039910648 0.063666604 -0.13739929 -0.08386051 0.09835617 -0.23155287 -0.20468691 -0.0014152441
-0.021742977 0.0027586177 0.12487887 0.0037115545 -0.0037101295 -0.055401154 -0.05780594 -0.007184631
-0.055364672 -0.13342278 -0.25105995 0.06349687 0.18978928 0.14925478 0.11866934 -0.09570518
0.009792632 -0.19082257 -0.22779755 -0.0025895503 0.048045687 0.012854693 0.1295182 0.17352171
00000000: 5979 23bd a363 823d 66b2 0cbe 0fbf abbd
00000010: f66e c93d 321c 6dbe 7299 51be b67f b9ba
00000020: 541e b2bc edc9 343b 7ec0 ff3d 8d3d 733b
00000030: a525 73bb 52ec 62bd ecc5 6cbd 0e6d ebbb
00000040: 11c6 62bd fb9f 08be ee8a 80be a60a 823d
00000050: 1f58 423e 3fd6 183e e908 f33d 1401 c4bd
00000060: 4771 203c fe66 43be c343 69be 72b5 29bb
00000070: 8ecb 443d 7e9c 523c 6ba0 043e adaf 313e

value.2.weight f4 [32, 32]
-0.24734998 -0.038985 0.21628505 0.0189016 -0.2534584 0.10428322 -0.076958254 -0.13663998
-0.3341155 0.11431926 -0.14983644 0.21719822 0.19906841 0.14584558 0.036502235 -0.23864035
0.025329297 -0.03664438 -0.035039905 0.022610316 -0.13835698 0.16810663 -0.06946057 -0.48430333
0.020509552 -0.1855818 0.21124782 0.035291255 -0.02671675 0.012284795 -0.037277866 0.16596511
-0.15952337 0.14459467 -0.06857433 -0.14298096 0.09556328 -0.08356675 0.09830004 0.012631645
0.02958231 -0.0106077725 -0.13568206 0.023658965 -0.026127938 -0.23207656 0.07763467 -0.19183989
0.003335682 0.09052277 -0.069444165 -0.089818835 0.07531272 0.04516105 0.10807209 0.26795667
0.11807465 0.14067672 -0.18752815 0.10496545 0.0082804635 0.08490546 0.075664066 -0.29781193
0.1689658 -0.014420407 0.1654623 -0.17574205 -0.14744587 0.13792382 0.21212855 -0.33443174
-0.16496448 0.15730317 0.0055337073 0.11981056 -0.06508743 0.059200943 0.083953515 -0.14594351
-0.07411929 -0.0149802705 -0.10685431 0.012074865 -0.23192047 0.00038943233 -0.7143606 -0.20037137
-0.14263193 -0.01866001 -0.16052525 -0.07306001 -0.12091254 -0.048831806 -0.04424267 0.06506561
0.08422056 0.031143486 -0.12569417 -0.0032950486 -0.05815702 -0.23920473 -0.14119531 0.028623922
0.028573258 -0.03828566 -0.20377047 0.31521863 -0.021436566 0.14711392 -0.10781171 -0.0073047215
-0.048767913 -0.05078755 0.14914386 -0.13230811 0.0631824 -0.12478442 0.2063774 -0.1741753
0.06777594 0.04010246 -0.014846791 -0.033603597 0.09636815 0.12324326 0.023635767 -0.044141646
0.20530163 0.24110569 0.035521746 0.17188948 -0.035307325 0.12427877 0.00048966997 -0.109496616
-0.04596116 -0.19068344 0.029692493 -0.07504104 -0.027481264 -0.007447224 0.03747745 0.06906475
-0.09213413 -0.2961563 -0.0069436464 -0.12061579 0.109953955 0.20236655 0.056742467 0.16724585
-0.083871946 -0.12754053 0.15652752 -0.14322844 0.14426248 -0.028810073 -0.12193857 0.027984012
-0.4420046 -0.09792126 0.03751176 -0.13439895 -0.05503608 -0.16290094 0.11188292 0.23596022
0.04233259 0.069380306 -0.07945802 0.0106875235 -0.0686054 -0.41558412 0.039070074 -0.090054646
0.023574153 -0.21921752 0.19248658 0.0883192 -0.03578647 -0.23383439 -0.04110765 0.00934027
-0.10618059 0.19321346 0.08340221 0.032868437 0.03767039 -0.062238272 -0.28027272 -0.21794538
0.12360868 -0.16362907 -0.09589401 0.112050556 0.14250125 -0.18608929 0.07014561 -0.08634502
-0.27043065 0.22485766 0.05201628 0.15417035 -0.24285157 0.15716982 -0.13498949 -0.24373779
0.088188715 -0.117037095 0.03301656 -0.043735377 0.043198604 0.17075326 -0.054231018 -0.0018673559
0.0435139 0.11910759 -0.0322623 -0.019263282 -0.04395147 -0.077685945 0.03874356 0.04656064
-0.09060201 0.011809559 -0.023992566 -0.018396635 -0.05030624 0.05851644 0.22533807 0.06762735
0.10212198 -0.1962515 -0.21986172 -0.038575694 0.26621842 0.049440235 -0.03029177 0.12577258
0.1418499 0.031970996 -0.060170297 0.13459942 0.14407614 0.17235704 -0.08680562 -0.020371893
0.032256205 0.04273807 0.12001307 0.08944892 -0.14597306 0.11380926 0.1426807 -0.020008767
00000000: 5049 7dbe bcae 1fbd d479 5d3e 87d7 9a3c
00000010: 4dc5 81be 7192 d53d 4a9c 9dbd 5aeb 0bbe
00000020: 3011 abbe 3720 ea3d b96e 19be 3669 5e3e
00000030: 97d8 4b3e 8b58 153e 5e83 153d 235e 74be
00000040: 637f cf3c 6b18 16bd 0186 0fbd 4539 b93c
00000050: 74ad 0dbe 2524 2c3e 5841 8ebd 9bf6 f7be
00000060: a603 a83c 2809 3ebe 5951 583e 908d 103d
00000070: 16dd dabc 2a46 493c adb0 18bd c2f2 293e
00000080: 185a 23be a010 143e b370 8cbd 9a69 12be
00000090: aeb6 c33d 0b25 abbd 8851 c93d f6f4 4e3c
000000a0: 9a56 f23c 39cc 2dbc 3df0 0abe 72d0 c13c
000000b0: 420a d6bc 7aa5 6dbe edfe 9e3d ad71 44be
000000c0: 759b 5a3b 0164 b93d be38 8ebd f0f2 b7bd
000000d0: 8e3d 9a3d cbfa 383d e654 dd3d 9e31 893e
000000e0: 1fd1 f13d 8f0d 103e 6107 40be 20f8 d63d
000000f0: c8aa 073c eae2 ad3d c3f5 9a3d ce7a 98be
00000100: 5f05 2d3e 9243 6cbc f36e 293e b9f5 33be
00000110: 0dfc 16be e73b 0d3e 3a38 593e a33a abbe
00000120: 73ec 28be 1514 213e 1a54 b53b 3d5f f53d
00000130: 8f4c 85bd b07c 723d d2ef ab3d 3772 15be
00000140: dbcb 97bd cf6f 75bc 6fd6 dabd a8d5 453c
00000150: 8f7c 6dbe b92c cc39 56e0 36bf 272e 4dbe
00000160: 1b0e 12be e1dc 98bc bb60 24be 7da0 95bd
00000170: fea0 f7bd dc03 48bd cd37 35bd 1e41 853d
00000180: d47b ac3d a020 ff3c f9b5 00be bef1 57bb
00000190: 0e36 6ebd 16f2 74be 8195 10be b77c ea3c
000001a0: 7712 ea3c 6dd1 1cbd 35a9 50be 5664 a13e
000001b0: bd9b afbc 08a5 163e 63cc dcbd 725c efbb
000001c0: ddc0 47bd 9b06 50bd 2bb9 183e c77b 07be
000001d0: c665 813d f98e ffbd 9954 533e 035b 32be
000001e0: 1dce 8a3d 7a42 243d f43f 73bc eda3 09bd
000001f0: aa5c c53d f666 fc3d cc9f c13c dfcd 34bd
00000200: 973a 523e 69e4 763e 407f 113d cc03 303e
00000210: 6a9e 10bd de85 fe3d 325d 003a c33f e0bd
00000220: c541 3cbd 8542 43be ac3d f33c 1eaf 99bd
00000230: 6320 e1bc d807 f4bb f481 193d d271 8d3d
00000240: d2b0 bcbd cca1 97be 8787 e3bb 6905 f7bd
00000250: 8a2f e13d 2d39 4f3e ca6a 683d 7f42 2b3e
00000260: 0ec5 abbd fc99 02be c048 203e 7aaa 12be
00000270: 8bb9 133e 1a03 ecbc eeba f9bd ba3e e53c
00000280: 6d4e e2be f18a c8bd eea5 193d e19f 09be
00000290: 836d 61bd 81cf 26be df22 e53d 8e9f 713e
000002a0: f064 2d3d 4317 8e3d e3ba a2bd b91a 2f3c
000002b0: fd80 8cbd 71c7 d4be f107 203d 926e b8bd
000002c0: 951e c13c 8f7a 60be 341b 453e b2e0 b43d
000002d0: d594 12bd 4872 6fbe 7f60 28bd ef07 193c
000002e0: 3675 d9bd c0d9 453e c7ce aa3d 0ea1 063d
000002f0: 444c 1a3d 8fed 7ebd e87f 8fbe 132d 5fbe
00000300: 8c26 fd3d 618e 27be 1464 c4bd c37a e53d
00000310: d9eb 113e 318e 3ebe 80a8 8f3d a8d5 b0bd
00000320: e375 8abe 1641 663e 060f 553d d5de 1d3e
00000330: 15ae 78be 20f1 203e af3a 0abe 6696 79be
00000340: 499c b43d 25b1 efbd 5f3c 073d de23 33bd
00000350: 05f1 303d f1d9 2e3e 5821 5ebd 11c2 f4ba
00000360: a23b 323d aeee f33d 7925 04bd 08ce 9dbc
00000370: 7506 34bd cf19 9fbd 91b1 1e3d 5fb6 3e3d
00000380: 8c8d b9bd e17c 413c 0f8c c4bc 8ab4 96bc
00000390: ea0d 4ebd efae 6f3d 06bf 663e 3580 8a3d
000003a0: 5425 d13d 27f6 48be 6e23 61be 8c01 1ebd
000003b0: c84d 883e d881 4a3d 7226 f8bc 87ca 003e
000003c0: 1a41 113e 05f4 023d 2175 76bd 6ed4 093e
000003d0: b288 133e 5d7e 303e 25c7 b1bd f5e2 a6bc
000003e0: 151f 043d 1d0e 2f3d 6ac9 f53d ff30 b73d
000003f0: f679 15be d414 e93d e41a 123e 6de9 a3bc

value.2.bias f4 [32]
-0.0907856 0.14404367 0.06935018 -0.07122201 -0.10867095 0.1719321 0.016130863 0.11395214
-0.1732352 -0.17747131 0.0203118 0.15251733 -0.08226777 0.24575977 -0.08281641 0.023280188
0.055862106 0.006519272 -0.11980192 -0.10755462 0.0014050452 0.074429974 0.16066156 0.0021691655
0.037591755 -0.1325089 -0.17097023 0.014156538 -0.020720966 -0.009709382 -0.057711996 -0.06084605
00000000: cded b9bd 2f80 133e 7807 8e3d d8dc 91bd
00000010: e08e debd f80e 303e df24 843c bd5f e93d
00000020: 9164 31be 0abb 35be ef64 a63c 812d 1c3e
00000030: 017c a8bd 73a8 7b3e a69b a9bd 18b6 be3c
00000040: aacf 643d 9e9f d53b b65a f5bd 9945 dcbd
00000050: 7e29 b83a be6e 983d 7784 243e 8f28 0e3b
00000060: d0f9 193d 6ab0 07be d212 2fbe d3f0 673c
00000070: 04bf a9bc 1a14 1fbc 6a63 6cbd b539 79bd

value.4.weight f4 [1, 32]
0.033517923 -0.06622267 0.10613875 -0.068589605 -0.05911826 0.13753338 0.0767928 0.064500876
0.06513425 -0.08578691 0.05813647 -0.050634068 -0.07281284 -0.06024646 0.078951865 0.049436267
0.08257655 0.06404497 0.08588271 0.058457024 0.028119573 0.074606866 -0.10923086 -0.06750086
-0.05416257 0.09951121 0.069993034 -0.053528257 0.062821634 0.06355642 -0.04093873 0.06128787
00000000: 174a 093d c09f 87bd 465f d93d b578 8cbd
00000010: fd25 72bd 8dd5 0c3e 8b45 9d3d 0919 843d
00000020: 1b65 853d 0cb1 afbd 8220 6e3d ab65 4fbd
00000030: e61e 95bd fec4 76bd 84b1 a13d af7d 4a3d
00000040: e51d a93d 022a 833d 46e3 af3d a270 6f3d
00000050: 055b e63c 7ccb 983d 6eb4 dfbd e43d 8abd
00000060: 92d9 5dbd 89cc cb3d 8258 8f3d 7240 5bbd
00000070: a1a8 803d de29 823d 5faf 27bd fd08 7b3d

actor.0.weight f4 [32, 18]
-0.21944323 0.23461388 0.489978 0.29321092 -0.6239694 -0.06867481 0.07853815 0.061991177
0.36635593 0.16465452 0.039099675 -0.21309926 0.27512458 -0.17139143 -0.08237366 -0.052929174
0.19171152 -0.12173445 0.21453416 -0.109059654 -0.25816134 0.07124219 -0.459315 0.0026549185
-0.027395824 0.03432734 -0.00044946946 -0.22856458 -0.11739643 -0.12896028 -0.03844685 -0.057688862
0.19117652 0.35795492 -0.3498901 -0.28101304 -0.03309583 -0.05258542 0.11958562 -0.11882548
0.024754193 0.24362049 -0.3496802 0.42762762 -0.19398278 0.35094917 -0.24048427 0.16975167
-0.11491756 0.13082376 0.11811565 0.113765806 0.3065638 0.10714951 0.19181125 -0.018477134
-0.16014548 -0.2603283 0.11813318 0.1604941 -0.50256324 -0.26939422 0.16606541 -0.043313388
0.017090993 -0.083029635 -0.23569255 -0.13781938 -0.07152634 -0.07337039 0.27188718 0.16701168
-0.08451279 0.08908295 -0.055945963 -0.14293854 -0.4520371 0.19113165 -0.035181433 -0.2966721
-0.17304683 0.09474927 -0.33625585 -0.1766345 -0.07242564 0.2316257 0.0047633606 -0.14852466
-0.1842328 0.026566984 0.06925024 -0.6061653 0.289295 0.20165098 0.05937975 -0.23557414
0.21910821 0.13045692 0.32704687 0.121059194 -0.29268038 -0.16207749 -0.04383402 0.2638195
0.13123137 -0.04805861 0.31195298 0.2801416 0.074419536 0.07587785 0.70295703 0.69264674
-0.0014572975 -0.56382847 -0.13294968 0.106889814 0.45627454 -0.024609946 -0.20798074 -0.047588352
0.13021344 -0.20835364 -0.09883462 -0.087721124 -0.2565772 0.12107763 -0.0408178 0.2859071
-0.40240234 -0.17801641 -0.39531583 -0.01109209 -0.3326702 -0.09931537 -0.22950435 0.10337237
-0.15799862 0.115439735 0.37636137 0.11642759 -0.1284366 -0.056056254 -0.053507384 0.17953998
-0.27410042 0.1873131 0.35683835 -0.034482915 0.39245534 0.36059862 0.13739981 0.1749043
-0.28866506 0.030588709 -0.059532456 -0.00764808 -0.00502587 0.5112033 -0.050577484 0.17450559
-0.05331683 -0.06167513 0.108255684 -0.15159008 -0.16288455 0.13684274 0.5731136 0.44954026
-0.18359867 0.20562145 0.3554804 -0.24196102 -0.16362439 -0.021036645 -0.13185316 -0.35788023
-0.09001495 0.12037383 -0.33219567 -0.17245401 -0.15601575 -0.08970816 -0.032939646 0.38475636
-0.17953625 -0.017709391 -0.15964781 -0.46690336 0.18312046 -0.4431717 -0.11323307 -0.1530732
0.110958464 0.04436949 -0.3403638 0.09701367 -0.08939676 0.014091925 0.23099245 0.2428624
0.21610954 0.32204738 -0.11601605 0.3620852 -0.05211116 -0.45896995 0.16892298 -0.702006
-0.07852813 0.05028089 0.28567678 0.099056184 -0.0740829 -0.11740237 -0.0017446617 -0.1277418
0.41409093 -0.11753266 -0.3097553 0.02448051 0.023239017 -0.18336104 0.054057565 -0.24348557
-0.25790817 0.34807298 -0.023412958 -0.05223779 0.14481033 0.20354751 -0.020983119 -0.10956568
0.32194853 -0.0023170558 -0.12820444 -0.19780868 0.025154946 -0.030461434 -0.13370037 0.09095735
-0.07096417 -0.007194255 -0.4199328 -0.0896657 0.27726725 -0.060149457 0.048963197 0.19406995
0.1958675 -0.018054452 -0.28343192 -0.10135276 0.48375168 -0.015610461 -0.13466887 0.022501275
00000000: bab5 60be 9f3e 703e 65de fa3e be1f 963e
00000010: 75bc 1fbf 61a5 8cbd 9cd8 a03d 76ea 7d3d
00000020: 0193 bb3e 329b 283e fb26 203d b136 5abe
00000030: 21dd 8c3e 3c81 2fbe 85b3 a8bd 43cc 58bd
00000040: 0650 443e e94f f9bd d8ae 5b3e ab5a dfbd
00000050: b92d 84be 6de7 913d 562b ebbe 24fe 2d3b
00000060: 356d e0bc d39a 0c3d c5a6 ebb9 d50c 6abe
00000070: 8a6d f0bd 2a0e 04be 727a 1dbd 284b 6cbd
00000080: c7c3 433e de45 b73e cc24 b3be f1e0 8fbe
00000090: 7e8f 07bd cf63 57bd 4ee9 f43d c65a f3bd
000000a0: 4ec9 ca3c a677 793e 4809 b3be 02f2 da3e
000000b0: 6ca3 46be 9caf b33e 8241 76be 62d3 2d3e
000000c0: e659 ebbd aaf6 053e 9ee6 f13d 0cfe e83d
000000d0: eef5 9c3e 3471 db3d 2b6a 443e 5c5d 97bc
000000e0: 2dfd 23be c049 85be cfef f13d 9158 243e
000000f0: fca7 00bf 0aee 89be 0d0d 2a3e 6169 31bd
00000100: 6902 8c3c 710b aabd 6359 71be 8620 0dbe
00000110: 677c 92bd 3743 96bd cc34 8b3e 1c05 2b3e
00000120: 0b15 adbd 1f71 b63d 9827 65bd 7b5e 12be
00000130: 6871 e7be 04b8 433e 681a 10bd 68e5 97be
00000140: 3033 31be e80b c23d ba29 acbe addf 34be
00000150: e553 94bd 4a2f 6d3e f715 9c3b d916 18be
00000160: 86a7 3cbe 01a3 d93c 12d3 8d3d a62d 1bbf
00000170: 791e 943e 987d 4e3e 2e38 733d 593a 71be
00000180: e75d 603e 8096 053e b072 a73e e2ed f73d
00000190: 34da 95be a4f7 25be 4d8b 33bd 5913 873e
000001a0: 8461 063e 1bd9 44bd 4db8 9f3e b86e 8f3e
000001b0: 4569 983d d965 9b3d fef4 333f 4c51 313f
000001c0: ca02 bfba 1057 10bf f623 08be 0ce9 da3d
000001d0: d19c e93e cc9a c9bc e7f8 54be 01ec 42bd
000001e0: ac56 053e a85a 55be ce69 cabd 22a7 b3bd
000001f0: 165e 83be 8cf7 f73d 9130 27bd 6a62 923e
00000200: ae07 cebe ef49 36be d666 cabe 99bb 35bc
00000210: c053 aabe db65 cbbd 3003 6bbe e5b4 d33d
00000220: 64ca 21be ab6b ec3d 70b2 c03e 9771 ee3d
00000230: e284 03be 3e9b 65bd 8f2a 5bbd 54d9 373e
00000240: e456 8cbe 01cf 3f3e 84b3 b63e f53d 0dbd
00000250: e8ef c83e 62a0 b83e 89b2 0c3e 1d1a 333e
00000260: e8cb 93be 2c95 fa3c 4ed8 73bd bf9c fabb
00000270: 0eb0 a4bb 38de 023f 562a 4fbd 98b1 323e
00000280: c062 5abd 109f 7cbd 28b5 dd3d 6e3a 1bbe
00000290: 35cb 26be 8120 0c3e 93b7 123f 242a e63e
000002a0: 4a01 3cbe 6e8e 523e 8701 b63e a1c4 77be
000002b0: 278d 27be 0b55 acbc 8404 07be 143c b7be
000002c0: c259 b8bd 8e86 f63d 8d15 aabe c997 30be
000002d0: 98c2 1fbe e9b8 b7bd b9eb 06bd c9fe c43e
000002e0: 5ad8 37be 4913 91bc b77a 23be f50d efbe
000002f0: ee83 3b3e 67e7 e2be bde6 e7bd 39bf 1cbe
00000300: 313e e33d c8bc 353d 2a44 aebe 1aaf c63d
00000310: a615 b7bd d1e1 663c 4989 6c3e ecb0 783e
00000320: d24b 5d3e 65e3 a43e d399 edbd 3b63 b93e
00000330: 8372 55bd 1cfe eabe 25fa 2c3e aab6 33bf
00000340: 5bd3 a0bd 56f3 4d3d 3a44 923e f8dd ca3d
00000350: c7b8 97bd a770 f0bd 22ad e4ba bfce 02be
00000360: ba03 d43e f7b4 f0bd 3f98 9ebe 5a8b c83c
00000370: c05f be3c ffc2 3bbe 776b 5d3d 4854 79be
00000380: 8a0c 84be 9f36 b23e 88cc bfbc 4bf7 55bd
00000390: 2949 143e c26e 503e cae4 abbc f963 e0bd
000003a0: 70d6 a43e bfd9 17bb 0648 03be 5c8e 4abe
000003b0: bf11 ce3c 428a f9bc c0e8 08be d947 ba3d
000003c0: aa55 91bd c9bd ebbb 6f01 d7be a7a2 b7bd
000003d0: f9f5 8d3e 475f 76bd a28d 483d 46ba 463e
000003e0: 7d91 483e eee6 93bc fd1d 91be 0992 cfbd
000003f0: 4dae f73e 05c3 7fbc a3e6 09be 9854 b83c

actor.0.bias f4 [32]
-0.14849778 0.24174897 0.31297666 -0.23285364 0.095770575 -0.037032638 0.25982147 -0.12240602
0.11792189 -0.13980918 0.16384228 0.096741416 0.19696139 0.31930923 0.10109225 0.18972173
-0.07120061 0.32879567 -0.12322487 0.048287004 0.092999004 -0.21746697 0.08932543 0.33630502
0.17627482 0.21093756 0.20777419 -0.28452075 -0.0024378216 0.036260705 0.08169317 0.3900952
00000000: cd0f 18be 0b8d 773e 7a3e a03e 2f71 6ebe
00000010: 5d23 c43d 89af 17bd 5207 853e 02b0 fabd
00000020: 0881 f13d 232a 0fbe 45c6 273e 5d20 c63d
00000030: 3fb0 493e 807c a33e 7409 cf3d 6a46 423e
00000040: a0d1 91bd e857 a83e 525d fcbd 98c8 453d
00000050: 4376 be3d a9af 5ebe 40f0 b63d 2c30 ac3e
00000060: 6381 343e 0400 583e c2c2 543e b4ac 91be
00000070: dcc3 1fbb 1b86 143d c04e a73d 8fba c73e

actor.2.weight f4 [32, 32]
0.17442106 -0.4060429 0.22077624 -0.07843687 0.17736728 0.0002359307 -0.096452646 -0.30172744
0.095076956 -0.14567974 0.18952334 0.32983825 0.38554895 -0.28193995 -0.6119639 0.16740501
0.5924632 0.027599841 0.17899278 0.078248434 -0.20497906 -0.2128785 0.115395345 0.09598823
0.21877801 0.12915246 0.2172543 -0.960533 0.18482707 -0.20286715 -0.05761455 -0.4820032
-0.24787024 0.020724975 -0.04867514 0.061984953 -0.32673052 -0.27488995 0.19955038 0.15597893
0.22024144 0.17526236 0.04270685 -0.07543092 -0.4560628 0.20950778 0.08228431 -0.16111244
0.38734806 0.13612595 0.18760347 0.10923476 0.5371123 -0.07292141 0.011130293 -0.13803881
-0.31330368 0.095338084 -0.14899498 -0.02519625 -0.022633307 0.26652455 -0.41471592 0.17073181
0.38361046 0.040390365 0.051608462 -0.15274774 0.12478724 -0.17125218 0.24237286 0.13535103
0.014132716 0.346757 -0.06686286 0.16145462 -0.09874009 0.05615474 -0.12455759 -0.2771604
-0.06738482 -0.18192202 -0.16170676 -0.048289772 -0.40982237 -0.2059416 0.13316183 -0.2698584
0.3224737 0.02600962 -0.121512 0.079081945 -0.06535199 -0.16714057 0.09215824 0.11527643
0.3533912 0.06060485 0.30065262 0.19756219 0.082409464 0.30212757 -0.29320338 0.29147872
-0.4206589 -0.018585216 -0.29526496 -0.19284928 0.049261358 -0.01948164 0.09642931 0.16982393
-0.24920009 -0.040642608 0.45250565 0.052592922 0.6583516 0.24674502 0.1680731 -0.27442372
0.06779255 -0.17071259 -0.1091063 -0.08486623 -0.15085602 -0.016581912 0.15238309 -0.42054093
0.03221209 0.12225584 0.22187854 -0.0902933 0.19648044 -0.13924336 0.24783188 0.23768532
-0.26694295 0.029483022 -0.14198175 0.16997215 0.29520413 0.028426658 0.10079256 -0.22157222
-0.02679727 0.015325417 0.31405511 0.12485918 -0.1716391 0.0883225 0.15985389 -0.090280324
0.052378587 0.016685562 0.16155232 -0.08983755 -0.034587212 -0.055325687 0.24231721 0.07777858
0.022503812 0.021305572 0.11822462 0.045464985 -0.11980484 -0.033681884 0.48346183 0.05269369
-0.14993246 -0.008300878 0.025222313 0.07742519 0.23243506 0.07836262 0.15931222 -0.29238546
0.06980163 -0.070487835 0.18362993 0.10901573 -0.05214681 -0.14749494 -0.0047093728 0.1702952
-0.00037460684 0.010111678 -0.3911361 0.18130556 -0.019897087 0.12966785 -0.08297044 0.12354173
-0.15340601 -0.03309432 0.028572036 0.12299105 -0.26582533 -0.055822015 -0.064706825 0.21796156
0.1465974 -0.05635767 -0.33696374 0.22434644 0.3382874 0.056795932 0.21147057 0.29003814
0.08378226 -0.04790911 0.016317422 0.014654378 0.62526786 0.2611591 -0.019467846 0.038872715
0.020652104 -0.2242808 -0.11197646 -0.3289612 0.028185597 0.2772329 0.07049618 -0.08514727
0.36406195 -0.030230934 -0.022871912 -0.40868178 0.07285335 0.11697449 -0.22247837 -0.19640233
0.09281704 0.25905424 0.30267555 -0.3915184 -0.31559557 0.2552345 -0.016641887 0.04863123
-0.391572 0.044337593 0.291796 0.20621678 0.31290293 0.06760839 0.00782665 0.18766841
-0.06933118 -0.16334121 -0.037864074 -0.11164064 0.27891883 0.052082777 0.087525524 -0.2831831
00000000: 6f9b 323e dbe4 cfbe 2b13 623e 82a3 a0bd
00000010: c59f 353e 2a64 7739 f788 c5bd 057c 9abe
00000020: b5b7 c23d 122d 15be 6812 423e 8fe0 a83e
00000030: ac66 c53e 6f5a 90be aba9 1cbf 386c 2b3e
00000040: abab 173f 1019 e23c e249 373e b740 a03d
00000050: 08e6 51be d2fc 59be 6554 ec3d 7a95 c43d
00000060: 5807 603e 8b40 043e e977 5e3e 7ee5 75bf
00000070: 4f43 3d3e 68bc 4fbe 3cfd 6bbd 20c9 f6be
00000080: b2d1 7dbe 6cc7 a93c 955f 47bd efe3 7d3d
00000090: 3949 a7be 60be 8cbe ef56 4c3e f1b8 1f3e
000000a0: f986 613e fa77 333e 61ed 2e3d 877b 9abd
000000b0: 1081 e9be 3589 563e ad84 a83d a9fa 24be
000000c0: 7c52 c63e 9a64 0b3e 201b 403e 79b6 df3d
000000d0: 3180 093f d257 95bd d55b 363c 0c5a 0dbe
000000e0: 5769 a0be 9d40 c33d 2492 18be 5e68 cebc
000000f0: 7c69 b9bc e875 883e a555 d4be 52d4 2e3e
00000100: 9768 c43e 5e70 253d 6563 533d e769 1cbe
00000110: 7490 ff3d bb5c 2fbe 9730 783e 7699 0a3e
00000120: e88c 673c 228a b13e 65ef 88bd 5c54 253e
00000130: 3f38 cabd 8302 663d 0d18 ffbd f8e7 8dbe
00000140: 0d01 8abd c449 3abe 7596 25be 7fcb 45bd
00000150: 3dd4 d1be 5be2 52be 935b 083e e12a 8abe
00000160: 461b a53e 2012 d53c 49db f8bd b7f5 a13d
00000170: 44d7 85bd e626 2bbe 76bd bc3d 0d16 ec3d
00000180: b1ef b43e cb3c 783d 24ef 993e be4d 4a3e
00000190: 4bc6 a83d 77b0 9a3e c11e 96be b33c 953e
000001a0: 9a60 d7be 0640 98bc f82c 97be 487a 45be
000001b0: 47c6 493d f697 9fbc bb7c c53d 53e6 2d3e
000001c0: 4f2e 7fbe dd78 26bd d2ae e73e ad6b 573d
000001d0: bb89 283f baaa 7c3e 5b1b 2c3e 4481 8cbe
000001e0: d2d6 8a3d 48cf 2ebe 2073 dfbd 59ce adbd
000001f0: 007a 1abe cad6 87bc 500a 1c3e 2451 d7be
00000200: d3f0 033d 4561 fa3d 2134 633e b2eb b8bd
00000210: 2b32 493e d095 0ebe a4c7 7d3e c863 733e
00000220: bfac 88be 6186 f13c aa63 11be 2e0d 2e3e
00000230: ff24 973e 06df e83c 546c ce3d d4e3 62be
00000240: f385 dbbc 7517 7b3c d5cb a03e 2bb6 ff3d
00000250: 29c2 2fbe 6de2 b43d bdb0 233e e4e4 b8bd
00000260: ee8a 563d 29b0 883c f96d 253e c0fc b7bd
00000270: 52ab 0dbd 309d 62bd 0122 783e 604a 9f3d
00000280: ea59 b83c 0689 ae3c c01f f23d 7e39 3a3d
00000290: 3d5c f5bd 04f6 09bd 4f88 f73e 57d5 573d
000002a0: e587 19be 6800 08bc 069f ce3c 1991 9e3d
000002b0: 7503 6e3e 957c a03d be22 233e 8cb3 95be
000002c0: 28f4 8e3d ed5b 90bd 7c09 3c3e a443 df3d
000002d0: e597 55bd ea08 17be 1551 9abb dd61 2e3e
000002e0: e166 c4b9 74ab 253c fe42 c8be 2aa8 393e
000002f0: 37ff a2bc a6c7 043e 68ec a9bd 7203 fd3d
00000300: 7716 1dbe e98d 07bd e70f ea3c bbe2 fb3d
00000310: 421a 88be a0a5 64bd 0385 84bd 5131 5f3e
00000320: a11d 163e 4dd7 66bd 8386 acbe 13bb 653e
00000330: 0234 ad3e daa2 683d be8b 583e e17f 943e
00000340: 0996 ab3d 583c 44bd 1dac 853c eb18 703c
00000350: 8e11 203f a5b6 853e 087b 9fbc ff38 1f3d
00000360: 9a2e a93c dea9 65be ea53 e5bd 9a6d a8be
00000370: 7be5 e63c 78f1 8d3e 4d60 903d b161 aebd
00000380: 5466 ba3e dda6 f7bc e05d bbbc bd3e d1be
00000390: 2334 953d 5290 ef3d 5fd1 63be b11d 49be
000003a0: dc16 be3d c2a2 843e 4af8 9a3e 1a75 c8be
000003b0: be95 a1be 19ae 823e 9154 88bc 8a31 473d
000003c0: 207c c8be 569b 353d 4966 953e 7e2a 533e
000003d0: d034 a03e 4476 8a3d 593b 003c 262c 403e
000003e0: 81fd 8dbd eb42 27be 5c17 1bbd d9a3 e4bd
000003f0: 73ce 8e3e c054 553d 9540 b33d 60fd 90be

actor.2.bias f4 [32]
-4.4335415e-05 -0.18969622 -0.21749401 0.015883224 0.13081206 -0.2654665 0.038007744 0.04423611
0.16097222 0.053805374 0.068571545 0.17099929 0.013762083 -0.08981785 0.09751911 0.054479133
-0.11826746 0.033808865 0.023964012 0.032183062 0.078131504 -0.06947118 0.22359625 -0.051096108
0.018983768 -0.036323577 -0.058414347 -0.08132417 0.13157073 0.06833145 -0.06715114 0.20800425
00000000: caf4 39b8 ba3f 42be c0b6 5ebe 891d 823c
00000010: 99f3 053e 3aeb 87be 02ae 1b3d ec30 353d
00000020: e7d5 243e 0663 5c3d 3d6f 8c3d 701a 2f3e
00000030: 5c7a 613c 6cf2 b7bd 19b8 c73d 8325 5f3d
00000040: 3636 f2bd 2a7b 0a3d 2d50 c43c 63d2 033d
00000050: 6903 a03d e846 8ebd 6af6 643e 274a 51bd
00000060: d983 9b3c 08c8 14bd e243 6fbd 498d a6bd
00000070: 7aba 063e 5cf1 8b3d 8986 89bd 11ff 543e

actor.4.weight f4 [2, 32]
0.6048452 -0.54577714 0.1091595 -0.5652259 -0.022198731 -0.07474598 -0.5420793 -0.2031345
0.28266314 -0.84688663 0.79079556 1.340641 -0.06705328 -0.68844163 -0.6982163 -0.046301953
-0.51465696 -0.02630996 -0.048022307 -0.45784703 0.5781302 0.005524062 0.46690854 0.24113534
0.17181581 0.57873213 -0.5659034 -0.38841188 0.48505306 0.3110963 0.22484107 -0.024980614
-0.43185788 0.28019068 -0.4933474 0.07253308 -0.19930673 -0.15015046 0.021247707 0.47056028
0.12521918 -0.53303725 0.020167869 -0.25536475 -0.42700958 0.32748702 0.17645063 0.8047001
0.7380603 0.7662751 0.49233806 0.21723622 -1.043097 0.6626906 -0.21013454 -0.4447697
0.40709803 -0.6636476 0.5326957 -0.33744854 -0.68456787 -0.0072844527 -0.5912412 0.69124126
00000000: 23d7 1a3f 0db8 0bbf 048f df3d a5b2 10bf
00000010: 1dda b5bc 6c14 99bd b6c5 0abf 7e02 50be
00000020: 39b9 903e 90cd 58bf 9471 4a3f 209a ab3f
00000030: 3b53 89bd b63d 30bf 4ebe 32bf 1ea7 3dbd
00000040: 8fc0 03bf fc87 d7bc 0ab3 44bd ed6a eabe
00000050: 5700 143f 3103 b53b a30e ef3e 2fec 763e
00000060: 7cf0 2f3e ca27 143f 0cdf 10bf ecdd c6be
00000070: e058 f83e 0448 9f3e bd3c 663e 25a4 ccbc
00000080: 7a1c ddbe 2775 8f3e 0898 fcbe 398c 943d
00000090: 1017 4cbe 0bc1 19be ac0f ae3c 47ed f03e
000000a0: 7539 003e 2175 08bf 1637 a53c 2bbf 82be
000000b0: 00a1 dabe 61ac a73e 79af 343e d300 4e3f
000000c0: 85f1 3c3f 9b2a 443f bc13 fc3e 2c73 5e3e
000000d0: 3484 85bf 17a6 293f 822d 57be dbb8 e3be
000000e0: 276f d03e cfe4 29bf bf5e 083f 0ec6 acbe
000000f0: d73f 2fbf 6bb2 eebb 955b 17bf 30f5 303f

actor.4.bias f4 [2]
0.14406882 0.20316528
00000000: c786 133e 8f0a 503e
