results/SandingEnvDifficult/ddpg_extension/model/model_parameters_0.pt (torch, 36162 bytes, 22 tensors)

value.0.weight f4 [32, 20]
00000000: c966 61bd 595f 2ebd fd87 c8bd df1a 663d
00000010: 3795 fbbd 3ca3 d63d 1a81 17be 0407 7c3e
00000020: 2825 82bc 4137 cb3d f9b3 efbd 8f7e ec3c
00000030: 28ed 453e 9ea9 1c3e a471 053e 2c75 b5bc
00000040: e0af 653e 7fc7 81bd 2bb5 dbbf 7314 42bf
00000050: 8b2d efbd da4f 6d3d 1681 ea3c d0be 823d
00000060: 3760 9c3e a7de 533e 9ccc 72bd f56d 10bd
00000070: 552b dabd bc46 26bd 753b ef3d 65b3 a43d
00000080: 2bfb 4fbd 2f7e b0be 01ba 0e3e 0222 90be
00000090: 909a 19be a04c ecbc 52af 453e b209 b43e
000000a0: 1df4 d73b 5662 67bd fc19 77bd f823 8a3d
000000b0: 06f0 c1bc 0868 373c 9bb8 27bd 3fcf 3e3d
000000c0: 7e24 543e ae9a 243e b451 883d 2eae 0dbe
000000d0: f1ac c0bd ea4c 38be eac7 1d3d 6ae2 b7bd
000000e0: 4125 1dbe 4b6f 79be dfbd 143d 5b22 123e
000000f0: 1b85 ba3d 6ad7 04be 7e87 4fbe 48e4 4e3d
00000100: 266f 4e3e cd51 9bbb c080 8a3c d1fd 91bd
00000110: 1e0f 29bc 3b66 07be d753 373e f35e 81be
00000120: 8eec 1abe 71b5 d63d 87cd 38bd 3713 d33d
00000130: 321e f83c f6af 0b3e 628a 913f 5886 583f
00000140: fc5d cdbc b8e9 013e 048f 313e a9a0 c13e
00000150: 23cc fa3d b193 afbe 5850 31be ceff 303e
00000160: 9713 edbd b66a ad3d e724 32be ed56 183e
00000170: 573e 713d efcc a73b 7a52 90be 6956 f43a
00000180: f0c2 7cbd e84d 3f3e 1e88 6abf 24b2 083f
00000190: ba50 253b 75ab cb3c 8a53 f43e 9695 8e3e
000001a0: 5b36 7a3e 5c9a 843d 5799 eb3d 590c 073e
000001b0: e616 ac3c b29f 793e d2f9 cd3d a7c8 a2be
000001c0: 352d 9b3e a792 853d adab c13c 0e48 bf3d
000001d0: 4e0b 183d 4ee2 4bbe 951f eebc c3fc 0b3f
000001e0: 0089 6dbc 0496 703b 0a51 f53c 321e 413d
000001f0: f045 86bc 87c2 1d3e d2c1 4c3e d375 2cbe
00000200: c0a8 99bc 07a1 593e e4e9 06be a019 38bd
00000210: 0f0f 27be 488c 37bc 1f89 363d 5f02 9abd
00000220: 52c3 7bbd 3f5a 193d 95c1 b83e ba19 10bf
00000230: f880 bbbb fcab 06be 7f7e ebbd 89de e33d
00000240: c4ae cebd 37e1 0d3e 0b8f c63d 944e 6eb9
00000250: 0937 32bc 8bc5 c13d 646a 0abe 0a39 4dbe
00000260: 9acd 6a3e 2327 0c3e 1318 97be d7fd a2be
00000270: 5218 ab3d 2ea5 2d3e 5415 10bf 6373 c73f
00000280: d395 47bc 293d 4ebd c291 fdbd 4ee0 83be
00000290: 13d6 1e3d f9fe 113e eeb0 16bd 5a57 38be
000002a0: 31d5 1b3d af84 f43c 4acf f7bd 6643 4fbd
000002b0: 2f87 0a3e 1d57 303e 4953 a53d 412b 863d
000002c0: 68eb 2fbe 0d09 7b3e 499c f53e 062a 5cbf
000002d0: f4ed 52bb b2c8 cc3c 5034 01bd 7325 01bd
000002e0: f6dd 19be 50a9 41be 340c 253e 6cb2 52be
000002f0: e4d5 523d 19b0 36bd 2a53 663d 4fdd 50be
00000300: 8368 663d c67c 173e 3446 0ebe 50d4 6d3e
00000310: 746e 103e 6722 393e da64 5e3d 49b1 71bf
00000320: 0bcf 1fbd 211d d13d 71bc 823e cda1 9e3d
00000330: 7879 76be 9436 443e dbaf e4bd 0fe0 993d
00000340: 5f40 42be 85e8 683e 91b3 15bc 0c8e cb3d
00000350: 2dd3 703e 3f7f 163e 4496 233e fd31 b8bc
00000360: 0e62 173d 3b0e e4bd 6112 0dbf 7e87 0040
00000370: ce1e 8fbc 12a3 8b3a f9d3 293d 1792 c3bd
00000380: 11ab 02be 0829 ca3d 7162 573e 237a 99bb
00000390: b5e3 50be 8762 dd3d 3c9a 3dbe ad7e c63d
000003a0: e676 213e 6cfa 53be 148f 6b3e 34e8 f4bd
000003b0: 55cd 54be 031e d23c 855b e0be e1a5 f33d
000003c0: 4cb9 213d 0cca c9bd 5ade e93c bdc6 f8bd
000003d0: 5596 413c 3ba5 d93d b2ea 22be 684b f43c
000003e0: ea95 abbd 891a e13d 041b f3bd 3cf4 9fbd
000003f0: 6aed 1cbe 695f 423d eebd 3d3e 47f3 d43d
-0.055029664 -0.0425714 -0.09791563 0.05617797 -0.1228432 0.10480353 -0.14795342 0.24612051
-0.015886858 0.09922648 -0.11704249 0.028868942 0.19328749 0.15299079 0.13031632 -0.022150598
0.22430372 -0.06336879 -1.7164663 -0.75812453 -0.116786085 0.05793748 0.028626006 0.06384051
0.30542156 0.20690404 -0.059277162 -0.035261113 -0.10652796 -0.0405948 0.116812624 0.08042029
-0.05077664 -0.3447127 0.13938142 -0.28150946 -0.15000367 -0.028845131 0.1930516 0.35163647
0.00659038 -0.056490265 -0.060327515 0.06745142 -0.023674022 0.011194237 -0.040947538 0.046584364
0.20717046 0.1607463 0.06656209 -0.13835976 -0.09407986 -0.1799809 0.03852073 -0.08978732
-0.15346242 -0.24358861 0.036313888 0.14270918 0.09107419 -0.12972799 -0.2026653 0.050510675
0.20159587 -0.004739976 0.016907096 -0.0712849 -0.010318546 -0.13222592 0.17903076 -0.25267753
-0.15129301 0.10483826 -0.04511788 0.10306399 0.030287836 0.13641343 1.1370356 0.8457999
-0.02506923 0.12686813 0.17339712 0.37817886 0.12245967 -0.34292367 -0.17315805 0.17285082
-0.11576002 0.08467619 -0.1739689 0.1487691 0.058897343 0.0051208655 -0.28187925 0.0018641475
-0.061709344 0.18682063 -0.9161395 0.5339682 0.0025225119 0.02486203 0.47719985 0.278485
0.24434797 0.06474754 0.11503857 0.13188304 0.021007013 0.24377325 0.10057415 -0.3179371
0.30307928 0.06522112 0.023641432 0.09339915 0.037120156 -0.19910547 -0.029067794 0.5468256
-0.014497995 0.003671051 0.029945869 0.047147937 -0.01639077 0.15406238 0.19995812 -0.16841821
-0.018757224 0.21252833 -0.1317516 -0.044946313 -0.16314338 -0.011202879 0.044564363 -0.075199835
-0.06146557 0.03743958 0.3608519 -0.56289256 -0.0057221614 -0.13151544 -0.114987366 0.111264296
-0.10091928 0.13855444 0.09695252 -0.00022726721 -0.010877379 0.094615065 -0.13517147 -0.2004129
0.22929993 0.13686804 -0.29510555 -0.3183429 0.08354248 0.16957542 -0.56282544 1.5582088
-0.012181717 -0.050351296 -0.12381317 -0.25757068 0.038778376 0.1425742 -0.036789827 -0.18002072
0.038045112 0.029848425 -0.12100084 -0.050601386 0.13528131 0.17220731 0.08072526 0.06551219
-0.17179644 0.24515171 0.479708 -0.8600162 -0.0032185288 0.024998043 -0.03154403 -0.031529855
-0.15026078 -0.18912244 0.16117936 -0.20575875 0.051473513 -0.044601534 0.056231655 -0.20396923
0.056252014 0.14793691 -0.13893968 0.23225522 0.14104635 0.1807953 0.0542954 -0.9441114
-0.03901581 0.10210634 0.25534394 0.07745705 -0.24069774 0.19161445 -0.11166354 0.07513439
-0.18969868 0.22744949 -0.00913705 0.09939203 0.23518057 0.14696978 0.1597529 -0.022484774
0.036958747 -0.11135527 -0.5510617 2.0082698 -0.017470744 0.0010653457 0.04146192 -0.09549349
-0.12760569 0.09871107 0.21033646 -0.0046837493 -0.20399363 0.10809808 -0.18515867 0.0969213
0.15768012 -0.20700997 0.23003799 -0.11958352 -0.20781453 0.025649076 -0.43819824 0.11896873
0.039483353 -0.098529905 0.028548408 -0.12147281 0.011815627 0.10627218 -0.15909842 0.029821113
-0.08378203 0.10991389 -0.11870387 -0.07810256 -0.15324941 0.04745427 0.18529484 0.10397964

value.0.bias f4 [32]
00000000: c8da 44bd 40ec 3bbe 6109 2b3e 0cf7 cbbd
00000010: d6c3 efbd 7d75 1abe 4b32 22be 2e99 003e
00000020: 5728 0cbe d561 d2b8 c4f8 013e 1f15 29be
00000030: 5f48 83bc 5fb2 39bd 1527 2cbe 89d1 a23d
00000040: 4f55 e2bd ddde 7e3e 20cf 633e 8a0d d1bd
00000050: 2acd 0ebe 53bc 10be 3037 3bbe 453e b6bd
00000060: ecf5 9cbc 6e02 cc3b 5ca2 f7bb 666f 033e
00000070: d4f7 a037 86ca 89be 24d0 2a3e 3473 9bbe
-0.04806021 -0.18351841 0.16702797 -0.0995923 -0.117072746 -0.1508388 -0.15839498 0.12558433
-0.13687263 -0.00010031803 0.12692553 -0.16511963 -0.01602572 -0.045336124 -0.16811784 0.07950122
-0.110514276 0.24889703 0.2224698 -0.102076605 -0.13945451 -0.1413434 -0.18282771 -0.08898596
-0.019160233 0.0062258756 -0.0075571965 0.12835464 1.918889e-05 -0.26912326 0.16680962 -0.3036133

value.2.weight f4 [32, 32]
00000000: 8f29 0cbe 28cd 8b3d 720f dc38 ab34 0bbd
00000010: c12a 223e eef2 b0bc 30ed f2ba ec65 a2bb
00000020: 710e e23d c28d acbd 841a d83d c07b 30be
00000030: 11a9 75bd 5e9e bcbe 46a4 a4bd 32f0 b23d
00000040: 7e1b 11bc 9423 713d 2bf8 31be 6078 14bd
00000050: 4268 5d3e a4e6 c83d e90c cb3c 1ce3 033d
00000060: e9fd a3bd 97d7 16be 5321 57bd b9ec 8d3e
00000070: 8c9c 6e3e 7dda 24be 424b 1c3d ac54 f73d
00000080: 700b 00be 1db0 b9bd 9395 9dbd 3a4a ffbd
00000090: 0d1a b7bd 1fd3 5ebe ebd4 743d f0a7 b3bd
000000a0: 0bb1 2ebe 7997 3c3d 8640 d1bd 653a 2fbe
000000b0: 8efc d1ba afcd d4bd 4c8e 1e3d d4e3 16bd
000000c0: 7fdc 42bd a2c5 763e 8084 7fbd c9cb 3a3e
000000d0: 0b6b 093d ed79 cdbd 20c3 143e 1a75 6a3e
000000e0: 074c fc3a a549 5e3d 7391 6b3d 2c88 913d
000000f0: 2453 96be 0a5c 773e 0a97 a63d 4a04 bebc
00000100: cd9c 143e 6526 bc3d 6a14 04be a943 2bbe
00000110: 4211 fdbd 0407 33be 329d 433d 2a0a 66be
00000120: 5676 a5bd 4286 223c b28a 29be d584 6cbd
00000130: 7f56 0a3e 6ce1 b73d 5835 943d b0e7 8d3b
00000140: b90f c83d 942a 53bc f661 073d 6acb 023e
00000150: 6f16 4b3e b578 87bd 0ea7 7a3d 29a9 c3bd
00000160: 1a4c 933d 1e43 3f3e f186 55bc a660 25be
00000170: ae0a cd3d 348d 373e 9aeb 503e e3fe c1bd
00000180: 09b6 59bd fdab 1bbe e4e6 c8be f2c3 283d
00000190: 4b4b 543e 15b5 893c dc4f fabd 2677 f2bd
000001a0: 121c 2f3e e73a 133d 433d ccbc 0c2d 643e
000001b0: 317f 993d dc65 83be 009c eebb 4af5 163e
000001c0: df87 86be e954 0bbd 2046 a0bc 8411 c8bc
000001d0: 1a92 fabb 8a8e 9d3d 9315 25bf 4ade 46be
000001e0: 6bb5 4bbe 8c0b ddbd 78bd 143e 2597 35bd
000001f0: ad5e cc3b 6191 9a3a 6be1 e3bd 5098 e5bd
00000200: 0a23 2cbd 44c2 a3be 883c 223d fa40 25be
00000210: a91e 99be 0ca3 d3bd be5f d5bd 7ecf 3bbd
00000220: a913 27be c78e 14bc b51d 7ebf 6bc2 98bf
00000230: d9d4 19be 587d 023e 1c7a 993d e475 323e
00000240: 5c84 41be b8dd 753d 0623 143d 629e efbd
00000250: 7ca6 b5bd 13e4 163e 0aca 79bd ac7b 3ebe
00000260: 7a4e 673c a7d3 823e 139c 16bc 6293 aabe
00000270: 2cba d3bd 5479 f2bc 7f57 e2bc ee5a 7fbe
00000280: 4ff5 ccbe ea1d 343e 78cd 88bc 84c5 1cbd
00000290: b11d 60bf 0f64 9e3e 5909 12be 9cd1 95be
000002a0: 3a05 0bbe 5dee 623e f4e5 273e d0af 043e
000002b0: cd4f 0b3d bf53 9a3b 5164 1abd 7f3a 9b3c
000002c0: 19ae 96bd d669 04be 61ad 47b9 a606 b5be
000002d0: 47d6 a43d 5943 00be c3fb 7a3c 010f 133e
000002e0: 847e 27bf 1069 13bf 3332 4a3d 11b9 a1be
000002f0: 5cf1 82be dfd2 30bf 6c9d b2bc da95 3cbd
00000300: 42a2 afbd 1ecb b73d 8253 9c3d b278 9abe
00000310: ee3c 9abd ea70 f1be d0cd 693d 571f 843d
00000320: f8b2 6ebe 309f 1e3e 35fd 333d 416f 023d
00000330: d121 c4be 1a5c 093e b76e 3f3d 23e8 0dbe
00000340: 7528 69bd 9882 433e 31fa 2ebb 4871 c5bc
00000350: eecf 2ebe f99a 863c 04ef ed3d 2e5c 8a3d
00000360: 2da9 5abd 224f ca3d 73b0 90bd 1721 da3d
00000370: 1c38 23be 2333 a03e 30a7 a5bd ff17 9fbd
00000380: 526f 3dbe e94a db3c 5176 2b3d fcb3 15bd
00000390: 5128 e13c 2b87 babe 24d6 a63d 77b6 25bf
000003a0: 5443 803d 46a3 e0bc 2b0f 9e3e 7901 023e
000003b0: 44ca 893d 4618 863e 008d 0abe c908 71bd
000003c0: 3b7a 493e 1104 363e 98ca 0f3d 3b53 e2bd
000003d0: e25b 78bd b161 bebe bc34 453e e14f abbd
000003e0: 52c7 d7bc a52e 4d3c bf0f 4e3e 3410 af3d
000003f0: e933 ebbd 1fd4 85be f61a dabd ebae 9cbe
-0.13687728 0.0682624 0.000104932944 -0.033985775 0.15836622 -0.021600213 -0.0018533822 -0.0049559977
0.11037911 -0.08425476 0.105519325 -0.17234707 -0.059975687 -0.36839575 -0.08039145 0.0873722
-0.008856652 0.05887182 -0.17379825 -0.03624761 0.21621802 0.09809616 0.02478643 0.03219901
-0.08007414 -0.14730678 -0.052522015 0.27719668 0.23301905 -0.16098972 0.03815771 0.12076697
-0.12504363 -0.09066794 -0.07694545 -0.124653295 -0.08940516 -0.21760224 0.059773367 -0.08772266
-0.17059724 0.046042893 -0.10217385 -0.1711212 -0.0016020702 -0.103907935 0.038709924 -0.036838368
-0.047573563 0.24098828 -0.06238222 0.182418 0.03354935 -0.10033021 0.1452756 0.22896233
0.0019248732 0.05426945 0.057511758 0.07106051 -0.29360306 0.24156204 0.08134277 -0.023195405
0.1451294 0.09187011 -0.12898412 -0.16725029 -0.12356807 -0.17483145 0.047757335 -0.22464815
-0.080792114 0.009919705 -0.16556814 -0.057743866 0.13509558 0.08978543 0.07236737 0.004330598
0.09768624 -0.012888569 0.033052407 0.12772909 0.19832776 -0.0661482 0.061194472 -0.09553749
0.071922496 0.18677947 -0.013032661 -0.1615015 0.100118026 0.17924958 0.20402375 -0.09472444
-0.053152118 -0.15202327 -0.39238656 0.041202493 0.20731847 0.01680998 -0.12222263 -0.11839132
0.17100552 0.035944846 -0.024931556 0.22282809 0.07494963 -0.2566365 -0.0072817802 0.14742008
-0.26275536 -0.034016524 -0.019564688 -0.024422415 -0.007646811 0.07693203 -0.64486045 -0.19420734
-0.19893424 -0.10793218 0.14525402 -0.044333596 0.006236872 0.0011792594 -0.111269794 -0.11210692
-0.042025603 -0.3198415 0.03960851 -0.16138068 -0.29906204 -0.10333833 -0.10418652 -0.045852177
-0.16316094 -0.009067244 -0.9926408 -1.1934332 -0.15022601 0.12743127 0.07493994 0.17427784
-0.18898147 0.0600259 0.036166213 -0.11700131 -0.08869645 0.14735441 -0.060983695 -0.18601865
0.014117831 0.25552103 -0.009192484 -0.3331557 -0.10338244 -0.02959887 -0.027629612 -0.2493703
-0.40030906 0.17589536 -0.016699538 -0.038274303 -0.87545305 0.30935714 -0.14261378 -0.29261482
-0.13576213 0.22161241 0.16396314 0.12957692 0.03401165 0.0047096903 -0.037693325 0.018948792
-0.07357425 -0.12930998 -0.00019042708 -0.35356635 0.08048683 -0.12525691 0.015318814 0.14361192
-0.6542742 -0.5758219 0.04936428 -0.31586507 -0.25574768 -0.69071764 -0.02180358 -0.046041347
-0.0857587 0.089742884 0.07633115 -0.30170208 -0.07531153 -0.4715646 0.057081044 0.0645129
-0.23310459 0.15490413 0.04394265 0.03184438 -0.3830705 0.1341404 0.046736445 -0.13858084
-0.05692335 0.19092786 -0.0026699419 -0.024101868 -0.17071506 0.016431319 0.11617854 0.06755863
-0.053383995 0.09878375 -0.07064905 0.10650843 -0.15939373 0.31289014 -0.08088529 -0.07768249
-0.18499497 0.026769118 0.041860882 -0.0365486 0.027485045 -0.3643125 0.08146313 -0.64731544
0.06262842 -0.027421605 0.30870947 0.12695874 0.06728032 0.26190394 -0.1353035 -0.05884627
0.19675533 0.17774989 0.035105318 -0.11051031 -0.0606345 -0.37183908 0.19258398 -0.08364845
-0.02634016 0.012523328 0.20123194 0.085480124 -0.114845105 -0.26138398 -0.10649674 -0.30602202

value.2.bias f4 [32]
00000000: 9877 2dbe c2a9 1f3e d265 503c bd44 453c
00000010: 6923 fd3d 6768 7ebe 149c e7ba 1493 55be
00000020: 336e 833e 8bf9 afbd 467f 8fbc ffa0 bebd
00000030: 3832 363e bb01 fb3d d850 c7bd bfeb 4abe
00000040: c8fd 0c3e 0eba ac3d 27fc ed3d 1e0e dcbd
00000050: 4ef9 9d3d fbe2 033e 4ed7 20be cf86 0d3e
00000060: 83b3 6ebd de70 6fbd afe2 713e 26aa 923d
00000070: 4713 303e 0a77 d73d 4fc2 39be ba3a 1a3d
-0.16940153 0.15592101 0.012719588 0.012040314 0.123602696 -0.24844514 -0.0017670416 -0.20856887
0.25670013 -0.085925184 -0.017516743 -0.09308051 0.17792594 0.122561894 -0.097322166 -0.19816492
0.13768685 0.084339246 0.1162036 -0.1074488 0.07713567 0.12879555 -0.15707132 0.13820957
-0.058276664 -0.058457248 0.23621629 0.071613595 0.17194854 0.10520752 -0.18140529 0.037653662

value.4.weight f4 [1, 32]
00000000: e0a5 83bd 5aea e33d 7449 11bd 67d9 0fbe
00000010: 15ea f5bd 7630 34be 44d2 b5bd 69cb 4d3d
00000020: e0cf 63bd 37dd 3b3d 1175 243d 1614 943d
00000030: 48b9 f83d fabe aebd 63da 02bd 9ce9 7e3d
00000040: 16ab babd 000b 17bd 4428 293d 02a4 883d
00000050: 7a13 57bd 55e2 a5bd fa3a cf3d b62e 9abd
00000060: 7729 43bd 02ff 68bc 080c 623d b3bc 9f3d
00000070: 12fe 2b3e 88aa a4bd 9275 55bd e983 a53d
-0.064281225 0.111286834 -0.03547044 -0.14047776 -0.12007538 -0.17596611 -0.088779956 0.050242815
-0.055618167 0.045865264 0.040150706 0.072303936 0.121447146 -0.0853252 -0.03194655 0.062234506
-0.09114663 -0.036875725 0.041298166 0.06671907 -0.05250881 -0.0809981 0.10118671 -0.07528441
-0.047646966 -0.014220955 0.055187255 0.077996634 0.16796139 -0.08040339 -0.052114077 0.080818005

value.0.weight f4 [32, 20]
00000000: 15f7 60bd 04f8 2cbd aa29 c9bd 77d7 643d
00000010: 4ac8 fabd da06 d53d a9f1 16be 43a5 7b3e
00000020: ad0e 8ebc c475 cf3d bf12 f0bd 8403 eb3c
00000030: 35a9 453e 6735 1d3e 9dd9 053e 3f35 b2bc
00000040: dd3e 663e e949 82bd 511e dbbf 44d9 41bf
00000050: 437c efbd 97fd 643d c901 ec3c ff1e 833d
00000060: 4a66 9b3e a8cb 523e e3e9 6fbd 23af 0dbd
00000070: 9527 d8bd 57b8 21bd cdb2 f13d bd2a a73d
00000080: 013e 4fbd 6287 b1be 4151 0f3e 63d6 8fbe
00000090: 14e3 18be 0d18 e2bc 6210 4a3e 8e90 b63e
000000a0: b2d8 9f3b c42d 65bd 12f4 75bd edb6 8a3d
000000b0: 902f b7bc d04d 543c 50a8 2bbd 93e4 403d
000000c0: 3f63 553e f30e 243e 3cd5 873d 6bec 0dbe
000000d0: 464e bfbd 6728 38be f89b 1b3d 63f8 b8bd
000000e0: 2a51 1cbe 328a 78be 69c8 1f3d fd49 0f3e
000000f0: 12a2 be3d dfdf 04be d605 51be fcea 483d
00000100: 6750 4f3e 17d1 cdbb c436 863c 6f3b 93bd
00000110: 3cae 49bc 48da 05be e3ee 383e 6c91 80be
00000120: 0df9 19be aa18 d43d 47cc 39bd d693 d23d
00000130: d11e f13c fab4 0c3e afde 913f 319e 573f
00000140: eba5 c3bc 8f89 023e 1a31 323e b1f1 c13e
00000150: f697 fb3d 5d30 afbe 44f6 2ebe b790 313e
00000160: 8f6c edbd 1689 aa3d d516 31be ff64 193e
00000170: e480 753d 89b5 ab3b 2e2c 91be 042e 5539
00000180: 6045 7cbd 4c48 403e c8d0 6abf 233f 073f
00000190: ab6a db3a 9e0d dd3c dd4e f43e e990 8e3e
000001a0: 80b9 7a3e f3fb 833d b533 e83d eccb 063e
000001b0: bea8 a33c c681 773e 8794 cb3d fa61 a3be
000001c0: 9b39 9a3e fd34 833d a6a3 c13c 1446 bf3d
000001d0: 89b0 113d 89dc 4dbe b73b dbbc 5d91 0c3f
000001e0: 6160 79bc f315 4d3b 8642 e73c ec16 3a3d
000001f0: 4d0a 74bc d70e 1d3e 1790 4b3e cc52 2dbe
00000200: 7f75 95bc 1a2c 5b3e 067c 06be 2962 36bd
00000210: 1693 26be 869c 3ebc faf9 353d f249 9abd
00000220: a47c 7dbd 1a5a 1b3d 279e b93e 902f 10bf
00000230: 54fa e9bb 32fd 06be b5be e7bd 539e e73d
00000240: 8da5 d0bd d166 0e3e 01e0 c83d 4c7b b73a
00000250: baeb 2bbc 1aee bf3d 1cb5 0bbe c283 4ebe
00000260: f933 6b3e 26d3 0c3e 4583 96be 0969 a2be
00000270: 2d44 ab3d 3ec9 2d3e 6ca0 0ebf 0632 c73f
00000280: af50 29bc de7c 4abd d311 fcbd 4f80 83be
00000290: 4408 243d 7294 123e f11f 16bd 044c 38be
000002a0: 805c 173d 3a44 013d f73f fabd b924 54bd
000002b0: f2d3 093e 7c3b 2f3e 578f a43d 4f67 853d
000002c0: b58a 30be d08e 7a3e c4a5 f73e 0181 5bbf
000002d0: 80b8 b7bb 3ac0 b93c 6b46 02bd 8e37 02bd
000002e0: 9e15 19be 501e 42be df06 263e 05e2 52be
000002f0: bff4 503d a57d 3dbd 0a77 643d 5554 51be
00000300: 5d19 653d 277d 193e 3765 0dbe 4db5 6e3e
00000310: 31bc 133e 365c 393e a7d9 633d ab2f 72bf
00000320: 40e4 22bd 1e28 d43d 7b6a 823e 0f5a 9d3d
00000330: 9413 76be af06 413e 8ada e2bd 925c 9f3d
00000340: 1ef4 42be 0dfe 6a3e 0479 0ebc 5775 cc3d
00000350: 461b 713e 9036 163e 4850 233e a061 babc
00000360: 49d5 1a3d 8a8f e2bd 6f02 0cbf 5707 0040
00000370: 002d 97bc 498c 55ba 486d 2a3d 7645 c3bd
00000380: d8ad 01be 8bf4 ca3d 1017 593e fdab 9fbb
00000390: 411e 51be ba05 e33d 392c 3fbe af5a c33d
000003a0: 07ba 203e 8e4b 53be 6761 6c3e a343 f3bd
000003b0: 8799 52be 41fa d13c 8303 e1be ae8f f93d
000003c0: 2291 163d b7e6 c9bd 695b e63c 7ea7 f9bd
000003d0: f1a9 233c e9de d83d a62e 23be e3a0 ea3c
000003e0: 1649 acbd 6e04 e03d 4e3d f4bd 8616 a1bd
000003f0: 2e00 1cbe dae9 443d 2c6f 3e3e c155 d63d
-0.054923136 -0.042228714 -0.098224 0.055869546 -0.12245233 0.104016975 -0.14740624 0.24574761
-0.017340982 0.10129884 -0.117223255 0.0286882 0.19302829 0.15352403 0.13071294 -0.021753905
0.22484918 -0.063617535 -1.7118627 -0.75722146 -0.11693623 0.055905905 0.028809445 0.064023964
0.30351478 0.20585501 -0.05857266 -0.03459085 -0.10554425 -0.03948244 0.11801682 0.081624486
-0.05059624 -0.346736 0.1399584 -0.28093252 -0.14930373 -0.027599359 0.19732812 0.3565716
0.004878127 -0.05595185 -0.060047217 0.067731716 -0.022361547 0.012958005 -0.041908562 0.047092985
0.2083864 0.16021328 0.06632468 -0.13859718 -0.09341101 -0.17984162 0.03799054 -0.09031751
-0.15265337 -0.24271467 0.039009485 0.13993068 0.09308256 -0.12976025 -0.20412382 0.049052224
0.20245515 -0.006281029 0.016383536 -0.071890704 -0.012309607 -0.13071549 0.18059878 -0.25110948
-0.15036412 0.10356267 -0.04536083 0.10282104 0.02943364 0.13740912 1.1396083 0.84225756
-0.023882827 0.12747787 0.17401543 0.37879708 0.122848436 -0.34216586 -0.1708613 0.1734036
-0.115929715 0.08326928 -0.17293866 0.14979933 0.059937373 0.0052401465 -0.2835402 0.00020330405
-0.0615896 0.18777579 -0.91724825 0.52830714 0.0016740164 0.026984032 0.47716418 0.27844933
0.24484825 0.0644454 0.11337987 0.13163728 0.019977923 0.24170598 0.09940439 -0.31910688
0.30122074 0.06406591 0.023637604 0.09339538 0.035568748 -0.20103659 -0.026761873 0.54909307
-0.015220732 0.00312936 0.028229963 0.045432016 -0.014895034 0.15337692 0.19879185 -0.16926116
-0.018244503 0.21403542 -0.13133249 -0.044527207 -0.16267046 -0.011633998 0.04442785 -0.07533635
-0.061886445 0.037927724 0.36253473 -0.56322575 -0.007140437 -0.13182524 -0.11315671 0.11309495
-0.10187826 0.13906409 0.0980835 0.0013998537 -0.010493213 0.09371586 -0.13643306 -0.20167449
0.22969045 0.13752422 -0.29397026 -0.3172076 0.08362613 0.16971299 -0.55713534 1.5562141
-0.010334178 -0.04943549 -0.12308087 -0.2568383 0.040046945 0.1431444 -0.036651555 -0.17997748
0.03695345 0.031559207 -0.122192316 -0.051792834 0.13459757 0.17112535 0.080351524 0.06513845
-0.17240413 0.24468541 0.48368657 -0.8574372 -0.005606711 0.022674669 -0.031805437 -0.031791262
-0.14949653 -0.18956876 0.16213559 -0.20594032 0.051014658 -0.046262402 0.055777587 -0.20442326
0.05593239 0.14989148 -0.13808142 0.23311348 0.14427258 0.18101582 0.05562749 -0.94603986
-0.039768457 0.10359214 0.25471863 0.07683193 -0.24030906 0.18850206 -0.11076839 0.07781328
-0.19038436 0.22948475 -0.008695845 0.09983318 0.2354556 0.14669251 0.15948594 -0.02275163
0.03780106 -0.11062534 -0.54691213 2.000448 -0.018454075 -0.00081462093 0.041608125 -0.09534733
-0.12663972 0.09909924 0.21200204 -0.0048727975 -0.20421697 0.11085077 -0.18669213 0.09538781
0.15695964 -0.2063429 0.23084031 -0.11878135 -0.20566379 0.025632026 -0.43947992 0.12185608
0.036759503 -0.098584585 0.02811976 -0.1219015 0.009989248 0.10589392 -0.15935764 0.02864117
-0.084123775 0.10938345 -0.119257554 -0.07865624 -0.15234444 0.04807458 0.18597096 0.10465575

value.0.bias f4 [32]
00000000: e76d 43bd 291f 3dbe 9a8c 2a3e 6277 cebd
00000010: 4c47 f1bd fb6e 19be 1eb9 22be 4486 003e
00000020: 85ee 0bbe eca3 7d3a f2af 013e 4fba 27be
00000030: a269 87bc 36d5 39bd b10f 2cbe 35bd a23d
00000040: a5c6 e3bd e0e3 7e3e 818d 643e 532c d2bd
00000050: 0581 0ebe 1b97 10be db76 3bbe 0e8f b6bd
00000060: 6385 a4bc cac3 d63b cbe3 e8bb 8d76 033e
00000070: 47c4 0f3a 50b6 89be 3ae4 2a3e 34ad 9bbe
-0.047712233 -0.18468918 0.16655198 -0.10081364 -0.11781177 -0.14983742 -0.15890929 0.12551218
-0.13665207 0.00096756103 0.12664774 -0.16379665 -0.016529862 -0.04536935 -0.16802861 0.079462446
-0.11121873 0.24891615 0.22319604 -0.102623604 -0.13916405 -0.14120142 -0.18307059 -0.08914004
-0.020083135 0.0065541016 -0.007107233 0.12838192 0.00054842647 -0.26896906 0.16688624 -0.3040558

value.2.weight f4 [32, 32]
00000000: 6868 0cbe 0db1 903d 3599 063b f56b 0bbd
00000010: 48b6 1f3e 20d6 bdbc d70c 95ba 52cc c4bb
00000020: 27db e33d 5ba3 adbd 1cae d53d c7d5 2fbe
00000030: b371 70bd 1c03 bcbe 4952 a2bd d479 b23d
00000040: 17ed 1cbc 53ee 6d3d fafd 2ebe e683 0ebd
00000050: 9295 5d3e b4ea c83d bba6 c73c a1ec 053d
00000060: ad8d a2bd 6466 17be 61fb 54bd 330b 8d3e
00000070: 92d5 6e3e e3f0 25be 15ca 1b3d 738e f73d
00000080: fdd7 ffbd ccf1 b8bd b4d3 9bbd f2d9 00be
00000090: b9ad babd 995d 60be b64e 6f3d e82b b9bd
000000a0: 4cd1 2cbe 3e81 383d 1a35 d7bd 15c2 2ebe
000000b0: ea68 01bb 8d16 d1bd 64da 143d 37f3 15bd
000000c0: 40ca 45bd bbe7 773e 0e8d 7dbd 66bf 3b3e
000000d0: 7f5a 0b3d 64e6 cfbd 069c 143e c78e 683e
000000e0: 494b 413b b551 593d 2358 6e3d d7bf 903d
000000f0: dabc 96be afe2 753e ffb2 a63d 9c36 b8bc
00000100: 5666 153e 085e bd3d 60f5 02be 2b4a 2abe
00000110: 8291 fcbd 3279 32be 9e6a 483d 3ca4 65be
00000120: 5ac9 a3bd 089e 263c 3c86 28be 74f0 6cbd
00000130: 106c 0b3e cf83 b83d 9f81 963d 7d4b b83b
00000140: f19b c83d d1b4 57bc 4465 083d 1e0d 033e
00000150: 558e 4a3e d60a 86bd bd04 803d d382 c1bd
00000160: ecda 933d 1322 403e 179e 46bc ea06 26be
00000170: dd3c ce3d 1437 383e 6b35 513e 5581 c0bd
00000180: 75f3 55bd b806 1abe 37ea c8be 529b 2b3d
00000190: 4188 543e c0af 9f3c 435b f9bd 1236 f4bd
000001a0: 83a8 2e3e 9c2a 0e3d a421 cabc 15cb 653e
000001b0: 1e85 993d 9348 83be 9cae 06bc 66fc 163e
000001c0: c492 86be ba4b 0bbd aa9d 94bc 2662 c9bc
000001d0: 4bc4 02bc 5b27 9c3d 70e1 25bf af2e 4bbe
000001e0: ce3e 49be 2177 d9bd e717 143e e182 36bd
000001f0: 3ff5 003c 2581 193b ae66 e1bd c2ee e6bd
00000200: be98 2abd bd88 a3be 230a 2c3d 140d 24be
00000210: dc63 97be 854a cdbd 1a98 d0bd 44e0 34bd
00000220: e6a5 28be 5977 1cbc a2b6 7cbf 2fa3 98bf
00000230: eb66 17be bc7d 023e 415b 9a3d 942d 343e
00000240: a295 41be dcd8 783d ab40 193d 56fc eabd
00000250: 5585 b8bd b68e 163e 2cc1 7abd a307 3ebe
00000260: 2a66 843c eefe 823e 733e 14bc 40ef aabe
00000270: 6210 d6bd ffac e2bc 8691 dbbc 7658 7dbe
00000280: 57be cdbe 43d5 303e cd90 85bc 8527 16bd
00000290: b10e 60bf a3b8 9e3e 2d3a 14be 3e05 97be
000002a0: 95fa 0cbe 9b08 623e f232 263e 0e9a 043e
000002b0: 9fa9 023d 2354 9a3b f0a6 22bd 208c 953c
000002c0: a002 99bd 6166 02be 71c5 e73a 9b19 b6be
000002d0: 2997 a83d 3083 00be 8be5 6e3c fdc4 103e
000002e0: 7679 27bf 2f60 13bf 4919 4d3d d7d3 a3be
000002f0: bbe8 81be 5b27 31bf a69a b0bc 0a4e 45bd
00000300: b337 aebd 24cf ba3d 9f2e 9f3d fdc8 98be
00000310: ca8a 9cbd abbc f0be d245 6b3d a07b 863d
00000320: 3892 6abe fafd 1e3e 913d 353d 81bf 013d
00000330: c549 c3be aa36 0a3e 1f50 453d 19de 0cbe
00000340: f7d4 68bd b142 403e 9f7b 45bb 616f c4bc
00000350: 8559 31be 095b 943c 5578 ec3d fc69 883d
00000360: e414 53bd 4c86 cf3d 92c1 8fbd ee51 dc3d
00000370: 1e6e 24be ba11 a03e d031 a5bd 223d a2bd
00000380: 458c 3cbe a801 e03c c1f5 2b3d f280 13bd
00000390: 0e2f f03c f35e babe e12a a73d 9df1 25bf
000003a0: 95a5 823d 05d0 d6bc ad15 9f3e aeda 003e
000003b0: d577 8b3d 8438 863e 9521 0bbe dc9d 6ebd
000003c0: 2690 493e d465 363e 37cd 0e3d a81f e3bd
000003d0: e7d5 7bbd cf4f bdbe 1642 463e 89c4 a9bd
000003e0: c4d8 e9bc 2f9a 3e3c 62c4 4d3e e836 b03d
000003f0: d07f e6bd 6e90 84be a522 d7bd 4af3 9abe
-0.13711703 0.0706502 0.0020538096 -0.034038503 0.15596879 -0.023173392 -0.0011371624 -0.006005802
0.11125784 -0.08478423 0.10433599 -0.17171393 -0.058702182 -0.36721122 -0.07925851 0.08714643
-0.009578011 0.05808861 -0.17089072 -0.034793757 0.21639088 0.09810391 0.024371495 0.03269637
-0.07937179 -0.14785153 -0.051997546 0.27547607 0.23323658 -0.16205172 0.038034517 0.12087717
-0.12492368 -0.09030494 -0.076087385 -0.1258314 -0.09115166 -0.21910705 0.058424674 -0.090415776
-0.16876715 0.04504513 -0.10508175 -0.17066224 -0.0019746372 -0.10209379 0.036341086 -0.0366089
-0.048288584 0.24209492 -0.0619021 0.18334731 0.03402185 -0.101513654 0.14512643 0.22710715
0.0029494336 0.053056438 0.058189522 0.070678405 -0.29440957 0.24012254 0.081396095 -0.022486977
0.1458982 0.09246451 -0.12788916 -0.16629855 -0.12332441 -0.17429045 0.048929803 -0.22425932
-0.07997389 0.0101695135 -0.16457456 -0.0578465 0.13615441 0.090095155 0.07348942 0.0056242333
0.097953685 -0.013165669 0.0332997 0.12797973 0.19780858 -0.065450355 0.06250904 -0.09448781
0.072194904 0.18762998 -0.0121226525 -0.16213575 0.100702025 0.1798976 0.20430534 -0.09399668
-0.05223413 -0.15041625 -0.39241192 0.041896172 0.20755102 0.019492984 -0.1217561 -0.119243756
0.1705647 0.034708604 -0.024674244 0.22440751 0.07496093 -0.25641307 -0.008220341 0.1474472
-0.26283848 -0.034007765 -0.018141586 -0.024582934 -0.00798137 0.07624694 -0.64797115 -0.19842027
-0.19652864 -0.10618425 0.14462243 -0.04455841 0.007870971 0.0023422923 -0.11005913 -0.11276008
-0.041649573 -0.3194026 0.042001855 -0.16020614 -0.29568374 -0.10023979 -0.10185261 -0.04415919
-0.16469535 -0.009549939 -0.98716176 -1.19248 -0.14785354 0.12743276 0.075369366 0.17595512
-0.18904737 0.06075369 0.037415188 -0.114739105 -0.09009806 0.14702877 -0.06121938 -0.185576
0.016161997 0.2558512 -0.009048092 -0.33385658 -0.104523435 -0.027670382 -0.02680279 -0.24740776
-0.4018428 0.17268853 -0.016304398 -0.036658783 -0.8752242 0.31000242 -0.14475317 -0.29496187
-0.13767464 0.22073595 0.16230372 0.12949392 0.031900045 0.004709737 -0.039709985 0.018255293
-0.07471204 -0.12734367 0.0017682743 -0.3556641 0.082319565 -0.12550044 0.0145810945 0.14137645
-0.6541971 -0.5756864 0.050072942 -0.31997558 -0.25372872 -0.69200677 -0.021558117 -0.048170127
-0.085067175 0.0912154 0.07772564 -0.29840842 -0.076436594 -0.47018942 0.057439633 0.06566548
-0.2290734 0.15526572 0.044248167 0.031676773 -0.3814222 0.13497415 0.048172113 -0.13756599
-0.056843724 0.18775441 -0.0030133498 -0.02397889 -0.17319305 0.018109815 0.11546389 0.0666084
-0.051533595 0.10133037 -0.070193425 0.10757814 -0.16057631 0.31263524 -0.080661416 -0.079218164
-0.18412884 0.02734454 0.041982416 -0.036011644 0.029319312 -0.36400566 0.081624754 -0.648218
0.063792385 -0.026222238 0.31071225 0.1258342 0.068099655 0.26214993 -0.1358703 -0.058256015
0.19683895 0.17812282 0.034863677 -0.11090022 -0.06148329 -0.36974952 0.19361147 -0.08289439
-0.028545745 0.01163344 0.20094445 0.086042225 -0.11254847 -0.2589144 -0.10504655 -0.3026374

value.2.bias f4 [32]
00000000: 4d2d 2dbe 5d3e 1f3e 7c66 5d3c 15c2 453c
00000010: 7bba fe3d a7be 7ebe 6339 9dba 8aed 54be
00000020: 432a 833e d1f6 b0bd af4e 95bc a397 bebd
00000030: 60d3 363e b777 f93d ea6e c7bd 838d 4bbe
00000040: f0ef 0c3e cfca ad3d 2a86 ee3d a130 dcbd
00000050: a2da 9e3d 8275 023e 37c5 20be d780 0e3e
00000060: 36b2 6ebd f0b1 6dbd 540d 713e 41f6 923d
00000070: 0253 2f3e ad17 d73d 02e0 39be 6064 1b3d
-0.16911812 0.15551133 0.013513204 0.012070199 0.12437912 -0.24877416 -0.0011995252 -0.20793739
0.2561818 -0.086408265 -0.018225996 -0.09306266 0.1785407 0.12181037 -0.09737952 -0.19878201
0.13763404 0.08485948 0.116466835 -0.10751463 0.07756545 0.12740138 -0.15700231 0.13916336
-0.058275424 -0.058031023 0.2354024 0.071758755 0.17121509 0.10502563 -0.18151858 0.037937522

value.4.weight f4 [1, 32]
00000000: bfc3 80bd 122f e63d 0f79 12bd d1fe 0fbe
00000010: 79df f9bd 39a8 33be 1479 b8bd 5d62 4b3d
00000020: 626d 63bd 85a8 3c3d c04c 233d 096c 943d
00000030: 8cd1 f73d 69ed acbd 0952 05bd d01b 7c3d
00000040: bb8a bcbd a2c8 17bd bd19 293d 1d68 883d
00000050: dc23 59bd badc a4bd caee cf3d a064 99bd
00000060: c710 46bd 3b29 62bc 8d1d 603d 0a62 9e3d
00000070: e0fe 2c3e 676f a6bd de7e 55bd 82eb a33d
-0.062873356 0.11239447 -0.03575998 -0.14062048 -0.12200827 -0.1754464 -0.09007469 0.049654353
-0.055524237 0.04605915 0.039868116 0.072471686 0.12100515 -0.0844372 -0.032548938 0.06154996
-0.09206148 -0.037056573 0.04128431 0.06660483 -0.053012714 -0.08049913 0.10152967 -0.07489896
-0.048355844 -0.013803775 0.05471568 0.07733543 0.16894102 -0.08126717 -0.052122943 0.08003904

actor.0.weight f4 [32, 18]
00000000: 129a 113e 0931 e4bd a058 02be 0543 39bd
00000010: 90cd 673e 4efb 0cbe 47c5 823e 8608 64bd
00000020: bf27 9f3e bf7f b0bd 7961 323e 01e1 2d3e
00000030: 740a 66bd 727d 3e3e f99b b23e f95c bc3e
00000040: 5b34 993e 1639 73be 859e 4b3c 1095 11be
00000050: 8e18 a83d 80d0 57be 1ad0 bd3e cca9 89be
00000060: 06bc 03bd af14 033f 3dfd 763e 916b f83d
00000070: f7e5 bbbd 6c95 75be 4dec 35be f1b2 ccbe
00000080: f672 093e 7d9c 033e 6dfc acbe 6583 b23d
00000090: 1727 94be 4170 11be 3c0a abbe 2caa 8cbe
000000a0: c89f 0dbf 9eb0 3bbe c75a 133d 8f97 b13e
000000b0: 53f8 69bd 2981 4a3e 0c6b ad3e 8080 81bc
000000c0: 3ee7 22be 7dac 3f3e 5c88 973c a5c8 8f3d
000000d0: a543 323c 212d 563d cf37 d9bd d613 9cbd
000000e0: 1620 3abe 21fb 8cbe f1b3 903c be85 9c3e
000000f0: e2a7 813e fe84 83be 6d18 bb3d 0002 2b3f
00000100: 29f8 183c 6659 4d3e a2ca 213e 4b3d 633e
00000110: bc7d 36be a4fa a4be f021 453d 3ac3 8bbd
00000120: 83ac 2b3c 9045 553d 967a 063f d478 dc3e
00000130: 857e 893d 20a9 983e 25e9 2d3e 133e 0abe
00000140: 7255 6e3e ab23 06bf 50ae 4dbe e202 83be
00000150: b873 b7bd e565 923e cc8f 873e cf6e 633e
00000160: f6f4 c73e 016a 0bbe c75d 843d 4d1f 0b3d
00000170: 3510 12be db16 8bbc 5d9f c1be 5947 163e
00000180: c54f 363e 97f0 903e 7bdd 4a3d 9ca0 26bd
00000190: 680e 05be c114 babd 0847 9dbe 9d9c 4dbd
000001a0: 130a 8abd 7b4b 5ebe ad68 1d3f 960f 613e
000001b0: 7fee 00bd 32ba 25bb 702e ebbe f282 d0be
000001c0: a51c 5a3d a14b 04bd 36c8 f33e 383e 123d
000001d0: d1f7 ad3e 6a43 7a3e 8b31 f3bd b9cc b63d
000001e0: e9cc 4cbd cb76 36be 2328 333e 37ae 8f3e
000001f0: 1292 72be c69a bdbd 96f9 413e 2f2d 1d3e
00000200: cbff d8bc 1777 28bd f40a 7ebe 77d7 873e
00000210: cd1b a13e d600 a9bd 72f5 aabe f384 9ebe
00000220: 2566 21be 2449 89bd feea 9d3e 4dec 013d
00000230: 2872 d3bd 947e b5bd 61ac 03bf d412 63be
00000240: a036 c4bd 4dd1 ec3e dd06 cd3d f192 8fbd
00000250: d5b8 9b3e c509 683e 1f83 113e 8c96 c1be
00000260: 4400 d13c dc6a bebe b95c 883c 6fac 043e
00000270: 9b1b 0ebe d1a2 3a3e 2c13 863d ef5a c73e
00000280: a64d 103f 4e17 03bd e472 01be 16b2 133e
00000290: 5b60 223e 15d8 213e 8a4f 683e 18b8 11bf
000002a0: a1c6 cbbd ef9c 70be 2d88 8abe 397a dbbe
000002b0: 19ec da3d 0e68 3d3e b493 4cbe f0bd 15be
000002c0: 13fd 5d3e a579 1abe 848e 9dbe 6bbd 4cbe
000002d0: f569 77be b48b b1be 207e 65be aa9f 3fbe
000002e0: ddd5 d53e f859 c53d a3b1 ab3d 2bb3 5ebe
000002f0: c1a1 ffbd 564f d23b 93a6 8e3d 407f 1a3d
00000300: b00f bcbe 3101 833a a0c2 ee3c 7869 94bd
00000310: 21c1 34bd 1050 b3be 0e86 47bc 7ad3 24be
00000320: a6e8 953e fed3 913e fd45 d43e 39a9 5abe
00000330: 5079 c1be 3b40 a53e 6db6 753e 5537 b63e
00000340: 0885 563e 82fe c13d 44f3 60bd 5b47 06bd
00000350: 4b3e a0bd c728 df3a 486d 73be 8546 263e
00000360: 80fd 49be 1c4d 453e e166 e03d 4466 88be
00000370: c586 babe bbc1 dc3c 4a93 48be 7017 b8bd
00000380: d21b 7b3d 0f31 d53d e9c1 bbbe e57a 95be
00000390: b0df 80be dfc3 773d 5cc1 4f3e 1c02 58be
000003a0: 352c 34be 8ecb 67be 2ab4 d8bd 3a6d 343e
000003b0: 37c7 673e 2497 013f ecda 5fbe 5048 fc3e
000003c0: c03d 133d 8a74 573f ceca 423e b0a9 453d
000003d0: dfe1 f03d 56dc 503e d5bf 253e 4fdb ce3c
000003e0: 399e c33d 038e 253e cd38 14bd 7561 083c
000003f0: 34fc 09bd 54dc 79be 171d 5abe 3209 a8bd
0.1421893 -0.11142165 -0.1272912 -0.04522993 0.2263701 -0.1376774 0.25541136 -0.05567219
0.3108501 -0.08618116 0.17419995 0.16980363 -0.056162313 0.18602541 0.34884623 0.36789683
0.29922757 -0.23752245 0.012427931 -0.14217019 0.082078084 -0.2107563 0.3707283 -0.26887357
-0.032161735 0.51203436 0.2412004 0.12129892 -0.09174722 -0.23982781 -0.17765923 -0.3998027
0.1342276 0.12852664 -0.33786336 0.08716468 -0.28936073 -0.14202978 -0.33406246 -0.2747358
-0.5532193 -0.18329093 0.035975244 0.34685943 -0.057121586 0.19775833 0.33870733 -0.015808344
-0.15908524 0.18718143 0.018497638 0.07020692 0.0108803855 0.052289132 -0.10606348 -0.07620971
-0.18176302 -0.27535346 0.017663928 0.30570787 0.25323397 -0.25687402 0.09135518 0.66799927
0.00933651 0.20053634 0.15799955 0.2219135 -0.17821401 -0.32222474 0.04812807 -0.06824346
0.010478142 0.052068293 0.525308 0.43060935 0.06713585 0.29816532 0.16983469 -0.13500242
0.23274782 -0.52398175 -0.20086026 -0.25588137 -0.089576185 0.28593364 0.26476896 0.22210239
0.39054078 -0.13614656 0.06463199 0.033965398 -0.14263995 -0.016978672 -0.37816897 0.14675654
0.17803867 0.28308555 0.049527626 -0.040680513 -0.12993777 -0.0908599 -0.30718255 -0.050198186
-0.06740203 -0.21708481 0.6148785 0.21978602 -0.031477448 -0.0025287983 -0.45933867 -0.40724903
0.053249974 -0.032298688 0.47613686 0.035703868 0.3397813 0.24439779 -0.11874684 0.089257665
-0.050000105 -0.17818753 0.1749578 0.28062603 -0.23688534 -0.09258036 0.18942866 0.15349267
-0.02648916 -0.041129198 -0.24808866 0.26531574 0.31466523 -0.082521126 -0.33390385 -0.30960807
-0.15761621 -0.067034036 0.30843347 0.031719495 -0.10324508 -0.088620335 -0.51434904 -0.22175151
-0.095807314 0.46253434 0.10011075 -0.07010449 0.30414453 0.22659977 0.14210175 -0.3781017
0.025512822 -0.37190902 0.016645776 0.12956403 -0.13877718 0.18226172 0.065466255 0.38936564
0.5636848 -0.032004647 -0.12641484 0.14423403 0.15857069 0.15805085 0.22686592 -0.5692153
-0.09949995 -0.23497365 -0.2705702 -0.42866686 0.10689563 0.18496725 -0.1997822 -0.14623237
0.21678571 -0.15085466 -0.30772793 -0.19994132 -0.24161513 -0.34676898 -0.22411394 -0.18713251
0.41764727 0.09636301 0.08383491 -0.21748035 -0.12482024 0.006418149 0.06965365 0.03771901
-0.3673072 0.0009994862 0.029145539 -0.07246679 -0.044129495 -0.3502202 -0.012177957 -0.16096297
0.2927906 0.2848205 0.41459647 -0.21353616 -0.37787867 0.32275566 0.23995371 0.3558909
0.20949185 0.09472372 -0.054919496 -0.032782894 -0.078243814 0.0017025702 -0.23772156 0.16237839
-0.19725609 0.19267696 0.109571226 -0.26640522 -0.36430946 0.026947847 -0.19587436 -0.08988845
0.06130583 0.10409748 -0.3667138 -0.29195324 -0.2517066 0.06048953 0.20288604 -0.21094555
-0.17594989 -0.22636244 -0.105812386 0.17619792 0.22634588 0.5062125 -0.21860856 0.4927392
0.03594756 0.841622 0.19022676 0.04825753 0.117618315 0.20396551 0.1618646 0.025251059
0.09551663 0.16167454 -0.036186982 0.008324017 -0.033687785 -0.24400455 -0.2130016 -0.08204879

actor.0.bias f4 [32]
00000000: 76fd 453e 5fb6 2cbe 844e 483e aa69 9cbd
00000010: 3fd7 2e3e 470b edbd 3b31 e3bd b9f0 093e
00000020: c776 b93e 16a3 26be ed56 b63e a2af 8fbd
00000030: 454c 493e be31 15bd a5ae 1dbe 8267 f8bc
00000040: 3209 e73d 59d6 163c 924d 75bd 6a43 023e
00000050: c365 e0bd b1bd 1d3e f957 85bb 3571 afbd
00000060: 54f6 47be 1db4 d43c fa69 48bc c5ae 95be
00000070: 7196 8c3e 0f59 b43e 1c12 8b3d f813 1ebe
0.19334969 -0.16866444 0.19561201 -0.07637341 0.17074297 -0.115744166 -0.11093374 0.13470735
0.36223432 -0.1627315 0.35613194 -0.07015921 0.19658001 -0.03642439 -0.15398653 -0.030322794
0.11281051 0.009206378 -0.05988843 0.12721029 -0.109569095 0.15404393 -0.004069325 -0.085665144
-0.1952756 0.025964791 -0.012232298 -0.292349 0.27458528 0.35224196 0.067905635 -0.15437305

actor.2.weight f4 [32, 32]
00000000: b88e a0bd 0a0f 013f 758e 0bbc 7dab ef3c
00000010: 422b a43d aa67 573d 938b 0dbe 4b51 aa3e
00000020: c44c fa3d 1d13 593d 14db a53e a96d 8bbd
00000030: 4c11 88be 21d5 a1bd 3d04 ba3b 17b3 a13e
00000040: 9d00 093e 2eff a8be a567 0fbd f36b 00bf
00000050: f8b6 43be eb32 4c3d e8a2 7f3e f3d8 003e
00000060: e53a c3bd bc3e 633d 41cd c4bd 6b98 1bbe
00000070: 0443 833e c6de e93d a9cf 8dbd 758e 4cbf
00000080: 83fe 423e 9b4b 993e 2f64 8d3e 63a1 47be
00000090: 1a3d 3dbf d3e5 7c3d bfb3 1bbe 62bb 1fbd
000000a0: 0c9a 63be 1cc7 4abd d168 cb3e be0a de3d
000000b0: 902b 283d c1f4 a23d 3482 b33c 88c2 263d
000000c0: d3e8 fa3d 1fa1 c0be 9cf0 19bf 2a1d 983e
000000d0: f6a8 6ebe d4dd ecbd 3f74 8f3e 41da 3abe
000000e0: a471 2dbe a31a 813d 8471 cf3e 6cd6 0c3d
000000f0: 26a2 673d 436f 41bf ed32 e63d 7d44 cb3e
00000100: 5ad8 433e c8b5 9abe ed98 5a3e 5cd1 843e
00000110: b897 8ebe a1a6 2b3e 3839 8cbc 71e2 453e
00000120: 2846 293e f460 403e 83c2 46bd 0ef2 043e
00000130: 0053 7fbe df00 823e 5c3e b2be 9fdb 0bbe
00000140: 59a0 913b 2c35 88be 2fac a93d d65e 2cbd
00000150: d2ed 9f3d fa40 12bb 399d aebd 822b 10bf
00000160: 2ba1 e93e d474 c43d 1226 0b3f cbf6 6e3e
00000170: e3c9 713d 4968 c63e 99bf a0be 2700 4d3e
00000180: 28ee f7be bfd3 aa3c 4651 05bf 9e56 f7bd
00000190: 2813 2bbc c650 173e c32a cb3e c148 c53d
000001a0: 0c1c 3f3e 4e25 ce3b aa6a ac3e 107c 74bf
000001b0: dd33 dabc d651 81be c9d8 0c3e 378b 513d
000001c0: ea19 7ebd b9cd 183e 9ff1 b63d 1aa5 2fbe
000001d0: d56e d03b 10f1 cbbd 9d15 eb3b 27b5 2ebe
000001e0: 8909 8e3e 8bac f43c 91f3 d5bd 3826 c93d
000001f0: 83ff 0fbd 945e 123e b109 c8be f16f cf3e
00000200: 0b0a c23e bf08 803e c4fc eb3c aaa1 83bd
00000210: a2f5 5a3c bc4e 27bd e552 16be 0ac3 60bd
00000220: 9b54 b4be 2f1b a63e 1c04 11bd 5857 5b3e
00000230: abe3 ecbd 914b e63e 1356 c6be bc89 a43e
00000240: fc9e 863e 2226 13bd 6b11 bebd de2d de3d
00000250: 31a0 84be 9b3a bcbe 8d4a 86bc a71c 8fbe
00000260: 5d6d 573e eab1 64be ce56 8d3e d714 093e
00000270: 4ba9 203e de0b 75be 9013 833e 1a52 8e3e
00000280: e670 333e fb82 bfbe f4e9 3c3e 48f0 703d
00000290: 470f fa3d e892 ad38 fd74 26be 85b7 c2be
000002a0: feab 3abe 65e5 5dbe a7d6 ff3d 609c f1bd
000002b0: 2096 7abd d43e 0dbc 1b75 a63e ee1d 10be
000002c0: db93 8f3c 3d78 c73d 3991 8a3d f4a7 a6bc
000002d0: 3291 403d 8fb4 9c3d 95fe f23d 81ac 0bbf
000002e0: d9a8 4a3e 0fdf 803e 5781 02bc 2633 863e
000002f0: 391d 9ebc 6b62 51be 85c8 8f3e 1fe6 12bf
00000300: 2fee 57be e932 893e de57 343e 3c4d afbe
00000310: b067 99be 4a97 363e 642c 1c3e ceac 82be
00000320: bfac 523c 8bd0 bb3e 1fdd 3c3e c3a9 00be
00000330: ed4e e83b 09a4 283d 978d 85be 5111 0b3d
00000340: d666 5f3d 468f 90be ae9b 96be 64a4 b9bd
00000350: 6872 cb3d 2b47 ec3a 840f a1be 993f a9bc
00000360: d7cf 153e 2039 3cbe fa46 a43e 29ab f338
00000370: 5796 ea3e 64a1 debd 983d 13bd 7c7c 113f
00000380: 3161 813c 62e6 4dbe 1b88 a8bd 65d2 153e
00000390: 7642 293e 6086 e8be f68e 01bd 4168 f6be
000003a0: 214f 23be 6fb7 1dbf 24c2 0dbe a654 4ebd
000003b0: b03d 8bbd 66ed 3c3e 6b10 753d 0c48 14bf
000003c0: c99b 3fbe 54ca fd3e 5576 ee3c df5f 9bbe
000003d0: 879f 80be 577e a43d 72e1 dbbe 704b f3ba
000003e0: 7d4b 1e3e ad49 603e 94d0 94be a276 aabe
000003f0: 79d8 4f3e 592b 17bf 64be 0b3d 6b46 a3be
-0.078397214 0.5041357 -0.008517851 0.029256577 0.08016063 0.052589096 -0.13822775 0.33265147
0.12221673 0.052996743 0.32393706 -0.068080254 -0.26575696 -0.07901979 0.005676775 0.31581947
0.1337914 -0.33007187 -0.035010953 -0.5016472 -0.19112766 0.049853247 0.24964488 0.1258276
-0.095327176 0.05547975 -0.096094616 -0.15194862 0.25637066 0.11419444 -0.06924374 -0.7990487
0.19042401 0.29940495 0.27615497 -0.19495158 -0.7392136 0.061742615 -0.15205286 -0.03899706
-0.22226733 -0.04950629 0.39728406 0.10841893 0.04105717 0.07956839 0.021912672 0.040712863
0.12251439 -0.37622926 -0.60132766 0.2970975 -0.23306641 -0.11565748 0.28018376 -0.1824732
-0.16937882 0.06303909 0.40516293 0.034384176 0.05655112 -0.75560397 0.11240182 0.3970069
0.191255 -0.30216813 0.21347399 0.2594098 -0.27850127 0.16762783 -0.017117128 0.19324662
0.16530669 0.18786985 -0.048525345 0.12982962 -0.24934006 0.2539129 -0.348132 -0.13657998
0.0044441638 -0.26603067 0.082847945 -0.04208263 0.078090325 -0.002231656 -0.085260816 -0.5631639
0.45630774 0.09592596 0.54354966 0.23336332 0.059030425 0.38751438 -0.31396177 0.2001959
-0.48423886 0.020852922 -0.5207714 -0.12077068 -0.010441579 0.14776906 0.39681062 0.09633017
0.18663043 0.006291068 0.33675128 -0.95501804 -0.026636058 -0.25257748 0.13754572 0.051158156
-0.062036432 0.14922227 0.08932804 -0.17152825 0.0063608685 -0.099580884 0.0071742074 -0.17061292
0.2774165 0.029867431 -0.10446847 0.09821743 -0.035155784 0.14293891 -0.39069894 0.40515092
0.37898287 0.25006673 0.028807051 -0.06427319 0.0133642275 -0.04084657 -0.14680059 -0.054873504
-0.352208 0.32442614 -0.03540431 0.21420038 -0.11566862 0.44979528 -0.38737544 0.32136333
0.2629317 -0.03592504 -0.09280666 0.10848592 -0.25903466 -0.36763462 -0.01639297 -0.27951548
0.21037813 -0.22333494 0.2760529 0.13386856 0.1568958 -0.23930308 0.25600863 0.27797014
0.17523536 -0.37404618 0.18448621 0.0588229 0.12209945 8.276646e-05 -0.16255565 -0.3803064
-0.18229672 -0.21669538 0.124921136 -0.11797404 -0.061178327 -0.008620936 0.3251122 -0.14073917
0.017526558 0.097397305 0.0676598 -0.020343758 0.04701347 0.07651626 0.11864964 -0.54560095
0.19790973 0.2517018 -0.007965407 0.26210898 -0.019301044 -0.204477 0.28082672 -0.57382387
-0.21086954 0.26796654 0.17611644 -0.34238613 -0.2996192 0.1783115 0.15251309 -0.25522465
0.012858569 0.36682543 0.18443726 -0.12564759 0.007089487 0.04117206 -0.26084587 0.03395206
0.05454143 -0.2823431 -0.2941565 -0.09064558 0.09933931 0.0018026581 -0.3145715 -0.020660209
0.14630066 -0.18381166 0.320854 0.00011619024 0.45817825 -0.108706266 -0.035947412 0.56830573
0.015793415 -0.20107415 -0.08229085 0.1463104 0.16529259 -0.4541502 -0.03163048 -0.48126414
-0.15948154 -0.6160802 -0.1384359 -0.050373696 -0.06798875 0.18449935 0.05983011 -0.57922435
-0.18711771 0.49568427 0.02910916 -0.3034658 -0.2512171 0.0803191 -0.4294544 -0.0018561911
0.15458484 0.21903105 -0.29065382 -0.33293635 0.20297422 -0.5905052 0.034117118 -0.31889662

actor.2.bias f4 [32]
00000000: 12f8 1f3e dd84 21bd 4ea3 afbd 4ffc 6ebd
00000010: 3901 243b 6f76 d4bc c715 00be 5dd4 f43c
00000020: f8be 423d da07 9abb d367 68be ca1a 123e
00000030: fcca a23b 47a4 393e 04d3 21be a9b7 ea3c
00000040: 9a3c 23bc fa74 a8bd 161b be3d 1f74 0e3d
00000050: 4775 e03d 2f38 51bd e4a8 29bc 4a75 eabd
00000060: e27f bf3d 7d77 20bc 4a86 b3bd 4359 90bd
00000070: ce49 bdbc 3f49 3c3e eea0 d93d 76d1 06be
0.15621975 -0.03943335 -0.0857607 -0.05834609 0.0025025143 -0.02593538 -0.12508307 0.029886419
0.047545403 -0.004700643 -0.22695856 0.14268032 0.0049680453 0.18129073 -0.15803152 0.02865203
-0.009963179 -0.082254365 0.0928251 0.03477871 0.10959869 -0.05107897 -0.010355208 -0.11448152
0.093505636 -0.009794113 -0.08765848 -0.07048275 -0.023106482 0.18387316 0.10626398 -0.1316584

actor.4.weight f4 [2, 32]
00000000: 42ca cd3e f999 ee3e 049d 653f 1936 983e
00000010: f702 cf3e 0e28 afbe ddd9 77bf 8732 0f3f
00000020: 64bc b43e df1d 953e c5b1 e8be e81a cdbd
00000030: 0663 d23e af5c 913e 7a53 20be 7e6d 833d
00000040: 7a04 4dbf 7bc8 32be 0e25 163f 233f 163f
00000050: 85ea f53e c430 263f ea81 16bf d5eb c5be
00000060: cb9f babe 839a f13b ae0a 18be 9da9 06bf
00000070: 47b7 12bd 548b 593d f8a3 003e 6e3f cdbe
00000080: 6dd0 8dbe 8126 17bf 3428 bb3e a317 163f
00000090: 038d 6abf 5a6d 6dbe 890f 4cbd eb23 7ebe
000000a0: 2179 48bf 2023 5f3f 4e2a 02bf e9d6 313f
000000b0: ca99 02bf eff3 4b3e 8ce9 633e 5078 d83e
000000c0: 3536 403f 1fd7 c73e 9167 2bbf 9847 c53e
000000d0: 1580 0b3e 0fd2 a6bd 53d8 b83e 0e62 85be
000000e0: 6e26 2abe 85eb 233f 1cc3 993e 6de5 7f3e
000000f0: 2064 bc3e 3a83 9e3e 2d8f cebe 4af7 72bd
0.40193373 0.46601847 0.8969271 0.29728773 0.4043195 -0.34210247 -0.9681681 0.55936474
0.3529998 0.29124352 -0.45448127 -0.100148976 0.41091174 0.28391024 -0.15656844 0.06417368
-0.80084956 -0.1745929 0.5865029 0.5869009 0.48030487 0.6491816 -0.58791983 -0.38656488
-0.36450037 0.0073731556 -0.14847824 -0.5260256 -0.03581932 0.05311139 0.12562549 -0.40087456
-0.2769808 -0.5904313 0.3655411 0.58629817 -0.91621417 -0.23186246 -0.049819503 -0.24818389
-0.7830983 0.8716297 -0.508458 0.6946855 -0.51015913 0.19917272 0.2225706 0.4227929
0.75082713 0.39031312 -0.66954905 0.38531184 0.13623078 -0.08145534 0.36102542 -0.26051372
-0.16616222 0.6403125 0.3003167 0.24989863 0.3679514 0.30959493 -0.4034361 -0.059317864

actor.4.bias f4 [2]
00000000: ca9f ebbd 82d6 e83d
-0.11505087 0.11369039
