results/SandingEnvDifficult/ddpg_extension/model/model_parameters_1.pt (torch, 36162 bytes, 22 tensors)

value.0.weight f4 [32, 20]
-0.11581339 0.072561525 0.047280088 -0.08322236 -0.0056417743 0.09303655 -0.08741998 0.00564767
0.096537665 -0.120229155 -0.077528395 0.083552755 -0.062413186 -0.08093908 0.102957785 0.08850266
0.3543443 0.2680784 1.3240492 1.4650096 0.2483038 -0.004391942 -0.045204714 -0.25537273
-0.04222575 0.06436921 0.12932886 -0.010417207 0.19993417 0.056014564 0.044575762 0.18500732
-0.07548305 -0.11741611 0.1499491 -0.05747272 -0.08735818 0.20861824 1.503784 0.72461915
0.05365727 0.18019913 0.060860936 -0.14594096 0.033285763 0.04561124 0.001942066 -0.053050607
0.033803325 -0.08792982 -0.07633676 0.12738423 0.05146477 0.03845318 -0.07327588 -0.11011563
-0.09238222 -0.16228317 0.42369714 2.817782 0.07890978 -0.009375599 -0.058808338 -0.18871616
-0.017634341 -0.022490075 -0.03343641 -0.15808761 0.023687184 0.055038784 -0.058258295 0.16469203
-0.0893788 -0.16082677 -0.069059215 -0.1522646 -0.05284065 -0.117189795 0.19639368 -1.245189
0.051324252 0.0019218259 0.27026948 -0.14888176 -0.14862245 0.1494811 -0.16316411 0.22522818
-0.2992861 0.25385916 0.22689089 0.20434383 -0.1439716 -0.1748782 0.04403693 -0.08510133
-0.14365864 -0.19301824 -1.012398 0.9579663 0.07264114 0.031715423 0.15458831 0.2331894
0.40441573 -0.011960361 -0.09917125 0.31536445 0.010843041 -0.13731861 -0.020449804 0.10337982
0.17095062 -0.32700154 0.032398663 -0.1370929 -0.052943602 -0.044318493 -0.9623956 0.22964919
-0.27480012 -0.22139587 -0.089872606 -0.15431227 0.12766421 0.102397524 0.019476127 0.14392507
-0.010994179 0.009600008 0.052943 -0.0048032375 0.037150737 -0.10581685 -0.011946862 0.008151001
0.20684464 0.09774985 -1.0535892 -0.23436481 -0.14548846 0.048990097 -0.04146683 -0.008904895
-0.0710146 0.062338166 0.13160416 -0.12114057 0.04698044 0.04645095 -0.1130638 0.06078013
-0.20637545 -0.2633851 0.08076119 0.13243316 -0.062279366 0.024846759 -0.96783715 -0.492487
-0.06648076 0.009308217 0.15197897 -0.08318125 -0.0021648526 -0.039614394 0.021031346 0.0053042956
0.3393074 0.19798231 0.096858814 -0.13201796 -0.28103656 -0.19338273 0.25644103 -0.09493129
0.22453447 -0.0586476 0.62446284 0.20773877 -0.011362969 -0.00034553636 -0.13389899 -0.017945735
-0.08826121 -0.060505055 -0.09086394 -0.16232584 -0.09950805 -0.19334157 -0.0077886665 0.04760603
0.22490427 -0.042081732 0.100043796 -0.06591604 0.16745527 0.0748804 -0.22216928 -0.43655252
0.29342562 0.056444347 0.4036904 0.36294806 0.07860301 -0.06611606 0.14103653 -0.09816215
0.06827068 0.044671975 -0.01763628 0.031160222 0.17835565 0.036735173 0.1580825 -0.2446549
0.021748481 -0.004405525 1.0448397 1.9766258 0.009897523 -0.034301955 -0.055072308 0.00496352
0.008885283 0.0045885365 0.10863308 0.11952353 -0.056234367 -0.06204931 -0.07610959 0.07856624
-0.0064313016 -0.1548619 0.14735201 -0.014096529 0.12891626 -0.06701085 1.2065446 -0.2959437
-0.028476944 -0.014960111 0.24787214 0.009198159 0.01642867 -0.010525686 -0.016277177 0.019263681
0.5102612 0.04312339 0.2880144 0.2698024 -0.005397128 0.1741171 0.066193976 0.0030396292
00000000: 922f edbd 239b 943d c4a8 413d 7c70 aabd
00000010: a2de b8bb f289 be3d 3f09 b3bd 1710 b93b
00000020: 8ab5 c53d b43a f6bd 35c7 9ebd b51d ab3d
00000030: f8a4 7fbd 63c3 a5bd 88db d23d e240 b53d
00000040: 9e6c b53e 9241 893e 727a a93f 6f85 bb3f
00000050: 5a43 7e3e 48ea 8fbb 9428 39bd 37c0 82be
00000060: e8f4 2cbd 01d4 833d c96e 043e efac 2abc
00000070: 8bbb 4c3e 876f 653d 1395 363d 8f72 3d3e
00000080: db96 9abd dc77 f0bd 428c 193e 8468 6bbd
00000090: d8e8 b2bd 05a0 553e fe7b c03f a480 393f
000000a0: bac7 5b3d 1f86 383e 5149 793d 8c71 15be
000000b0: a756 083d dad2 3a3d ec8c fe3a 984b 59bd
000000c0: 5b75 0a3d 8d14 b4bd 7256 9cbd 0371 023e
000000d0: b9cc 523d 1581 1d3d aa11 96bd 4e84 e1bd
000000e0: e432 bdbd 8f2d 26be d5ee d83e 8a56 3440
000000f0: 739b a13d 1d9c 19bc 03e1 70bd cf3e 41be
00000100: e575 90bc 1b3d b8bc 9ef4 08bd b8e1 21be
00000110: a00b c23c 5970 613d 40a0 6ebd 07a5 283e
00000120: 3b0c b7bd c6af 24be eb6e 8dbd 40eb 1bbe
00000130: 706f 58bd 3401 f0bd 6d1b 493e 5a62 9fbf
00000140: 6139 523d c7e5 fb3a c360 8a3e 7674 18be
00000150: 7c30 18be 9311 193e 7e14 27be 37a2 663e
00000160: 073c 99be d4f9 813e 1656 683e 823f 513e
00000170: 4b6d 13be 4513 33be 1160 343d 9b49 aebd
00000180: 401b 13be 93a6 45be 4296 81bf 483d 753f
00000190: e1c4 943d 08e8 013d 664c 1e3e 34c9 6e3e
000001a0: 940f cf3e 64f5 43bc 4c1a cbbd 7377 a13e
000001b0: 03a7 313c 409d 0cbe 5986 a7bc cdb8 d33d
000001c0: ae0d 2f3e bf6c a7be 76b4 043d 1562 0cbe
000001d0: 64db 58bd 4f87 35bd 8f5f 76bf 2829 6b3e
000001e0: 9ab2 8cbe 99b5 62be 210f b8bd 0904 1ebe
000001f0: 68ba 023e cbb5 d13d 668c 9f3c 1861 133e
00000200: ee20 34bc 5a49 1d3c c2da 583d 7a64 9dbb
00000210: 5f2b 183d 81b6 d8bd c5bc 43bc c78b 053c
00000220: 15cf 533e 1331 c83d 03dc 86bf 54fd 6fbe
00000230: edfa 14be d7a9 483d 1fd9 29bd d6e5 11bc
00000240: 1a70 91bd 4e56 7f3d 3ec3 063e 8c18 f8bd
00000250: 906e 403d 5a43 3e3d fe8d e7bd 96f4 783d
00000260: 1654 53be 69da 86be 1f66 a53d 8f9c 073e
00000270: a618 7fbd 6e8b cb3c 2dc4 77bf 4227 fcbe
00000280: 1127 88bd 7e81 183c 60a0 1b3e ee5a aabd
00000290: 33e0 0dbb b442 22bd ee49 ac3c a8cf ad3b
000002a0: b3b9 ad3e e0bb 4a3e ea5d c63d b72f 07be
000002b0: 06e4 8fbe 1f06 46be 3d4c 833e 566b c2bd
000002c0: 5dec 653e 7738 70bd ccdc 1f3f 79b9 543e
000002d0: bf2b 3abc 1b29 b5b9 d11c 09be ef02 93bc
000002e0: 4bc2 b4bd 26d4 77bd e016 babd bf38 26be
000002f0: e0ca cbbd 55fb 45be 1238 ffbb 8afe 423d
00000300: 4e4d 663e e55d 2cbd c3e3 cc3d fdfe 86bd
00000310: 6579 2b3e e55a 993d 5880 63be d083 dfbe
00000320: e23b 963e 3032 673d 82b0 ce3e 54d4 b93e
00000330: 9dfa a03d db67 87bd e16b 103e 3d09 c9bd
00000340: 80d1 8b3d f6f9 363d f679 90bc b943 ff3c
00000350: dda2 363e 9f77 163d 61e0 213e d086 7abe
00000360: df29 b23c 395c 90bb 4fbd 853f 1302 fd3f
00000370: 3829 223c 3580 0cbd 8093 61bd 06a5 a23b
00000380: 9493 113c 6f5b 963b 057b de3d c1c8 f43d
00000390: 0256 66bd 6b27 7ebd 58df 9bbd 56e7 a03d
000003a0: abbd d2bb 1e94 1ebe 72e3 163e 21f5 66bc
000003b0: a002 043e fc3c 89bd 0e70 9a3f ef85 97be
000003c0: 7b48 e9bc 411b 75bc 32d2 7d3e e0b3 163c
000003d0: 6b95 863c ed73 2cbc b757 85bc dece 9d3c
000003e0: 7aa0 023f 27a2 303d a076 933e 8a23 8a3e
000003f0: 64da b0bb c14b 323e b590 873d 8434 473b

value.0.bias f4 [32]
0.10917563 -0.09775328 0.034706973 0.1927863 -0.15716161 -0.21784027 0.17627215 0.20449315
-0.04530658 -0.13139367 -0.10746523 -0.03828582 -0.23245232 0.30262244 -0.010053649 -0.23433916
0.3201929 0.07221575 -0.18919069 0.25412318 0.1589077 -0.09971967 -0.09364813 -0.11730967
0.2705141 0.19215372 -0.070907414 0.054734588 -0.0679952 -0.27643648 0.16077925 0.14061844
00000000: 7997 df3d df32 c8bd e628 0e3d c669 453e
00000010: f9ee 20be 8511 5fbe b080 343e a766 513e
00000020: 6493 39bd 108c 06be bb16 dcbd 98d1 1cbd
00000030: fb07 6ebe 54f1 9a3e 0fb8 24bc 9bf6 6fbe
00000040: 53f0 a33e dae5 933d 34bb 41be 6f1c 823e
00000050: b3b8 223e d439 ccbd 97ca bfbd 0d40 f0bd
00000060: d380 8a3e f2c3 443e e837 91bd 6031 603d
00000070: 1141 8bbd 1589 8dbe 51a3 243e 48fe 0f3e

value.2.weight f4 [32, 32]
-0.26828423 -0.006541199 -0.071401976 0.031482674 0.155923 -0.015803881 0.14713567 -0.20703097
0.08854203 0.04608574 -0.1062775 0.114758246 0.012766236 0.08631422 0.14522655 0.089016646
-0.07659047 -0.097375914 0.047774106 -0.17609432 -0.19109464 0.063067056 -0.0636194 -0.14964856
0.0004887875 -0.15387973 -0.05747786 0.12997164 0.020372592 -0.15872157 0.140602 0.039166827
0.14909409 -0.084422715 0.0080288695 0.12661676 0.05650946 -0.35462895 -0.09224788 -0.089059606
0.06016404 0.07627321 0.116420925 0.07580924 -0.12236924 -0.06773256 -0.116722025 0.010563003
-0.32511064 -0.24030979 0.03126607 0.07597968 0.2215975 0.0686694 0.08450374 -0.14727487
-0.109829366 0.20742816 -0.15435696 0.14192824 -0.087336086 -0.18665685 0.1742658 0.07516144
0.13293494 0.014687054 -0.24629895 -0.0783745 0.0012275752 0.0436888 0.043546956 0.066678986
-0.04395674 -0.02988835 -0.3866179 0.24982585 0.095168754 -0.04859971 0.048333913 -0.10084854
0.08428543 -0.3286467 0.18983851 0.11995653 -0.046055607 0.057605248 0.07109996 -0.21156375
0.13622755 -0.0040370864 0.18307708 -0.015096792 0.08506161 -0.26616043 -0.01610142 -0.23532033
-0.059804507 0.03958924 -0.18223763 0.068276554 -0.25831985 0.094223455 0.19128983 0.12875621
0.044485133 -0.03441212 0.042191077 -0.32587063 0.023710618 0.2519833 -0.5414734 -0.11354443
0.1918823 -0.10902137 -0.009650034 0.09903933 -0.37091598 0.010564235 -0.05976595 -0.1003374
-0.14825907 -0.1399519 -0.29761553 0.18306613 -0.16495071 -0.06420883 -0.008273241 -0.058667522
0.020434272 0.07495502 0.06112876 0.11106079 0.0062102727 -0.06478666 -0.061000668 0.0015504106
0.054403577 0.13512124 -0.03378601 0.02194625 0.17745674 -0.11867364 -0.055969797 -0.026705332
0.024698403 -0.095411964 0.19887829 -0.13380556 0.018547047 -0.15633395 -0.038951784 -0.021358775
0.15294783 -0.025274005 -0.05977058 -0.15021642 0.09784312 -0.024109464 0.0939642 0.24208012
0.1428778 0.050532322 0.1846247 0.06485638 -0.08326448 0.025797613 -0.21894555 -0.08755367
-0.13495354 0.16474284 -0.11337626 0.052419975 -0.05927214 -0.2949523 0.0150417285 -0.034986746
-0.000323182 -0.10777325 0.06567765 0.05826459 0.13591586 -0.15138644 -0.046824813 0.23784387
0.12881306 -0.007447597 -0.09665748 -0.20379642 -0.073967874 0.033362594 0.059662707 0.114317305
0.12588686 -0.2767682 0.06941688 -0.026285885 0.3524018 -0.0978546 -0.044724695 0.00601557
-0.16313338 0.026098125 -0.09959425 -0.047419626 0.09643462 0.29619253 -0.05280977 -0.26462257
-0.04505531 0.080404244 0.17725258 -0.041056257 0.056667056 -0.13361785 -0.007362139 0.03370536
0.09212281 -0.17282301 0.061489906 -0.20215909 0.099144705 0.017999876 0.07442665 0.093085155
-0.027202256 0.098990545 0.09986148 0.10566275 -0.12159788 0.102611095 0.03589927 0.051498298
-0.092631824 0.106785715 -0.03936051 0.15640804 0.21405298 -0.1603827 0.12014919 0.013734122
-0.05994694 0.11947794 0.0625682 -0.14888613 0.16356067 0.014116096 -0.07896043 0.11370723
0.12217106 0.24848229 0.23651405 -0.15546452 0.19635996 -0.04513122 0.0386073 -0.077346064
00000000: 8d5c 89be 8e57 d6bb 333b 92bd faf3 003d
00000010: 47aa 1f3e 2477 81bc bcaa 163e edff 53be
00000020: 8655 b53d 67c4 3c3d 05a8 d9bd 5f06 eb3d
00000030: 7a29 513c 83c5 b03d 45b6 143e 5c4e b63d
00000040: 77db 9cbd 066d c7bd c8ae 433d 1252 34be
00000050: 50ae 43be 4d29 813d e34a 82bd 793d 19be
00000060: f921 003a a692 1dbe e86d 6bbd 4917 053e
00000070: 6ce4 a63c e887 22be f8f9 0f3e 656d 203d
00000080: 1fac 183e d1e5 acbd 858b 033c d3a7 013e
00000090: 7776 673d ed91 b5be 75ec bcbd e264 b6bd
000000a0: 926e 763d 2135 9c3d 186e ee3d e041 9b3d
000000b0: b99c fabd 5eb7 8abd f50b efbd 7210 2d3c
000000c0: e774 a6be c513 76be da10 003d 3c9b 9b3d
000000d0: 74ea 623e 8ba2 8c3d 4c10 ad3d 39cf 16be
000000e0: 38ee e0bd 0c68 543e c00f 1ebe a355 113e
000000f0: 43dd b2bd f922 3fbe bc72 323e 3eee 993d
00000100: 1920 083e f8a1 703c cb35 7cbe cf82 a0bd
00000110: 97e6 a03a 07f3 323d 4b5e 323d fe8e 883d
00000120: fc0b 34bd 6ad8 f4bc c8f2 c5be 59d2 7f3e
00000130: d6e7 c23d 7d10 47bd c8f9 453d ae89 cebd
00000140: d79d ac3d 6144 a8be 0765 423e c5ab f53d
00000150: cea4 3cbd 7bf3 6b3d db9c 913d 2ba4 58be
00000160: 3c7f 0b3e 8949 84bb 8f78 3b3e 8958 77bc
00000170: c834 ae3d 2e46 88be 20e7 83bc d0f7 70be
00000180: 92f5 74bd 5428 223d 809c 3abe 94d4 8b3d
00000190: 8042 84be 3af8 c03d 7be1 433e abd8 033e
000001a0: 0b36 363d b9f3 0cbd 8dd0 2c3d 84d8 a6be
000001b0: c53c c23c f503 813e 009e 0abf fb89 e8bd
000001c0: cb7c 443e 9946 dfbd 2d1b 1ebc 22d5 ca3d
000001d0: b3e8 bdbe 9d15 2d3c 24cd 74bd b27d cdbd
000001e0: 3ad1 17be 8d4f 0fbe 1061 98be b075 3b3e
000001f0: d7e8 28be eb7f 83bd 7d8c 07bc 5b4d 70bd
00000200: c665 a73c 0482 993d 2762 7a3d d773 e33d
00000210: 8b7f cb3b deae 84bd d6db 79bd 2637 cb3a
00000220: 49d6 5e3d 395d 0a3e 3363 0abd 9fc8 b33c
00000230: 38b7 353e 2a0b f3bd 9640 65bd 24c5 dabc
00000240: 4e54 ca3c 5967 c3bd c0a6 4b3e 5304 09be
00000250: faef 973c 0216 20be e88b 1fbd 99f8 aebc
00000260: 5b9e 1c3e 6e0b cfbc ffd1 74bd 55d2 19be
00000270: f961 c83d 3681 c5bc 4d70 c03d dae3 773e
00000280: 8f4e 123e fbfa 4e3d 420e 3d3e 6cd3 843d
00000290: 9186 aabd 8455 d33c 4333 60be 574f b3bd
000002a0: 4331 0abe 59b2 283e d031 e8bd 54b6 563d
000002b0: 58c7 72bd fd03 97be 9571 763c 434e 0fbd
000002c0: c170 a9b9 39b8 dcbd 0182 863d daa6 6e3d
000002d0: 872d 0b3e 0c05 1bbe 60cb 3fbd 588d 733e
000002e0: 92e7 033e f90a f4bb 5bf4 c5bd 02b0 50be
000002f0: 787c 97bd 37a7 083d e260 743d 311f ea3d
00000300: 7ce8 003e 90b4 8dbe 702a 8e3d 7f55 d7bc
00000310: 026e b43e fe67 c8bd 3e31 37bd 421e c53b
00000320: 700c 27be bccb d53c 12f8 cbbd 153b 42bd
00000330: 847f c53d 8ca6 973e 0f4f 58bd 9c7c 87be
00000340: eb8b 38bd fbaa a43d b381 353e 9b2a 28bd
00000350: b71b 683d 1ed3 08be 193e f1bb a20e 0a3d
00000360: e2aa bc3d 84f8 30be d7dc 7b3d cb02 4fbe
00000370: 610c cb3d 7a74 933c 006d 983d 6ea3 be3d
00000380: 44d7 debc 8ebb ca3d 2d84 cc3d b665 d83d
00000390: 4f08 f9bd c425 d23d 1d0b 133d e1ef 523d
000003a0: c1b5 bdbd 78b2 da3d 7c38 21bd 6e29 203e
000003b0: b430 5b3e 5d3b 24be c710 f63d 1505 613c
000003c0: ec8a 75bd dab0 f43d c223 803d 9b75 18be
000003d0: 737c 273e 3347 673c 02b6 a1bd 56df e83d
000003e0: d234 fa3d 2472 7e3e bd30 723e 1732 1fbe
000003f0: 9612 493e 84db 38bd b022 1e3d 9d67 9ebd

value.2.bias f4 [32]
0.088633664 -0.09413946 0.07402508 -0.031227408 -0.17307755 0.04803112 -0.18171208 0.12149596
-0.022967903 0.043212473 -0.04688052 0.046361927 0.11042703 0.05035736 -0.0025878816 -0.12362778
0.3347905 0.014755265 0.08375511 -0.050149146 0.0062777107 -0.0594262 -0.08656197 -0.19112042
-0.21449177 -0.050816398 0.087795585 -0.20385255 -0.10319067 0.044369735 -0.111542255 -0.11963035
00000000: 9185 b53d 30cc c0bd 769a 973d 9fd0 ffbc
00000010: 3e3b 31be 48bc 443d bb12 3abe e0d2 f83d
00000020: 2f27 bcbc 90ff 303d ca05 40bd 01e6 3d3d
00000030: 9127 e23d 8543 4e3d 7399 29bb 9030 fdbd
00000040: a969 ab3e 11c0 713c cd87 ab3d 3169 4dbd
00000050: 41b5 cd3b e368 73bd 6747 b1bd 12b5 43be
00000060: bba3 5bbe db24 50bd 2cce b33d b9be 50be
00000070: a155 d3bd 0abd 353d 4470 e4bd c200 f5bd

value.4.weight f4 [1, 32]
-0.050227407 -0.044486437 -0.07390129 0.09491887 -0.048017107 0.065239005 -0.05203077 0.09518948
0.057866618 -0.03158671 -0.06353615 0.063101396 -0.08741303 0.061916836 -0.33430797 -0.3925335
0.061930463 -0.0720345 -0.04486038 -0.053820953 0.054533105 0.11472639 0.055073395 -0.075968824
-0.055177305 -0.015981534 0.06736134 0.060720067 0.121473536 -0.06863887 0.04725097 -0.053962424
00000000: 41bb 4dbd 6937 36bd 8f59 97bd d364 c23d
00000010: 96ad 44bd 079c 853d 371e 55bd b4f2 c23d
00000020: 8c05 6d3d 1161 01bd 3e1f 82bd 4e3b 813d
00000030: 9a05 b3bd 829c 7d3d 6a2a abbe 27fa c8be
00000040: ccaa 7d3d d386 93bd 85bf 37bd 5c73 5cbd
00000050: 1b5e 5f3d abf5 ea3d a494 613d 8b95 9bbd
00000060: 9901 62bd b5eb 82bc bef4 893d 9bb5 783d
00000070: 1ec7 f83d 8992 8cbd 3c8a 413d b407 5dbd

value.0.weight f4 [32, 20]
-0.1176911 0.073043354 0.04690269 -0.08359978 -0.0066300146 0.09275015 -0.08921226 0.0041431887
0.09685215 -0.11952276 -0.07668328 0.08439787 -0.06203953 -0.08104368 0.10296296 0.08850784
0.35392576 0.26849693 1.3184471 1.4606467 0.24994919 -0.0059168776 -0.044790067 -0.25495812
-0.04385811 0.06285763 0.1274831 -0.010290345 0.19770572 0.056027204 0.044159036 0.18459064
-0.076589674 -0.1167841 0.15098575 -0.056436017 -0.08664839 0.20757708 1.5012988 0.72169346
0.054618336 0.17950417 0.059358954 -0.14744298 0.035775628 0.047505718 0.0028449078 -0.052403856
0.033421572 -0.08794239 -0.075845234 0.12787578 0.050926972 0.037863806 -0.07425516 -0.111094914
-0.093859196 -0.16321099 0.42399246 2.8090928 0.07852261 -0.011223949 -0.058526102 -0.18843393
-0.017742904 -0.024600873 -0.034502998 -0.15894356 0.024582421 0.056764822 -0.059154768 0.16379562
-0.09081688 -0.16249907 -0.068383075 -0.15158843 -0.050676107 -0.116918206 0.19951984 -1.2461823
0.052575644 0.0026534533 0.26875335 -0.1503977 -0.14696006 0.14871618 -0.16284524 0.22672659
-0.2963237 0.25531393 0.22828163 0.20573457 -0.14388625 -0.176091 0.04478577 -0.08435246
-0.14706677 -0.19399346 -1.0133733 0.95956385 0.07263047 0.030696243 0.15228187 0.23088296
0.40177703 -0.011836313 -0.098544404 0.31645083 0.010348764 -0.13876723 -0.019309744 0.10451987
0.1716478 -0.3294494 0.032575246 -0.13691631 -0.056999967 -0.044289418 -0.9634238 0.22361645
-0.27492166 -0.21929473 -0.08872263 -0.15316224 0.12618743 0.10109971 0.018362224 0.14297064
-0.01011551 0.01168251 0.05356892 -0.004177311 0.03725129 -0.10653746 -0.012881575 0.0072162966
0.206563 0.09814764 -1.0483185 -0.22975942 -0.14407143 0.048147712 -0.039889593 -0.007327675
-0.070236936 0.062971026 0.13228835 -0.11985235 0.047947537 0.04616117 -0.11411669 0.05972725
-0.20635115 -0.26280004 0.08185561 0.13352767 -0.063537695 0.02404923 -0.96246755 -0.49874654
-0.06672943 0.0091271065 0.15226828 -0.08289188 -0.0010021774 -0.039167672 0.022581646 0.0042776
0.33743665 0.19839188 0.095198244 -0.13367845 -0.2823125 -0.19209582 0.25754452 -0.09382773
0.22386184 -0.06072892 0.62453276 0.20598292 -0.009732309 0.0016568069 -0.13562804 -0.019674763
-0.088034146 -0.06114388 -0.09060546 -0.16270934 -0.099879585 -0.19342126 -0.00824508 0.047149613
0.22439274 -0.041203372 0.09874802 -0.067211814 0.16710475 0.0738603 -0.22367549 -0.43658537
0.2942647 0.054665517 0.40368742 0.36294508 0.07853418 -0.06381885 0.14224292 -0.0986636
0.067085065 0.045331363 -0.019047352 0.029749153 0.17666139 0.037422433 0.15934032 -0.24339707
0.022358222 -0.0057444125 1.0408008 1.9744911 0.012125076 -0.033401545 -0.05585925 0.004176627
0.011027177 0.008097762 0.105806895 0.117978334 -0.056386136 -0.061924227 -0.07519378 0.07948205
-0.0064224666 -0.15621401 0.14666569 -0.01478282 0.12956798 -0.06606931 1.1989259 -0.30079883
-0.03133055 -0.01377052 0.2503118 0.011637859 0.0153781315 -0.011432196 -0.017675228 0.016922884
0.50950205 0.041215263 0.2877397 0.26952767 -0.005543263 0.17459287 0.067122035 0.003967674
00000000: 0808 f1bd c197 953d 091d 403d 5d36 abbd
00000010: 9840 d9bb caf3 bd3d ebb4 b6bd 96c3 873b
00000020: 6c5a c63d 59c8 f4bd 200c 9dbd cad8 ac3d
00000030: 2a1d 7ebd 3bfa a5bd 3fde d23d 9943 b53d
00000040: c235 b53e 6e78 893e e0c2 a83f 79f6 ba3f
00000050: aef2 7f3e 5ee2 c1bb ca75 37bd df89 82be
00000060: 90a4 33bd 80bb 803d ee8a 023e d698 28bc
00000070: 5e73 4a3e c87c 653d 1be0 343d 5405 3d3e
00000080: 0cdb 9cbd 812c efbd 029c 1a3e 7429 67bd
00000090: b674 b1bd 168f 543e 8f2a c03f e7c0 383f
000000a0: 7ab7 5f3d f1cf 373e 6022 733d 4bfb 16be
000000b0: 7789 123d 5b95 423d a271 3a3b 6da5 56bd
000000c0: 0fe5 083d 241b b4bd bf54 9bbd def1 023e
000000d0: cd98 503d 1417 1b3d 1713 98bd bb85 e3bd
000000e0: 4039 c0bd c820 27be 8a15 d93e 2dc8 3340
000000f0: 76d0 a03d a7e4 37bc 11b9 6fbd d3f4 40be
00000100: 9159 91bc c587 c9bc 0453 0dbd 1ac2 22be
00000110: 1361 c93c 3b82 683d 454c 72bd 0aba 273e
00000120: 33fe b9bd 2866 26be 6d0c 8cbd ff39 1bbe
00000130: c091 4fbd d072 efbd ee4e 4c3e e782 9fbf
00000140: 8f59 573d 8fe5 2d3b 0a9a 893e db01 1abe
00000150: b37c 16be 0e49 183e e7c0 26be 042b 683e
00000160: bdb7 97be 82b8 823e a9c2 693e 15ac 523e
00000170: eb56 13be 3351 34be 4971 373d fcc0 acbd
00000180: ac98 16be 39a6 46be 37b6 81bf faa5 753f
00000190: 49bf 943d b076 fb3c c7ef 1b3e 956c 6c3e
000001a0: b8b5 cd3e 18ed 41bc a6d1 c9bd d805 a23e
000001b0: dd8d 293c ff18 0ebe 782f 9ebc 830e d63d
000001c0: 71c4 2f3e 97ad a8be 9f6d 053d ca33 0cbe
000001d0: cc78 69bd d268 35bd f1a2 76bf b6fb 643e
000001e0: 88c2 8cbe cc8e 60be 36b4 b5bd 90d6 1cbe
000001f0: 4737 013e 5d0d cf3d 606c 963c e566 123e
00000200: 86bb 25bc 0068 3f3c 156b 5b3d d3e1 88bb
00000210: cf94 183d 5030 dabd 3e0d 53bc af76 ec3b
00000220: 4085 533e a101 c93d 4d2f 86bf 0e46 6bbe
00000230: 7687 13be 8936 453d 4563 23bd fe1c f0bb
00000240: 62d8 8fbd f4f6 803d 9976 073e 2675 f5bd
00000250: a364 443d 7f13 3d3d 03b6 e9bd 90a4 743d
00000260: b74d 53be ba8d 86be eaa3 a73d 7abb 083e
00000270: 0d20 82bd e402 c53c 4664 76bf b55b ffbe
00000280: 70a9 88bd dc89 153c 37ec 1b3e 38c3 a9bd
00000290: 7e5b 83ba 486e 20bd 25fd b83c 1c2b 8c3b
000002a0: 7fc4 ac3e 3e27 4b3e 4cf7 c23d 01e3 08be
000002b0: 448b 90be c4b4 44be e0dc 833e c128 c0bd
000002c0: 0a3c 653e e3be 78bd 61e1 1f3f 30ed 523e
000002d0: 4374 1fbc 3729 d93a 14e2 0abe f82c a1bc
000002e0: 3f4b b4bd 0172 7abd 5b8f b9bd 479d 26be
000002f0: ab8d ccbd 3910 46be 5f16 07bc f41f 413d
00000300: 36c7 653e dec4 28bd 673c ca3d 59a6 89bd
00000310: 821d 2b3e 1244 973d 300b 65be 1e88 dfbe
00000320: dda9 963e f3e8 5f3d 1eb0 ce3e f0d3 b93e
00000330: 87d6 a03d 75b3 82bd 21a8 113e 2410 cabd
00000340: e563 893d 61ad 393d 3109 9cbc 7fb4 f33c
00000350: b9e6 343e 4448 193d 1c2a 233e 153d 79be
00000360: 9728 b73c a03b bcbb f638 853f 20bc fc3f
00000370: 41a8 463c 0fd0 08bd abcc 64bd 16dc 883b
00000380: 55ab 343c 7aac 043c 49b1 d83d a09e f13d
00000390: 26f5 66bd 42a4 7dbd 32ff 99bd 7cc7 a23d
000003a0: 8e73 d2bb 91f6 1fbe 882f 163e a433 72bc
000003b0: 78ad 043e 594f 87bd 6776 993f 4e02 9abe
000003c0: 7654 00bd bf9d 61bc de28 803e b8ac 3e3c
000003d0: 8ff4 7b3c 1b4e 3bbc a4cb 90bc dca1 8a3c
000003e0: ba6e 023f 56d1 283d 9e52 933e 88ff 893e
000003f0: 43a4 b5bb 79c8 323e 4777 893d 4303 823b

value.0.bias f4 [32]
0.10875707 -0.09655607 0.034918237 0.19351137 -0.15766476 -0.21927314 0.17589295 0.20470321
-0.043959294 -0.13071686 -0.105972916 -0.038786877 -0.2321996 0.3037786 -0.010010543 -0.2346707
0.31954485 0.07196474 -0.18846928 0.2541337 0.16065246 -0.1003381 -0.09557605 -0.117452435
0.27142346 0.1941467 -0.070611 0.053853657 -0.06697262 -0.2751762 0.16143711 0.14010194
00000000: 07bc de3d 30bf c5bd 6d06 0f3d d827 463e
00000010: df72 21be 2389 60be 481d 343e b89d 513e
00000020: a90e 34bd a4da 05be 5408 d9bd fdde 1ebd
00000030: bbc5 6dbe de88 9b3e 4303 24bc 844d 70be
00000040: 629b a33e 4062 933d 17fe 40be d01d 823e
00000050: 1482 243e 107e cdbd 60bd c3bd e78a f0bd
00000060: 04f8 8a3e 64ce 463e 809c 90bd a795 5c3d
00000070: f128 89bd e5e3 8cbe c54f 253e e276 0f3e

value.2.weight f4 [32, 32]
-0.26928055 -0.0060326285 -0.07116622 0.032313015 0.15450212 -0.015990892 0.14575782 -0.20771079
0.089093655 0.04663912 -0.105038054 0.11415046 0.013228363 0.08419623 0.14482254 0.087740175
-0.075113334 -0.09794128 0.04765321 -0.17730732 -0.1915704 0.06289393 -0.06516459 -0.14969748
0.0004905902 -0.15467246 -0.056899562 0.13003014 0.019611502 -0.15844172 0.14026424 0.03968336
0.15035436 -0.08356708 0.00800807 0.12561451 0.056203607 -0.3528961 -0.09256246 -0.08933235
0.0601052 0.07656067 0.11756376 0.075891644 -0.12275761 -0.06558917 -0.1155679 0.011054787
-0.3289887 -0.23915967 0.031060554 0.07552087 0.2207042 0.0687948 0.08514168 -0.14821199
-0.10829573 0.2071877 -0.15272269 0.14318067 -0.08808762 -0.18657894 0.17363015 0.07540709
0.13344213 0.015570623 -0.2475858 -0.07735 0.0012621318 0.046236794 0.043794453 0.066810325
-0.0434812 -0.02876386 -0.38334098 0.24951452 0.09476879 -0.048691697 0.049551573 -0.10117606
0.08653533 -0.3284614 0.19000088 0.120082155 -0.046124358 0.056865476 0.07176395 -0.21208474
0.13572505 -0.002089741 0.183288 -0.014080247 0.08630069 -0.26335117 -0.015812937 -0.2353006
-0.05795772 0.04218192 -0.18312842 0.06870098 -0.25949445 0.09632019 0.19032732 0.13010241
0.043819264 -0.03245955 0.04186381 -0.32507375 0.02386881 0.25135407 -0.53744906 -0.11444464
0.18942454 -0.11013879 -0.00950287 0.0987103 -0.37369868 0.00980859 -0.060744766 -0.1000143
-0.14721689 -0.14220378 -0.29713228 0.18223509 -0.16509715 -0.06331752 -0.00705462 -0.05868663
0.019727824 0.07552908 0.06122439 0.11031018 0.0069337445 -0.06259794 -0.061664395 0.0010369394
0.054875527 0.13461088 -0.032848217 0.023395827 0.17682628 -0.11914991 -0.055637978 -0.026523285
0.025295714 -0.09492648 0.19846348 -0.13460967 0.017999703 -0.1573204 -0.039736893 -0.022549797
0.15349497 -0.024699064 -0.060079653 -0.15117592 0.09818197 -0.023515264 0.093922414 0.24204105
0.14354199 0.051484004 0.18411064 0.06573246 -0.08482815 0.023286037 -0.21806696 -0.087849654
-0.13476253 0.16506597 -0.11121991 0.050318517 -0.057857424 -0.29483914 0.01481573 -0.03440334
-0.0035365697 -0.10849147 0.06640165 0.057890717 0.13486381 -0.15349357 -0.04655084 0.23720555
0.12902121 -0.0073547806 -0.09659128 -0.20314528 -0.072939426 0.035162736 0.05959762 0.11419462
0.1260368 -0.27868804 0.069338426 -0.026432822 0.35194746 -0.09841691 -0.04429134 0.005977356
-0.1618422 0.02692846 -0.09918756 -0.04844632 0.09621026 0.29370657 -0.05581205 -0.2644946
-0.043500856 0.080016814 0.17604625 -0.040249147 0.057348862 -0.13662723 -0.0079419045 0.031920716
0.09262571 -0.17234361 0.060343824 -0.20475295 0.098938115 0.016387815 0.07326919 0.09250195
-0.027493875 0.09889731 0.09913336 0.10595887 -0.12165965 0.10177373 0.03660733 0.051295552
-0.09292816 0.10660198 -0.039867125 0.15703386 0.21418148 -0.1596538 0.12020443 0.014621202
-0.062401883 0.11936185 0.06265412 -0.14931774 0.16317205 0.014648882 -0.07948264 0.11421298
0.121404074 0.24761605 0.23588897 -0.15545282 0.19599795 -0.044328902 0.038673125 -0.077655725
00000000: 24df 89be 5bad c5bb 98bf 91bd a75a 043d
00000010: ce35 1e3e 55ff 82bc 8a41 153e 23b2 54be
00000020: bc76 b63d a908 3f3d 311e d7bd b7c7 e93d
00000030: c7bb 583c 136f ac3d 5c4c 143e 1fb1 b33d
00000040: 05d5 99bd 7095 c8bd 0330 433d 0d90 35be
00000050: 082b 44be 88ce 803d 0375 85bd 4c4a 19be
00000060: f39a 003a 7562 1ebe 840f 69bd 9f26 053e
00000070: 4da8 a03c 8c3e 22be 6ea1 0f3e 058b 223d
00000080: 7ef6 193e 3825 abbd 4834 033c 17a1 003e
00000090: c135 663d ccae b4be 6391 bdbd e1f3 b6bd
000000a0: df30 763d d7cb 9c3d 45c5 f03d 146d 9b3d
000000b0: 5868 fbbd 9d53 86bd ddae ecbd 231f 353c
000000c0: 3571 a8be 46e6 74be b472 fe3c b0aa 9a3d
000000d0: 4800 623e 4ae4 8c3d c35e ae3d e2c4 17be
000000e0: 27ca ddbd 0329 543e 5663 1cbe f49d 123e
000000f0: 4867 b4bd 8d0e 3fbe 1acc 313e 086f 9a3d
00000100: 0ea5 083e ed1b 7f3c 2287 7dbe ad69 9ebd
00000110: 1e6e a53a cb62 3d3d d061 333d dad3 883d
00000120: 5819 32bd 30a2 ebbc 4545 c4be bc80 7f3e
00000130: 2416 c23d f270 47bd 97f6 4a3d 6535 cfbd
00000140: 6f39 b13d 182c a8be 978f 423e a2ed f53d
00000150: e5ec 3cbd c6eb 683d faf8 923d be2c 59be
00000160: 82fb 0a3e 09f4 08bb d9af 3b3e d6b0 66bc
00000170: 6bbe b03d f7d5 86be 228a 81bc a4f2 70be
00000180: 1365 6dbd f3c6 2c3d 0486 3bbe 19b3 8c3d
00000190: 75dc 84be 8543 c53d 2ae5 423e 9139 053e
000001a0: d47b 333d 4ef4 04bd 6379 2b3d 1170 a6be
000001b0: 8688 c33c 7bb1 803e 4396 09bf f461 eabd
000001c0: 82f8 413e 7290 e1bd edb1 1bbc a028 ca3d
000001d0: 6f55 bfbe 35b4 203c 81cf 78bd 4cd4 ccbd
000001e0: 06c0 16be de9d 11be b921 98be d69b 3a3e
000001f0: 3a0f 29be 9eac 81bd 712a e7bb 6461 70bd
00000200: 3f9c a13c feae 9a3d 6dc6 7a3d 4eea e13d
00000210: 7734 e33b 5933 80bd ce93 7cbd eae9 873a
00000220: 29c5 603d 6fd7 093e da8b 06bd 9ba8 bf3c
00000230: f311 353e de04 f4bd a6e4 63bd 5c47 d9bc
00000240: f538 cf3c d068 c2bd 033a 4b3e 1ed7 09be
00000250: 1d74 933c 9918 21be 27c3 22bd 5aba b8bc
00000260: c92d 1d3e b155 cabc 1516 76bd dccd 1abe
00000270: a113 c93d 15a3 c0bc 655a c03d 9cd9 773e
00000280: acfc 123e e4e0 523d 8087 3c3e bd9e 863d
00000290: 62ba adbd 5cc2 be3c f24c 5fbe 85ea b3bd
000002a0: 30ff 09be 0e07 293e 44c7 e3bd ca1a 4e3d
000002b0: e8fb 6cbd 28f5 96be adbd 723c 84ea 0cbd
000002c0: cbc5 67bb c730 debd 97fd 873d d11e 6d3d
000002d0: bd19 0a3e 6b2d 1dbe 18ac 3ebd 03e6 723e
000002e0: 231e 043e 5f00 f1bb a6d1 c5bd 5105 50be
000002f0: 4461 95bd cd06 103d a21c 743d dede e93d
00000300: ca0f 013e 33b0 8ebe 4e01 8e3d a589 d8bc
00000310: 7532 b43e ce8e c9bd d66a 35bd b2dd c33b
00000320: f6b9 25be 1399 dc3c d922 cbbd a66f 46bd
00000330: e309 c53d b560 963e 2d9b 64bd d66b 87be
00000340: f42d 32bd dbdf a33d 7845 343e 4adc 24bd
00000350: a4e6 6a3d 02e8 0bbe c31e 02bc 4cbf 023d
00000360: 8cb2 bd3d d87a 30be 162b 773d c2aa 51be
00000370: 11a0 ca3d bd3f 863c 280e 963d aa71 bd3d
00000380: d63a e1bc ac8a ca3d 6e06 cb3d f700 d93d
00000390: b228 f9bd bf6e d03d 91f1 153d 491b 523d
000003a0: 1f51 bebd 2452 da3d b64b 23bd 7ccd 203e
000003b0: 6452 5b3e 497c 23be bd2d f63d c48d 6f3c
000003c0: 1e99 7fbd fc73 f43d ce50 803d c0e6 18be
000003d0: 9316 273e dd01 703c cbc7 a2bd 7fe8 e93d
000003e0: b3a2 f83d 108f 7d3e e18c 713e 062f 1fbe
000003f0: b0b3 483e 3992 35bd b667 1e3d f709 9fbd

value.2.bias f4 [32]
0.08807062 -0.09381158 0.07452262 -0.03141354 -0.17246003 0.047064114 -0.18197098 0.121268265
-0.02302766 0.043325584 -0.04679441 0.04568017 0.11204079 0.049550716 -0.002426433 -0.123793036
0.33487898 0.015341946 0.084091924 -0.04977167 0.0071478696 -0.060113985 -0.08616175 -0.19138479
-0.21291356 -0.051504117 0.08795772 -0.20375988 -0.102859914 0.043689717 -0.11190165 -0.119751096
00000000: 5f5e b43d 4920 c0bd 519f 983d 7cab 00bd
00000010: 5d99 30be 4dc6 403d 9a56 3abe 7f5b f83d
00000020: 81a4 bcbc 2b76 313d 7fab 3fbd 211b 3b3d
00000030: a475 e53d b1f5 4a3d ca04 1fbb 3487 fdbd
00000040: 4275 ab3e c95c 7b3c 6338 ac3d 61dd 4bbd
00000050: ad38 ea3b 153a 76bd 9275 b0bd 60fa 43be
00000060: 0306 5abe fbf5 52bd 2d23 b43d 6ea6 50be
00000070: 38a8 d2bd fdf3 323d b12c e5bd 1040 f5bd

value.4.weight f4 [1, 32]
-0.049965378 -0.04420716 -0.07434855 0.09427078 -0.048250973 0.06529007 -0.051710077 0.09533022
0.058025546 -0.03129358 -0.0636669 0.0642294 -0.087495275 0.061777618 -0.33629876 -0.39104322
0.06201571 -0.072602704 -0.045252543 -0.05375714 0.05523989 0.1152213 0.054874115 -0.07585126
-0.055388488 -0.016266165 0.06706679 0.060674835 0.12057008 -0.068980485 0.047321193 -0.054343265
00000000: 7fa8 4cbd 9112 35bd 0d44 98bd 0a11 c13d
00000010: d0a2 45bd cdb6 853d f2cd 53bd 7e3c c33d
00000020: 32ac 6d3d b22d 00bd cb63 82bd b48a 833d
00000030: b930 b3bd 870a 7d3d 5a2f acbe d136 c8be
00000040: 2f04 7e3d bab0 94bd bb5a 39bd 7230 5cbd
00000050: 3943 623d 25f9 eb3d aec3 603d e857 9bbd
00000060: 0adf 62bd 9f40 85bc 505a 893d 2d86 783d
00000070: 72ed f63d a445 8dbd ded3 413d 0b97 5ebd

actor.0.weight f4 [32, 18]
0.013070472 0.5503217 -0.010998517 -0.07573927 -0.152167 0.21881935 -0.24686235 -0.0066717067
-0.43382832 0.26611784 -0.12897956 -0.13608858 0.3760093 0.14430211 0.106576785 -0.15668456
0.09026984 0.005643909 0.17199017 0.058417324 -0.19273145 0.1104634 -0.18546927 -0.20154682
-0.02115556 0.16600776 0.028621469 0.45486635 -0.11126058 -0.00799403 0.13612871 0.1861938
-0.13730745 -0.16396338 0.48220012 0.23994625 0.069704965 0.02507305 -0.24555477 -0.19954139
-0.13798308 -0.34572846 -0.20289062 0.21851835 -0.13457122 -0.18852797 0.18729264 0.25448707
-0.024963303 0.032290503 0.10419636 0.026337925 -0.35300663 -0.23856668 -0.26400223 0.15495671
0.05983888 -0.08537737 -0.16064346 -0.46010005 0.11956012 -0.21146749 -0.12255615 -0.27711043
0.06961147 -0.029373582 -0.13404545 -0.47792372 0.11623967 0.08636219 0.057912406 0.079876006
0.10701993 0.034009755 0.27319145 0.103015035 -0.16449834 0.31725064 0.09377415 0.18438277
-0.3405551 0.21913211 -0.04330415 -0.2665954 -0.14920744 0.23695517 -0.04175921 -0.1840766
-0.18951719 0.050433356 0.06147789 -0.26876903 -0.10231408 -0.20732826 0.38711968 0.3166365
-0.18953253 -0.020901108 0.2438957 -0.12463287 0.036119383 -0.095551334 0.3159236 0.022379072
-0.47754034 -0.3116813 0.09872709 -0.18779474 -0.065365665 -0.17009163 -0.2695338 -0.11747699
-0.34506953 0.028660193 -0.27281103 0.4964443 -0.36286125 0.28676093 0.0860297 0.08108384
-0.08285731 0.27563426 -0.12440299 -0.25208735 0.08968194 0.060161136 -0.30344066 -0.0001966067
-0.36506268 -0.015617701 -0.19342765 0.020956662 0.45390978 0.40630233 0.60749507 -0.16172135
-0.06528997 -0.14856665 0.15620904 -0.25231013 -0.18535987 -0.09005669 0.20176765 0.03777005
0.25466236 0.037142437 -0.24981397 -0.14981706 0.07387429 0.2919683 -0.0066038407 -0.025375202
-0.12620105 0.11249748 -0.31995907 -0.17817496 0.16157629 -0.5455475 -0.1820149 0.037009787
-0.11298413 0.12445582 -0.14721437 0.042663034 0.085780665 0.1554067 -0.12449709 0.43880105
-0.016562646 0.15466505 -0.20835303 -0.32271668 0.24001057 0.23980118 0.1159316 -0.13928255
0.12918538 -0.110057265 -0.12947538 0.036056396 0.14956158 -0.009174235 0.1298318 0.06339977
-0.073589936 0.2897227 -0.06592044 0.12721005 -0.60904735 0.37096664 -0.17219888 0.07478079
-0.115030654 -0.06519779 0.021779696 0.13113067 -0.120744295 -0.0958402 -0.23541711 -0.030208433
-0.26469925 -0.4423274 0.070271224 0.07847152 -0.19760932 -0.37708566 0.11078022 -0.0016227975
-0.01861317 -0.14042121 -0.062362466 0.3269983 0.119576395 -0.13708702 -0.0073532397 -0.17095971
-0.4014772 -0.2093439 -0.27102274 -0.23399788 0.1906493 -0.07680082 0.29575476 0.040075596
-0.19276477 -0.34533313 -0.118772045 -0.12023557 0.13077205 0.37147516 -0.07478992 0.23765762
-0.33532244 -0.16895512 -0.0691064 0.039782476 0.07721758 -0.0045481203 -0.044958964 0.029219193
-0.030262332 0.010261576 -0.5480257 -0.11516151 0.050095517 0.17063862 -0.15170778 0.026935797
0.23795746 0.3474649 -0.14409971 0.037198253 0.2166643 0.16543503 -0.056382664 0.032902
00000000: 8825 563c e2e1 0c3f 2033 34bc 311d 9bbd
00000010: abd1 1bbe 2e12 603e 7cc9 7cbe 559e dabb
00000020: bf1e debe 9940 883e 3813 04be ce5a 0bbe
00000030: 4a84 c03e efc3 133e ee44 da3d eb71 20be
00000040: 65df b83d 8af0 b83b 311e 303e 0147 6f3d
00000050: 655b 45be a33a e23d a8eb 3dbe 4a62 4ebe
00000060: 6d4e adbc f0fd 293e 9277 ea3c 3ee4 e83e
00000070: 96dc e3bd 64f9 02bc 5365 0b3e 96a9 3e3e
00000080: 539a 0cbe 04e6 27be efe2 f63e 78b4 753e
00000090: 7ac1 8e3d ff65 cd3c b672 7bbe 9454 4cbe
000000a0: 704b 0dbe 5203 b1be 8fc2 4fbe 46c3 5f3e
000000b0: 0acd 09be 7a0d 41be a4c9 3f3e 214c 823e
000000c0: d77f ccbc 0c43 043d e764 d53d a2c2 d73c
000000d0: 49bd b4be d34a 74be 4d2b 87be f9ac 1e3e
000000e0: 9d19 753d 55da aebd b87f 24be 3c92 ebbe
000000f0: f0db f43d ef8a 58be b8fe fabd 6be1 8dbe
00000100: 7590 8e3d dea0 f0bc 3643 09be 6bb2 f4be
00000110: 100f ee3d a9de b03d 8f35 6d3d 0896 a33d
00000120: 442d db3d d04d 0b3d c0df 8b3e 8cf9 d23d
00000130: 4172 28be ad6e a23e a90c c03d d6ce 3c3e
00000140: 3d5d aebe 2b64 603e b15f 31bd 317f 88be
00000150: d6c9 18be 60a4 723e b50b 2bbd 947e 3cbe
00000160: cb10 42be 3593 4e3d 3dd0 7b3d 189c 89be
00000170: 0b8a d1bd dc4d 54be 8d34 c63e 2e1e a23e
00000180: d114 42be cd38 abbc cbbf 793e 853f ffbd
00000190: ebf1 133d 6bb0 c3bd bdc0 a13e 5154 b73c
000001a0: 2b80 f4be b194 9fbe 6e31 ca3d 444d 40be
000001b0: 6fde 85bd 802c 2ebe 5600 8abe c797 f0bd
000001c0: f4ac b0be c8c8 ea3c e3ad 8bbe f32d fe3e
000001d0: f3c8 b9be 54d2 923e 5730 b03d 490f a63d
000001e0: 18b1 a9bd ef1f 8d3e ffc6 febd 9811 81be
000001f0: 2aab b73d 866b 763d 935c 9bbe 3628 4eb9
00000200: 7fe9 babe 63e1 7fbc e611 46be 4ead ab3c
00000210: dd66 e83e dc06 d03e cc84 1b3f 489a 25be
00000220: bfb6 85bd db21 18be 43f5 1f3e cb2e 81be
00000230: face 3dbe a46f b8bd 2e9c 4e3e c5b4 1a3d
00000240: 1b63 823e ab22 183d 3ccf 7fbe a569 19be
00000250: 674b 973d de7c 953e 0865 d8bb a8df cfbc
00000260: d93a 01be 1465 e63d add1 a3be 7f73 36be
00000270: 4174 253e 00a9 0bbf 1d62 3abe 9397 173d
00000280: 3964 e7bd b1e2 fe3d 5dbf 16be 6fbf 2e3d
00000290: c6ad af3d ef22 1f3e 55f8 febd 88aa e03e
000002a0: 63ae 87bc 8460 1e3e 7f5a 55be 1f3b a5be
000002b0: 55c5 753e 718e 753e 8c6d ed3d 16a0 0ebe
000002c0: 2c49 043e b465 e1bd 3295 04be dfaf 133d
000002d0: ac26 193e 884f 16bc a1f2 043e bdd7 813d
000002e0: 52b6 96bd 8956 943e 4c01 87bd 5a43 023e
000002f0: 87ea 1bbf 57ef bd3e e754 30be ac26 993d
00000300: 3195 ebbd 6b86 85bd 556b b23c 1e47 063e
00000310: c948 f7bd de47 c4bd 2f11 71be ad77 f7bc
00000320: a986 87be bd78 e2be 5cea 8f3d adb5 a03d
00000330: 195a 4abe 5f11 c1be bde0 e23d 0cb4 d4ba
00000340: a67a 98bc 94ca 0fbe c96f 7fbd 526c a73e
00000350: 78e4 f43d 8a60 0cbe 72f3 f0bb 1010 2fbe
00000360: 6b8e cdbe 3f5e 56be 7ec3 8abe 249d 6fbe
00000370: 9239 433e c049 9dbd 2b6d 973e 4f26 243d
00000380: 2164 45be 81cf b0be c23e f3bd 113e f6bd
00000390: 1ce9 053e fe31 be3e 752b 99bd 855c 733e
000003a0: 62af abbe 9202 2dbe a887 8dbd f3f2 223d
000003b0: 4024 9e3d 6608 95bb e426 38bd 175d ef3c
000003c0: b6e8 f7bc 2b20 283c 6a4b 0cbf ccd9 ebbd
000003d0: f530 4d3d e4bb 2e3e 4959 1bbe 76a8 dc3c
000003e0: 1fab 733e ebe6 b13e e08e 13be 325d 183d
000003f0: 3fdd 5d3e cd67 293e 82f1 66bd 3fc4 063d

actor.0.bias f4 [32]
0.15007731 0.053624213 0.07925495 -0.0730732 0.04226418 -0.082441725 0.035146937 -0.0489677
-0.24720033 -0.38980758 -0.0154815065 0.14842184 0.04692972 0.16075219 -0.19182886 0.038736045
0.176792 -0.25615147 0.21942171 -0.24372485 0.0618812 0.3088614 -0.39451402 -0.033272855
0.3229549 -0.30622214 0.20501074 0.00060580537 0.11143975 0.023188496 0.009849926 -0.003507196
00000000: dead 193e 10a5 5b3d 6b50 a23d 67a7 95bd
00000010: 341d 2d3d 35d7 a8bd 3cf6 0f3d 5b92 48bd
00000020: 1522 7dbe dc94 c7be 25a6 7dbc e5fb 173e
00000030: 6139 403d 399c 243e c96e 44be b0a9 1e3d
00000040: f608 353e 4926 83be 16b0 603e 0293 79be
00000050: 2477 7d3d 1523 9e3e befd c9be 1e49 08bd
00000060: 585a a53e 26c9 9cbe 56ee 513e e9ce 1e3a
00000070: 863a e43d cdf5 bd3c 9661 213c fcd8 65bb

actor.2.weight f4 [32, 32]
0.036904123 -0.110888466 0.18049285 -0.059010133 -0.033900023 -0.2519214 -0.09564108 -0.21687481
-0.11039345 0.1900495 0.20716226 0.056791622 0.1315152 0.15979445 -0.021437468 -0.06670944
-0.052578095 0.2140686 -0.04772329 -0.18644646 0.26150724 0.118272245 -0.14513849 0.25498247
0.2822279 -0.048135743 0.064042985 0.030099045 -0.06897042 0.18199567 -0.05955575 0.15846598
0.4135759 -0.10424541 0.11260309 -0.2556797 0.3115121 -0.11115044 0.17740907 0.14988314
0.24857469 -0.5943571 0.2907906 -0.35291508 -0.032651685 -0.19568506 -0.0058576223 0.064071536
0.10238441 0.2617212 0.024498122 0.117692314 -0.020543084 -0.0021587252 -0.109668486 -0.33597636
-0.19133915 0.18899931 -0.55696374 0.13879159 -0.016074983 0.019592283 -0.22028597 -0.5742303
0.22401984 -0.17460339 0.1243751 -0.07105076 -0.24370687 0.126144 0.011599773 0.2501554
-0.12409737 0.1983152 -0.33626768 0.09420004 0.07645144 0.120753385 0.3213951 -0.038406506
0.14271583 0.19634914 -0.019087214 -0.7319236 0.008817366 0.074017435 0.25535822 0.5065508
-0.03285031 -0.14282787 -0.041865665 -0.14854617 -0.12291998 -0.27210215 -0.110182114 0.3838985
0.052035697 0.14707673 -0.47957018 -0.11188968 0.15367687 0.22853756 -0.08299682 0.21544069
-0.009666085 0.15431874 0.044969577 -0.23641469 -0.10377261 -0.031754598 -0.2243772 -0.35241207
0.25748023 0.08874734 0.15622227 0.2367907 0.092192136 0.04648145 0.32371718 -0.5289213
-0.20282212 0.12920272 -0.11932679 -0.040511582 -0.20330863 0.13045578 -0.02315059 -0.13158643
-0.17280602 -0.027015531 -0.053716958 0.0046334383 0.26221743 -0.28558344 0.07529189 0.21392404
-0.098522246 0.033758644 0.081916116 -0.13874371 0.2621518 -0.08699801 0.07279606 0.06721268
0.124150895 0.40350467 0.11952742 0.32481408 0.19119914 0.32538027 -0.7503121 0.231189
0.12362104 -0.51800627 0.1967404 0.06436286 0.16016947 -0.033023503 -0.32500082 0.05631931
-0.25337005 -0.18955357 -0.08905879 -0.37490466 0.041105352 0.19665013 -0.009492447 -0.2089773
-0.705054 0.10907984 0.19821422 -0.32553345 0.06864097 0.2883346 0.05825533 0.10092893
0.46440876 -0.06499549 -0.11830432 -0.6752615 0.048496634 0.119644314 -0.4005921 0.36504522
-0.14023863 0.38275272 0.0065158634 -0.18463345 -0.024348514 -0.2337041 -0.014873602 0.14621723
-0.1060643 0.028152736 -0.14714001 -0.14279729 -0.0027593737 0.21437718 0.056671612 0.14611115
-0.15191567 -0.30285865 0.08448303 0.16193117 -0.19144714 -0.77937675 0.12788986 0.34847406
-0.7944585 0.22305074 0.101090625 0.09856661 -0.049701363 0.07707761 -0.06717817 0.33506763
-0.31756136 0.046586037 0.119667664 0.08093533 0.153666 0.19133237 -0.008894988 -0.3464315
-0.19663522 0.17808224 0.12251329 -0.24340333 -0.12946533 -0.05282716 0.058666307 -0.3951985
-0.03324137 0.06765353 0.25135753 -0.023437154 0.12867366 0.06527568 0.075904325 -0.16189677
-0.4857618 -0.035416983 -0.020821638 0.18331446 0.3125752 -0.1539842 -0.014649909 -0.034885153
-0.015802005 -0.4683384 0.1604477 0.30189508 -0.12613745 0.09441626 -0.12657164 -0.31531802
00000000: c728 173d 7e19 e3bd 1ed3 383e 9cb4 71bd
00000010: c0da 0abd d7fb 80be 78df c3bd 6e14 5ebe
00000020: f615 e2bd 569c 423e 5822 543e 559e 683d
00000030: ecab 063e 28a1 233e a19d afbc f59e 88bd
00000040: 215c 57bd cd34 5b3e 7f79 43bd d2eb 3ebe
00000050: 47e4 853e b838 f23d 2f9f 14be 108d 823e
00000060: 2d80 903e fc29 45bd f828 833d 4692 f63c
00000070: 5d40 8dbd 135d 3a3e bbf0 73bd e844 223e
00000080: 38c0 d33e 9e7e d5bd 739c e63d 73e8 82be
00000090: 847e 9f3e d8a2 e3bd b9aa 353e f77a 193e
000000a0: 5d8a 7e3e c927 18bf 81e2 943e 49b1 b4be
000000b0: c6bd 05bd aa61 48be 4cf1 bfbb f037 833d
000000c0: ebae d13d 5200 863e 49b0 c83c ab08 f13d
000000d0: f849 a8bc 6679 0dbb df99 e0bd 1805 acbe
000000e0: 69ee 43be 0989 413e 2d95 0ebf 621f 0e3e
000000f0: afaf 83bc ff7f a03c a592 61be c200 13bf
00000100: 7565 653e 3bcb 32be 5fb8 fe3d 1083 91bd
00000110: 4b8e 79be e52b 013e f90c 3e3c 5e14 803e
00000120: c326 febd 2413 4b3e 472b acbe f3eb c03d
00000130: 9392 9c3d 8d4d f73d e68d a43e 2450 1dbd
00000140: 1924 123e c00f 493e ca5c 9cbc 585f 3bbf
00000150: b776 103c 7496 973d 50be 823e 50ad 013f
00000160: 0c8e 06bd 7841 12be 557b 2bbd 7d1c 18be
00000170: 78bd fbbd f950 8bbe 29a7 e1bd 588e c43e
00000180: 6223 553d 489b 163e 398a f5be 6b26 e5bd
00000190: 785d 1d3e c005 6a3e 3dfa a9bd 7c9c 5c3e
000001a0: 805e 1ebc bb05 1e3e 0532 383d b116 72be
000001b0: bc86 d4bd 1c11 02bd 23c3 65be 5b6f b4be
000001c0: 73d4 833e 2ac1 b53d bbf8 1f3e 4379 723e
000001d0: 3bcf bc3d 5563 3e3d 42be a53e 6367 07bf
000001e0: 9ab0 4fbe b84d 043e 9b61 f4bd 79ef 25bd
000001f0: 2330 50be 3396 053e 4ea6 bdbc 98be 06be
00000200: 10f4 30be ad4f ddbc 5006 5cbd 19d4 973b
00000210: 5d41 863e fe37 92be a232 9a3d e70e 5b3e
00000220: 08c6 c9bd 8146 0a3d a3c3 a73d d512 0ebe
00000230: c338 863e 032c b2bd 1a16 953d cda6 893d
00000240: d342 fe3d 2a98 ce3e cbca f43d 084e a63e
00000250: b5c9 433e 3e98 a63e 7414 40bf cfbc 6c3e
00000260: 072d fd3d 0f9c 04bf 5176 493e add0 833d
00000270: 7703 243e a743 07bd 8266 a6be 14af 663d
00000280: b8b9 81be 551a 42be 7464 b6bd 81f3 bfbe
00000290: 165e 283d a75e 493e 3586 1bbc 25fe 55be
000002a0: 6b7e 34bf 4065 df3d abf8 4a3e 52ac a6be
000002b0: a393 8c3d 98a0 933e 249d 6e3d d4b3 ce3d
000002c0: fcc6 ed3e 5b1c 85bd 8949 f2bd f0dd 2cbf
000002d0: 68a4 463d 1408 f53d 681a cdbe 35e7 ba3e
000002e0: b79a 0fbe 2af8 c33e 0683 d53b 8d10 3dbe
000002f0: 8976 c7bc 2150 6fbe 69b0 73bc f8b9 153e
00000300: 3d38 d9bd 91a0 e63c dfab 16be 7439 12be
00000310: 9cd6 34bb b185 5b3e 7e20 683d 299e 153e
00000320: c88f 1bbe 4a10 9bbe 7005 ad3d 49d1 253e
00000330: b80a 44be 3c85 47bf 8ff5 023e 316b b23e
00000340: a261 4bbf 6a67 643e 9a08 cf3d 4add c93d
00000350: a893 4bbd deda 9d3d b594 89bd fc8d ab3e
00000360: 6797 a2be 00d1 3e3d 5214 f53d 6cc1 a53d
00000370: 9f5a 1d3e a2ec 433e 49bc 11bc 785f b1be
00000380: be5a 49be 315b 363e 3fe8 fa3d b93e 79be
00000390: 8f92 04be 4b61 58bd 154c 703d 7557 cabe
000003a0: 1a28 08bd ef8d 8a3d efb1 803e 46ff bfbc
000003b0: 07c3 033e 41af 853d ba73 9b3d 44c8 25be
000003c0: c5b5 f8be 6611 11bd 2492 aabc c9b6 3b3e
000003d0: db09 a03e 09ae 1dbe 2c06 70bc bce3 0ebd
000003e0: 3573 81bc 0dca efbe 674c 243e fe91 9a3e
000003f0: 2d2a 01be 505d c13d ff9b 01be 5d71 a1be

actor.2.bias f4 [32]
0.1739955 0.093186766 -0.2405096 0.16277553 0.07196207 -0.22558874 0.20300812 0.15908825
-0.081539735 -0.042028166 0.14971794 -0.21746753 0.09627612 0.20994548 0.19366768 0.110280514
0.19621849 -0.10411555 0.0047488105 -0.1992334 -0.01894595 0.2828432 0.08761127 0.047023766
-0.015106527 -0.043381426 0.17347729 0.24722312 -0.1677552 0.11678704 0.07688737 -0.18262719
00000000: e02b 323e b4d8 be3d 2648 76be a1ae 263e
00000010: da60 933d bc00 67be 5ce1 4f3e 08e8 223e
00000020: 4efe a6bd ba25 2cbd a94f 193e cfaf 5ebe
00000030: 6a2c c53d f3fb 563e d250 463e c0da e13d
00000040: 80ed 483e 893a d5bd e99b 9b3b d703 4cbe
00000050: 8934 9bbc d3d0 903e 8a6d b33d fe9b 403d
00000060: 5e81 77bc b9b0 31bd 08a4 313e 0f28 7d3e
00000070: 05c8 2bbe 0b2e ef3d 2077 9d3d 9f02 3bbe

actor.4.weight f4 [2, 32]
0.27788052 -0.740213 0.34350154 -0.33126122 0.44826072 -0.4770257 0.1974658 -0.006601732
0.23682363 0.15005556 -0.3611683 0.19397406 -0.42206877 -0.6865985 -0.45882356 -0.24898641
0.014913098 -0.5860488 -0.4956599 0.23783624 0.2653411 -0.81893295 -0.19910868 0.5453499
-0.107173815 0.55951804 0.12732641 -0.46425158 -0.17753527 0.55470955 0.3614869 0.19898233
-0.104025684 -0.082057625 0.42068738 -0.7234336 -0.27504724 0.72308135 -0.58488417 -0.36171284
-0.8024683 -0.05281937 -0.7393549 0.40363157 0.49894366 0.19129832 0.37989008 0.5433023
-0.21426277 0.3077661 0.14500725 0.7127879 0.060889084 0.027485952 0.216624 -0.313327
0.63834584 0.5247001 -0.66678715 -0.8207402 -1.077456 -0.36563244 -0.025715237 0.44235358
00000000: 5b46 8e3e 997e 3dbf 6fdf af3e 129b a9be
00000010: 6e82 e53e b63c f4be 7a34 4a3e 5853 d8bb
00000020: e581 723e 2aa8 193e 0deb b8be 23a1 463e
00000030: 6619 d8be ebc4 2fbf ecea eabe 4bf6 7ebe
00000040: 1156 743c 4b07 16bf 22c7 fdbe 588b 733e
00000050: cada 873e 97a5 51bf 25e3 4bbe 0d9c 0b3f
00000060: f27d dbbd 933c 0f3f db61 023e 62b2 edbe
00000070: cecb 35be 7201 0e3f d014 b93e 06c2 4b3e
00000080: 6b0b d5bd d40d a8bd 5664 d73e f232 39bf
00000090: fed2 8cbe dc1b 393f f8ba 15bf 6d32 b9be
000000a0: 906e 4dbf 2059 58bd 5d46 3dbf cca8 ce3e
000000b0: 8b75 ff3e b5e3 433e f480 c23e dc15 0b3f
000000c0: b367 5bbe 8593 9d3e c87c 143e 4579 363f
000000d0: d566 793d 382a e13c afd2 5d3e 666c a0be
000000e0: a26a 233f bf52 063f 90b2 2abf 081c 52bf
000000f0: 14ea 89bf 2d34 bbbe c3a8 d2bc 2b7c e23e

actor.4.bias f4 [2]
-0.201205 -0.047446895
00000000: af08 4ebe ad57 42bd
