results/SandingEnvMiddle/ddpg/model/model_parameters_2.pt (torch, 32066 bytes, 22 tensors)

value.0.weight f4 [32, 12]
000000 f4 4f b6 bd bd d7 6f bc d4 b7 a5 3b 8e fe 1e 3e
       -0.089019686 -0.014638838 0.0050573144 0.15526792
000010 45 ac fc 3d 0f b8 55 3b 38 7d 0d bd 89 e4 7f 3d
       0.12337545 0.0032610928 -0.034543246 0.062473807
000020 34 39 fa bc 42 fa cd 3e 7f 2b 2a bf 6f 0e 70 3d
       -0.030544855 0.40229994 -0.6647262 0.058607515
000030 e9 89 1f 3e 38 d7 99 bd e7 d9 cf bd 8b 7b 87 bd
       0.15579952 -0.07511753 -0.101489834 -0.06615361
000040 43 4a 44 bd 68 b2 30 bd b2 d8 25 be 8f 4a d3 bd
       -0.047922384 -0.04313889 -0.16195944 -0.10316955
000050 98 91 f1 3c 9c 9b 0f 3e f4 e7 84 bf 1b 2d 80 bf
       0.02948837 0.14024204 -1.0383286 -1.0013765
000060 1d 79 16 be 0a 2a e7 3d 5c 50 dc bc 36 0f 2e be
       -0.14694639 0.11287315 -0.026893787 -0.1699799
000070 f8 c5 1c 3e d4 ff aa 3d 10 a4 15 bd c0 b7 24 be
       0.15309894 0.083495766 -0.036533415 -0.1608572
000080 01 63 c1 39 e6 d6 79 be 8c 9b 21 3f 08 c3 a0 bf
       0.00036885592 -0.24398383 0.6312797 -1.2559519
000090 63 1c 17 be 92 b3 a1 3d 98 04 af 3c e9 9f 1a 3d
       -0.14756922 0.078955784 0.021364495 0.03775016
0000a0 82 31 50 3e b5 9d ba bd 74 6b 47 3e 52 88 0e 3e
       0.20331386 -0.091121115 0.19474584 0.1391919
0000b0 8b c4 07 3d 1b b3 7f 3d 97 3b 1c 40 79 9a 64 be
       0.033146422 0.062426668 2.441137 -0.22324552
0000c0 7b 3e 18 3d 00 eb a1 bc 9b 9b 33 be 93 3c 87 bc
       0.03716896 -0.019765377 -0.17539828 -0.016508376
0000d0 60 4d 14 3e 91 9a 36 be fb 5c 29 bb 2c c3 84 bd
       0.14482641 -0.178324 -0.0025842774 -0.064825386
0000e0 0d f4 60 3d 26 e3 98 3d 5e e5 08 bf fd 78 bc 3f
       0.054920245 0.074652 -0.53474987 1.4724423
0000f0 21 d4 43 bd 36 9a 8a 3d 35 f3 61 bd a3 f1 39 3c
       -0.047809724 0.06767695 -0.05516358 0.011349115
000100 dc 11 0b 3e 9d 18 48 be dc da 81 3e 68 a7 e0 3d
       0.13581032 -0.19540639 0.2536229 0.1096943
000110 7c 2b 2d be 64 01 3d 3e ad 39 3e 3f 91 b8 70 bf
       -0.16911119 0.18457562 0.74306756 -0.94031626
000120 4d 41 8a be 21 db 45 bd ff a8 39 3e e6 dd 9f bd
       -0.27002946 -0.04830468 0.18130873 -0.07805996
000130 d7 36 f2 3d 06 26 50 3d 5a 55 59 3d 28 b3 70 3d
       0.11826866 0.050817512 0.053059913 0.058764607
000140 f9 d9 45 be d9 e3 f7 bc da df 9e 3e 5d e3 19 3f
       -0.19321431 -0.030260013 0.3103016 0.60112554
000150 76 05 29 3c d1 d4 bb bd ea 36 f8 3d 2f f6 4b bd
       0.010316243 -0.09171451 0.12119849 -0.049795326
000160 5c a6 4d be 59 94 07 bd 0d e8 e0 3d 91 67 c2 bd
       -0.20082992 -0.03310046 0.1098176 -0.0949241
000170 9e 61 97 3e 3f aa b1 3d 2c e6 43 bf 04 b4 cc be
       0.29566664 0.0867505 -0.7652309 -0.3998109
000180 7c b4 b2 bd 75 66 99 bc b3 26 b7 3e e6 a0 93 3d
       -0.08725831 -0.018725613 0.35771713 0.07208423
000190 fb 25 53 3d 3a 68 9d 3d 99 36 ce 3c ef fc 31 bd
       0.051549893 0.07685895 0.025172519 -0.043454107
0001a0 ce 0d 20 3e c2 c9 71 be b6 56 da bf 5b 1a c0 3e
       0.15630266 -0.23612121 -1.7057712 0.37520108
0001b0 b0 63 38 3e f2 19 4a bb 09 ba 9f 3d 8e cf c5 bc
       0.18006778 -0.0030838219 0.07799155 -0.024146821
0001c0 eb ee 05 be 4e 4a 1f be 9a 90 c8 3d cc 55 31 3d
       -0.13079421 -0.15555689 0.097932056 0.043294713
0001d0 d6 91 d5 bd 90 b8 df 3d 4c 7e 9b 3f de 4b dc 3f
       -0.104282066 0.109238744 1.2147918 1.7210653
0001e0 dc 90 93 3d 13 63 58 bb 0a 22 a3 3c 5d 69 4d 3e
       0.07205364 -0.0033018037 0.019913692 0.20059724
0001f0 4e 8a 57 3e d8 b3 59 3e 74 c9 3d bd a1 16 78 3d
       0.21048853 0.21260011 -0.0463347 0.060568456
000200 ce ba 99 bc fd 27 09 be 1c 08 4f 3e 46 43 03 bf
       -0.018765833 -0.1339416 0.20217937 -0.51274526
000210 c2 49 47 be ef d1 ef 3b 7e 6d ce 3d 96 0e 7d 3d
       -0.1946173 0.007318727 0.10079478 0.06178149
000220 f7 0a 12 3c 98 9c 7f bd c2 12 a2 3d 8f 38 e0 39
       0.008913747 -0.0624052 0.07913734 0.0004276675
000230 40 0e 8a be 17 7b b9 3d 18 fe dd bf aa c2 3f bf
       -0.26963997 0.09056681 -1.7343168 -0.7490641
000240 cf f0 5f 3d 9b 1d ac bd 1c 67 ce bd c7 0e 5e bb
       0.054673012 -0.08404084 -0.1007826 -0.003388332
000250 0e 72 b1 bd 40 09 f3 3d 45 cd 8a be e0 44 57 3e
       -0.08664332 0.11866999 -0.27109733 0.21022367
000260 0d 9a 36 3e cb a5 40 3e 02 cd 99 bf 76 43 59 3f
       0.17832203 0.18813245 -1.2015688 0.8486856
000270 b5 bb 00 be 20 c7 47 3e e5 b6 b9 bd 67 91 95 3b
       -0.12571605 0.19509554 -0.090680875 0.0045644525
000280 20 b3 c0 bc 18 02 c9 bb 7e 80 7a be 7e 23 06 3e
       -0.023522913 -0.006134283 -0.24463078 0.13099477
000290 f0 6f 85 bd dc 27 06 be c1 93 38 bf 24 3c e1 3f
       -0.06515491 -0.13101143 -0.72100455 1.7596478
0002a0 01 8b 73 3e 02 33 84 3d eb d1 89 be 76 01 c0 bd
       0.23783495 0.064550415 -0.26917967 -0.09375279
0002b0 67 1c 08 bc df 5d f8 3b 6d 41 06 be cb 90 dd 3d
       -0.008307553 0.0075795497 -0.13110895 0.10818633
0002c0 2f 2f 98 bc 83 7d c8 3e 5d 7a 0a 3f 97 2c 2c bf
       -0.018577186 0.39158258 0.5409296 -0.6725554
0002d0 1c 98 80 3d 66 1f fc bc 27 16 08 bd 15 24 8d bc
       0.062790126 -0.03077669 -0.03322425 -0.01722912
0002e0 7f 5b 81 3c 12 f1 1c be c1 0f e8 bd 31 ef bd bd
       0.015790699 -0.15326336 -0.1133113 -0.09274138
0002f0 e4 2f 9e bd ca 9d df 3d 58 6e a1 3f ef 68 26 3e
       -0.07723978 0.10918768 1.2611799 0.16250966
000300 b3 28 6d 3e 5e d2 12 be 83 33 3c 3d 87 36 d1 3c
       0.23160057 -0.14338061 0.045947563 0.025538696
000310 e5 12 92 bd 46 90 84 bc 63 4a 11 be 33 4d 59 be
       -0.0713251 -0.016182076 -0.14188533 -0.21220855
000320 85 a3 4e be 50 c6 27 3a e2 7b 58 3f 93 75 ab 3e
       -0.20179565 0.00064000953 0.8456403 0.3348814
000330 25 0a 81 3d b7 89 a1 3d 3c 86 4e bd e3 12 ce bd
       0.06300763 0.07887595 -0.050420985 -0.10062196
000340 51 09 7e be 7d b1 90 be 0d b5 49 bd 70 ef 80 3d
       -0.24808241 -0.28260413 -0.04924493 0.06295669
000350 d7 5b 90 be b7 9f 8b be 6c 71 2c 3f 3f 11 25 be
       -0.28195068 -0.2727029 0.6736057 -0.1611986
000360 15 29 85 3e e9 75 aa bc a3 9e 21 be ea a3 47 be
       0.26007906 -0.020808177 -0.15783171 -0.19496122
000370 c5 d6 a2 3d d6 42 88 3d f5 2d ee 3e 6e b2 1e 3c
       0.0795112 0.06653373 0.46519437 0.009686096
000380 99 7c 1b 3e f6 b0 f3 bb 7f 17 26 bf 73 33 18 bf
       0.15184249 -0.007436867 -0.648796 -0.59453505
000390 d4 b9 a7 bd 43 9a 77 3c 2d 51 f0 3d 0f e3 a1 3d
       -0.08189741 0.015112462 0.11734233 0.07904636
0003a0 a2 e8 76 bc ad c7 33 3e 4d 05 f6 bc b6 32 cc bc
       -0.015070112 0.17556639 -0.030031824 -0.024926525
0003b0 21 e0 ac bd ff f4 06 3e c9 a6 df 3f df 00 90 3f
       -0.08441187 0.13179396 1.7472774 1.1250266
0003c0 29 41 55 3e 21 1b 27 3e b9 bf e5 3d d2 ba a6 bd
       0.20825638 0.16318943 0.11218209 -0.08141102
0003d0 d3 de e9 3d dd 1b 47 3d b4 c6 29 be d2 1c 39 3e
       0.114194535 0.048610557 -0.16579705 0.180774
0003e0 df 5e ea 3d 5d 49 1e 3c 76 36 80 3e 07 77 93 bf
       0.114438765 0.009661046 0.2504155 -1.1520699
0003f0 38 83 33 bd c2 c1 00 3e e7 34 31 3e 3f 70 8b bd
       -0.04382631 0.12573913 0.17305337 -0.068085186

value.0.bias f4 [32]
000000 6e 2c d5 3e 6e b7 8f be 9a d8 e9 3d 72 85 e3 3e
       0.4163546 -0.28069633 0.114182666 0.44437748
000010 ca d8 30 be 1e 90 71 3e dc 5a 54 bd bf f3 5c 3e
       -0.17270198 0.23590133 -0.051844463 0.21577357
000020 f2 c9 61 3e 30 3f 66 3e 29 a8 f6 3d cc cf e8 3d
       0.22049692 0.22485042 0.12043793 0.11367759
000030 b9 d1 0a 3e 47 10 d1 3e 36 e0 66 be bd 72 ee be
       0.13556565 0.4083273 -0.22546467 -0.46571913
000040 c5 6f 1e 3e d4 07 07 bf 6c a2 96 be a1 39 d0 3e
       0.15472324 -0.5274632 -0.29420793 0.40668967
000050 aa d0 88 3e 4d 34 99 3d d3 39 b4 3e 40 c0 ec bd
       0.26721698 0.07480679 0.35200366 -0.11560106
000060 d8 9c c1 be 52 87 e3 be 14 e4 3b bd 94 4c 07 3d
       -0.37814975 -0.4443918 -0.04587181 0.033032015
000070 43 96 6f 3c 5e 07 d9 bc cc b0 b0 3e 65 67 e3 3d
       0.0146232275 -0.02649277 0.34509885 0.11103705

value.2.weight f4 [32, 32]
000000 83 78 da bd 92 e5 29 bd 68 fe 97 3d 4c 9f 87 be
       -0.10667517 -0.0414787 0.07421571 -0.2648872
000010 ad 2b dd 3d 0e e9 8a 3d d7 8c b5 be 21 8d a3 bc
       0.10799346 0.06782733 -0.35459015 -0.019964756
000020 a3 81 90 be 7a 48 c4 be f8 f8 11 3c ba f1 a9 3e
       -0.28223905 -0.38336545 0.008909456 0.33192235
000030 cc 2a b2 bd e6 d2 82 3c 98 ee c9 3c f0 3b 41 bd
       -0.08699569 0.015969705 0.024649903 -0.0471763
000040 52 ee 85 bc 28 ea bc be f8 d1 0f 3b 23 33 6f be
       -0.016348992 -0.36897397 0.002194522 -0.23359351
000050 b2 85 9b 3b cf bc 3b bc 6e a4 97 be 07 bf 90 3d
       0.0047461623 -0.01145859 -0.29617637 0.070676856
000060 16 34 17 3e 6f 5d db 3d 0e 2a 54 3d 85 bd f8 3d
       0.14765963 0.107111804 0.05179792 0.12145523
000070 d4 66 a5 3d 78 91 0d 3e 6a 0f bc 3d 07 7a 19 3d
       0.080762535 0.13825023 0.091826275 0.03746989
000080 e2 cc 09 be 8b 28 fe 3b da b6 7f be 5a 14 87 3d
       -0.13457063 0.007756298 -0.24972096 0.06595679
000090 4d 07 40 be 03 df 89 3e e9 22 65 bd 74 ab 18 3e
       -0.18752785 0.26927957 -0.055941496 0.14909154
0000a0 77 c4 f3 3d 29 25 e0 3c f9 11 ec be f3 1b 9b 3d
       0.11902707 0.02736147 -0.46107462 0.0757369
0000b0 66 08 2b 3d d0 bb 89 3c 42 2d a7 bc a1 74 51 3d
       0.041756056 0.016813189 -0.020407323 0.051136617
0000c0 94 f9 c2 3d bd 98 a3 3d 74 f5 48 bc e3 d9 9b 3c
       0.095202595 0.07988117 -0.012265552 0.019024795
0000d0 e8 03 52 be 5f 65 98 3d 5b e6 15 3d 4c 85 3f 3e
       -0.20509303 0.0744121 0.036596637 0.18703192
0000e0 c6 b4 05 3e 9b f2 62 3c 7b 29 9e bd ac 76 9a 3d
       0.13057241 0.013851787 -0.077227555 0.07542166
0000f0 84 5a e4 3c 52 06 df bd f3 c8 a9 bd c6 2f 8e bc
       0.027875192 -0.108898774 -0.08290281 -0.017356765
000100 96 64 af bb 83 7d 05 3e 59 08 cf 3d 4e 6a d8 3d
       -0.005352567 0.1303616 0.10109014 0.10567151
000110 6e e6 12 3e b3 a1 26 3c 76 1d 44 be 34 e4 b8 3d
       0.14345714 0.010170388 -0.19151863 0.09027901
000120 77 9a 74 bd 88 8d 1d be 37 10 50 3b be 09 80 3d
       -0.05971762 -0.15386021 0.0031747946 0.06251858
000130 82 31 07 be 8a b7 e8 3c cd c8 10 3e 43 5a 35 3d
       -0.1320248 0.02840783 0.141391 0.044275533
000140 a2 92 ea 3b 84 d1 2d be a0 70 aa bd 3e c7 d4 3d
       0.0071585933 -0.16974455 -0.08322263 0.10389565
000150 09 65 ce 3d 97 80 76 bd 39 95 61 3d a8 6e 4a bd
       0.10077865 -0.060181227 0.05507395 -0.049421936
000160 7c 29 56 3e 93 16 69 3c fc 4c b5 bd d2 84 57 bd
       0.20914263 0.0142265735 -0.08852574 -0.0526169
000170 93 4c 09 3d 98 20 22 bd 15 dd f3 3d 5f 88 cf bd
       0.033520292 -0.039581865 0.119074024 -0.101334326
000180 87 26 38 be 88 bc a1 bd a8 70 96 3c 35 d2 0a 3e
       -0.17983447 -0.078972876 0.018364266 0.1355675
000190 30 e8 35 bd dc ec 07 3e 18 a1 c5 bd 7f bc 18 3e
       -0.044410884 0.13273948 -0.09649867 0.14915656
0001a0 91 bd e0 bb 7a 37 69 bd 04 67 35 be 11 f5 55 3d
       -0.0068585356 -0.056937672 -0.17715079 0.052235667
0001b0 49 e2 37 bc d8 bf e7 3d 19 e9 80 be 08 c2 0b 3e
       -0.011223384 0.11315888 -0.2517784 0.13648236
0001c0 28 89 41 3d 7f 32 e9 bd 31 61 4e bf 70 da 01 3e
       0.047249943 -0.113865845 -0.8061705 0.12680984
0001d0 15 a6 13 be f6 5f 73 3d 83 b2 13 bb 0f d7 40 be
       -0.14418824 0.059417687 -0.0022536821 -0.18832038
0001e0 1e 42 8f 3e 67 70 15 3d 80 9a 06 3e bd 64 77 3d
       0.2798013 0.03648415 0.13144875 0.060398806
0001f0 d0 ec 31 3e be 71 08 be 6c 96 ab 3d 0d 5a 04 3e
       0.17375493 -0.13324639 0.083783 0.12924977
000200 cb 7e c6 bd 16 3b d4 bd 69 16 b9 bd 31 37 f5 3d
       -0.096921526 -0.10362832 -0.090374775 0.119734176
000210 a3 b7 51 bd 55 d9 ec 3d 3a 0a 04 bc 01 8b cd bd
       -0.05120052 0.1156489 -0.008059079 -0.100362785
000220 1a 07 ff bd 3f a5 df 3c b9 7f ac 3c 38 76 fc 3d
       -0.124525264 0.027300475 0.021056997 0.12327236
000230 b1 c9 47 3d 96 ca 9a bc 85 0d 38 3e f9 fa 4f 3e
       0.048776332 -0.018895429 0.17973907 0.20310582
000240 90 03 ab bd 1b f6 89 3d 6f 1f 12 3d 24 80 3d be
       -0.08350289 0.06736394 0.03567451 -0.18505913
000250 85 a7 33 be 2a 2a 40 3e a2 7d c2 bd 22 2e 86 3d
       -0.17544372 0.18766084 -0.09496619 0.06551768
000260 c4 bf a8 3d 7d 9d 7f 3c db 53 a5 3d 3b fa 65 bd
       0.082397014 0.015601513 0.08072635 -0.05614684
000270 aa 4c 25 be c6 59 b6 3d d1 95 44 3e cc 05 66 be
       -0.16142526 0.08903842 0.19197775 -0.22463149
000280 be a4 91 bd 2d 78 16 3e d9 f1 38 ba b1 56 84 bd
       -0.071115 0.14694281 -0.0007055081 -0.064618476
000290 64 99 3a 3e e1 56 d2 bd ed 28 bf bc 0b 15 b3 3d
       0.18222576 -0.10270477 -0.023334945 0.08744248
0002a0 9a 11 50 3d 0f 6f 26 3d 45 58 ad 3d 81 d1 7a 3d
       0.050798036 0.040633257 0.08464102 0.061234955
0002b0 28 62 68 bd e7 74 42 3d d5 bb 15 3e 51 f0 c4 3d
       -0.056734234 0.047474768 0.14622433 0.09616149
0002c0 76 a2 a9 3d 17 aa d9 bd 50 42 79 3e 56 0e 81 3d
       0.0828294 -0.10628145 0.24341702 0.063015625
0002d0 28 d5 49 3e 86 52 d2 3d b6 09 4f 3d 22 ae bb bc
       0.19710219 0.10269646 0.05054637 -0.022910181
0002e0 37 64 24 3c 6b a1 a8 bd 34 7b 26 be b6 04 d9 3b
       0.010033659 -0.08233913 -0.16257936 0.006622876
0002f0 54 50 eb bd 1d 46 93 3d 1f 39 5b bd c2 73 0a be
       -0.11489931 0.071911074 -0.05352127 -0.1352072
000300 72 c6 91 bd ec 42 0b be 56 a3 d9 3b 5c 37 9d 3e
       -0.071179286 -0.13599747 0.0066417856 0.30706298
000310 8d 3b 0d 3e cf 0c aa bd 18 c0 bd bd 3e d8 d1 3d
       0.13792248 -0.08303224 -0.092651546 0.10246323
000320 11 e5 79 39 a4 2d 45 3e 29 39 93 bd 67 ba dc 3c
       0.00023831824 0.19255692 -0.07188637 0.026944352
000330 42 0c 0e 3d dd 45 e9 bd cd ae 23 be b6 e6 bd bd
       0.03467966 -0.113902785 -0.1598465 -0.0927252
000340 58 bc 8a bd 56 5c 90 bd 7f 16 26 3e 9a 13 19 3e
       -0.06774205 -0.07048862 0.16219519 0.14948884
000350 5e 2a bd 3d b6 1c 10 3d 6b ee 40 3d 98 96 47 3d
       0.092365965 0.03518363 0.047102373 0.0487276
000360 9c 9f 3a 3d 00 71 dd 3d d8 fe 7a 3e a3 94 58 3d
       0.04556237 0.10812569 0.24511278 0.052876126
000370 03 e5 14 3d 55 c2 f3 bc cc ab 21 be 0e b6 92 3d
       0.036351215 -0.02975575 -0.15788192 0.071636304
000380 b7 f6 a8 3d ed fc a9 bd 0c 9b 0c be 80 c7 84 bd
       0.08250182 -0.08300195 -0.1373102 -0.06483364
000390 a7 fb 0b 3e cc e5 d8 bd b4 42 59 3d 33 86 97 3d
       0.13670217 -0.10590705 0.05304213 0.07398643
0003a0 65 b1 38 3e ae 25 3a 3d 91 8a aa bd 81 bc df bb
       0.1803642 0.04544609 -0.08327211 -0.0068278913
0003b0 af 1b f9 3d 43 3c 98 3a 21 30 05 3e 36 c3 10 be
       0.12163483 0.0011614639 0.13006641 -0.14136967
0003c0 2f 2e a1 be 83 1f 16 be 85 1b 43 bd 1b f4 c4 bd
       -0.31480548 -0.14660458 -0.047633667 -0.09616872
0003d0 c0 24 a6 3d df 5b 17 bd 40 10 aa be a4 57 20 3e
       0.08112478 -0.03695285 -0.33215523 0.15658432
0003e0 8f 0a aa bd 1b b9 84 bd 3e 8c f6 bd a9 30 83 3d
       -0.08302795 -0.064806186 -0.12038468 0.064057656
0003f0 c6 6f 56 bd 1c 47 1b 3e 2b 2e e4 bd 18 3f b9 bb
       -0.05235269 0.15163845 -0.11141618 -0.0056532733

value.2.bias f4 [32]
000000 35 11 95 be 2c c9 09 be 90 4a 48 3e fa 1f 1a 3e
       -0.2911469 -0.13455647 0.19559693 0.1505126
000010 a4 53 31 3e 85 04 c8 bd fa 39 1b be f3 00 09 3e
       0.17317063 -0.09766487 -0.15158835 0.13379268
000020 b7 f2 df 3d 51 3c da 3e 93 6f b7 3d 41 da 44 3e
       0.10934966 0.42624143 0.08956828 0.19223882
000030 60 35 c7 be 4f ce 95 3e 98 79 82 be 0f cd 18 be
       -0.3890791 0.29258963 -0.25483394 -0.14921974
000040 c9 e6 a8 be 54 94 12 3e 3d 34 41 3e b7 c2 13 be
       -0.32988575 0.14314395 0.18867584 -0.14429747
000050 94 61 3d 3e a7 92 25 3e c9 6a 27 be b1 aa ba 3d
       0.18494254 0.16169225 -0.16349329 0.09114588
000060 59 1f d3 3d 04 06 29 3e 5c 26 3d be 8f dd 4f 3e
       0.103087135 0.16506201 -0.18471664 0.20299362
000070 28 2a 92 be 38 16 4a be e5 f6 fb bd 07 f5 a1 be
       -0.28547788 -0.19735038 -0.12302951 -0.31632254

value.4.weight f4 [1, 32]
000000 75 11 96 bd 00 13 9f bd c0 7a aa 3d e3 d1 9b 3d
       -0.073275484 -0.07767296 0.08324194 0.07608392
000010 c3 cc 3f 3d 1f 4b 13 bd 8f 6c 6b bd c1 69 e9 3d
       0.046826135 -0.035960313 -0.057476576 0.11397124
000020 7f bf 65 3d a2 bc 45 3d d9 2c 0d 3d 0c b4 24 3d
       0.056090828 0.048275597 0.0344666 0.04021077
000030 8a 21 45 bd c0 54 55 3d 09 e7 c7 bd 31 ce 9e be
       -0.04812769 0.052082777 -0.09760863 -0.31016687
000040 97 81 59 bd 79 d7 9d 3d a8 b9 ef 3d 30 bf 6c bd
       -0.053102102 0.07707114 0.11705333 -0.057799518
000050 00 9b 21 bf 86 7a 2d be 51 12 c3 bd b4 dd 39 3d
       -0.63127136 -0.1694127 -0.09524978 0.04537745
000060 77 23 b0 bd 24 50 57 3d 2e 91 3e bd 9e 8f 17 3d
       -0.086005144 0.052566662 -0.046525173 0.0370022
000070 0a b2 51 bd c6 51 47 bd e0 c4 15 3e 27 e8 48 bd
       -0.051195182 -0.04866197 0.14625883 -0.049049523

value.0.weight f4 [32, 12]
000000 ee 36 b7 bd c1 6b 75 bc 1b 4e 81 3b 01 59 1e 3e
       -0.08946024 -0.014979304 0.0039460785 0.1546364
000010 0a 39 00 3e 10 85 aa 3a f0 41 0c bd eb 8f 80 3d
       0.12521759 0.0013009626 -0.03424257 0.0627745
000020 65 1d f6 bc fb 3b ce 3e 54 19 2a bf fe 46 78 3d
       -0.030043313 0.40280136 -0.664449 0.06061458
000030 a3 e6 1e 3e 8d 85 98 bd 54 76 d1 bd ed 3a 87 bd
       0.15517668 -0.07447348 -0.102276474 -0.06603036
000040 f6 68 46 bd 53 d3 2e bd 77 31 25 be 0d fc d1 bd
       -0.048439942 -0.042682003 -0.1613215 -0.10253153
000050 a8 26 ee 3c 40 2e 0f 3e fc e4 84 bf ed 48 80 bf
       0.029071167 0.13982487 -1.038238 -1.0022255
000060 9a 8d 17 be c6 74 e6 3d 49 60 d8 bc 85 6f 30 be
       -0.1480011 0.112527415 -0.0264131 -0.17230041
000070 58 6f 1c 3e 51 24 ab 3d ab 27 12 bd a1 d8 23 be
       0.1527685 0.08356536 -0.03568236 -0.16000606
000080 20 33 d7 ba 09 e6 7b be f8 8d 21 3f ab 98 a0 bf
       -0.0016418435 -0.2459947 0.6310725 -1.254659
000090 e7 d0 19 be 48 35 a6 3d 68 fe ae 3c 92 d9 1d 3d
       -0.15021096 0.08115631 0.021361545 0.03853757
0000a0 c6 67 50 3e 44 7b b6 bd ba 24 45 3e 98 41 0c 3e
       0.20352086 -0.0891023 0.19252291 0.13696897
0000b0 9d 73 12 3d 20 31 85 3d 6b 28 1c 40 02 2a 60 be
       0.03575479 0.065035105 2.439967 -0.21891025
0000c0 23 7f 19 3d 82 4d 94 bc c7 f0 32 be 54 4e 82 bc
       0.037474763 -0.018103365 -0.17474662 -0.01590649
0000d0 04 98 13 3e f7 03 34 be 1a b1 ec ba 05 2b 83 bd
       0.14413458 -0.17579637 -0.0018058151 -0.0640469
0000e0 9d 93 60 3d f0 b2 98 3d e2 bf 08 bf bd 6d bc 3f
       0.054828275 0.074560046 -0.5341779 1.472099
0000f0 78 09 3f bd ea 4f 87 3d 36 e2 61 bd c4 b0 32 3c
       -0.04663989 0.06607039 -0.055147372 0.010906402
000100 0b 52 0c 3e 21 72 48 be de ff 81 3e 72 3b e1 3d
       0.13703172 -0.19574787 0.25390524 0.109976664
000110 89 f6 2a be 57 36 3f 3e de 28 3e 3f 91 c6 6f bf
       -0.16695608 0.18673073 0.7428111 -0.93662363
000120 f7 66 8a be b2 be 41 bd 64 28 3a 3e 3d d5 9f bd
       -0.2703168 -0.047301 0.1817947 -0.07804344
000130 df 4d f2 3d 7f 23 4e 3d 85 22 59 3d 53 80 70 3d
       0.11831259 0.05032682 0.053011436 0.05871613
000140 38 e0 45 be b1 15 f8 bc 86 8b 9e 3e 4d 51 1a 3f
       -0.19323814 -0.03028378 0.30965823 0.60280305
000150 55 b1 0f 3c 44 50 bf bd 1f ac f9 3d 0e 90 3f bd
       0.008770307 -0.09341481 0.121910326 -0.04676824
000160 6c e4 4d be e7 9d 01 bd dc 31 de 3d c2 1d c5 bd
       -0.20106667 -0.031644728 0.10849354 -0.096248165
000170 9a f8 96 3e 22 06 b0 3d b0 c6 43 bf 8f 26 cd be
       0.29486543 0.0859492 -0.7647505 -0.4006848
000180 6f 41 b3 bd 5f da 7c bc f8 64 b6 3e da 6f 96 3d
       -0.08752715 -0.015432923 0.35623908 0.07345553
000190 c6 c2 5b 3d a7 d5 9d 3d fc 90 d9 3c b9 4f 2c bd
       0.053652547 0.077067666 0.026558392 -0.042068217
0001a0 85 f3 1e 3e 0b e4 72 be ba 14 da bf a3 a6 bf 3e
       0.15522583 -0.23719804 -1.7037575 0.3743182
0001b0 c6 f8 39 3e d7 d3 80 bb 3b bd 9b 3d fe 62 ca bc
       0.18161306 -0.0039315033 0.07604452 -0.024705406
0001c0 ba 4e 07 be 1b de 20 be 0a a1 c5 3d b2 76 2b 3d
       -0.13213626 -0.15709727 0.096498564 0.041861244
0001d0 1f ed d1 bd 47 5d e3 3d 9c 4f 9b 3f 21 2b dc 3f
       -0.102503054 0.111017756 1.213367 1.7200662
0001e0 60 bf 99 3d 2d 51 6f bb ec a4 a8 3c 4c fc 4d 3e
       0.07507205 -0.003651689 0.020586453 0.20115775
0001f0 88 5d 54 3e 0d 79 5a 3e be 5b 41 bd 5a 84 74 3d
       0.20738804 0.2133524 -0.047206633 0.059696533
000200 17 d5 a1 bc 42 2b 0a be c6 7f 4d 3e 07 b1 02 bf
       -0.01975493 -0.13493064 0.20068273 -0.5105137
000210 c5 e2 44 be ae 06 f5 3b b2 a2 d1 3d e9 d4 75 3d
       -0.1922713 0.007477603 0.1023611 0.0600175
000220 4e f3 10 3c 5f f4 83 bd 6f a0 a6 3d 79 bc 2d 3b
       0.008847071 -0.064430945 0.08136069 0.0026510044
000230 24 87 8a be 86 97 b7 3d 2c e7 dd bf 74 25 3f bf
       -0.2705623 0.08964448 -1.7336173 -0.74666524
000240 3f 73 62 3d dd dc a7 bd 85 6d cc bd 54 05 98 bb
       0.05528569 -0.08196423 -0.09981827 -0.004639307
000250 8a f3 ad bd 5a 19 f7 3d 03 d6 8a be 66 33 57 3e
       -0.08493717 0.12065382 -0.27116403 0.210157
000260 b3 2a 36 3e 71 36 40 3e d1 83 99 bf 34 f9 58 3f
       0.17789726 0.18770768 -1.1993352 0.84755254
000270 d0 b1 fd bd 8c db 47 3e 12 1a ba bd 3f 72 af 3b
       -0.12387431 0.19517344 -0.09087004 0.0053541954
000280 64 4e bc bc db 1a 86 bb 14 98 7b be e8 0b 05 3e
       -0.022986598 -0.004092557 -0.24569732 0.12992823
000290 cc 22 84 bd 4a 81 05 be 7e ea 37 bf 13 62 e1 3f
       -0.064519495 -0.13037601 -0.7184218 1.7608055
0002a0 64 2c 73 3e ac c9 88 3d 74 9f 8a be 29 1d bf bd
       0.23747402 0.06679091 -0.27074778 -0.09331734
0002b0 53 f9 06 bc a2 0e e8 3b 07 03 04 be 9b 0d e2 3d
       -0.008238154 0.0070818225 -0.1289178 0.11037751
0002c0 82 bd a0 bc 9b f4 c7 3e 02 23 0a 3f c7 17 2d bf
       -0.019621614 0.39053807 0.5395967 -0.67614406
0002d0 3a 32 83 3d 15 9f 03 bd d3 5c 06 bd 55 ee 93 bc
       0.06406064 -0.032134134 -0.032803368 -0.018057982
0002e0 06 2f 62 3c be 4e 1d be 8f 95 e6 bd ff 74 bc bd
       0.013805157 -0.15362069 -0.11258995 -0.09202003
0002f0 3d 98 a0 bd 71 35 dd 3d f5 6d a1 3f c5 13 2b 3e
       -0.07841537 0.10801209 1.2611681 0.1670676
000300 5c 2a 6d 3e 40 94 13 be 8a 1e 3f 3d d5 d5 c4 3c
       0.2316069 -0.14412022 0.046659984 0.024027744
000310 1c 2a 96 bd e4 7e 3c bc 21 2d 12 be f1 2f 5a be
       -0.073322505 -0.011504862 -0.14275028 -0.2130735
000320 97 01 4f be c3 68 93 39 a9 f2 57 3f d9 9a ac 3e
       -0.2021545 0.00028116078 0.84354645 0.3371189
000330 51 94 80 3d da fc 9c 3d 7a 22 4d bd 52 c8 d3 bd
       0.06278289 0.07665415 -0.050081708 -0.103409424
000340 53 63 7e be 26 0b 91 be 6c ab 4b bd 83 e8 7f 3d
       -0.24842577 -0.28328818 -0.049724028 0.0624776
000350 38 29 90 be 18 6d 8b be ff 58 2c 3f 24 75 25 be
       -0.28156447 -0.2723167 0.673233 -0.16157967
000360 22 93 83 3e 05 cb c8 bc 93 75 22 be 13 ba 47 be
       0.2569819 -0.02451087 -0.15865164 -0.19504575
000370 df ed a5 3d c8 c8 8a 3d 02 6e ee 3e cb b4 26 3c
       0.08102011 0.06776577 0.46568304 0.01017494
000380 f5 45 19 3e f1 42 1d bc 10 f1 25 bf 5e e8 18 bf
       0.14968093 -0.00959848 -0.6482096 -0.59729564
000390 91 4e a4 bd 6b 07 87 3c f5 6b f0 3d cd 11 a2 3d
       -0.08022798 0.01648303 0.11739341 0.079135515
0003a0 f1 3f 86 bc 44 3b 36 3e 6c 37 f4 bc d6 64 ca bc
       -0.016387912 0.17796046 -0.029811583 -0.024706285
0003b0 aa bd ad bd 3e 86 06 3e f6 7d df 3f e5 44 8f 3f
       -0.08483441 0.13137147 1.7460315 1.11929
0003c0 b1 36 52 3e 66 58 27 3e fe 09 ec 3d 7e aa a6 bd
       0.20528676 0.16342315 0.11525343 -0.081379876
0003d0 40 4b ea 3d 27 76 3e 3d 82 66 28 be 04 7d 3a 3e
       0.11440134 0.046499398 -0.16445354 0.18211752
0003e0 90 42 e9 3d d8 66 15 3c f1 a7 83 3e 0e 50 94 bf
       0.11389649 0.009118758 0.25714067 -1.1586931
0003f0 99 6c 32 bd aa 59 fe 3d 9e 5f 31 3e a0 2f 8d bd
       -0.043560598 0.12419446 0.17321631 -0.068938494

value.0.bias f4 [32]
000000 29 6e d5 3e 42 78 8f be 87 28 eb 3d c6 91 e4 3e
       0.41685608 -0.28021437 0.11482339 0.44642466
000010 7b 77 31 be 21 46 71 3e 67 8d 51 bd 7b 22 5c 3e
       -0.17330734 0.23561908 -0.051160242 0.21497528
000020 c1 54 61 3e 05 9a 67 3e f2 b1 f6 3d bd cc e5 3d
       0.22004987 0.22617348 0.12045659 0.11220691
000030 87 51 0a 3e 7b 8d d1 3e b6 79 68 be 41 19 ef be
       0.13507663 0.40928254 -0.22702679 -0.46698955
000040 14 54 1f 3e d3 ca 06 bf 7f 44 97 be ce 52 d0 3e
       0.15559417 -0.52653235 -0.29544446 0.40688175
000050 02 30 87 3e f6 9b 94 3d 84 d0 b4 3e 00 0d ef bd
       0.26403815 0.0725631 0.35315335 -0.116724014
000060 cd 9b c1 be c9 84 e3 be 49 26 3f bd 46 62 00 3d
       -0.3781418 -0.44437245 -0.04666737 0.03134372
000070 7a 6d 88 3c e5 55 d5 bc 8d f5 b0 3e 72 32 e9 3d
       0.016653765 -0.026041934 0.3456234 0.11386575

value.2.weight f4 [32, 32]
000000 ec 4b dc bd a7 14 26 bd 3c db 97 3d 57 0c 89 be
       -0.107566684 -0.04054704 0.074148625 -0.26767227
000010 72 30 dc 3d d5 43 89 3d 7c 9f b6 be fb ec 91 bc
       0.10751428 0.06702391 -0.35668552 -0.017813196
000020 bf be 8e be 02 20 c5 be 89 e2 00 3c be 78 a9 3e
       -0.27879903 -0.38500983 0.00786651 0.3309993
000030 7f 70 b1 bd 6b 49 7c 3c 9a fd ca 3c 56 24 42 bd
       -0.08664035 0.015398364 0.02477913 -0.047397934
000040 49 63 70 bc 50 78 bc be d0 73 0f 3b ce 4b 6b be
       -0.014672109 -0.3681054 0.0021889098 -0.22978136
000050 df 11 97 3b b3 5a 46 bc dc ec 96 be 40 40 8b 3d
       0.0046102847 -0.012106585 -0.29477584 0.06799364
000060 5d 78 1c 3e 64 47 dc 3d f6 87 55 3d b9 a0 f7 3d
       0.1528029 0.10755804 0.052131616 0.12091202
000070 a0 21 a5 3d 9d 69 0d 3e 83 8e bc 3d 02 22 1d 3d
       0.08063054 0.1380982 0.092068695 0.03836251
000080 9f 7a 09 be 3e cb 06 3c cb 49 80 be af 49 88 3d
       -0.13425682 0.008227168 -0.250563 0.06654679
000090 38 bf 3e be be 21 8a 3e 6b 59 67 bd 73 cd 18 3e
       -0.18627632 0.26978868 -0.05648176 0.14922123
0000a0 e7 f1 f2 3d 4f ae e0 3c 0b c6 ed be d4 b4 99 3d
       0.118625455 0.027426867 -0.46440157 0.07505193
0000b0 07 b5 2e 3d b7 00 87 3c 1b ac a1 bc 0b 37 53 3d
       0.04265311 0.016479833 -0.019735387 0.051566165
0000c0 89 23 c1 3d 9d c7 a3 3d 01 07 1f bc be 52 98 3c
       0.09430606 0.079970576 -0.00970626 0.018594142
0000d0 85 b2 50 be 3c 16 98 3d ca 93 13 3d 29 a3 3f 3e
       -0.203806 0.07426116 0.036029615 0.18714584
0000e0 22 d4 04 3e 1a f7 3a 3c 96 86 9b bd e0 10 9b 3d
       0.12971547 0.011411453 -0.075940296 0.07571578
0000f0 38 e3 ea 3c a3 ae de bd 0c f9 a6 bd c9 8b 83 bc
       0.0286728 -0.10873153 -0.08152971 -0.016057866
000100 99 1c c6 bb 97 ed 04 3e 2d 6d ce 3d 26 66 d5 3d
       -0.0060458896 0.12981258 0.100794174 0.10419874
000110 7a ac 12 3e 06 85 1a 3c 76 30 45 be 40 76 b9 3d
       0.14323607 0.009431129 -0.19256768 0.090557575
000120 74 a7 74 bd cb 2e 1d be cd 31 65 3b ab 3c 7c 3d
       -0.05973001 -0.15349881 0.003497231 0.061581295
000130 95 49 07 be 81 ea e1 3c 5f 31 11 3e cd 19 33 3d
       -0.13211663 0.02757764 0.1417899 0.043725777
000140 ac 39 d5 3b d7 3f 2e be 37 2c a8 bd cb f4 d3 3d
       0.006507119 -0.1701654 -0.08211558 0.10349425
000150 dd 4b d0 3d 67 9c 79 bd 33 fd 60 3d 0a 39 44 bd
       0.1017072 -0.060940173 0.05492897 -0.04790596
000160 f5 72 57 3e ef 23 6b 3c 96 5b b6 bd a8 00 54 bd
       0.21039946 0.014351829 -0.089041874 -0.05175844
000170 53 1e 06 3d 15 98 23 bd 7e e6 f2 3d 22 b0 d1 bd
       0.032743763 -0.03993996 0.11860369 -0.10238673
000180 ae 02 36 be 2b 25 a3 bd e0 3b 97 3c db 87 0a 3e
       -0.1777446 -0.079660736 0.018461168 0.13528387
000190 5c c6 31 bd d2 f7 07 3e 32 53 c4 bd 83 87 18 3e
       -0.04340206 0.1327813 -0.09586181 0.14895444
0001a0 8f d2 b4 bb fa 92 65 bd b9 3d 33 be 34 90 59 3d
       -0.0055182646 -0.05604837 -0.17504014 0.05311604
0001b0 95 3c 34 bc cf 8f e9 3d df 02 80 be ac 74 0c 3e
       -0.011000772 0.114043824 -0.2500219 0.13716382
0001c0 61 b4 41 3d 48 72 e8 bd fd b4 4d bf 46 7a 03 3e
       0.047291163 -0.113499224 -0.8035429 0.12839612
0001d0 da f5 13 be 67 b6 77 3d be 37 62 ba 1a 5b 3f be
       -0.14449254 0.060476687 -0.0008629522 -0.18687096
0001e0 e9 37 90 3e 9d ec 18 3d 84 02 05 3e 16 23 7e 3d
       0.28167656 0.037335027 0.12989241 0.06204518
0001f0 d1 fc 31 3e 4e 0e 07 be fe 69 ad 3d 9e 21 02 3e
       0.17381598 -0.1318905 0.08467482 0.12708136
000200 94 cc c7 bd b1 d5 d4 bd 15 41 bb bd c6 9e f2 3d
       -0.09755817 -0.10392321 -0.09143273 0.1184669
000210 9f b1 51 bd de 06 eb 3d 1c df 18 bc 43 f9 cc bd
       -0.051194783 0.11475919 -0.009330537 -0.100084804
000220 c5 78 00 be 9e 34 e5 3c 33 6e a6 3c 50 5c fb 3d
       -0.1254607 0.027979191 0.020316219 0.122734666
000230 57 f7 47 3d a4 68 9c bc 6c 59 38 3e 9b ba 4f 3e
       0.048819866 -0.019092865 0.18002862 0.20286028
000240 35 03 ac bd a8 7f 89 3d 48 19 17 3d 9b ca 3e be
       -0.08399049 0.067138016 0.036889344 -0.18631975
000250 ed 8b 34 be ec 93 3e 3e 45 de c3 bd 35 1c 88 3d
       -0.17631502 0.18611115 -0.09563879 0.06646005
000260 e9 30 a9 3d ea aa 79 3c 55 9a a5 3d f2 d0 64 bd
       0.08261282 0.015238503 0.08086077 -0.05586333
000270 2c 72 26 be 7a 00 b5 3d 1e e6 43 3e 51 6b 66 be
       -0.1625449 0.088379815 0.19130751 -0.22501875
000280 f1 37 92 bd 34 8d 16 3e 7d dd bd ba 88 3c 83 bd
       -0.07139576 0.14702302 -0.0014485564 -0.0640803
000290 23 50 3a 3e 40 9c d0 bd 77 63 be bc 02 09 b4 3d
       0.18194632 -0.10186052 -0.023240788 0.087907806
0002a0 47 b0 4e 3d ed b0 25 3d 05 28 ab 3d 60 e7 7b 3d
       0.05046108 0.040451933 0.083572425 0.061499953
0002b0 03 76 67 bd 57 92 40 3d ff 58 15 3e 59 1d c5 3d
       -0.05650903 0.04701456 0.1458473 0.09624738
0002c0 c1 d3 a6 3d 03 b7 da bd 3e 12 78 3e 5c 73 81 3d
       0.081458576 -0.10679438 0.24225709 0.06320831
0002d0 93 60 49 3e 80 c4 d1 3d 50 9d 4f 3d fe 18 c1 bc
       0.19665746 0.102425575 0.050687134 -0.023571488
0002e0 c8 be 21 3c 0b 02 ad bd 8b 42 26 be cc 0f c2 3b
       0.009872146 -0.08447655 -0.16236322 0.0059222933
0002f0 8f 3a ec bd 16 7f 92 3d 05 37 5f bd d9 f0 09 be
       -0.11534607 0.07153146 -0.05449583 -0.13470782
000300 f8 af 90 bd 1b 07 0b be 25 bc fd 3b 32 85 9d 3e
       -0.070648134 -0.1357693 0.007743376 0.30765682
000310 26 03 0d 3e ce 35 aa bd 4d d6 ba bd e1 e3 d0 3d
       0.13770732 -0.08311044 -0.09122906 0.101997145
000320 8f d9 8a 3a c4 84 44 3e 75 65 92 bd 66 67 e1 3c
       0.0010593402 0.19191271 -0.07148258 0.027515125
000330 05 c7 11 3d 11 7b e9 bd 60 81 24 be cc 20 c0 bd
       0.03559019 -0.11400426 -0.16064978 -0.093812555
000340 c9 55 8a bd 41 b5 91 bd 1b 08 25 3e ac 51 1a 3e
       -0.067546435 -0.071146496 0.16116373 0.15070218
000350 a3 d1 b9 3d 48 13 0e 3d a8 45 41 3d 09 fd 42 3d
       0.09073188 0.034686357 0.04718557 0.047604594
000360 78 ff 37 3d 99 a2 db 3d d8 09 7b 3e b8 ff 4f 3d
       0.04492137 0.107243724 0.24515474 0.05078098
000370 b8 9a 0d 3d f6 75 f2 bc bc 69 21 be de 50 94 3d
       0.03457138 -0.029597264 -0.1576299 0.07241987
000380 1b 3d a8 3d e2 59 aa bd b7 93 0d be 9b 24 83 bd
       0.0821478 -0.08317925 -0.1382588 -0.06403466
000390 e9 9f 0b 3e 64 0c d9 bd aa 7f 59 3d c8 a8 95 3d
       0.1363522 -0.105980664 0.053100266 0.07307583
0003a0 44 60 39 3e 0f 3d 3c 3d a9 12 a8 bd 44 43 e8 bb
       0.18103129 0.045956668 -0.08206684 -0.007088097
0003b0 e5 32 f5 3d ff c6 75 3a fe 30 07 3e 61 f0 10 be
       0.11972598 0.0009375661 0.13202283 -0.14154197
0003c0 c9 9b a1 be 4f 57 18 be 5a 07 3e bd c9 63 c6 bd
       -0.31564167 -0.14877056 -0.04639373 -0.09687001
0003d0 2c e0 aa 3d 5c 8e 12 bd 84 00 aa be d6 9d 22 3e
       0.08343539 -0.035780296 -0.33203518 0.15880522
0003e0 b9 cd a8 bd 55 9a 85 bd 90 7e f6 bd 1b dc 82 3d
       -0.082423635 -0.06523577 -0.12035859 0.06389638
0003f0 d5 4d 48 bd 17 59 1b 3e 94 77 e2 bd 24 16 ec bb
       -0.04890235 0.15170704 -0.11057964 -0.007204788

value.2.bias f4 [32]
000000 2d 0e 95 be 52 fb 09 be 9e 96 47 3e 6f 08 1b 3e
       -0.29112378 -0.13474777 0.1949105 0.15139936
000010 af a9 30 3e 88 03 c8 bd 8b 36 1b be 18 17 08 3e
       0.17252229 -0.097662985 -0.15157525 0.1329006
000020 f1 8e df 3d bd 83 da 3e c0 43 b7 3d 6f 05 45 3e
       0.10915936 0.42678633 0.08948469 0.19240354
000030 4a 73 c7 be b4 9a 95 3e b7 e2 81 be 7f 98 18 be
       -0.38955146 0.29219592 -0.25368282 -0.14901923
000040 34 b3 a8 be 50 53 11 3e 32 16 42 3e f2 fc 12 be
       -0.3294922 0.14191937 0.1895378 -0.14354303
000050 19 c0 3d 3e 0b 93 25 3e 91 46 27 be b2 5b bd 3d
       0.1853031 0.16169374 -0.16335513 0.09246005
000060 88 9e d4 3d 35 4e 29 3e 9c 16 3c be aa 45 4f 3e
       0.103818 0.1653374 -0.18368 0.20241418
000070 f0 d3 91 be d7 d3 49 be 60 7a fd bd a6 02 a2 be
       -0.28482008 -0.19709717 -0.12376857 -0.31642646

value.4.weight f4 [1, 32]
000000 23 4e 97 bd 4f c1 9e bd 74 4a ab 3d 1c fd 99 3d
       -0.0738795 -0.077517144 0.0836381 0.0751898
000010 ca 4c 3f 3d 24 f5 11 bd 42 85 6b bd 02 92 eb 3d
       0.04670409 -0.035634175 -0.05750013 0.11502458
000020 1d 14 67 3d cc ff 45 3d ac 59 0e 3d 9b 3f 25 3d
       0.056415666 0.04833965 0.034753487 0.040343862
000030 a0 4b 45 bd 87 21 55 3d df 19 c8 bd c8 a6 9f be
       -0.048167825 0.052033927 -0.097705595 -0.31181931
000040 32 66 5c bd 61 fb 9c 3d 0b 40 f1 3d 05 f6 6b bd
       -0.0538084 0.07665134 0.11779793 -0.05760767
000050 a1 f6 20 bf ea 7a 2d be dd b4 c2 bd b0 5f 3b 3d
       -0.62876326 -0.16941419 -0.09507153 0.04574555
000060 00 dd b1 bd 15 13 58 3d c7 5f 3f bd 39 f2 16 3d
       -0.086847305 0.052752573 -0.0467222 0.036852095
000070 4f aa 55 bd 4c 5c 48 bd 81 da 13 3e 19 8b 48 bd
       -0.052164372 -0.048916146 0.14438821 -0.04896078

actor.0.weight f4 [32, 10]
000000 bb 88 a2 be 2b 63 fd 3e 94 a0 e3 3d 62 a9 3e 3e
       -0.31744942 0.49489722 0.11114612 0.18619302
000010 31 34 67 3e af a3 8f 3d 37 fa 56 be 6b 64 8e bd
       0.22578503 0.07013642 -0.20993887 -0.06952747
000020 8c a1 6d 3d 70 31 ed 3d 05 eb 08 be fa 66 5f be
       0.05801539 0.11581695 -0.13370903 -0.21816626
000030 fc bb 0d 3e 28 78 90 3e 4d b0 86 3e 62 71 94 be
       0.13841242 0.28216672 0.26306382 -0.28992754
000040 72 7f 6c 3e 64 62 85 be d5 b4 e1 3e 4d ac 32 3e
       0.23095492 -0.2605163 0.44083276 0.1744854
000050 12 4a 59 3e 3d fd bc be f0 3d 08 3f e4 3f ad 3e
       0.21219662 -0.36911955 0.5321951 0.33837807
000060 98 db f4 3c 25 41 b9 3c d0 b7 fc bc e5 90 74 be
       0.029889867 0.022614071 -0.030849367 -0.23883398
000070 f8 cc 1e 3e 3a d5 ca 3e 1e 9f 6c 3c fe ed 95 3e
       0.15507877 0.39615804 0.014442233 0.29283136
000080 a3 69 2d be 59 b1 01 be 3a bf f7 3d 5e fa c9 be
       -0.16934828 -0.12665309 0.120970204 -0.39448828
000090 1b c0 39 be 35 03 1e be b5 2d 0f bd 33 71 e1 bd
       -0.18139689 -0.15430911 -0.0349557 -0.11007919
0000a0 a4 e0 92 be d1 06 43 3d ff 43 15 be 01 18 53 3c
       -0.28687012 0.047613923 -0.1457672 0.012884141
0000b0 29 3c be 3e a0 25 d8 bd 5c c9 9e 3e 98 f6 57 be
       0.37155274 -0.105540514 0.31013 -0.21090162
0000c0 35 d9 15 3f d8 68 2e 3e 89 cb 03 3e d6 0b 1d be
       0.58534557 0.17032182 0.12870611 -0.15336546
0000d0 52 52 4c bd c0 ef 73 3d f3 70 8e 3e d6 1c 8a 3e
       -0.049883194 0.059554815 0.27820548 0.26975125
0000e0 80 ad 93 bc 08 45 ab be c6 a0 d6 3e b4 e0 c8 3e
       -0.018027067 -0.33451104 0.41919535 0.39233935
0000f0 0a e8 80 be 02 ed cf bc 83 11 e2 3d b5 e5 86 3e
       -0.25177032 -0.025381569 0.11038496 0.26347128
000100 f6 2e d9 bd 4e a9 fd be bf 88 0d be 81 ab e5 be
       -0.1060466 -0.49543232 -0.13821696 -0.4485741
000110 e9 4b 65 3d f9 47 77 3e e6 5e ab 3e 26 58 66 3e
       0.055980597 0.24148549 0.3347084 0.22494563
000120 bd b9 86 3e 82 ae 9f be 10 c6 d1 3e 23 e8 a1 bd
       0.26313582 -0.31187826 0.40971422 -0.07905605
000130 b1 3e 0c be 76 06 bb be c3 ae 8d 3e 2a d4 51 be
       -0.1369579 -0.36528367 0.27672395 -0.2049109
000140 51 85 ba 3d c4 d8 37 bd 71 ba 88 be 64 ea c7 3e
       0.09107459 -0.04488446 -0.26704744 0.39046013
000150 0b 4d d7 be 98 86 bc be 8a ce 8b 3e 03 0a 85 3e
       -0.42050967 -0.36821437 0.27306014 0.259842
000160 b8 6b b3 be cc 1e 84 be c9 6b 2b be 76 e0 79 3e
       -0.3504312 -0.25804746 -0.16740336 0.24402031
000170 fb 8d 8f 3d f8 32 a6 be cf 4d a6 3e f0 ec cf bd
       0.070095025 -0.3246076 0.32481238 -0.10152614
000180 dd 9f ea 3e e7 b2 ce 3d 03 fc be 3d ac 57 11 3d
       0.4582509 0.10092717 0.09325411 0.035484
000190 e3 b0 87 be 47 f9 0b 3d 84 bd 5b be 22 00 01 3e
       -0.2650214 0.034173276 -0.21459013 0.12597707
0001a0 25 c2 6b 3e fb 94 86 3e b6 6e 4c 3e 48 1e 84 3d
       0.23023279 0.26285538 0.19964108 0.06451088
0001b0 08 6c 02 3f 20 7f ea 3e a8 62 cd 3e 12 82 8d 3e
       0.5094609 0.45800114 0.4011433 0.27638298
0001c0 28 95 27 bf fb 34 8e 3d 86 85 d8 3e 14 5a ee bd
       -0.6546197 0.06943699 0.4228937 -0.11638275
0001d0 c5 6c a0 be 6d 69 e3 3d f6 f8 da bd 89 7e 23 3e
       -0.31332985 0.11104093 -0.10692017 0.15966238
0001e0 ad e4 77 be 27 94 c4 be 31 93 09 bf 66 b5 29 bb
       -0.24208327 -0.3839428 -0.5374022 -0.0025895475
0001f0 02 52 33 3e fc d1 40 3e 0c 91 62 3e 26 e3 21 3e
       0.17511752 0.18830103 0.22125643 0.15809307
000200 49 fb 05 3f d5 61 89 3e db e5 11 bf 4e 6b 9b 3d
       0.52336556 0.26832452 -0.56991357 0.07588826
000210 0f 04 20 bb f5 3f 7e 3e a0 45 b4 bd f6 0a ac 3e
       -0.0024416482 0.24829085 -0.088023424 0.33602113
000220 6c b8 94 be e4 2a f9 be 12 f0 fe bc f1 0e 42 3d
       -0.29046953 -0.48665535 -0.031120334 0.04737753
000230 89 de 2e be e3 f3 a4 3d 15 82 bf be 49 91 f1 bc
       -0.17077078 0.0805433 -0.37403932 -0.029488223
000240 97 73 2f 3f ee e1 a2 be b2 c9 b9 3d 67 73 b6 3e
       0.6853575 -0.31812996 0.090716735 0.3563492
000250 46 a7 92 bb 85 7b 9c 3c d4 d9 17 bf e8 96 f2 bc
       -0.004475507 0.019101867 -0.59316754 -0.029612973
000260 00 d6 44 3e fe ef ef 3e 1e 0e b8 3e 8a 9c 00 3f
       0.1922226 0.46862787 0.3594827 0.5023886
000270 7e 1d f9 3c 44 17 62 bd 08 96 2d bd 82 77 5c 3d
       0.03040957 -0.05519797 -0.04237941 0.05382491
000280 1e 1b 42 3c 92 7b df bd 88 f4 e4 3e ae b5 65 3e
       0.011847286 -0.10912241 0.44717813 0.22432587
000290 bd 78 f2 3e dd 37 69 3e 15 fb 5f 3e f0 8a 8c 3e
       0.4735774 0.22775216 0.21873124 0.2744975
0002a0 94 2a 81 3e 43 d5 23 3f 6e 17 76 be 07 a8 02 bf
       0.25227797 0.63997287 -0.24032375 -0.5103764
0002b0 b3 39 21 be 69 a1 85 3e b6 9c 98 3e c1 cf 25 3e
       -0.15744667 0.2609971 0.2980706 0.16192533
0002c0 e3 05 c8 bd a3 42 82 be 9d 39 de bd ee 8d 4b 3e
       -0.09766748 -0.25441465 -0.108508326 0.1987836
0002d0 a7 7c 31 3e e1 e8 b7 3e ed 6e d0 3e 23 e8 a0 bd
       0.17332707 0.3591986 0.4070963 -0.078567766
0002e0 a2 73 c1 bc 64 8c e1 be 46 76 01 3f 8a 6f 15 3e
       -0.023614708 -0.44052422 0.50571096 0.1459333
0002f0 d1 43 4e 3c 7f 23 c2 bc e0 49 60 be 3b 8e 95 3e
       0.012589411 -0.023698566 -0.21903181 0.29210076
000300 c2 47 54 bd f1 4e 6f 3d bb 30 3f 3e 05 e7 1a be
       -0.051826246 0.058424894 0.18670933 -0.1512719
000310 77 e1 9e be 2b 57 6b be 49 1c b3 3e 8b 49 47 be
       -0.3103139 -0.2298247 0.34982517 -0.19461648
000320 3b 56 45 be 90 92 ad bd 02 3f 50 bd 48 62 42 3e
       -0.19271176 -0.0847522 -0.05084134 0.18982804
000330 ea 6b 17 be 62 7f f8 3e 0a b0 fb be 78 44 cc be
       -0.1478726 0.48534685 -0.49157745 -0.39895988
000340 47 9c 91 be 20 55 66 be 5c 42 05 3e 44 35 11 bf
       -0.28439543 -0.2249341 0.13013595 -0.567219
000350 87 ce 9a bd 6b bc 65 3d 9a 2e b4 3e 06 f1 82 3e
       -0.07558923 0.056087893 0.35191804 0.2557451
000360 4f fc 9b be 94 9c 9b 3d 23 a8 06 be e1 72 43 3e
       -0.30465934 0.07598224 -0.13150077 0.19086792
000370 95 11 c2 3d b7 ab 39 3e 26 6f 24 bf c4 2e 2f 3d
       0.0947601 0.1813191 -0.642321 0.04276921
000380 2e 9e 7f 3e d6 50 7e 3e 7f ee 0b 3f 1c 0a 82 3e
       0.24962685 0.24835524 0.5466079 0.25398338
000390 8e 7b 03 3e 60 39 59 be e2 7c ae bd 35 17 ca be
       0.12840101 -0.21213293 -0.08519913 -0.3947083
0003a0 4e 0b a4 bd 4a 07 d0 bd 57 51 2c bf 0b 86 a5 3e
       -0.08009969 -0.1015764 -0.67311615 0.3232883
0003b0 f6 21 4b bc 59 a8 5a 3e c1 5d ea 3d 82 0b 77 3e
       -0.012398234 0.21353282 0.114436634 0.24125484
0003c0 fc c0 2d 3d 99 53 c2 3d cb 40 ba 3e 9c b0 82 3b
       0.042420372 0.09488601 0.36377558 0.0039883386
0003d0 ee 9d 07 bf de 3d 4d 3e 5d 71 98 3e 1f 83 d4 3e
       -0.52975357 0.20043132 0.2977399 0.41506287
0003e0 f3 4c 75 be b0 bd 04 3d 3e 12 67 3e f3 b9 53 3e
       -0.23955135 0.032407463 0.22565553 0.20676403
0003f0 47 c1 b3 be 3a 66 a3 3d 3f d4 11 bf 12 0f 9a be
       -0.35108396 0.079784825 -0.56964487 -0.30089623

actor.0.bias f4 [32]
000000 52 d4 bf 3d 01 30 4f 3e 30 1b e3 3e 66 b3 84 3b
       0.09366669 0.20233156 0.4435668 0.0040497063
000010 c8 e0 1c 3f 18 5e 0d 3f d4 6b 55 3e 07 5d 69 be
       0.6128049 0.552217 0.20841914 -0.22789393
000020 4c e6 59 bd bd b6 d7 be 27 9c b2 3e 70 f4 76 be
       -0.053198144 -0.42131606 0.3488476 -0.24116683
000030 d2 74 ee 3e 8b 55 8f 3e 9f 9d 83 bd 9d fe 76 3c
       0.46573502 0.27994952 -0.06426548 0.015075353
000040 3c 58 15 3f 26 ce f8 bc 0a 70 19 3e cc 2c 43 3e
       0.5833776 -0.030371737 0.14984146 0.19060057
000050 b0 c5 07 bf 44 22 59 bd c8 96 79 3e 10 5a a0 3e
       -0.5303602 -0.053011194 0.24373925 0.31318712
000060 63 c7 00 3e 8d a5 a8 bd fa c4 60 be c9 25 24 be
       0.1257606 -0.08234701 -0.2195014 -0.16030039
000070 9d 8e 71 3e 30 a7 d7 3e 76 8e 72 be 23 e6 d8 3d
       0.23589559 0.4211974 -0.23687157 0.1059077

actor.2.weight f4 [32, 32]
000000 89 51 80 3e 0c 34 0d 3e 40 05 a3 3e 59 1e cd 3c
       0.25062206 0.13789386 0.31839943 0.025038885
000010 17 cf d4 3d e9 b2 95 be 73 b0 9f 3d d1 55 70 3e
       0.10391062 -0.2923806 0.07797327 0.23470236
000020 92 b8 d5 3b 7d c8 bc 3e db 17 1c bd c2 1f d1 bd
       0.0065222466 0.3687171 -0.038108688 -0.102111354
000030 ab 72 4a be 35 68 53 3e 24 62 71 3e 97 f7 1d 3e
       -0.19770305 0.2064522 0.23572594 0.1542648
000040 9d 47 5f be e0 a7 07 3e 10 d2 aa bd 4a 0e 88 3d
       -0.21804662 0.13247633 -0.083408475 0.066433504
000050 1e 8a 44 3e 61 75 ef 3c 42 70 8f bd 2a 88 57 be
       0.19193313 0.029230775 -0.07003833 -0.21048036
000060 2f bb 07 be cd 37 59 be 0b 67 ce 3c 7c af 82 3e
       -0.13254999 -0.21212693 0.02519562 0.2552451
000070 d5 6f 19 bf f3 aa c5 bd 55 6e 78 3e f9 9c b6 3d
       -0.5993627 -0.096517466 0.24260838 0.08916659
000080 b3 4f 97 be 9f f9 d4 bd a5 e3 38 3e 52 e9 a6 be
       -0.29552993 -0.10399174 0.1805559 -0.32599884
000090 25 d5 a1 be 96 90 61 3d 37 c7 f9 bc 70 9c 19 be
       -0.3160793 0.05506953 -0.0304905 -0.15001082
0000a0 3d 3e b7 bd 9f c0 47 be d9 69 6b 3d c6 53 c2 3c
       -0.08947418 -0.19507073 0.05747399 0.023721587
0000b0 5c af 5d 3e 40 3d 9d be e0 5e 9c bd 3c 57 1d be
       0.21648926 -0.30710793 -0.076352835 -0.15365309
0000c0 08 05 7a bd e4 b1 20 3e 5d ae 4d bd 3c 2b af be
       -0.061039954 0.1569286 -0.050215114 -0.34212673
0000d0 b4 66 33 3e a3 4b 7c 3e ca 62 ad 3d ea de 4b 3e
       0.17519647 0.24638228 0.08466108 0.19909254
0000e0 a3 26 15 bf 02 26 c7 3d 7d a1 22 3e b1 8f 4e be
       -0.5826208 0.09724046 0.15881915 -0.20172001
0000f0 04 b2 39 bd 79 90 b4 3e 07 32 60 be e1 24 ba 3d
       -0.045335785 0.35266474 -0.21894084 0.09089065
000100 f6 cc 89 be c5 fb 66 3e 0b b4 ce be 59 4b c8 3c
       -0.26914185 0.2255698 -0.40371737 0.024449991
000110 48 a2 9d 3d 43 96 ba bd b3 a4 78 3e 34 81 8b 3d
       0.07696968 -0.091106914 0.24281578 0.06811753
000120 bc d2 47 bf 7a 09 a9 bd aa d4 23 3d 50 a1 50 3e
       -0.7805593 -0.08253761 0.039997734 0.20374036
000130 20 59 2e 3d 8d bf 61 3d 01 a8 1c 3e 17 94 b9 bd
       0.042565465 0.055114318 0.15298463 -0.09061449
000140 d6 b6 95 be 58 8b 33 3e 7d 74 49 3e 70 f3 ca bc
       -0.29241055 0.17533624 0.19673343 -0.024774283
000150 6c f1 38 3e 0b df 83 3e 23 15 d7 bd 61 7d b6 bd
       0.18060845 0.25756106 -0.105020784 -0.08910633
000160 8d 21 49 3e ef 0b f5 bd 66 50 ac be ca 06 ed 3c
       0.19641705 -0.11965167 -0.3365509 0.028933901
000170 b3 c3 95 be 29 67 21 bf 55 d4 78 be 64 d2 eb be
       -0.2925087 -0.63048035 -0.24299748 -0.46058953
000180 1a 34 df 3d 18 9b 87 be 92 5c a8 be 5a 34 19 3e
       0.108986095 -0.26485515 -0.32883126 0.14961377
000190 74 a2 24 bc 67 30 ae 3e 8f 99 2d 3d 6f 7c 04 3d
       -0.0100484975 0.34021303 0.042382773 0.03234523
0001a0 36 50 70 be 0a c2 08 3e e6 09 02 3e b2 dd b8 be
       -0.23468098 0.1335527 0.12699088 -0.3610664
0001b0 db 0e 02 bf 50 10 a2 3a bf fd 1a bf e7 bd ed 3d
       -0.5080392 0.0012364481 -0.60543436 0.116084866
0001c0 f5 bd ac bd c5 68 31 bd 58 29 2e be d0 c1 ec 3d
       -0.08434669 -0.043312807 -0.17007959 0.11560404
0001d0 90 c0 a1 3e 89 2f af bd 87 70 93 3e 9f db 58 3c
       0.31592226 -0.085539885 0.2879679 0.0132359555
0001e0 91 58 01 3f b7 db a9 3e 91 8e 52 bd fe b9 c1 3b
       0.50525767 0.33175442 -0.051405493 0.0059120646
0001f0 26 e7 d7 bc be 63 fc 3d 2c 4a 64 3e c0 09 e0 3d
       -0.026355337 0.12323712 0.2229392 0.1093936
000200 9b 86 bc be 57 8e 58 3e 7e 66 af bd 17 5e 81 3d
       -0.36821446 0.21148048 -0.08564471 0.06316774
000210 ad 3e 16 be 8d d4 76 3d 23 c9 5d 3e bd 8d 08 3f
       -0.14672346 0.060261298 0.21658759 0.53341275
000220 77 13 a1 3d 96 f0 a5 3e 9b 4b a5 be aa f3 00 3e
       0.07865041 0.32410115 -0.32284245 0.1259295
000230 ac 69 89 bd bf 54 a8 be 49 ef 16 3e 7e 02 02 bf
       -0.067096084 -0.32877156 0.14739718 -0.5078505
000240 24 03 87 bd 43 6d 05 3e 64 e0 12 3e 34 30 9f 3c
       -0.06592396 0.13029961 0.1434341 0.019432165
000250 55 10 7d be 77 5b 6d 3d c8 4a e8 be 6c 4e 50 3d
       -0.24713261 0.057948556 -0.45369554 0.05085604
000260 23 b6 87 3d 42 7c c2 bd 57 2b 83 3b f5 b7 2c bd
       0.06626537 -0.094963565 0.0040029692 -0.042167623
000270 89 7a af bf 38 cd 59 bf 23 7a 9f 3e 22 a3 a7 3e
       -1.370927 -0.85078764 0.3114787 0.32741648
000280 73 9c e5 bd 14 d3 50 3d 1f f7 cf 3d 39 c7 5c 3e
       -0.11211481 0.05098255 0.101545565 0.21560372
000290 a0 d0 80 3e 5b f7 02 3c e2 97 31 be ac d1 71 3e
       0.25159168 0.007993544 -0.17343095 0.2361514
0002a0 7a 8f 10 3e 45 00 e2 bd 81 32 06 be e9 92 ca be
       0.14117232 -0.11035208 -0.13105203 -0.3956521
0002b0 bc dd 97 bd 4b 1b 96 3e b7 c0 ce be 31 b4 59 3e
       -0.07415339 0.29317698 -0.40381405 0.21260144
0002c0 7b f2 ab 3e 88 87 30 3d ea fb d6 be fa a7 5f 3e
       0.33583435 0.043098003 -0.4198907 0.21841422
0002d0 d5 aa 9b 3d 68 0c 05 3e 3c 51 bd be 75 3e 51 3e
       0.07600943 0.12993014 -0.3697604 0.20433982
0002e0 05 9a 04 bf 76 08 03 be 0a 1c 01 bf f6 32 af be
       -0.51797515 -0.12796196 -0.5043341 -0.34218568
0002f0 ce 46 05 be 81 e5 9d 3e 07 13 5d 3e c3 a6 30 3d
       -0.13015291 0.3083916 0.2158929 0.043127786
000300 9d 52 c3 3d e6 0a 87 be 1a e0 ae 3d 7a 04 78 3c
       0.095372416 -0.26375502 0.08538838 0.015137786
000310 ea 20 c7 bd 38 45 25 3d 6c ac c7 be ee 8c 05 bf
       -0.09723075 0.040349215 -0.38998735 -0.52168167
000320 f0 ca df bd 4d 0a b1 3d f9 09 45 3c 2c 5b 6e 3e
       -0.10927379 0.08644543 0.012026303 0.23276967
000330 ef 21 43 3c c2 60 01 3d 61 cc 73 bd ff 79 8b 3e
       0.011909946 0.031586416 -0.059521083 0.27241513
000340 1d 76 91 be 85 b6 0d 3e b5 a9 1d bf fe 4b 7c 3c
       -0.28410426 0.13839157 -0.6158708 0.015398977
000350 a5 ee 7f 3e 25 f7 23 3e ce bc c9 be d2 b7 14 3e
       0.2499338 0.16012247 -0.3940186 0.14523247
000360 62 bc f9 bd 47 31 49 bc c1 86 a6 be b4 52 83 3e
       -0.12194134 -0.012279815 -0.32524684 0.25649035
000370 4b 3d 75 bd 6f 5f 53 3e 8c 83 67 3e f7 a3 f2 be
       -0.059872907 0.20641874 0.22608775 -0.4739072
000380 bf 90 89 be a0 44 a9 3e 98 e8 0f 3e fc 9e fb bd
       -0.26868245 0.3306017 0.14053571 -0.12286183
000390 80 88 0d be 1d 82 a1 be 92 21 00 3e e9 19 bb be
       -0.13821602 -0.3154458 0.12512806 -0.36543205
0003a0 a8 b4 a1 3d e3 61 de be e6 41 21 3e 4f 5b 0d 3d
       0.078957856 -0.43434057 0.15747795 0.034510907
0003b0 70 92 8b 3e 01 a3 24 3e 9b c0 34 3e a0 29 1e bd
       0.2726016 0.16077806 0.17651598 -0.038613915
0003c0 cb 34 e7 3d 36 6b a1 bc 72 80 30 3d 45 72 44 bd
       0.11289366 -0.019704442 0.043091245 -0.04796054
0003d0 66 b0 93 3b 6b c0 99 bd 7a 46 46 3e ae 84 85 3e
       0.0045071123 -0.07507404 0.19362822 0.2607779
0003e0 6b 8e 2b 3e 50 cc aa 3e a2 c9 2a 3d b8 e6 67 be
       0.16753547 0.33359003 0.0416962 -0.22646606
0003f0 4c e8 be 3e 1f ac 38 bd 6e 80 3e be 83 1d 18 bd
       0.37286603 -0.045086022 -0.1860368 -0.03713752

actor.2.bias f4 [32]
000000 ec 25 a6 bd dc f2 1c be 4c 69 86 3e 42 eb eb bd
       -0.08112702 -0.15327018 0.2625221 -0.11519481
000010 84 15 62 be 3b bc ff 3e 67 de b6 be 46 0c 53 3e
       -0.2207852 0.49948296 -0.35716555 0.2061015
000020 b9 a1 69 bb f1 4e 33 3e d7 57 e3 bc e2 c3 34 be
       -0.0035649373 0.17510583 -0.027751846 -0.17652848
000030 fd bb c0 bc cd 8b cf bc 6c 79 83 3d f9 a4 8d 3e
       -0.02352714 -0.025335217 0.06419644 0.27664927
000040 28 9b 9c be a1 2f eb bc 39 46 99 bd 96 5a 25 bd
       -0.30587125 -0.028709235 -0.07484097 -0.040369593
000050 5b 40 92 3e 0a 99 78 3e 52 31 eb 3d fc 62 e0 3d
       0.28564724 0.2427713 0.114840165 0.1095638
000060 89 b6 10 3e ad 77 0b bc 6c 7d 95 3c 0c 8d 41 3e
       0.14132132 -0.00851242 0.018248282 0.18901461
000070 b9 c4 23 be d6 18 19 3e 8b d7 b0 be 8a a7 86 bd
       -0.15993012 0.1495088 -0.34539446 -0.06574924
