results/SandingEnvMiddle/ddpg/model/model_parameters_0.pt (torch, 32066 bytes, 22 tensors)

value.0.weight f4 [32, 12]
-0.12338133 0.06168494 -0.08141223 -0.04804014 0.10447109 0.03585685 0.0014100876 0.040734172
0.14688388 0.11822019 0.80455786 1.0861785 0.106676504 0.009174271 0.036892045 -0.061799996
0.0148525415 0.033058442 -0.058528617 0.26577502 0.03284915 0.15424825 0.3121347 2.8050478
-0.051941864 0.12835284 0.049753245 0.0030722795 0.10300096 -0.11907784 0.18852076 -0.05392746
0.006844777 0.26053753 -2.1219997 0.63596493 -0.0050618346 0.20844492 -0.20907286 0.17216836
-0.08473823 0.2630222 -0.097493924 -0.00967538 0.28609565 -0.059004474 -0.054947693 -0.12237292
0.15644445 -0.03821026 -0.056386206 0.035307843 -0.009233213 -0.050402433 0.0011267205 -0.18395048
-0.10914085 -0.15619478 -0.69270104 -0.32601056 -0.1964061 0.19142036 0.21903636 0.03487775
0.021774156 0.09160935 -0.022691708 -0.18678752 0.10716294 0.0565394 -2.6076567 -0.09880285
-0.025288407 0.007449495 0.27751154 -0.17291689 0.050037604 0.050370567 -0.1181899 -0.27096254
0.16994324 -0.0029929555 -0.30497232 -0.39492 -0.08276439 0.0897981 0.13708922 -0.16872977
0.07268759 0.17000084 -0.11858501 0.1255692 0.302038 0.35260195 0.504789 0.025197122
0.16647847 -0.0062415935 -0.049016505 0.008571547 -0.122981094 -0.16452354 -0.108706824 -0.1530792
-0.20944887 -0.07696579 -0.0050780447 0.008965161 -0.019965297 0.0232933 0.02758771 -0.04734362
-0.17095558 -0.048097573 0.17896667 0.21249458 -0.11394858 -0.15118071 1.1627543 -1.998043
0.12299716 0.19305378 0.04403313 -0.08829256 -0.097100586 0.15079758 -0.1612343 0.15778597
-0.112633616 0.19337241 -0.6803557 -0.8661253 -0.09780161 -0.2025442 0.05096147 0.045719635
0.013688053 0.03331079 0.2612637 0.074364364 0.3443097 0.2646935 -0.7594391 0.58503175
-0.18157503 0.12026189 -0.13779505 0.09346528 0.16656192 -0.13347374 0.07025677 -0.07402626
-0.18529269 -0.034157917 0.24825756 0.03473965 -0.08953594 -0.109955356 0.110459715 -0.11592126
-0.014008454 -0.15361972 0.22211865 -0.07783877 -0.22742997 0.10812155 1.9008203 0.15080121
-0.065497085 -0.049723495 -0.19499347 0.13264348 0.2367463 0.01757368 0.18440816 -0.19812566
-0.15550025 0.08835774 -0.36680418 0.09269758 0.11335924 0.029569637 0.030126138 -0.21294685
0.005331371 -0.0031060372 0.22084704 0.009882591 -0.07943288 -0.11747905 -1.6290816 0.14652427
-0.110235974 0.113065176 -0.055912506 -0.15191643 -0.12919986 0.026472839 -0.18505052 0.059467953
-0.13580023 -0.16683601 -0.272758 -0.21833347 -0.0560169 -0.09507296 0.23470737 0.113615364
0.023034174 0.014843885 -0.089785494 0.09405462 0.29136133 0.2666887 2.5712607 0.16497415
-0.11531155 -0.08229504 0.16704606 0.3117373 0.17453222 0.0075021153 0.02161242 0.10853471
0.246162 -0.10725277 1.1547302 0.2702335 0.0009411172 -0.110629134 -0.15569215 -0.049301017
-0.055831157 -0.061102625 0.025017167 0.36676124 0.023811573 0.22499369 -1.1894001 0.22529882
-0.13625868 -0.06656885 -0.07471766 0.07248777 0.004975997 0.40546378 -0.04612569 0.074480884
0.03810635 -0.04257581 1.1561676 -0.14920533 -0.12792835 0.18522348 -0.16436948 0.0049293744
00000000: 5aaf fcbd 59a9 7c3d 75bb a6bd bdc5 44bd
00000010: f0f4 d53d a2de 123d b0d2 b83a e0d8 263d
00000020: ba68 163e 6d1d f23d 81f7 4d3f e607 8b3f
00000030: 3679 da3d ae4f 163c 1d1c 173d fe21 7dbd
00000040: 1358 733c 4a68 073d b4bb 6fbd aa13 883e
00000050: d58c 063d 41f3 1d3e 1fd0 9f3e e785 3340
00000060: fec0 54bd ed6e 033e 0fca 4b3d 4c58 493b
00000070: 2bf2 d23d 15df f3bd 960b 413e 0ae3 5cbd
00000080: 274a e03b 2d65 853e d8ce 07c0 99ce 223f
00000090: bfdd a5bb 9672 553e 3217 56be e74c 303e
000000a0: 3d8b adbd d9aa 863e e5aa c7bd 7c85 1ebc
000000b0: 217b 923e adae 71bd d510 61bd a79e fabd
000000c0: f932 203e 5d82 1cbd 39f5 66bd f59e 103d
000000d0: e746 17bc c872 4ebd 77ae 933a 845d 3cbe
000000e0: 3d85 dfbd 86f1 1fbe db54 31bf dbea a6be
000000f0: ae1e 49be b303 443e 114b 603e f9db 0e3d
00000100: b75f b23c af9d bb3d f6e3 b9bc 3a45 3fbe
00000110: 3e78 db3d dc95 673d d9e3 26c0 2659 cabd
00000120: a229 cfbc e51a f43b fe15 8e3e 2011 31be
00000130: 3bf4 4c3d 5e51 4e3d 8c0d f2bd 9abb 8abe
00000140: 9a05 2e3e 7625 44bb 5525 9cbe f432 cabe
00000150: 6080 a9bd 11e8 b73d 1e61 0c3e 7fc7 2cbe
00000160: 3bdd 943d b314 2e3e b3dc f2bd 3695 003e
00000170: baa4 9a3e 3e88 b43e da39 013f 326a ce3c
00000180: 5579 2a3e 4886 ccbb 88c5 48bd ad6f 0c3c
00000190: 83dd fbbd dc78 28be afa1 debd cbc0 1cbe
000001a0: c479 56be 3da0 9dbd ba65 a6bb 9ce2 123c
000001b0: 438e a3bc 97d1 be3c 9fff e13c 62eb 41bd
000001c0: fb0e 2fbe f601 45bd 0a43 373e 2e98 593e
000001d0: e05d e9bd 1ecf 1abe 22d5 943f dfbf ffbf
000001e0: efe5 fb3d e4af 453e 155c 343d bbd2 b4bd
000001f0: acdc c6bd ae6a 1a3e 9b1a 25be a592 213e
00000200: 74ac e6bd 6b03 463e cb2b 2ebf 63ba 5dbf
00000210: 364c c8bd bf67 4fbe f9bc 503d 8344 3b3d
00000220: db43 603c e570 083d 5bc4 853e 584c 983d
00000230: 5c49 b03e e885 873e 9a6a 42bf a4c4 153f
00000240: ceee 39be de4b f63d 251a 0dbe ba6a bf3d
00000250: 358f 2a3e 57ad 08be c8e2 8f3d 149b 97bd
00000260: 5ebd 3dbe 2ce9 0bbd 3b37 7e3e 2a4b 0e3d
00000270: 9e5e b7bd 4630 e1bd b438 e23d 2068 edbd
00000280: b783 65bc 7d4e 1dbe 1273 633e ef69 9fbd
00000290: 67e3 68be d56e dd3d 144e f33f a26b 1a3e
000002a0: 5623 86bd ddaa 4bbd 5eac 47be b1d3 073e
000002b0: 9f6d 723e aef6 8f3c 7ed5 3c3e 74e1 4abe
000002c0: 753b 1fbe e7f4 b43d c2cd bbbe 3bd8 bd3d
000002d0: e428 e83d 063c f23c 17cb f63c bd0e 5abe
000002e0: c8b2 ae3b a88e 4bbb ba25 623e 97ea 213c
000002f0: b5ad a2bd db98 f0bd bf85 d0bf 750a 163e
00000300: 66c3 e1bd b78e e73d 8304 65bd fb8f 1bbe
00000310: f84c 04be 91dd d83c e27d 3dbe ab94 733d
00000320: 370f 0bbe 0fd7 2abe f0a6 8bbe cf92 5fbe
00000330: fa71 65bd 9db5 c2bd 2157 703e 2caf e83d
00000340: 2ab2 bc3c c433 733c 75e1 b7bd b59f c03d
00000350: 502d 953e 6c8b 883e 898f 2440 fcee 283e
00000360: 7628 ecbd 4d8a a8bd 1f0e 2b3e 089c 9f3e
00000370: 93b8 323e 4ed4 f53b 880c b13c 7247 de3d
00000380: e411 7c3e 57a7 dbbd 33ce 933f 0c5c 8a3e
00000390: 4eb5 763a 8791 e2bd c36d 1fbe ddef 49bd
000003a0: 36af 64bd bf46 7abd cdf0 cc3c 21c8 bb3e
000003b0: 7d10 c33c bf64 663e 433e 98bf bcb4 663e
000003c0: 6587 0bbe 4055 88bd 9305 99bd 7874 943d
000003d0: b00d a33b f398 cf3e 4bee 3cbd 6f89 983d
000003e0: 6715 1c3d f963 2ebd 4dfd 933f 48c9 18be
000003f0: a6ff 02be 39ab 3d3e 7950 28be 9786 a13b

value.0.bias f4 [32]
0.29750204 -0.16795278 -0.058602627 -0.022458399 0.27675444 -0.1551862 0.02120945 -0.12807894
0.04422843 -0.0029809293 -0.10252579 0.046900973 -0.00073950307 -0.50389147 -0.31842956 0.055803716
-0.29809445 0.25299886 0.16908939 0.25928703 0.27034372 0.23438989 0.07229817 -0.31618834
0.093124256 0.1591553 -0.28043905 -0.044077966 -0.38084832 -0.021978335 -0.25719774 -0.062721014
00000000: 3052 983e d0fb 2bbe 4f09 70bd adfa b7bc
00000010: c2b2 8d3e 22e9 1ebe 71bf ad3c 2027 03be
00000020: df28 353d b25b 43bb 0bf9 d1bd 3c1b 403d
00000030: 36db 41ba 08ff 00bf 3309 a3be 7092 643d
00000040: d69f 98be 1189 813e c525 2d3e 45c1 843e
00000050: 7e6a 8a3e e703 703e 1011 943d 70e3 a1be
00000060: eeb7 be3d 9bf9 223e b595 8fbe 198b 34bd
00000070: 8dfe c2be e90b b4bc 6caf 83be e073 80bd

value.2.weight f4 [32, 32]
0.08728179 -0.056571793 0.021050116 -0.15569769 -0.018947108 0.05928386 0.07102302 0.09024713
0.05557934 -0.021671528 -0.10127317 -0.030286096 0.12984459 -0.13688824 0.13098161 0.15006347
0.09455804 0.047569606 0.10272606 -0.05711922 0.20256737 -0.07598792 -0.041686203 -0.048200555
0.07704113 -0.06954661 0.025736474 -0.11048277 -0.072932065 0.18714811 0.042898946 -0.021617655
0.010191427 -0.34706345 -0.116018005 -0.06612115 -0.23040475 -0.0125399325 0.17985018 -0.047457922
-0.015593277 -0.06766967 0.12956733 0.18244126 -0.03679153 -0.10708124 -0.20880342 -0.07348431
0.09150641 -0.24804033 0.17819022 0.09825826 0.043654576 -0.12318282 0.08070052 -0.12015714
-0.48747447 0.004218378 0.1343403 -0.041125987 0.10200702 0.101608545 0.040266205 0.019913726
-0.003962283 -0.025343755 -0.16344067 0.2123716 0.1337156 -0.027605793 -0.0012067863 0.04112139
0.12599276 0.0026557718 -0.061445918 -0.19287826 -0.11806711 0.0320027 -0.086847074 0.08134395
0.101425394 -0.0812839 -0.010971998 0.100374214 0.11406126 -0.12684336 0.09836465 -0.04944
0.0360038 -0.18656382 0.106322125 0.1032375 0.07507208 0.08159675 -0.24056119 0.166451
-0.12965514 0.06414517 0.03031143 0.03936031 0.07818671 -0.0015736711 0.13042627 -0.12763217
0.006362024 0.1337848 0.008358268 -0.03830317 0.09571766 0.0017063215 -0.05329305 -0.16872047
0.06970998 -0.040516194 -0.18775009 0.1275049 0.102072865 -0.03351607 0.028561847 0.012263382
0.018301526 -0.033232868 -0.08225806 -0.016639354 0.112469316 -0.14383969 0.032075007 -0.118315056
0.038815174 0.058225628 -0.07657679 -0.31212825 0.051744316 0.03508739 0.1493745 -0.062282607
-0.12568516 -0.08722788 0.00023826865 0.061342083 -0.9172147 -0.19578671 -0.12408113 -0.01237148
0.13996573 -0.05429368 -0.022985237 0.21558653 -0.1913004 -0.015420332 -0.35633442 0.071005374
0.08380642 -0.13986479 -0.08858079 0.07011394 0.08682383 -0.02935736 0.051105533 -0.13691606
0.09288681 -0.2747588 0.09641166 0.10958334 0.10656244 0.022254987 0.06878897 -0.1751746
0.071309865 -0.19119757 0.1470261 -0.0028874297 0.029584123 0.24589992 -0.0060692667 0.1213424
0.13492343 0.18039955 0.043077365 -0.07236866 0.058947966 0.14861904 -0.18398653 -0.095903315
0.07517522 -0.09353498 0.04677092 -0.11466979 -0.08682096 0.09677069 -0.045910206 -0.019531013
-0.05999247 -2.3891754 -0.14228816 0.034240402 0.08893995 0.006663797 -0.14211567 -0.12591495
-0.19695385 0.07138336 0.121757016 -0.010592981 0.11068126 -0.027616952 -0.026080968 0.1221816
-0.118695214 -0.10054214 -0.044004034 0.14183445 0.02831951 0.10420401 0.031098815 -0.1556666
0.3584574 0.10148969 0.076674424 -0.0019882985 0.14107276 -0.09021019 0.021852322 -0.07761905
-0.10623857 -0.14677496 0.13126889 0.13690896 -0.030094279 0.25270215 0.028643673 -0.05906958
0.10013939 0.04017135 0.16904631 -0.06433817 0.098471016 -0.09712522 0.031180507 -0.095591806
-0.072638296 -0.31174973 -0.17506558 0.005479146 -0.14700241 0.08117914 0.0991158 -0.4635566
0.15986173 -0.22705084 -0.12069846 0.5976436 0.0026538565 -0.035391092 0.20178318 -0.0054958817
00000000: ccc0 b23d d3b7 67bd 4b71 ac3c 376f 1fbe
00000010: f736 9bbc a2d3 723d 8474 913d 7dd3 b83d
00000020: 29a7 633d 7d88 b1bc 4f68 cfbd 8c1a f8bc
00000030: fbf5 043e 6e2c 0cbe 0b20 063e 3daa 193e
00000040: a5a7 c13d 59d8 423d 0a62 d23d d8f5 69bd
00000050: d26d 4f3e 8e9f 9bbd 27bf 2abd f26d 45bd
00000060: bdc7 9d3d 746e 8ebd 4cd5 d23c ca44 e2bd
00000070: 685d 95bd c1a3 3f3e ceb6 2f3d 8217 b1bc
00000080: f1f9 263c 4db2 b1be d99a edbd 876a 87bd
00000090: 39ef 6bbe 4a74 4dbc a52a 383e 3d63 42bd
000000a0: f27a 7fbc 6596 8abd 4cad 043e e2d1 3a3e
000000b0: b7b2 16bd 694d dbbd 90d0 55be f17e 96bd
000000c0: b667 bb3d 49fe 7dbe 7f77 363e a03b c93d
000000d0: 24cf 323d 4647 fcbd 5046 a53d f214 f6bd
000000e0: 4196 f9be 523a 8a3b 8190 093e b973 28bd
000000f0: 0ee9 d03d 2418 d03d 2dee 243d 1c22 a33c
00000100: 0ad6 81bb b59d cfbc fe5c 27be f177 593e
00000110: beec 083e 8b25 e2bc 072d 9eba e76e 283d
00000120: 3f04 013e 750c 2e3b b7ae 7bbd e181 45be
00000130: 2bcd f1bd 4315 033d e1dc b1bd a897 a63d
00000140: 1eb8 cf3d 2c78 a6bd e5c3 33bc ff90 cd3d
00000150: f398 e93d 3ae3 01be 6873 c93d 9981 4abd
00000160: b878 133d 960a 3fbe 6abf d93d 2f6e d33d
00000170: 64bf 993d 321c a73d ac55 76be 2272 2a3e
00000180: 51c4 04be 8b5e 833d ad4f f83c 4738 213d
00000190: 5b20 a03d a443 ceba 778e 053e 02b2 02be
000001a0: 8778 d03b e2fe 083e 1ef1 083c c9e3 1cbd
000001b0: 9f07 c43d a6a6 df3a d049 5abd 0fc5 2cbe
000001c0: 1bc4 8e3d 4ff4 25bd 8f41 40be a590 023e
000001d0: 940b d13d 2648 09bd 89fa e93c 5aec 483c
000001e0: 15ed 953c 301f 08bd ea76 a8bd 414f 88bc
000001f0: 5056 e63d b64a 13be 1561 033d 2a4f f2bd
00000200: a9fc 1e3d ff7d 6e3d 4bd4 9cbd 46cf 9fbe
00000210: d9f1 533d ccb7 0f3d a1f5 183e 0c1c 7fbd
00000220: 9cb3 00be 88a4 b2bd c1d7 7939 d641 7b3d
00000230: 95ce 6abf 507c 48be 3f1e febd c0b1 4abc
00000240: 2d53 0f3e 0d63 5ebd 894b bcbc b7c2 5c3e
00000250: 41e4 43be 8fa5 7cbc 7771 b6be 446b 913d
00000260: b3a2 ab3d b738 0fbe d869 b5bd e697 8f3d
00000270: b1d0 b13d d97e f0bc 0954 513d b933 0cbe
00000280: 713b be3d 2fad 8cbe 7a73 c53d 3b6d e03d
00000290: 693d da3d 1750 b63c 3be1 8c3d f860 33be
000002a0: e80a 923d 4cc9 43be 038e 163e 083b 3dbb
000002b0: 675a f23c 30cd 7b3e b3e0 c6bb 5d82 f83d
000002c0: 5e29 0a3e a9ba 383e e471 303d 0536 94bd
000002d0: 6c73 713d 972f 183e f766 3cbe f568 c4bd
000002e0: 77f5 993d 458f bfbd dd92 3f3d ffd7 eabd
000002f0: 30cf b1bd b62f c63d 570c 3cbd 81ff 9fbc
00000300: aaba 75bd 40e8 18c0 fdb3 11be aa3f 0c3d
00000310: 2626 b63d fb5b da3b c586 11be d9ef 00be
00000320: 45ae 49be 7031 923d be5b f93d 2f8e 2dbc
00000330: dbac e23d f23c e2bc c1a7 d5bc 593a fa3d
00000340: 7a16 f3bd 0ae9 cdbd 933d 34bd 0d3d 113e
00000350: 51fe e73c e968 d53d f1c2 fe3c 1167 1fbe
00000360: ba87 b73e d4d9 cf3d 7b07 9d3d 1d4e 02bb
00000370: 6175 103e 1fc0 b8bd a403 b33c bdf6 9ebd
00000380: 9b93 d9bd 2d4c 16be 5a6b 063e dd31 0c3e
00000390: 4788 f6bc 2d62 813e 23a6 ea3c f2f2 71bd
000003a0: e115 cd3d b78a 243d 7a1a 2d3e bbc3 83bd
000003b0: 2cab c93d 96e9 c6bd 436e ff3c a3c5 c3bd
000003c0: 63c3 94bd a99d 9fbe 6444 33be 688a b33b
000003d0: cd87 16be 4041 a63d 39fd ca3d 4a57 edbe
000003e0: cbb2 233e 0480 68be c130 f7bd 2cff 183f
000003f0: 53ec 2d3b 40f6 10bd 40a0 4e3e cc16 b4bb

value.2.bias f4 [32]
-0.01628573 0.099818416 -0.1995831 0.16664562 -0.17212994 -0.08510014 0.05023859 -0.23645304
0.31108245 0.2925864 0.019359479 -0.074762724 0.1356874 -0.17289796 0.22936243 0.17503633
-0.051436666 -0.03293311 -0.00026462995 -0.012075169 -0.15545422 0.10514379 0.18414302 -0.03809584
0.09860555 -0.06095139 -0.09435515 -0.06487639 0.16436176 -0.15423295 0.20784354 0.020691918
00000000: a769 85bc 996d cc3d 835f 4cbe 26a5 2a3e
00000010: d542 30be fb48 aebd fbc6 4d3d bf20 72be
00000020: 3346 9f3e e2cd 953e c597 9e3c 331d 99bd
00000030: a3f1 0a3e 2a0c 31be fcdd 6a3e b93c 333e
00000040: 41af 52bd dee4 06bd 08be 8ab9 eed6 45bc
00000050: 642f 1fbe a155 d73d fd8f 3c3e 620a 1cbd
00000060: b5f1 c93d 2aa8 79bd 463d c1bd eadd 84bd
00000070: 734e 283e 3eef 1dbe f0d4 543e 1982 a93c

value.4.weight f4 [1, 32]
-0.08269478 0.034670558 -0.069837496 0.054240625 0.13253173 -0.019098261 -0.12338272 -0.05922697
0.030485718 0.07150854 0.03644009 0.075717606 0.10480686 0.013533097 0.11083152 0.14028628
0.04229186 0.047846872 0.15359707 0.0508083 -0.04934471 -0.13581434 -0.20714395 0.0512832
0.11792606 0.03308076 0.065530546 0.0761808 0.045584176 -0.026931526 0.060733166 0.10423312
00000000: e15b a9bd b702 0e3d f606 8fbd 6b2b 5e3d
00000010: 66b6 073e f573 9cbc 14b0 fcbd fb97 72bd
00000020: 2fbd f93c 1273 923d 3442 153d d511 9b3d
00000030: fba4 d63d ecb9 5d3c a3fb e23d 35a7 0f3e
00000040: 3b3a 2d3d 15fb 433d 8d48 1d3e 5d1c 503d
00000050: ae1d 4abd ea12 0bbe 8b1d 54be 550e 523d
00000060: 3883 f13d b17f 073d e134 863d ae04 9c3d
00000070: 79b6 3a3d 819f dcbc 57c3 783d 2d78 d53d

value.0.weight f4 [32, 12]
-0.123346224 0.06123055 -0.08175577 -0.049195446 0.103336334 0.036129426 0.0022067116 0.041530788
0.14585504 0.11719144 0.80274826 1.0876414 0.105515085 0.0072786855 0.03926691 -0.06224161
0.014204583 0.03129651 -0.056771133 0.2675326 0.031091698 0.15249074 0.31069922 2.8002558
-0.05188156 0.12817588 0.050460976 0.0013242057 0.104531884 -0.120268226 0.18969053 -0.05275767
0.0057676574 0.2594604 -2.1173735 0.6281506 -0.0051681837 0.20709118 -0.20993516 0.17075044
-0.08642647 0.26263237 -0.09794907 -0.010130558 0.28660768 -0.058492422 -0.05957953 -0.12054128
0.15543765 -0.038736053 -0.05909308 0.034009088 -0.009688425 -0.050955046 0.0016374883 -0.18343963
-0.1097933 -0.15684724 -0.69612837 -0.3212059 -0.19991234 0.18995528 0.2171604 0.033678606
0.020344347 0.09109717 -0.023669297 -0.18776506 0.10611225 0.05548868 -2.6005905 -0.09700847
-0.025563547 0.0059370575 0.2782954 -0.17341532 0.048896685 0.05179671 -0.11810758 -0.2708802
0.17171042 -0.0012258108 -0.30863675 -0.39213935 -0.0824809 0.08923607 0.13604435 -0.16952565
0.07386588 0.16934834 -0.1178398 0.1263145 0.30068308 0.351247 0.49795857 0.022031015
0.1672616 -0.0054475283 -0.047390148 0.0076144617 -0.12228772 -0.1648005 -0.10851637 -0.15288872
-0.20950906 -0.0770259 -0.0057332413 0.0066931485 -0.020484993 0.021724097 0.028710958 -0.042042043
-0.17340083 -0.050489847 0.17573778 0.2092657 -0.114923075 -0.15215519 1.1607188 -1.998488
0.12184761 0.19319488 0.043593742 -0.08937644 -0.09467387 0.15226002 -0.16075611 0.15826416
-0.112243906 0.19376212 -0.6774338 -0.8661355 -0.098813355 -0.20329393 0.04971526 0.04537015
0.012444827 0.03233578 0.26102692 0.07412771 0.3436886 0.26407242 -0.76272774 0.58914936
-0.17916459 0.12095957 -0.1384986 0.09338132 0.16867903 -0.13218333 0.07032233 -0.0739607
-0.18489568 -0.033760842 0.2559643 0.033434547 -0.08803763 -0.10980391 0.10769548 -0.115796894
-0.01472681 -0.15482871 0.22220649 -0.07775088 -0.22943655 0.10611514 1.9009843 0.1420264
-0.06579436 -0.049276523 -0.19337481 0.1339074 0.2368547 0.019055799 0.18609792 -0.1964359
-0.15821938 0.085638545 -0.36422974 0.089552365 0.11716758 0.030534329 0.029881 -0.2127933
0.0036945208 -0.005042963 0.22012834 0.00916383 -0.079413995 -0.11746016 -1.6230448 0.14785133
-0.11053736 0.1153108 -0.0535278 -0.15077505 -0.13042772 0.02713598 -0.18466242 0.05985602
-0.1361963 -0.16723208 -0.27364048 -0.21634854 -0.054731354 -0.09506748 0.23506698 0.11446283
0.025300583 0.014174415 -0.090487435 0.093352675 0.29243067 0.26775804 2.5703683 0.15861747
-0.11420091 -0.083411075 0.16583982 0.31176394 0.17308967 0.0070051635 0.023885433 0.11080768
0.24429226 -0.10912235 1.1571766 0.2775679 0.0039481455 -0.11141524 -0.15585469 -0.052133974
-0.054988783 -0.060750935 0.026175255 0.36791936 0.02193581 0.22311793 -1.1883068 0.21642016
-0.13835324 -0.06665639 -0.07463416 0.07349209 0.0058908504 0.405269 -0.046992213 0.07361436
0.040847875 -0.039834283 1.1580164 -0.15116729 -0.12873977 0.18580553 -0.16559029 0.0028534264
00000000: f29c fcbd e3cc 7a3d 926f a7bd 2a81 49bd
00000010: 00a2 d33d 73fc 133d 7a9e 103b 301c 2a3d
00000020: 065b 153e 1102 f03d e980 4d3f d537 8b3f
00000030: 4b18 d83d 0a82 ee3b 57d6 203d 0ff1 7ebd
00000040: 57ba 683c c530 003d d988 68bd 08fa 883e
00000050: 04b4 fe3c 8826 1c3e f813 9f3e 6437 3340
00000060: c281 54bd 8a40 033e 2bb0 4e3d f890 ad3a
00000070: d014 d63d 304f f6bd 3c3e 423e 6d18 58bd
00000080: 9efe bc3b fed7 843e 0c83 07c0 7ace 203f
00000090: de59 a9bb b60f 543e 3ef9 56be 34d9 2e3e
000000a0: 5c00 b1bd c077 863e 8699 c8bd a4fa 25bc
000000b0: 3ebe 923e c095 6fbd aa09 74bd 59de f6bd
000000c0: 0c2b 1f3e b2a9 1ebd 960b 72bd 1d4d 0b3d
000000d0: 33bc 1ebc 3db6 50bd fda0 d63a 99d7 3bbe
000000e0: 4fdb e0bd 909c 20be 7835 32bf 1a75 a4be
000000f0: d2b5 4cbe a383 423e 4c5f 5e3e 94f2 093d
00000100: 30a9 a63c 2791 ba3d 1de6 c1bc 7c45 40be
00000110: 6151 d93d 1948 633d 1370 26c0 60ac c6bd
00000120: a56a d1bc a68b c23b bc7c 8e3e c993 31be
00000130: e447 483d c928 543d 63e2 f1bd cfb0 8abe
00000140: dbd4 2f3e 63ab a0ba a305 9ebe 7dc6 c8be
00000150: bfeb a8bd 67c1 b63d 364f 0b3e 2298 2dbe
00000160: ff46 973d a769 2d3e fe55 f1bd 9758 013e
00000170: 22f3 993e a6d6 b33e 6df4 fe3e 637a b43c
00000180: a046 2b3e 2e81 b2bb 2c1c 42bd bc82 f93b
00000190: fc71 fabd 76c1 28be d53d debd dc8e 1cbe
000001a0: 8b89 56be c1bf 9dbd eadd bbbb 3352 db3b
000001b0: 25d0 a7bc bcf6 b13c 3e33 eb3c 4734 2cbd
000001c0: fd8f 31be 71ce 4ebd 9bf4 333e bf49 563e
000001d0: ca5c ebbd 92ce 1bbe 6f92 943f 74ce ffbf
000001e0: 3d8b f93d e1d4 453e 5a8f 323d ff0a b7bd
000001f0: 60e4 c1bd 0dea 1b3e 409d 24be 0010 223e
00000200: 22e0 e5bd 9469 463e 4d6c 2dbf 0ebb 5dbf
00000210: a85e cabd 492c 50be 3aa2 4b3d 0dd6 393d
00000220: 63e5 4b3c 8672 043d 52a5 853e 45d0 973d
00000230: f4f7 af3e 8034 873e 2042 43bf 7ed2 163f
00000240: ec76 37be a7b9 f73d 94d2 0dbe b53e bf3d
00000250: 32ba 2c3e 115b 07be 2705 903d b578 97bd
00000260: 4b55 3dbe cf48 0abd c10d 833e aaf2 083d
00000270: 134d b4bd dfe0 e0bd 738f dc3d ec26 edbd
00000280: b848 71bc 6b8b 1ebe 198a 633e da3b 9fbd
00000290: 6af1 6abe e552 d93d 7453 f33f 5e6f 113e
000002a0: 32bf 86bd 2ed6 49bd 0c04 46be 051f 093e
000002b0: 0a8a 723e e81a 9c3c 7490 3e3e 7e26 49be
000002c0: 4304 22be 4363 af3d 527c babe 3b67 b73d
000002d0: 8ef5 ef3d 2123 fa3c 00c9 f43c 7de6 59be
000002e0: c61f 723b 713f a5bb 5369 613e e423 163c
000002f0: cea3 a2bd f48e f0bd efbf cfbf 5766 173e
00000300: 6961 e2bd 1228 ec3d f73f 5bbd c664 1abe
00000310: d88e 05be 464c de3c 2518 3dbe 962b 753d
00000320: 0b77 0bbe e33e 2bbe 9b1a 8cbe 798a 5dbe
00000330: fc2d 60bd bdb2 c2bd 66b5 703e 7d6b ea3d
00000340: 2b43 cf3c ce3b 683c 7a51 b9bd b02f bf3d
00000350: 79b9 953e 9517 893e ea80 2440 9e6c 223e
00000360: 2be2 e9bd 6dd3 aabd ead1 293e 869f 9f3e
00000370: 6b3e 313e 928b e53b 62ab c33c 23ef e23d
00000380: c027 7a3e 8a7b dfbd 5d1e 943f 611d 8e3e
00000390: 725f 813b ac2d e4bd 5f98 1fbe 6f8a 55bd
000003a0: eb3b 61bd f9d5 78bd 7d6d d63c ed5f bc3e
000003b0: bab2 b33c 0779 643e 701a 98bf 3f9d 5d3e
000003c0: 79ac 0dbe 2583 88bd cbd9 98bd 0583 963d
000003d0: 0908 c13b 6b7f cf3e e87a 40bd 20c3 963d
000003e0: 1a50 273d 4629 23bd e239 943f 99cb 1abe
000003f0: 5cd4 03be ce43 3e3e 8090 29be 8d00 3b3b

value.0.bias f4 [32]
0.29644954 -0.16971026 -0.05967973 -0.023010395 0.27546304 -0.15436386 0.022334833 -0.12943394
0.04616131 -0.001445657 -0.10305991 0.04627978 -0.00048622885 -0.50374603 -0.31957772 0.056070138
-0.29827178 0.25406823 0.16733837 0.25831515 0.2712689 0.2332037 0.07195474 -0.31653368
0.09454904 0.1595689 -0.28024155 -0.043704562 -0.37950668 -0.02409557 -0.25715554 -0.06445171
00000000: 3cc8 973e 87c8 2dbe bc72 74bd 4c80 bcbc
00000010: 7e09 8d3e 8f11 1ebe 8af7 b63c 558a 04be
00000020: a413 3d3d 337c bdba 1311 d3bd de8f 3d3d
00000030: 88ec feb9 80f5 00bf b19f a3be cda9 653d
00000040: 14b7 98be 3b15 823e c05a 2b3e e241 843e
00000050: c2e3 8a3e f3cc 6e3e 025d 933d b410 a2be
00000060: eda2 c13d 0866 233e d27b 8fbe 8e03 33bd
00000070: b34e c2be 1364 c5bc e4a9 83be 42ff 83bd

value.2.weight f4 [32, 32]
0.087098256 -0.05605237 0.021216853 -0.15534557 -0.019204011 0.059588548 0.0715685 0.09034324
0.05559409 -0.022364695 -0.101162076 -0.03063784 0.1297944 -0.13547847 0.1311456 0.15067962
0.09467915 0.04725761 0.10244452 -0.057516817 0.20274396 -0.076082595 -0.041935664 -0.048548557
0.07644237 -0.06948491 0.025867674 -0.110337876 -0.07234427 0.18632516 0.04326116 -0.021559086
0.010226263 -0.337237 -0.11715498 -0.062885575 -0.22936755 -0.013142201 0.17849018 -0.048646025
-0.014119304 -0.067232035 0.13131453 0.18323953 -0.036429603 -0.10733396 -0.20745075 -0.070121646
0.09189322 -0.24755183 0.1797358 0.09852735 0.045707725 -0.122236356 0.07888439 -0.12016807
-0.48710233 0.004463996 0.13436125 -0.040744502 0.10216859 0.10340801 0.04023659 0.021136334
-0.0037210872 -0.024221066 -0.16347413 0.21220733 0.13357867 -0.02723772 -8.197838e-05 0.041701224
0.12584414 0.0027048532 -0.060961064 -0.19327024 -0.11903361 0.032290656 -0.086552754 0.08093992
0.10170192 -0.08209667 -0.01125973 0.10020088 0.11398017 -0.12683882 0.09859972 -0.04864657
0.035647728 -0.18659516 0.10617149 0.10406595 0.07616219 0.08075622 -0.24050218 0.16567196
-0.12651463 0.06467141 0.03214856 0.041523453 0.07859123 -0.00075591187 0.13124152 -0.12588339
0.006595493 0.13478988 0.010970272 -0.038645796 0.09658445 0.00058336667 -0.05329607 -0.16788313
0.07006394 -0.040052004 -0.18718664 0.12704073 0.10244451 -0.031390354 0.030633382 0.014741426
0.021285329 -0.031249156 -0.081341006 -0.017513048 0.11200092 -0.14361984 0.03225314 -0.11531798
0.03974419 0.058544144 -0.081410214 -0.31240726 0.051054373 0.03503163 0.1483746 -0.062024422
-0.1261958 -0.08957874 -0.00034274856 0.06181813 -0.91544 -0.19609891 -0.12566246 -0.012077766
0.13889913 -0.054317646 -0.022398917 0.21677661 -0.19011727 -0.016054174 -0.35786486 0.07202832
0.083917 -0.1362392 -0.08820186 0.07160405 0.08832096 -0.029749589 0.051316287 -0.13542466
0.09270627 -0.2744278 0.09658506 0.10913532 0.10619411 0.022784412 0.06997697 -0.1748113
0.071220376 -0.1910072 0.14639321 -0.0024908904 0.029671099 0.24701858 -0.005722256 0.1211749
0.13509691 0.18123946 0.04295265 -0.07224087 0.05947332 0.14823665 -0.18436797 -0.0956399
0.074130535 -0.09439554 0.046410467 -0.11392594 -0.08654624 0.09602522 -0.04493166 -0.019717783
-0.058593042 -2.3852067 -0.14178568 0.035690296 0.088489726 0.007199327 -0.14520985 -0.1243673
-0.19666442 0.07077953 0.12374968 -0.010523249 0.11200873 -0.027050609 -0.025018398 0.122088395
-0.11873823 -0.097816706 -0.04324305 0.14234664 0.02616439 0.10530685 0.03161169 -0.15490893
0.35960242 0.10257479 0.077602156 -0.002916355 0.14176159 -0.08627471 0.021791356 -0.07724236
-0.10500502 -0.14525738 0.1317289 0.13671985 -0.02999662 0.25280222 0.029126957 -0.0582338
0.099029236 0.03956834 0.16934645 -0.06377686 0.09856701 -0.09662737 0.03214484 -0.093312964
-0.07275051 -0.31146353 -0.17506686 0.0041004526 -0.1468066 0.080823146 0.09962157 -0.46328264
0.15960895 -0.22706768 -0.121547155 0.5980232 0.0024037824 -0.03566747 0.20288697 -0.0059240973
00000000: 9260 b23d 2c97 65bd f7ce ad3c e912 1fbe
00000010: bb51 9dbc 1f13 743d 8192 923d e005 b93d
00000020: a1b6 633d 2a36 b7bc 102e cfbd 35fc fabc
00000030: d3e8 043e deba 0abe 084b 063e c24b 1a3e
00000040: 24e7 c13d 3291 413d 6fce d13d c196 6bbd
00000050: 1d9c 4f3e 31d1 9bbd bbc4 2bbd dada 46bd
00000060: d18d 9c3d 1b4e 8ebd 72e8 d33c d3f8 e1bd
00000070: 3c29 94bd 06cc 3e3e 9d32 313d ae9c b0bc
00000080: 0e8c 273c 54aa acbe f3ee efbd 27ca 80bd
00000090: 54df 6abe 6352 57bc 21c6 363e 0e41 47bd
000000a0: a754 67bc f3b0 89bd 5177 063e 25a3 3b3e
000000b0: 3537 15bd e8d1 dbbd f86d 54be f09b 8fbd
000000c0: 8332 bc3d 3a7e 7dbe a90c 383e b5c8 c93d
000000d0: 0638 3b3d 0e57 fabd 248e a13d ad1a f6bd
000000e0: 7a65 f9be b646 923b ff95 093e b5e3 26bd
000000f0: c43d d13d 94c7 d33d 1fcf 243d 1b26 ad3c
00000100: 7cdd 73bb 426b c6bc c365 27be e14c 593e
00000110: d9c8 083e a421 dfbc cfeb abb8 e7ce 2a3d
00000120: 49dd 003e e843 313b 4fb2 79bd a2e8 45be
00000130: e5c7 f3bd 3543 043d 9242 b1bd d4c3 a53d
00000140: 1949 d03d 4d22 a8bd bb7a 38bc 1e36 cd3d
00000150: 6f6e e93d 09e2 01be a6ee c93d a041 47bd
00000160: 5a03 123d cd12 3fbe 7070 d93d 8720 d53d
00000170: ecfa 9b3d 8463 a53d 3446 76be e9a5 293e
00000180: 0d8d 01be 7272 843d 35ae 033d 7f14 2a3d
00000190: 70f4 a03d 6328 46ba 2d64 063e 93e7 00be
000001a0: 011f d83b 5c06 0a3e a8bc 333c 0e4b 1ebd
000001b0: 11ce c53d 13ed 183a fb4c 5abd 8ee9 2bbe
000001c0: af7d 8f3d 920d 24bd dbad 3fbe f716 023e
000001d0: 6dce d13d 2c93 00bd dcf2 fa3c 0686 713c
000001e0: 925e ae3c 3bfe ffbc 1d96 a6bd 8677 8fbc
000001f0: bd60 e53d 1411 13be de1b 043d d52b ecbd
00000200: ceca 223d fccb 6f3d 66ba a6bd d8f3 9fbe
00000210: 641e 513d 547d 0f3d 83ef 173e 520d 7ebd
00000220: 7939 01be 0f75 b7bd efb2 b3b9 0235 7d3d
00000230: 475a 6abf 27ce 48be a9ad 00be d2e1 45bc
00000240: 933b 0e3e 2e7c 5ebd ef7d b7bc b0fa 5d3e
00000250: 1aae 42be 0b84 83bc 103a b7be 9583 933d
00000260: addc ab3d 4a82 0bbe 2da3 b4bd 25a5 923d
00000270: 9fe1 b43d 69b5 f3bc 0731 523d c3ac 0abe
00000280: c9dc bd3d cd81 8cbe 63ce c53d 5782 df3d
00000290: 4c7c d93d 60a6 ba3c 1650 8f3d bc01 33be
000002a0: fddb 913d 6497 43be 1ae8 153e 353e 23bb
000002b0: ce10 f33c 70f2 7c3e c381 bbbb 8c2a f83d
000002c0: d856 0a3e d696 393e 1eef 2f3d 05f3 93bd
000002d0: 4c9a 733d 59cb 173e f5ca 3cbe dade c3bd
000002e0: c0d1 973d 7352 c1bd e718 3e3d 0152 e9bd
000002f0: 283f b1bd dfa8 c43d 430a 38bd 3087 a1bc
00000300: 42ff 6fbd 3aa7 18c0 4430 11be fd2f 123d
00000310: 1a3a b53d 55e8 eb3b e4b1 14be 48b4 febd
00000320: 6662 49be dcf4 903d 7970 fd3d b569 2cbc
00000330: d564 e53d 3d99 ddbc 62f3 ccbc 7b09 fa3d
00000340: 072d f3bd 2054 c8bd a01f 31bd 51c3 113e
00000350: b456 d63c 1eab d73d 427b 013d 72a0 1ebe
00000360: cf1d b83e bb12 d23d e1ed 9e3d 5120 3fbb
00000370: f329 113e ccb0 b0bd c983 b23c 3e31 9ebd
00000380: df0c d7bd 5abe 14be f1e3 063e 4a00 0c3e
00000390: 79bb f5bc 4b6f 813e a89b ee3c 9186 6ebd
000003a0: d7cf ca3d 6912 223d 2869 2d3e 719d 82bd
000003b0: 80dd c93d 92e4 c5bd 4faa 033d de1a bfbd
000003c0: 38fe 94bd 2678 9fbe ba44 33be 175d 863b
000003d0: 7854 16be 9b86 a53d 6506 cc3d 6233 edbe
000003e0: 8770 233e 6e84 68be b7ed f8bd 0c18 193f
000003f0: c788 1d3b 0e18 12bd 9ac1 4f3e ee1e c2bb

value.2.bias f4 [32]
-0.0155755915 0.09952893 -0.19955108 0.16835332 -0.17261091 -0.084209 0.05083463 -0.23545252
0.30971473 0.29223007 0.019697495 -0.07415972 0.13525203 -0.17329566 0.22808447 0.17377377
-0.052122056 -0.032251284 -0.0005877293 -0.0133645255 -0.1546276 0.10542946 0.18338737 -0.0386977
0.09892922 -0.06131313 -0.09534031 -0.06367286 0.16366568 -0.15377958 0.20732851 0.021216588
00000000: c430 7fbc d3d5 cb3d 1e57 4cbe d064 2c3e
00000010: eac0 30be c575 acbd f937 503d 771a 71be
00000020: ee92 9e3e 2e9f 953e a45c a13c 0de1 97bd
00000030: 827f 0a3e 6b74 31be fa8e 693e c0f1 313e
00000040: f07d 55bd ec19 04bd d811 1aba e2f6 5abc
00000050: b356 1ebe 67eb d73d e6c9 3b3e 7b81 1ebd
00000060: 679b ca3d 7a23 7bbd c841 c3bd eb66 82bd
00000070: fa97 273e 6578 1dbe ed4d 543e 69ce ad3c

value.4.weight f4 [1, 32]
-0.082662284 0.03477703 -0.06993577 0.053296406 0.13192673 -0.019150084 -0.12473328 -0.059051916
0.029839534 0.0705867 0.036597963 0.07569095 0.10365762 0.013702833 0.11089351 0.14115047
0.04224573 0.04924335 0.15076886 0.05065661 -0.049020547 -0.13577966 -0.2060727 0.051896304
0.1182389 0.03213202 0.06568305 0.07759113 0.04568881 -0.026987031 0.060906302 0.10434691
00000000: d84a a9bd 5c72 0e3d 7c3a 8fbd 554d 5a3d
00000010: cd17 073e a3e0 9cbc 2974 ffbd 6ce0 71bd
00000020: 0a72 f43c c38f 903d bfe7 153d db03 9b3d
00000030: 724a d43d d981 603c 231c e33d c089 103e
00000040: dc09 2d3d 65b3 493d 2763 1a3e 4e7d 4f3d
00000050: c5c9 48bd d309 0bbe b904 53be 3891 543d
00000060: 3d27 f23d dd9c 033d d684 863d 19e8 9e3d
00000070: 3124 3b3d e813 ddbc e378 793d d5b3 d53d

actor.0.weight f4 [32, 10]
-0.26278389 -0.07694966 -0.35596517 0.17413801 0.028136697 0.46246237 0.1084007 -0.05465395
0.1808355 0.22728236 -0.051313657 -0.3268338 -0.3115861 -0.08173978 -0.2479027 0.04465129
0.33092117 0.05403134 -0.10904334 0.17747304 0.33421406 -0.15108946 0.38715738 -0.022310762
-0.5594207 0.32573602 -0.1740689 -0.37017447 0.08358592 0.11504859 -0.088965386 0.36215872
0.2923726 -0.010227146 -0.017400917 0.06080269 -0.4226246 -0.19719434 -0.03581667 -0.22800137
0.4294758 0.026581353 -0.21793123 0.5279299 0.3789437 0.16780056 0.12684308 -0.3206919
-0.17521645 -0.31559324 -0.045127105 -0.45971724 0.10555981 0.36145 -0.04369508 0.436024
0.03349845 -0.23741877 0.38677052 0.35478827 0.053249408 -0.18616351 0.68603057 -0.020006835
0.13725908 -0.05999885 -0.112557285 -0.09594626 -0.3344635 0.23872979 0.21883178 0.15420195
-0.10603086 -0.069365695 -0.027017972 -0.63749206 -0.09357719 0.18452917 -0.25403097 -0.23049954
-0.26840848 0.35400617 -0.14774087 0.4964513 -0.06409644 -0.056992017 -0.13399841 0.21897218
-0.40842274 -0.19151981 -0.27401808 0.23086254 0.4529032 0.25863487 0.19959734 0.4607804
0.26750702 0.2704528 0.079116024 0.07002755 -0.26649797 -0.24721174 -0.33440372 -0.0641327
-0.121867456 -0.48317546 0.014991452 0.067145444 -0.49030712 -0.31395462 -0.0010500799 0.25807813
-0.6485567 0.22674128 0.021245793 0.082052946 0.023688035 0.13099287 -0.007399033 0.28616753
-0.3403168 -0.3568254 0.45108336 -0.14576483 0.50348055 -0.12166345 -0.14085212 -0.07073421
0.07469928 -0.040625185 0.29407084 0.18689583 0.34786162 -0.27234614 0.45446882 0.08318584
0.026046682 -0.4009711 0.0007587292 0.122533046 0.21862297 -0.11240542 -0.120901436 0.5793551
-0.2331596 -0.293704 0.22318037 0.1177314 -0.2131629 0.124614134 0.14665827 -0.19898172
0.6016144 0.22951986 0.36669475 0.09008857 0.11850522 -0.09942015 -0.079001166 -0.008597035
-0.18280005 -0.43851542 0.3897982 0.039509032 0.28333008 0.38246113 -0.2745606 -0.3075178
0.16948856 0.24377598 0.60220224 0.21454217 0.012691112 -0.011916787 -0.111302406 0.1861069
-0.19315478 0.13312756 -0.4420677 -0.31312558 0.24492586 0.07181612 -0.12661394 -0.15393157
-0.5209697 -0.13082609 -0.112599865 0.24700145 0.08878524 -0.36902094 -0.053361546 -0.2775061
-0.09155714 -0.22795783 -0.34520447 0.5760209 0.092140146 -0.16636494 -0.15438189 -0.14660914
0.016325824 -0.0017091093 0.3296774 -0.52001125 -0.1301051 0.20149422 -0.26306382 -0.389122
0.20024805 0.27485403 -0.08330644 0.0040872367 -0.6315835 -0.17111745 0.0556246 -0.07672942
0.025860598 0.56983095 0.104552105 0.029542947 -0.21197325 -0.0885931 0.34356052 0.41190347
0.12928928 -0.3349283 0.024819378 0.10536919 -0.17523086 -0.42519027 -0.28000483 -0.26153913
0.7068942 0.22416127 -0.47107506 -0.03678638 -0.036403187 -0.07575792 0.050917447 0.07216434
0.28027955 0.035342522 -0.46055916 -0.022499302 0.23162608 -0.06370331 0.082601406 -0.10016674
-0.21831447 -0.29805002 -0.44255993 -0.5400732 -0.3046369 0.0016599431 0.016701438 0.12344455
00000000: 9c8b 86be c997 9dbd 1141 b6be 3c51 323e
00000010: ee7e e63c dec7 ec3e 3001 de3d d2dc 5fbd
00000020: f12c 393e b5bc 683e 452e 52bd c356 a7be
00000030: 3788 9fbe 3067 a7bd 35da 7dbe 45e4 363d
00000040: 806e a93e f74f 5d3d 1d52 dfbd 7ebb 353e
00000050: 1b1e ab3e 32b7 1abe 7e39 c63e 0fc5 b6bc
00000060: 3236 0fbf dfc6 a63e 1e3f 32be 8287 bdbe
00000070: 182f ab3d 989e eb3d 7c33 b6bd de6c b93e
00000080: ddb1 953e c28f 27bc 5e8c 8ebc 3e0c 793d
00000090: 4062 d8be 50ed 49be 80b4 12bd 3179 69be
000000a0: 41e4 db3e 23c1 d93c 5d29 5fbe 6a26 073f
000000b0: e904 c23e e9d3 2b3e 27e3 013e bb31 a4be
000000c0: f16b 33be 7095 a1be 33d7 38bd 0f60 ebbe
000000d0: be2f d83d f90f b93e 9df9 32bd 8a3e df3e
000000e0: ac35 093d e81d 73be c906 c63e cfa6 b53e
000000f0: 0d1c 5a3d a6a1 3ebe b39f 2f3f 60e5 a3bc
00000100: a58d 0c3e 5bc1 75bd 6f84 e6bd 797f c4bd
00000110: cd3e abbe 9575 743e 7015 603e 1ee7 1d3e
00000120: b526 d9bd 9a0f 8ebd cb54 ddbc ae32 23bf
00000130: 66a5 bfbd 37f5 3c3e 5910 82be 1208 6cbe
00000140: d66c 89be 4c40 b53e 6249 17be dd2e fe3e
00000150: ff44 83bd 7670 69bd e136 09be 3e3a 603e
00000160: c91c d1be c51d 44be 194c 8cbe 3b67 6c3e
00000170: eee2 e73e ca6b 843e 3f63 4c3e 69eb eb3e
00000180: aef6 883e ca78 8a3e 9507 a23d 9b6a 8f3d
00000190: 6c72 88be 1325 7dbe f736 abbe 0158 83bd
000001a0: a595 f9bd c662 f7be b59e 753c 8d83 893d
000001b0: 8909 fbbe a9be a0be d6a2 89ba d122 843e
000001c0: d007 26bf de2e 683e a80b ae3c 600b a83d
000001d0: 690d c23c ff22 063e 9673 f2bb 8d84 923e
000001e0: 013e aebe d2b1 b6be 66f4 e63e 6043 15be
000001f0: 1ae4 003f b02a f9bd 8a3b 10be 19dd 90bd
00000200: f0fb 983d 9866 26bd 7490 963e 9f61 3f3e
00000210: eb1a b23e f470 8bbe 23b0 e83e 565d aa3d
00000220: da5f d53c 164c cdbe 74e5 463a 9bf2 fa3d
00000230: b3de 5f3e d034 e6bd 2c9b f7bd 9e50 143f
00000240: 64c1 6ebe 5f60 96be 6589 643e 291d f13d
00000250: 6047 5abe b235 ff3d 962d 163e ddc1 4bbe
00000260: 6703 1a3f 4107 6b3e 6abf bb3e 5b80 b83d
00000270: ddb2 f23d cb9c cbbd 5dcb a1bd 94da 0cbc
00000280: f02f 3bbe 1885 e0be a193 c73e 39d4 213d
00000290: a410 913e f2d1 c33e 3593 8cbe f972 9dbe
000002a0: 698e 2d3e 69a0 793e ed29 1a3f f1b0 5b3e
000002b0: 62ee 4f3c a13e 43bc 84f2 e3bd cf92 3e3e
000002c0: 5eca 45be 9752 083e b356 e2be ff51 a0be
000002d0: d8cd 7a3e 5414 933d 16a7 01be 3da0 1dbe
000002e0: 455e 05bf 46f7 05be c29a e6bd f3ed 7c3e
000002f0: 09d5 b53d 50f0 bcbe a391 5abd 4815 8ebe
00000300: 4f82 bbbd c76d 69be a4be b0be 1b76 133f
00000310: f9b3 bc3d 925b 2abe 4916 1ebe b520 16be
00000320: bcbd 853c 3104 e0ba 7acb a83e 751f 05bf
00000330: 453a 05be 8054 4e3e 4db0 86be 003b c7be
00000340: d30d 4d3e abb9 8c3e 919c aabd 3aee 853b
00000350: 75af 21bf 6a39 2fbe 9fd6 633d 5024 9dbd
00000360: 9bd9 d33c 71e0 113f 6a1f d63d 0d04 f23c
00000370: 840f 59be 4d70 b5bd 2ae7 af3e 03e5 d23e
00000380: 6964 043e b97b abbe 0252 cb3c cdcb d73d
00000390: b86f 33be 8ab2 d9be cb5c 8fbe 75e8 85be
000003a0: 05f7 343f 888a 653e c030 f1be 51ad 16bd
000003b0: 821b 15bd f826 9bbd d08e 503d e6ca 933d
000003c0: cd80 8f3e 52c3 103d 69ce ebbe 7550 b8bc
000003d0: 632f 6d3e e276 82bd ed2a a93d 3824 cdbd
000003e0: d48d 5fbe 039a 98be 3797 e2be 3d42 0abf
000003f0: 5ef9 9bbe 7392 d93a 74d1 883c 7fd0 fc3d

actor.0.bias f4 [32]
-0.05663597 -0.3223687 0.06288942 -0.14420165 0.20480475 -0.116463654 0.24575901 -0.38406852
-0.13983066 -0.20379116 -0.23586667 -0.076220885 -0.20277299 -0.2835703 -0.6013015 0.31677535
0.28440937 0.13506566 -0.3001505 0.3712515 0.19803756 -0.47107795 -0.2782745 0.22501457
-0.24859224 0.29219875 0.13550717 -0.1678088 -0.0760727 0.17333353 0.14377435 -0.020154355
00000000: 1efb 67bd 830d a5be 2bcc 803d 99a9 13be
00000010: 56b8 513e 7f84 eebd 40a8 7b3e a1a4 c4be
00000020: c52f 0fbe a1ae 50be 0887 71be b219 9cbd
00000030: b9a3 4fbe 2030 91be e5ee 19bf 6130 a23e
00000040: 1b9e 913e a74e 0a3e 54ad 99be ad14 be3e
00000050: 5cca 4a3e 2131 f1be ff79 8ebe 386a 663e
00000060: f78e 7ebe 139b 953e 64c2 0a3e 12d6 2bbe
00000070: 01cc 9bbd 587e 313e 9539 133e bf1a a5bc

actor.2.weight f4 [32, 32]
0.07198098 -0.32746494 0.04530616 -0.010966843 0.21316703 0.56298 -0.31168595 0.084515765
-0.044280168 0.075888276 0.23803563 0.044889163 -0.13716394 0.048612364 0.14854465 0.21395399
0.15465079 -0.13588026 -0.16674563 -0.045393627 -0.3770098 0.22622314 0.20446774 -0.17289071
-0.07063145 -0.22300857 -0.083208896 -0.41410738 -0.10858607 -0.12078167 0.31314966 0.22130197
0.2382719 0.15822032 -0.40944085 -0.35728464 -0.9075949 0.009228079 -0.05261956 0.367426
0.15662283 -0.22562712 0.068390794 0.1409812 -0.081269816 -0.35655138 0.010719315 -0.87159467
0.12590456 0.11234266 0.086238 0.12011182 -0.12594852 0.22598946 -0.31730217 0.28996086
-0.10586679 0.14209294 0.27791694 0.19368471 -0.10877635 0.16095395 0.033882506 0.0850669
-0.2791079 -0.28101742 0.09623897 0.019196361 -0.9950757 0.084374405 0.12342118 -0.26475534
0.33475846 -0.53000754 -0.15509757 0.7170874 -0.34598795 -0.4603844 -0.1608962 -0.34771866
0.06417643 -0.16844782 -0.029508684 0.14942046 0.081039175 -0.3179837 0.42781582 0.20831962
-0.005167829 -0.26682678 0.3595324 0.14703982 0.29063696 -0.20693085 -0.73115486 -0.81180286
-0.2014933 0.081016846 -0.05766868 -0.34180737 -0.15865768 0.18975817 0.0010949264 0.17139369
-0.0418836 -0.19041394 -0.12218537 0.21936156 0.30491403 0.038275786 0.053060498 0.5117506
0.25824764 -0.0332912 0.20523469 -0.077547036 -0.1538419 0.2208153 -0.043069374 0.26599765
0.21759982 0.14055613 -0.32765317 -0.041855454 -0.13792181 -0.06989944 0.20928127 -0.1572671
-0.28056684 0.26517543 -0.09742341 0.1569796 0.13504748 -0.40282595 -0.16640583 -0.013481321
-0.4129412 -0.1488394 0.14956476 -0.3175909 0.2884706 0.055462494 -0.28549513 0.16342923
0.17703457 0.34814346 -0.1480576 0.16097169 0.06786835 0.070012644 -0.45360646 0.040935922
-0.15269417 0.10402209 0.28645793 -0.073208936 0.2396639 0.20137978 0.019757178 -0.08124609
0.12986451 0.15301551 0.10841572 0.21579804 0.114551455 -0.118533865 0.1819599 -0.08924973
0.06629532 0.121279575 0.22739565 0.10031073 0.16709751 0.08442605 0.13156317 -0.24954079
-0.20574355 0.08392344 -0.14862034 -0.07214319 0.17494898 0.22499542 0.25488484 0.03644743
0.061193295 -0.0973479 0.1614265 0.062471755 0.04166364 0.124487765 0.0819445 0.14234176
0.17564979 -0.024697872 0.23531064 -0.06505873 0.21880545 0.4447929 0.05841921 0.022668304
-0.1805435 0.01093893 -0.03735315 -0.16655122 -0.36664456 -0.28596058 -0.21068694 -0.38244393
-0.2955855 0.1740338 0.29993358 0.3703501 -0.20742258 -0.059316136 0.061865613 -0.033586174
0.022886144 0.059871618 -0.025326153 0.10662331 0.12680715 0.16820589 -0.15342778 0.25430414
0.06578297 -0.502372 -0.056009308 -0.13984625 -0.1882416 0.22636798 0.14913 0.12770008
0.16993468 0.19618647 -0.18121074 -0.04083404 -0.07121281 0.25475696 0.26256415 -0.17971273
0.24938656 -0.79120207 -0.5022715 -0.09772521 0.13653755 -0.06454061 0.36916977 -0.28382757
-0.0027665691 0.0089863865 -0.021272186 -0.28353122 -0.04152691 0.2882711 -0.0105145825 -0.08740597
00000000: c46a 933d 7ca9 a7be f492 393d 46ae 33bc
00000010: 7548 5a3e 751f 103f 4d95 9fbe 9a16 ad3d
00000020: 1f5f 35bd 506b 9b3d 9dbf 733e b3dd 373d
00000030: b474 0cbe c21d 473d 171c 183e c116 5b3e
00000040: c75c 1e3e 3224 0bbe 5ebf 2abe abee 39bd
00000050: 6e07 c1be 0aa7 673e fe5f 513e 430a 31be
00000060: 39a7 90bd 5c5c 64be 6d69 aabd e205 d4be
00000070: 6062 debd 615c f7bd 2755 a03e fc9c 623e
00000080: 8dfd 733e 8204 223e 3ba2 d1be 03ee b6be
00000090: 2458 68bf 5e31 173c 9c87 57bd 431f bc3e
000000a0: bc61 203e cc0a 67be 7910 8c3d 605d 103e
000000b0: ca70 a6bd e78d b6be 11a0 2f3c d420 5fbf
000000c0: 20ed 003e e913 e63d 8c9d b03d 30fd f53d
000000d0: a6f8 00be c869 673e 6e75 a2be c075 943e
000000e0: b0d0 d8bd d080 113e 214b 8e3e 4955 463e
000000f0: 23c6 debd 1dd1 243e 62c8 0a3d 8e37 ae3d
00000100: 3be7 8ebe 84e1 8fbe f018 c53d b041 9d3c
00000110: 48bd 7ebf 7dcc ac3d 3ec4 fc3d 038e 87be
00000120: 7665 ab3e 93ae 07bf e6d1 1ebe 0a93 373f
00000130: 5525 b1be 81b7 ebbe f9c1 24be 2e08 b2be
00000140: ef6e 833d 967d 2cbe 32bc f1bc ad01 193e
00000150: def7 a53d c2ce a2be ad0a db3e bd51 553e
00000160: e456 a9bb 859d 88be a114 b83e 9b91 163e
00000170: 5ece 943e aee5 53be f72c 3bbf 50d2 4fbf
00000180: 4254 4ebe 29ec a53d fe35 6cbd 6001 afbe
00000190: 2977 22be f74f 423e a283 8f3a d481 2f3e
000001a0: 238e 2bbd dffb 42be 533c fabd 51a0 603e
000001b0: b11d 9c3e 12c7 1c3d f755 593d 1602 033f
000001c0: 0939 843e 5a5c 08bd 0b29 523e fbd0 9ebd
000001d0: bb88 1dbe 681d 623e 8369 30bd d830 883e
000001e0: 7dd2 5e3e f2ed 0f3e 28c2 a7be a070 2bbd
000001f0: 603b 0dbe 7027 8fbd d44d 563e a00a 21be
00000200: 75a6 8fbe 13c5 873e ed85 c7bd 43bf 203e
00000210: e349 0a3e 343f cebe 4a66 2abe c2e0 5cbc
00000220: 076d d3be 5b69 18be 8127 193e 469b a2be
00000230: 6bb2 933e a42c 633d 6b2c 92be fe59 273e
00000240: 8d48 353e dc3f b23e 699c 17be c3d5 243e
00000250: 90fe 8a3d ca62 8f3d 1b3f e8be 6dac 273d
00000260: dc5b 1cbe 8909 d53d 9daa 923e 91ee 95bd
00000270: 746a 753e 8036 4e3e ced9 a13c 5a64 a6bd
00000280: 34fb 043e 19b0 1c3e 1009 de3d 29fa 5c3e
00000290: f499 ea3d e2c1 f2bd b253 3a3e 90c8 b6bd
000002a0: d7c5 873d 6d61 f83d 68da 683e b66f cd3d
000002b0: 9c1b 2b3e 91e7 ac3d 7fb8 063e 9f87 7fbe
000002c0: 70ae 52be 0de0 ab3d ee2f 18be cfbf 93bd
000002d0: d325 333e 3365 663e 4480 823e e649 153d
000002e0: d2a5 7a3d 565e c7bd fd4c 253e 62e2 7f3d
000002f0: 7ea7 2a3d 71f3 fe3d 85d2 a73d 0ac2 113e
00000300: 8add 333e 3153 cabc 46f5 703e 833d 85bd
00000310: 890e 603e e5bb e33e fb48 6f3d e1b2 b93c
00000320: 65e0 38be 3339 333c 9eff 18bd 678c 2abe
00000330: d6b8 bbbe 6d69 92be 51be 57be b1cf c3be
00000340: fc56 97be eb35 323e e590 993e 879e bd3e
00000350: 9666 54be 7af5 72bd cc66 7d3d a891 09bd
00000360: b97b bb3c f13b 753d cb78 cfbc 525d da3d
00000370: bcd9 013e 2a3e 2c3e 2c1c 1dbe 2734 823e
00000380: 39b9 863d 749b 00bf 046a 65bd db33 0fbe
00000390: 68c2 40be 02cd 673e 89b5 183e cfc3 023e
000003a0: 5b03 2e3e 1be5 483e 4f8f 39be 9841 27bd
000003b0: 06d8 91bd 816f 823e cf6e 863e 9d06 38be
000003c0: 315f 7f3e 388c 4abf dd94 00bf 2824 c8bd
000003d0: 80d0 0b3e de2d 84bd d203 bd3e d951 91be
000003e0: 544f 35bb a33b 133c 0243 aebc 012b 91be
000003f0: 1f18 2abd 4598 933e 5b45 2cbc e701 b3bd

actor.2.bias f4 [32]
-0.08235398 -0.19382474 -0.17658994 -0.28962436 0.16555105 0.30893055 -0.24578753 -0.17390984
0.03120656 -0.23322196 0.2544011 -0.4394209 -0.049076162 0.20030157 -0.006340032 0.022188812
0.052990768 0.14524725 0.022560721 0.2506984 0.17428727 0.2014924 0.040717445 -0.17212053
-0.190223 -0.23821932 0.08034305 -0.15279779 0.0602598 0.015636804 0.20255424 0.03773649
00000000: 34a9 a8bd fe79 46be fed3 34be a549 94be
00000010: 3786 293e 252c 9e3e baaf 7bbe 6c15 32be
00000020: e6a4 ff3c bdd1 6ebe dc40 823e c7fb e0be
00000030: 1604 49bd db1b 4d3e 0bc0 cfbb 50c5 b53c
00000040: d90c 593d b2bb 143e 43d1 b83c 8a5b 803e
00000050: 5d78 323e 0654 4e3e 56c7 263d 5d40 30be
00000060: d1c9 42be c4ef 73be e68a a43d 0677 1cbe
00000070: fbd2 763d c118 803c 616a 4f3e 9491 1a3d

actor.4.weight f4 [2, 32]
-0.43757486 -0.20890872 0.16527086 -0.44735947 -0.10223181 0.17851478 -0.29056662 0.078512914
-0.39959604 -0.13211973 0.36807698 -0.3858045 -0.60633695 0.6477319 0.27193594 -0.28919756
0.32263973 -0.09961342 0.17594959 0.041091353 0.3664485 0.24441569 -0.115224555 -0.26354924
0.18937437 -0.48161042 0.3796344 -0.47585076 -0.4272735 -0.19197771 0.10685736 -0.4346948
-0.10081057 -0.28069472 -0.8327914 -0.040744603 -0.4048664 -0.01394098 0.39878258 1.3691652
0.58678895 0.37332428 -0.23582649 -0.60150135 -0.27505597 1.3629823 -0.27712297 0.43569845
0.37570062 0.4687535 0.16574243 0.3160356 0.87085927 0.53230774 -0.19566861 0.2924782
0.030799266 0.0051022694 -0.19749635 0.20889638 0.15195988 -0.25125602 -0.31731212 0.6959921
00000000: d009 e0be 2bec 55be c43c 293e 4d0c e5be
00000010: e95e d1bd 94cc 363e 26c5 94be 61cb a03d
00000020: da97 ccbe 654a 07be 9674 bc3e 2b88 c5be
00000030: e638 1bbf c2d1 253f 303b 8b3e b411 94be
00000040: 0931 a53e 1f02 ccbd 212c 343e 684f 283d
00000050: 239f bb3e 1b48 7a3e dafa ebbd edef 86be
00000060: 5beb 413e a495 f6be 715f c23e b6a2 f3be
00000070: 98c3 dabe ce95 44be 08d8 da3d 5190 debe
00000080: c675 cebd 38b7 8fbe d131 55bf d0e3 26bd
00000090: a64a cfbe b568 64bc 3b2d cc3e ce40 af3f
000000a0: cd37 163f 5c24 bf3e 807c 71be fefb 19bf
000000b0: 23d4 8cbe 3476 ae3f 10e3 8dbe de13 df3e
000000c0: d55b c03e 7500 f03e 62b8 293e 6bcf a13e
000000d0: a2f0 5e3f 5245 083f 5a5d 48be b4bf 953e
000000e0: be4e fc3c f030 a73b 7c3c 4abe efe8 553e
000000f0: 5f9b 1b3e a1a4 80be bc76 a2be 8a2c 323f

actor.4.bias f4 [2]
0.036513764 -0.20856285
00000000: 758f 153d 8091 55be
