results/SandingEnvMiddle/ddpg/model/model_parameters_1.pt (torch, 32066 bytes, 22 tensors)

value.0.weight f4 [32, 12]
000000 cc fb ae bb da ec d1 bc ea fb ee bc 5e b4 df bc
       -0.005340075 -0.025625635 -0.029172856 -0.027307685
000010 30 4e 28 3e 2a c0 b2 3b 21 b5 8a be 7b 14 b3 bd
       0.16436076 0.0054550366 -0.27091315 -0.08744141
000020 48 d4 31 3e 14 d9 7b be 49 82 14 be 40 3d 62 be
       0.17366135 -0.24594527 -0.14502825 -0.22093678
000030 fa 7a c2 3c 90 a0 c5 bd 11 65 3d 3c cd 04 a5 3b
       0.02374028 -0.096497655 0.011559741 0.0050359727
000040 92 fb 16 bd 3b a5 fc 3c 2e b0 96 3e 55 da 4b be
       -0.03686101 0.030840507 0.2943129 -0.19907506
000050 f9 77 43 3e 0a 9e 8c bc d3 c3 06 c0 75 7b 0e 3f
       0.19088735 -0.017165203 -2.1057022 0.5565713
000060 91 e7 76 3e 0b f9 16 3e 06 23 81 3d 4f 49 2a bc
       0.24111773 0.1474344 0.06305508 -0.010393455
000070 db 79 35 bd d8 ac 15 3c 83 12 90 be 09 e8 84 bd
       -0.044305664 0.009135447 -0.28139123 -0.0648957
000080 e0 a4 1b 3d b2 89 7c 3e f3 3b 65 3e 3c 97 72 3e
       0.037999034 0.24661902 0.2238615 0.23690504
000090 27 5e 4a 3d 2b f5 e6 bc 09 6b f5 3d 81 14 88 be
       0.049406197 -0.028193077 0.11983306 -0.26578143
0000a0 fb f6 31 3d 9b 1e ce bd 23 7b 1a 3e d2 7b ce 3d
       0.04344843 -0.10064431 0.15086035 0.100822106
0000b0 35 1a 4f 3e 6b ae 27 3e 3e 41 99 be d3 9a 80 3e
       0.20224841 0.16375129 -0.29932588 0.25118122
0000c0 30 e8 f6 3d 23 ab 51 bd 17 30 3e 3d 10 cc e2 3d
       0.12056005 -0.0511886 0.04643258 0.11074078
0000d0 43 df f8 3d 43 26 05 3d e4 70 a0 3d c7 70 1e be
       0.12151959 0.032507192 0.07834032 -0.15472709
0000e0 77 db ad bd 3d c6 e2 bc 5d 91 2c bf 72 cd 6c 3d
       -0.08489125 -0.027682418 -0.67409307 0.057813115
0000f0 c0 7d 57 bd 98 49 28 3e f9 99 2a 3d 4a 99 85 3d
       -0.05261016 0.16434324 0.041650746 0.06523378
000100 ae ad e8 bd 56 a8 11 3e b6 72 38 3e 6c 7a 80 3d
       -0.11361252 0.14224371 0.18012509 0.0627335
000110 6b 38 1f 3d 07 62 83 3e e1 39 7c 3f 4c 96 0b 3e
       0.038872164 0.25660726 0.98525816 0.13631552
000120 1f 21 df bc 68 44 9c 3c 16 18 3a bd 08 41 a6 bc
       -0.027237473 0.019075587 -0.045433126 -0.020294681
000130 79 45 4d be 34 93 88 bd 7d 99 3a be 48 bb 49 bd
       -0.20046033 -0.06668702 -0.18222614 -0.04925087
000140 67 fb 2e bb 46 03 17 be ad 0f b6 bd c2 e9 95 3d
       -0.002670014 -0.14747342 -0.08889709 0.073199764
000150 1e f1 3e be 72 3f 4f 3e 32 c7 cf 3c 7f c7 af 3d
       -0.18646666 0.20239046 0.025363538 0.08582973
000160 88 d6 e0 bd ba 3b f0 bd 55 23 52 be a2 13 91 be
       -0.109784186 -0.11730142 -0.2052129 -0.2833529
000170 d9 9d 7c 3d 2f 85 92 bd dd 3b c4 be 77 07 01 3d
       0.061673973 -0.07154309 -0.38326922 0.03150126
000180 39 94 18 3c e1 c9 0e 3d aa 5e 57 3e 6f dc 26 be
       0.009312683 0.034860495 0.21032205 -0.16295026
000190 dd 12 e7 3c 5a c8 80 3e 3c 1e 42 be 58 1d d7 3c
       0.028207237 0.25152856 -0.18956846 0.02625911
0001a0 7f d0 8a bd b8 d4 3e 3c db 9c b5 ba 89 ea 77 be
       -0.06778049 0.011647396 -0.0013855951 -0.24210562
0001b0 0a 3b 00 bb 74 05 78 bd 4d 38 af bc ff b4 af 3e
       -0.001956644 -0.060552076 -0.021389151 0.34317777
0001c0 51 ca c9 bd 60 a3 0c 3e 2f 3a 43 be f5 44 4a 3b
       -0.09853042 0.13734198 -0.19065164 0.0030863855
0001d0 af 2a 47 be 47 52 3f 3e 76 f4 ce 3e 85 e7 5d be
       -0.19449876 0.1868373 0.40420884 -0.21670349
0001e0 01 da 0e 3e 2a a5 5e be 29 65 a9 be 0c 31 b4 bd
       0.1395035 -0.21742693 -0.33084992 -0.087984174
0001f0 50 46 19 3d 5f 95 a8 bc 4d 87 b4 3d 91 29 bf 3e
       0.03742057 -0.020579038 0.08814869 0.373364
000200 3d 21 d9 bd bd 57 78 3d 40 a4 89 3f 0c 10 59 3c
       -0.10602043 0.06063055 1.075325 0.013248455
000210 8e 34 98 3d 84 56 db bd ea 69 95 3d cc 44 36 be
       0.07431899 -0.10709861 0.07295592 -0.17799681
000220 72 07 80 bc 12 76 c9 bc 3a e5 08 be ff f2 8c bd
       -0.01562855 -0.024592433 -0.13368693 -0.06882285
000230 07 be 0b 3e fb 72 66 3e c5 76 8a 3f 42 8b 88 3d
       0.13646708 0.22504799 1.0817496 0.06667186
000240 80 4c 8d 39 66 f2 4d 3e ae 7a b2 3d 26 67 d7 bd
       0.00026950613 0.20111999 0.087148055 -0.10517721
000250 6d c8 94 bd 2a de 98 3d d2 fe 00 be ed 0f 97 bd
       -0.07264791 0.074642494 -0.12597206 -0.073760845
000260 0f 02 8b 3d 7e 32 a7 be d2 ae 18 be 35 a8 99 3c
       0.06787502 -0.3265571 -0.14910439 0.018756965
000270 b6 27 8c bd 24 40 7d bb f1 da de bc 27 36 9c 3d
       -0.06843512 -0.0038642967 -0.027204009 0.07627516
000280 35 65 83 3d 95 12 91 be fc eb 7a 3e 32 a5 84 3e
       0.06415788 -0.2833449 0.24504083 0.25907284
000290 6c d9 59 3c af 84 ee bc f5 89 c2 be 04 8d a4 3e
       0.013296466 -0.029116003 -0.37995878 0.32138836
0002a0 05 4e 14 3e b8 a0 98 be 64 76 8f be 24 44 10 3e
       0.14482887 -0.2981012 -0.28020012 0.14088494
0002b0 10 bb 50 3d e4 d5 8e 3c a5 4c 63 3e 71 9f 93 3e
       0.050959647 0.017435975 0.22197206 0.28832582
0002c0 07 a2 ea 3d 1f 23 c2 3d ad 0e a2 bf f3 c4 d7 bd
       0.114566855 0.09479355 -1.2660729 -0.10535612
0002d0 42 97 31 be d6 9a 0e 3e bf 35 cc 3c 65 d0 52 be
       -0.17342857 0.13926253 0.024927972 -0.20587309
0002e0 f6 26 85 bb 4b 39 bb ba f7 9f 37 3e 6c 80 ad 3e
       -0.0040634824 -0.0014284042 0.17932115 0.3388704
0002f0 1f 2e a1 3d 99 9e 1e be 6c 38 5b 3e f6 ef 13 3f
       0.07870125 -0.15490188 0.21408242 0.57788026
000300 71 0e 87 bd 1d e4 e3 3d f9 55 c2 bd 92 d8 bf 3d
       -0.06594551 0.111274935 -0.09489054 0.093674794
000310 85 ef da 3b a8 b2 d4 3d c8 45 7a be 36 a4 17 3e
       0.006681385 0.103856385 -0.24440682 0.14808735
000320 4b a8 84 3e a1 ce 2a 3e 6e 98 12 3e 7d 7d dd 3e
       0.25909647 0.16680385 0.1431596 0.43259802
000330 de f0 d3 bc 78 ce 0a be 21 05 2d 3c 30 da 34 bb
       -0.02587169 -0.13555324 0.010560305 -0.002759587
000340 70 da 27 bc 9b b9 ff 3b 0e e5 ce bc f0 fe 37 3d
       -0.010244951 0.0078041083 -0.025255706 0.04492086
000350 fd a5 5e 3e 45 e1 9d bd 68 f1 13 c0 73 71 4f 3e
       0.21743007 -0.077089824 -2.3116093 0.20258121
000360 69 4e 26 bd d5 e0 08 3d 50 e3 09 3e fc e1 a4 3e
       -0.04060212 0.03341754 0.13465619 0.32203662
000370 92 6c 5f bd af 9f 0f be ce 5c 2c 3e 03 bc 79 bd
       -0.0545469 -0.14025758 0.16832277 -0.060970318
000380 7f 4e 1d be 3b e6 bb bd 5a 21 a9 be b8 65 c6 3d
       -0.15361975 -0.09174772 -0.33033258 0.0968737
000390 8d 34 1f be dc 99 8f ba 93 77 72 3e 26 1b 05 be
       -0.1554739 -0.0010955888 0.23678426 -0.12998638
0003a0 8a 75 ee 3c ce 28 b3 bd 94 02 6a 3d 2a 97 89 be
       0.029108781 -0.08748017 0.057131365 -0.26873142
0003b0 d6 73 d7 3d dc 57 bb 3c ff 81 04 3f 41 c6 e4 3e
       0.10520141 0.022869043 0.5176086 0.44682506
0003c0 c6 6f e3 bc b2 74 a0 bd 55 e3 dc bd 96 0b 02 bd
       -0.027763259 -0.07834758 -0.10785548 -0.03174933
0003d0 84 1f 02 be e1 0f 61 bd 93 41 5c be 09 48 18 3e
       -0.12707335 -0.054946784 -0.2150939 0.14871229
0003e0 56 d6 b4 3d b3 1d 59 be 6c 4d c7 3e 7e ca e9 be
       0.08829944 -0.21202736 0.38926256 -0.45662302
0003f0 3d 77 22 3e c2 28 00 3e 8e 62 9d 3d dc 66 57 be
       0.15865798 0.12515548 0.076848134 -0.21035331

value.0.bias f4 [32]
000000 a8 28 83 be 80 14 9e 3d d0 7e 4d 3e 75 66 8a bd
       -0.25616956 0.07718754 0.20067906 -0.067578234
000010 f9 d5 15 be a1 ae ec 3c d3 77 67 bd 93 78 1a bd
       -0.14632405 0.028891863 -0.056510758 -0.037712645
000020 59 3a 09 be ac 7e 24 3e b2 b2 2e 3c 0b 7b 35 3e
       -0.13401164 0.16063946 0.0106627215 0.17722718
000030 97 a5 aa be 75 ad 2e be c8 0d 16 3d ff b3 07 be
       -0.3332946 -0.17058356 0.036634237 -0.13252257
000040 db 98 79 3e 70 e9 fa 3d e6 2e 1b bd d6 ef aa 3c
       0.24374716 0.12251556 -0.037886523 0.020866316
000050 dd 0f 91 bc 06 2b 12 be 00 20 2b be e0 96 3b be
       -0.01770776 -0.14274225 -0.16711426 -0.18319273
000060 87 2f 5c 3e 45 87 b5 bd 55 ca 64 be df 0a 95 3d
       0.21502505 -0.08863691 -0.22342809 0.07277464
000070 ec f5 46 3e 5f 06 a9 be 96 31 0b 3e e2 e4 29 3d
       0.19429749 -0.33012673 0.13593134 0.041478045

value.2.weight f4 [32, 32]
000000 08 49 f6 3c 68 e4 4a 3e b7 06 2c 3b e2 21 13 be
       0.03006412 0.19813693 0.002624912 -0.14368394
000010 a1 35 1d be f7 10 c1 3d bc 10 9d 3d 0e 90 f4 bd
       -0.15352489 0.09427064 0.076692075 -0.11941539
000020 84 4f 3a 3e da c1 25 bd fd ca 85 bd 2a eb e7 bb
       0.18194395 -0.040468074 -0.065328576 -0.0070775943
000030 ae e8 4e 3e 17 6b 76 3d 6c b4 11 bd 73 68 bf bb
       0.20205948 0.060160723 -0.035572454 -0.0058413087
000040 f5 20 ce bd 34 92 39 3c d3 07 c9 3d aa 4c 12 3e
       -0.1006488 0.011326361 0.098159455 0.14287058
000050 73 3d 7f 3d 64 a4 c5 bd af 33 2a bc c8 10 12 be
       0.062314462 -0.09650496 -0.010388299 -0.14264214
000060 bb 8d 43 3e 0a 41 5e 3e 44 63 ed 3d e8 73 15 be
       0.19097035 0.21704498 0.11591199 -0.14594996
000070 18 be 9e bc 59 97 04 3e b5 0d 79 3e f8 d2 72 3d
       -0.019377753 0.1294836 0.24321635 0.059283227
000080 0c c8 f5 3d cd 8a 0a 3e 47 44 9b 3d e1 07 ea 3d
       0.120010465 0.13529511 0.07581382 0.11427284
000090 1d 63 a0 3d 6b 5c af bd df 20 21 3e 71 ba 27 bc
       0.07831404 -0.08562549 0.15735196 -0.010237322
0000a0 1b 50 2c be 99 91 35 3e d2 ee 25 bd c0 7d 0b be
       -0.16827433 0.17731322 -0.04051096 -0.13622189
0000b0 7b 56 3f 3d 79 88 97 bd f0 c6 2e 3d df 13 6a be
       0.046713334 -0.07399077 0.04267019 -0.22859143
0000c0 6f 38 d1 3d f3 19 1e 3e 56 97 85 3d f8 e4 e8 3d
       0.10215842 0.15439586 0.06523006 0.11371797
0000d0 21 b6 14 bc 7d 7f 0e bd 4b 67 2a be 0a 45 0f 3d
       -0.009076626 -0.03478955 -0.16640966 0.03497795
0000e0 42 b9 7b be d0 a5 84 bc f5 64 0f 3d 48 0f 22 3d
       -0.24582389 -0.016192347 0.03500839 0.039565355
0000f0 74 48 7d 3b 79 fc 81 bd a3 e1 be bd 67 6c ca 3d
       0.0038647922 -0.063469835 -0.093203805 0.09883957
000100 98 44 d2 bd 45 cf 29 bf e3 66 6e 3d 13 48 a0 3d
       -0.102669895 -0.66331893 0.05820359 0.07826247
000110 3c 71 79 bd e3 1c 48 3e bb ef 91 bd 0d c7 a3 3d
       -0.060899004 0.1954227 -0.07125803 0.0799695
000120 65 a8 82 be fb 02 cd be 7e 8d a6 3c 35 83 9e 3d
       -0.255191 -0.40041336 0.02033114 0.077398695
000130 7e 82 12 3e 07 ef 34 be a6 cc b3 3c 2f 56 03 3e
       0.14307591 -0.17669307 0.02194817 0.12825845
000140 94 0b 59 3d 00 01 6f bd ed bc a2 bd 7d bd 96 bc
       0.052989557 -0.058350563 -0.07946191 -0.018400902
000150 c3 40 24 be 28 44 ed 3d 72 08 de be 9a 9b 78 be
       -0.1604033 0.115852654 -0.43365818 -0.24278107
000160 c2 8e 29 3e 38 1f 4a 3e 39 26 9b 3d 4b c1 c9 3a
       0.16558364 0.19738472 0.0757565 0.0015392689
000170 fb 01 c5 bd f9 fb fa bc 38 5f 5a 3d 3b 3c cb bc
       -0.09619518 -0.030637728 0.053313464 -0.024808994
000180 5e fc be bd 1a 5a 69 3d 7e ea 25 3b fd d3 15 be
       -0.09325479 0.056970693 0.002531677 -0.14631648
000190 73 21 1f 3e d3 85 4e ba 5d 3e 32 be 01 e9 3c 3d
       0.15540104 -0.0007878218 -0.17406602 0.046120647
0001a0 f2 e7 ef 3d 78 b5 da 3c d1 1f 95 3c b1 65 30 be
       0.11714162 0.02669786 0.018203648 -0.17226292
0001b0 f9 d1 10 be 1f fd 5d bc 35 98 ab be 48 79 03 3e
       -0.14142598 -0.013549118 -0.33514562 0.12839234
0001c0 95 f9 29 3e 6e 08 2e bd 8f 6d e5 bd 2a 14 25 3e
       0.16599114 -0.042488508 -0.11202537 0.16120973
0001d0 b6 4f ec 3c b8 11 ef 3c f7 28 a2 3d 09 b9 7e be
       0.028846603 0.029183254 0.0791797 -0.24875273
0001e0 39 64 a1 3d fb 1e e6 3d 6a 01 46 3d 33 23 e6 3d
       0.07880444 0.11236378 0.048341192 0.112371825
0001f0 0d fa df 3d 7e ba 0c bb 5d 2e 93 3d 95 ef 73 3c
       0.10936365 -0.0021473463 0.071865775 0.014888664
000200 fc 65 d4 3d b2 b6 01 be f6 76 db bc 09 96 3f 3d
       0.103710145 -0.12667349 -0.026790123 0.046773944
000210 87 31 b2 3d 09 e3 e1 bd 3a a6 2d bb f9 ec 01 3e
       0.08700853 -0.11029632 -0.0026496784 0.12688054
000220 5c 84 de 3d 45 47 29 3e e9 80 15 be 2e 23 61 3d
       0.10865089 0.16531093 -0.14599957 0.05496519
000230 ab 86 6b bd fc 5b ce bd 26 bf 6e 3a 0e 32 a1 3d
       -0.057501476 -0.100761384 0.0009107463 0.07870875
000240 f7 a9 66 bd 8a e9 3a be 2d 36 b9 bd ae 82 8b 3d
       -0.056314435 -0.1825315 -0.09043536 0.068120345
000250 49 07 d3 3d c6 c6 2f bc 0d 3a eb 3d dc 81 9c bd
       0.10304124 -0.010728544 0.11485682 -0.07641956
000260 ec 25 9c 3e da e7 ba 3d a5 f3 95 3d 5f ff c3 bc
       0.30497682 0.091262534 0.07321862 -0.023925481
000270 0d 45 be bd 4f bf 24 bd 5b 3b 93 3d bb 8c a9 bd
       -0.09290514 -0.04022151 0.071890555 -0.08278795
000280 7c e9 3a 3e 83 1c b3 bc 2f c9 f6 bd ce 8b b3 bd
       0.1825313 -0.021864181 -0.120500915 -0.087669
000290 5e 37 4b be 68 53 bb bc 73 b3 0f 3e b5 2b d7 bc
       -0.1984534 -0.02286692 0.14033298 -0.026265958
0002a0 6e e1 52 3e 4e c4 51 be 63 ba c5 3d 9d 3d 8e bc
       0.20593807 -0.2048504 0.09654691 -0.017363364
0002b0 04 db 18 3d 40 71 b1 3c 00 82 4b bd 9a 50 47 be
       0.037318245 0.021660447 -0.049684525 -0.19464341
0002c0 d9 90 16 3e 72 35 9c bd 5c ee ad 3d ce cb 91 bd
       0.14703692 -0.076273814 0.08492729 -0.07118951
0002d0 9c 9a fa 3d 0f 76 61 3d 6f 9f 75 3d 0e 4d 15 3e
       0.12236521 0.05504423 0.0599665 0.14580175
0002e0 38 d1 46 be 1a c9 8c 3d 37 a2 63 3d 16 e9 e6 3c
       -0.19415748 0.068742946 0.055574622 0.028187316
0002f0 8c 87 70 bd 93 64 17 bd fa c0 44 3e 5d 21 95 bd
       -0.058723018 -0.03696115 0.1921424 -0.07281754
000300 63 3e 11 bd 9b ac ae 3d 16 1b e9 bd 74 90 0f 3d
       -0.035459887 0.08529016 -0.11382119 0.03504987
000310 f3 83 28 be 04 82 22 be 56 88 e6 3d 03 d9 10 3e
       -0.16456585 -0.1586991 0.11256473 0.14145283
000320 d7 b7 a5 3c b8 96 ad 3d 51 ee 19 3e c4 f7 30 bc
       0.020229263 0.08476013 0.15032317 -0.010801259
000330 f5 54 a3 3b 45 d7 b6 bd 0c d4 0d 3d 65 b0 d4 3d
       0.004984493 -0.08927778 0.03462605 0.10385207
000340 da 2c 85 bd a4 df fb 3c 54 77 50 bd fc 74 1d be
       -0.065026954 0.030746289 -0.05089505 -0.15376657
000350 52 a8 87 3b 2a 8a 36 3e 48 84 8a 3c e6 59 87 bd
       0.0041399384 0.17826143 0.01690878 -0.06608944
000360 26 ab 19 be 2f 4e 0c 3e c1 ff 3d 3d 4e 95 ab bd
       -0.15006694 0.137017 0.046386484 -0.08378087
000370 ad 5a 27 3d 36 d1 ba bd be be cd 3d bf df 99 3d
       0.04085796 -0.09121935 0.10046147 0.07513379
000380 8d 4b a7 3b 41 72 a9 bd 8f 02 dd 3d 4d c5 ba bd
       0.005105442 -0.08273745 0.10791504 -0.091196634
000390 91 e4 9f 3c f7 7e fd bd bf bc c9 bc c6 41 24 b9
       0.019518169 -0.12377732 -0.024626134 -0.00015664761
0003a0 fe 94 80 bd c7 11 32 3e f7 33 2d 3e 81 05 24 3e
       -0.06278418 0.17389594 0.16914354 0.16017725
0003b0 77 41 a1 3b 12 eb f3 bd 28 1d 92 bd ac df 44 bd
       0.004921134 -0.119100705 -0.07134467 -0.048064873
0003c0 39 2b 9c 3d 1e b0 1c be 10 33 c0 bd 01 07 36 3e
       0.076254316 -0.15301558 -0.093847394 0.1777611
0003d0 a3 bd 34 bc 7d 3f de 3d 09 0e 30 be d7 5e ac 3d
       -0.011031541 0.10851953 -0.17192854 0.08416527
0003e0 3a cb 49 3e 14 8c 3c 3e f3 0a 2c bd 72 b3 1b 3e
       0.19706431 0.1841281 -0.04200263 0.15205172
0003f0 99 b3 dd 3c 81 e6 00 be d4 92 c4 bc 12 24 96 3d
       0.027063178 -0.1258793 -0.023995794 0.073310986

value.2.bias f4 [32]
000000 8c bf 5d 3e b5 3d 17 3e 25 bc 27 bd a5 8e 1b be
       0.216551 0.14769633 -0.040950913 -0.15191133
000010 21 f6 41 be 9b 51 eb bd 3b 40 18 bd 51 ee 86 3d
       -0.18941547 -0.114901744 -0.03717063 0.06588424
000020 0e 0c 0f 3c 20 a7 03 be 6c 4b 73 bd 67 30 04 3d
       0.008730901 -0.12856722 -0.0593981 0.032272723
000030 fb 62 3c bc db bb 51 be 88 d4 ac 3d 3c ad 60 bc
       -0.011498208 -0.20481817 0.084389746 -0.013713177
000040 1f 23 bb bd 08 ef a4 3d cb 2f 13 3e cb fb 3a 3e
       -0.09137558 0.08053404 0.143737 0.18260114
000050 26 1c ea bc 07 c5 37 3c 54 7a 6f 3e 26 7b f1 3d
       -0.028577875 0.011216409 0.23386508 0.11791067
000060 7f 39 94 ba 4e 48 19 3e b0 15 84 3d 4a 46 0e be
       -0.0011308639 0.14968988 0.06449449 -0.13894
000070 45 f7 a2 bc 3b cc 8f 3d 2b ab c0 3c e3 77 40 3d
       -0.019893298 0.07021376 0.02351912 0.046989333

value.4.weight f4 [1, 32]
000000 78 34 e2 3c 37 5f a8 3d 1e 96 04 bd 95 a3 81 3d
       0.02761291 0.08221286 -0.032369725 0.06330029
000010 ad 4e 87 bd 36 b8 44 3d d7 56 50 3d fa 4d c5 bd
       -0.06606803 0.04802724 0.050864067 -0.096340135
000020 88 e7 2e bc e0 de b3 3d 5d 76 8d 3e ad c1 23 bc
       -0.010675319 0.087827444 0.27629367 -0.009994906
000030 84 1a 88 bd 9b 48 ff 3c f6 65 3d 3d da 03 21 3d
       -0.066456825 0.03116255 0.046239816 0.039310314
000040 25 74 49 bd 55 47 e5 3c d7 c7 f6 3c 81 58 c4 3d
       -0.04918303 0.027988115 0.030124588 0.09587193
000050 8d ea 53 bd 3c 58 8e 3d 0c a4 8f 3d 48 49 22 3d
       -0.051737357 0.06950423 0.07013711 0.039620668
000060 fa 0e 4f 3d 26 80 5c 3d 16 65 96 bd fc 89 49 3d
       0.050551392 0.05383315 -0.07343499 0.049203858
000070 29 b8 ac 3c 6d ca b5 bc 9b f2 c7 3d 0f 4c 23 bd
       0.021083908 -0.02219125 0.0976307 -0.039867457

value.0.weight f4 [32, 12]
000000 2b 26 5b bb 4c 28 ce bc 86 83 f2 bc 0e f4 e6 bc
       -0.0033439498 -0.0251657 -0.02960373 -0.028192546
000010 86 f9 24 3e 97 31 a2 3b 72 3f 8a be ba 3d b1 bd
       0.1611081 0.004949759 -0.2700153 -0.086543515
000020 dd a7 2f 3e 7f 05 7e be 4b 01 0d be ba 3c 63 be
       0.17153879 -0.24806784 -0.13770024 -0.22191134
000030 84 9d c0 3c e8 98 c4 bd 00 d0 3d 3c 40 03 b7 3b
       0.02351261 -0.09599477 0.011585236 0.005585104
000040 f3 e0 14 bd 15 ad 01 3d 91 8b 96 3e 80 23 4c be
       -0.03634734 0.031659205 0.29403356 -0.19935417
000050 12 c5 43 3e 45 35 8a bc a8 a6 06 c0 8c 49 0e 3f
       0.19118145 -0.016871104 -2.103922 0.55580974
000060 62 01 76 3e 89 d2 16 3e 5c d1 7e 3d 3a 0f 1e bc
       0.24023965 0.1472875 0.06221138 -0.009647185
000070 ad c5 38 bd 04 b4 0c 3c e7 84 90 be 90 b1 86 bd
       -0.045110393 0.008587841 -0.28226396 -0.06576836
000080 10 a1 1e 3d c5 48 7d 3e c0 c4 63 3e 23 4a 71 3e
       0.03872782 0.2473479 0.22243023 0.23563437
000090 07 67 4f 3d 9a d5 ec bc 7a 60 f8 3d 6e 00 88 be
       0.050635364 -0.028910447 0.121277764 -0.26562828
0000a0 8b a4 2c 3d 47 82 ce bd 0d dc 19 3e a9 3d cd 3d
       0.042149108 -0.10083442 0.15025349 0.10021526
0000b0 34 68 4f 3e 6a fc 27 3e 10 b1 98 be 3a 74 7e 3e
       0.20254594 0.16404882 -0.29822588 0.24849024
0000c0 ae 15 f6 3d 76 88 42 bd 5d 2b 49 3d 67 49 df 3d
       0.12015854 -0.04749342 0.04911362 0.10902672
0000d0 b2 cd f4 3d ef 6b 10 3d e5 8a a3 3d cb e3 1c be
       0.11953296 0.035259183 0.079854764 -0.15321271
0000e0 f3 f7 af bd 23 38 eb bc 2e d1 2c bf e9 c7 6b 3d
       -0.085922144 -0.028713292 -0.6750668 0.057563696
0000f0 5d 17 57 bd a1 28 28 3e 27 ad 29 3d fd 78 86 3d
       -0.052512515 0.16421749 0.041424897 0.065660454
000100 a4 4d eb bd 77 b8 11 3e d3 7d 38 3e a5 90 80 3d
       -0.11489418 0.14230524 0.18016748 0.06277589
000110 a9 c4 1e 3d 8a 53 83 3e 72 23 7d 3f 9c 35 0a 3e
       0.03876177 0.25649673 0.9888221 0.13497013
000120 8d 99 e7 bc 02 67 a2 3c 53 de 37 bd 63 7c a2 bc
       -0.02827146 0.019824509 -0.04488976 -0.019834703
000130 f6 2a 4d be 22 50 87 bd 84 aa 3a be 79 ff 49 bd
       -0.2003592 -0.06607081 -0.18229109 -0.049315903
000140 5e b5 1b bb 2d b6 16 be 56 11 b5 bd 93 1d 91 3d
       -0.0023759226 -0.14717932 -0.08841197 0.07085719
000150 61 da 3e be 32 e9 4f 3e 0d ff cb 3c 67 76 b0 3d
       -0.18637992 0.203038 0.024901891 0.086163335
000160 d7 a5 de bd 5e 92 ef bd 30 41 53 be 88 a2 91 be
       -0.10871475 -0.11697839 -0.20630336 -0.28444314
000170 43 c9 7e 3d 7f 6f 91 bd 5b 73 c6 be de a3 05 3d
       0.062203657 -0.07101344 -0.38759884 0.03262698
000180 e9 fd 19 3c 7a 6c 0f 3d 69 22 58 3e 9a 89 27 be
       0.009398916 0.03501556 0.21106876 -0.16361085
000190 98 5b f1 3c 2f bc 80 3e 11 05 42 be b2 e6 d7 3c
       0.02946262 0.25143573 -0.18947245 0.026355121
0001a0 fe 19 89 bd be 88 4c 3c 4d dd 80 ba 5a 5d 78 be
       -0.06694411 0.012483774 -0.0009831578 -0.24254361
0001b0 fb a2 34 bb e6 45 7c bd cd 87 c7 bc db 9d ae 3e
       -0.0027562964 -0.061590098 -0.024356747 0.3410481
0001c0 ea 79 cd bd 0d 3b 0d 3e 06 e9 42 be de 91 5e 3b
       -0.10033019 0.13792057 -0.19034204 0.0033961455
0001d0 89 fa 45 be 6d 82 40 3e ba c9 d1 3e bf e9 5d be
       -0.19333853 0.18799753 0.40974218 -0.21671198
0001e0 7b 69 10 3e 3e b6 5b be e3 24 a9 be a4 1e b8 bd
       0.14102738 -0.21456239 -0.33035955 -0.08990219
0001f0 eb 4d 18 3d cf ce b0 bc 21 16 b7 3d 40 cd bf 3e
       0.037183683 -0.021582989 0.08939768 0.3746128
000200 74 74 db bd 5a b1 73 3d a4 8f 89 3f 23 46 48 3c
       -0.10715571 0.059495308 1.0746961 0.012223753
000210 73 4d 98 3d 93 c2 de bd 0e 79 93 3d aa 7d 35 be
       0.07436647 -0.10876956 0.07200824 -0.17723718
000220 91 59 82 bc 87 3a bf bc 20 74 08 be cc 10 8c bd
       -0.01591185 -0.023343338 -0.13325548 -0.06839141
000230 f4 18 0c 3e e8 cd 66 3e 8b 5d 8a 3f 3b 0c 8b 3d
       0.13681394 0.22539485 1.0809797 0.06789442
000240 a5 2e 2a ba 41 ca 4e 3e a2 c6 b2 3d 30 bf d9 bd
       -0.0006491936 0.20194341 0.087292925 -0.10632169
000250 aa f9 90 bd 33 ef 9a 3d 87 8e 01 be 56 2f 98 bd
       -0.0707887 0.07565155 -0.12652026 -0.074309036
000260 8c d9 8b 3d 95 fc a6 be 28 e0 1c be 78 10 91 3c
       0.06828603 -0.3261458 -0.15319884 0.017708048
000270 e8 c7 8c bd a7 7a 51 bb d8 33 e0 bc ae 96 9c 3d
       -0.068740666 -0.0031963976 -0.027368471 0.07645927
000280 e5 6a 85 3d 41 f8 90 be f8 36 7a 3e a9 4a 84 3e
       0.06514529 -0.28314403 0.24435031 0.2583821
000290 0c 3e 5b 3c 59 d2 ed bc 62 f8 c0 be 3e d9 a3 3e
       0.013381492 -0.029030966 -0.376895 0.3200168
0002a0 28 bb 13 3e 43 17 99 be c4 89 8f be 77 0e 0f 3e
       0.14426863 -0.2990056 -0.28034794 0.13970362
0002b0 04 d5 46 3d b9 e0 7f 3c 83 81 62 3e dc 39 93 3e
       0.04854299 0.015617543 0.22119717 0.2875508
0002c0 09 19 eb 3d 21 9a c2 3d 8b 15 a2 bf da 90 d2 bd
       0.114793845 0.09502054 -1.2662824 -0.102815345
0002d0 13 d9 31 be ce ff 0e 3e 23 46 d3 3c 3a 78 52 be
       -0.17367963 0.13964769 0.02579028 -0.20553675
0002e0 36 28 22 bb 34 6a f9 ba 75 18 38 3e a7 bc ad 3e
       -0.0024743206 -0.0019028843 0.1797808 0.33932993
0002f0 61 7b a1 3d f3 77 1e be a3 ed 56 3e 99 41 14 3f
       0.07884861 -0.15475444 0.20989089 0.57912594
000300 65 a5 87 bd 65 71 e3 3d 3e f0 c2 bd 08 c6 c0 3d
       -0.066233434 0.11105613 -0.09518479 0.094127715
000310 b7 65 cb 3b b2 c6 d4 3d 9b 0c 7a be 63 dd 17 3e
       0.0062071937 0.103894606 -0.24418871 0.14830546
000320 c2 b6 84 3e 8c eb 2a 3e d9 80 16 3e df de dc 3e
       0.25920683 0.16691417 0.14697589 0.43138787
000330 fe 93 d0 bc b7 ba 0a be 1f 2f 39 3c 19 56 1b bb
       -0.025461193 -0.13547789 0.011302738 -0.0023702441
000340 cd 57 25 bc ac e4 f7 3b d5 bc cc bc 11 13 39 3d
       -0.010091734 0.0075651016 -0.024992386 0.0451842
000350 72 41 5e 3e 6a aa 9e bd 60 c0 13 c0 b2 c0 4d 3e
       0.21704653 -0.07747348 -2.3086166 0.20093039
000360 4d 11 26 bd 34 34 0e 3d 58 59 0a 3e 70 cf a4 3e
       -0.040543843 0.034717754 0.13510644 0.32189512
000370 54 de 62 bd bd aa 0f be 81 ae 2b 3e 2c 75 7c bd
       -0.05538781 -0.14029975 0.16765787 -0.06163518
000380 d0 4c 1e be e0 e2 bd bd a4 44 a7 be dc e1 c3 3d
       -0.15458989 -0.092717886 -0.32669556 0.09564564
000390 21 89 1f be 7c 61 45 39 af 14 73 3e 68 41 05 be
       -0.15579654 0.000188237 0.23738359 -0.13013232
0003a0 50 eb 00 3d ce 83 b4 bd d3 48 67 3d 5f ee 89 be
       0.03147441 -0.08814202 0.056465935 -0.26939675
0003b0 5d 74 d6 3d 05 5a b7 3c 98 2f 04 3f 03 0b e4 3e
       0.10471413 0.022381792 0.5163512 0.4453965
0003c0 cf f0 e7 bc 82 15 a4 bd 2b ec df bd 31 96 06 bd
       -0.028313069 -0.08011915 -0.10933717 -0.032858077
0003d0 e8 3a 03 be 23 fa 5c bd 3e 43 5d be 5e 46 17 3e
       -0.1281544 -0.053949486 -0.21607682 0.14772937
0003e0 f7 f4 b5 3d 5f 8e 58 be ec 0d c6 3e 7a f2 e7 be
       0.08884614 -0.2114806 0.38682497 -0.45302182
0003f0 03 20 23 3e 27 3b 01 3e e6 59 a0 3d d8 8a 56 be
       0.1593018 0.12620221 0.07829647 -0.20951402

value.0.bias f4 [32]
000000 4b fc 83 be b9 ae 9e 3d 6a dc 4d 3e 6d ca 89 bd
       -0.25778422 0.077481695 0.20103613 -0.06728063
000010 d1 c0 16 be 0a c7 eb 3c 50 60 65 bd 1f bc 18 bd
       -0.14721991 0.028781433 -0.056000054 -0.03728878
000020 f0 7d 08 be f9 48 24 3e 8b 0f 19 3c 27 4e 35 3e
       -0.13329291 0.16043462 0.009342085 0.17705594
000030 2a 1d aa be 6c f8 2d be 38 3a 19 3d 78 2c 08 be
       -0.33225375 -0.16989297 0.037409037 -0.13298213
000040 c4 b5 79 3e 01 21 fa 3d fc 34 1a bd 68 57 ab 3c
       0.24385744 0.12213326 -0.037648186 0.020915702
000050 95 c8 88 bc ca 21 11 be 2f 7a 2a be a2 a3 3c be
       -0.016697207 -0.14173046 -0.16648172 -0.18421796
000060 11 1e 5c 3e 8b 75 b6 bd eb ce 62 be 98 0d 94 3d
       0.21495844 -0.08909138 -0.22149245 0.07229155
000070 51 4b 46 3e 6a 59 a8 be 68 f5 0a 3e ac 83 28 3d
       0.19364668 -0.32880718 0.13570178 0.041141197

value.2.weight f4 [32, 32]
000000 40 23 f6 3c 95 aa 49 3e 3c 26 26 3b 72 2e 13 be
       0.030046105 0.19693978 0.002535238 -0.14373186
000010 60 e2 1b be f1 e9 c0 3d d5 4f 9d 3d 50 5a f3 bd
       -0.15223074 0.09419621 0.076812424 -0.1188246
000020 02 65 39 3e b7 f6 25 bd af 15 86 bd b9 7f fd bb
       0.18104938 -0.04051849 -0.065471046 -0.007736173
000030 ea 39 4f 3e f3 cc 79 3d e1 40 13 bd 45 bf b7 bb
       0.20236936 0.06098647 -0.035950545 -0.005607518
000040 96 da ce bd cd 63 2b 3c 23 6e c9 3d f2 89 12 3e
       -0.10100286 0.010460806 0.0983546 0.14310434
000050 7e 79 7e 3d 50 b9 c3 bd 06 01 4b bc 43 02 12 be
       0.062127583 -0.0955683 -0.012390381 -0.14258675
000060 01 4d 44 3e e4 32 5e 3e bc a6 ec 3d ca 7c 15 be
       0.1917 0.216991 0.115552396 -0.14598384
000070 c2 48 aa bc 8f 10 04 3e da e0 78 3e 98 40 6e 3d
       -0.020786647 0.12896942 0.24304524 0.05816707
000080 bd 31 f4 3d 23 cf 09 3e 59 96 9b 3d 82 6b e9 3d
       0.11923549 0.13457923 0.07597036 0.113974586
000090 01 ad a1 3d 26 93 ad bd 33 1e 21 3e fa 85 28 bc
       0.07894326 -0.08475332 0.15734176 -0.010285849
0000a0 db d5 2c be 5a 51 36 3e 35 d9 27 bd d5 ed 0b be
       -0.16878454 0.1780447 -0.04097863 -0.13664944
0000b0 fb 36 3f 3d 33 61 97 bd 0f 3f 2e 3d 06 6f 6a be
       0.046683293 -0.07391586 0.042540606 -0.22893915
0000c0 8d a1 d1 3d 2d ab 1d 3e e7 7f 85 3d 3f d8 e7 3d
       0.102358915 0.1539733 0.06518536 0.113205425
0000d0 61 65 1d bc 37 ce 10 bd 35 24 2a be 48 0f 0f 3d
       -0.00960669 -0.03535291 -0.16615374 0.034926683
0000e0 31 03 7c be 83 35 85 bc 65 c0 0e 3d dc 4b 1f 3d
       -0.24610592 -0.016260868 0.03485145 0.038890705
0000f0 d4 f8 5b 3b a6 74 82 bd 07 3d c0 bd db 56 c8 3d
       0.0033565061 -0.06369905 -0.0938664 0.09782191
000100 cf a4 d2 bd 29 cd 28 bf 76 d3 70 3d 3c 03 a1 3d
       -0.10285341 -0.6593805 0.058795415 0.07861945
000110 c1 03 6c bd 44 69 46 3e 5b 6b 92 bd 55 24 a3 3d
       -0.057620768 0.19376093 -0.07149383 0.07965914
000120 0a 4d 83 be 4e b4 cd be 8a e6 a4 3c f6 89 a0 3d
       -0.25644714 -0.40176624 0.02012946 0.07838814
000130 69 a7 11 3e 40 f1 35 be d5 e5 98 3c 7b c4 02 3e
       0.14224018 -0.17767811 0.01866428 0.12770264
000140 43 37 54 3d 1f b8 64 bd 5a 1a a1 bd 1d 32 9a bc
       0.051810514 -0.055839654 -0.07866354 -0.018822724
000150 cb 7a 24 be 92 e1 ed 3d 6d c1 dd be b4 64 78 be
       -0.16062467 0.1161529 -0.43311635 -0.24257165
000160 7a df 27 3e 42 f1 4a 3e 8c 10 99 3d f7 f1 88 3a
       0.16393843 0.19818595 0.07473859 0.0010448088
000170 ff 2c c3 bd d9 11 03 bd 8b d9 57 3d 5d 24 c1 bc
       -0.09530067 -0.031999443 0.0526977 -0.02357691
000180 3a 31 bf bd 48 08 63 3d c7 c8 37 3b 76 bd 15 be
       -0.09335561 0.05542782 0.0028043257 -0.14623055
000190 c0 ff 1f 3e bd e5 04 ba f7 4e 32 be 18 da 3c 3d
       0.15624905 -0.0005069634 -0.17412935 0.046106428
0001a0 e9 8c ee 3d 43 7c e0 3c 11 57 97 3c f9 43 30 be
       0.1164797 0.027403003 0.018474134 -0.1721343
0001b0 41 2e 11 be e8 e0 5f bc 21 0c ad be 10 b8 03 3e
       -0.141778 -0.013664462 -0.33798316 0.12863183
0001c0 f6 64 2a 3e a0 dd 32 bd 5a 69 e4 bd cb 12 25 3e
       0.16640076 -0.04366839 -0.11152907 0.1612045
0001d0 38 2c ea 3c 22 c2 ee 3c 45 d8 a1 3d 8c ce 7d be
       0.028585538 0.029145304 0.07902578 -0.24785823
0001e0 c2 eb 9c 3d 21 34 e8 3d 78 b2 43 3d 0f 4d e5 3d
       0.07662155 0.11338068 0.047777623 0.111963384
0001f0 0b 3f df 3d 31 b5 07 bb 33 c3 93 3d 4b be 6a 3c
       0.10900696 -0.0020707364 0.07214966 0.014327596
000200 07 b3 d3 3d 8b 4a ff bd 2f 11 dd bc d9 fa 3f 3d
       0.10336881 -0.1246539 -0.026985733 0.046870086
000210 e4 20 ae 3d 8c a8 e2 bd 3d 34 22 bb ca bf 01 3e
       0.08502367 -0.11067304 -0.0024750375 0.12670818
000220 9b a6 e0 3d 71 71 28 3e a3 b7 14 be 1c 8e 62 3d
       0.109692775 0.16449524 -0.14523177 0.055311307
000230 24 9b 6c bd 98 61 ce bd 9b 38 25 3a 79 5e a0 3d
       -0.05776514 -0.10077208 0.00063026854 0.07830519
000240 68 60 67 bd 27 c3 39 be 36 78 ba bd 3a aa 8b 3d
       -0.056488425 -0.18140851 -0.0910496 0.068195775
000250 31 1a d4 3d 3f 4f 35 bc 72 5f ea 3d 08 3d 9c bd
       0.10356558 -0.011066257 0.11443986 -0.07628828
000260 35 b7 9b 3e 34 f4 ba 3d 17 21 95 3d b8 84 c3 bc
       0.30413213 0.09128609 0.07281702 -0.023866996
000270 fc f0 bc bd ec ba 25 bd f1 72 93 3d ec 02 a9 bd
       -0.092256516 -0.040461466 0.07199658 -0.082525104
000280 d7 fd 3a 3e 9c 3e 9f bc 17 e3 f8 bd ef 15 b3 bd
       0.18260895 -0.019439034 -0.12152689 -0.08744418
000290 30 46 4a be ad 22 bf bc c6 7b 0f 3e d6 59 db bc
       -0.19753337 -0.023331964 0.1401206 -0.026776236
0002a0 b3 af 52 3e c4 0a 52 be 74 66 c5 3d 75 14 8c bc
       0.20574836 -0.2051192 0.09638682 -0.017099598
0002b0 9c 01 18 3d 3c e9 b0 3c 92 b6 4b bd ca f2 46 be
       0.03711091 0.02159559 -0.04973466 -0.19428554
0002c0 56 fa 15 3e 6e 72 98 bd 58 bc ac 3d b9 d4 91 bd
       0.14646277 -0.07443701 0.08434361 -0.07120652
0002d0 21 a3 fa 3d 8a 21 63 3d 98 37 71 3d 08 3a 15 3e
       0.122381456 0.055451907 0.05889091 0.14572918
0002e0 c4 c1 46 be 39 9e 8c 3d 62 62 64 3d 3e de e2 3c
       -0.19409853 0.06866116 0.055757888 0.027693864
0002f0 28 a8 75 bd f0 c9 1a bd 82 1f 45 3e a3 1c 93 bd
       -0.05997482 -0.03779024 0.192503 -0.071831964
000300 92 59 11 bd d0 15 ad 3d 13 c4 e8 bd ce fd 0f 3d
       -0.03548581 0.08451426 -0.11365523 0.035154156
000310 0a 40 26 be cb 7a 23 be dd 47 e6 3d 75 d3 10 3e
       -0.16235366 -0.1596481 0.112441756 0.14143164
000320 bb 41 ac 3c b0 fa ab 3d 50 73 19 3e 64 0a 36 bc
       0.021027436 0.08397424 0.14985394 -0.011110876
000330 26 12 b3 3b be 29 b5 bd 1c 7b 0b 3d bf 10 d5 3d
       0.00546481 -0.08845852 0.034052953 0.10403585
000340 df fb 85 bd c6 4a fa 3c 3e 06 4e bd b9 9d 1d be
       -0.06542181 0.030553233 -0.05029892 -0.15392198
000350 43 82 71 3b f1 83 36 3e b2 d6 8a 3c 75 bc 86 bd
       0.0036851324 0.17823769 0.016948078 -0.06578914
000360 ea 97 1b be 78 68 0b 3e 7a 17 3f 3d 77 83 ac bd
       -0.1519467 0.1361407 0.04665325 -0.084235124
000370 88 e4 24 3d c2 80 ba bd 2c 53 ce 3d f5 4b 9b 3d
       0.040257007 -0.0910659 0.100744575 0.07582847
000380 54 06 a0 3b b3 ce a7 bd aa 1d dd 3d d4 8d ba bd
       0.004883567 -0.081937216 0.107966736 -0.09109083
000390 71 9c 97 3c ca e6 fe bd ab e5 c9 bc 21 da c2 b9
       0.018507214 -0.12446363 -0.024645647 -0.00037165082
0003a0 20 06 80 bd c2 2d 31 3e 84 26 2d 3e 16 47 24 3e
       -0.06251168 0.17302611 0.16909224 0.16042742
0003b0 63 c2 97 3b 6f 01 f4 bd 8e 72 93 bd 9b da 45 bd
       0.004631327 -0.11914336 -0.07199584 -0.04830418
0003c0 10 4a 9b 3d 6a 4a 1c be 4b b6 c0 bd ea 15 36 3e
       0.07582486 -0.15262762 -0.094097696 0.17781797
0003d0 c9 79 33 bc 55 4b de 3d ee 08 30 be 8e e6 ab 3d
       -0.010954329 0.10854212 -0.17190906 0.08393584
0003e0 01 22 49 3e 94 54 3c 3e 81 70 2f bd c4 b1 1b 3e
       0.19641878 0.18391639 -0.0428319 0.15204531
0003f0 50 ac e1 3c e8 5f 01 be 15 f3 c4 bc af 8f 98 3d
       0.027547985 -0.12634242 -0.024041692 0.074492805

value.2.bias f4 [32]
000000 d1 f0 5d 3e 5a 56 17 3e d2 54 2a bd f4 57 1b be
       0.21673895 0.14779034 -0.041584797 -0.1517027
000010 ff 3d 42 be 62 74 eb bd f5 65 18 bd 8e 27 86 3d
       -0.18968962 -0.11496808 -0.03720661 0.06550513
000020 d4 16 18 3c 4e 7e 02 be 1f 16 73 bd 95 cb fe 3c
       0.009282786 -0.12743494 -0.05934727 0.031102935
000030 ae dd 40 bc 06 f2 50 be 5a 5b ad 3d 69 16 5f bc
       -0.011771603 -0.20404825 0.084646896 -0.013616183
000040 07 2d ba bd 84 97 a5 3d d7 0b 13 3e d7 cb 39 3e
       -0.090906195 0.0808554 0.14359985 0.18144165
000050 d8 8f ef bc ad f5 3d 3c 6f 92 6f 3e a5 62 f2 3d
       -0.029243395 0.011594218 0.23395704 0.11835221
000060 8f 02 95 ba 67 c2 19 3e 33 bd 83 3d 3f d5 0d be
       -0.001136856 0.15015565 0.06432571 -0.13850878
000070 3a 40 a7 bc 01 44 8f 3d dd 5b c0 3c 28 5d 3e 3d
       -0.020416368 0.069953926 0.023481304 0.04647556

value.4.weight f4 [1, 32]
000000 e4 dc db 3c 92 d8 a8 3d f2 f6 03 bd e7 66 82 3d
       0.026838727 0.082444325 -0.032217927 0.06367283
000010 07 a7 86 bd fb 58 44 3d 9d a9 50 3d df e5 c5 bd
       -0.06574827 0.04793642 0.050943006 -0.09662985
000020 b1 ff 3c bc 21 db b6 3d ba e1 8c 3e bd 54 14 bc
       -0.011535571 0.08928514 0.27515966 -0.009053406
000030 f8 e5 87 bd 45 a6 fb 3c b7 94 41 3d c5 2b 22 3d
       -0.0663566 0.030718932 0.047260966 0.039592523
000040 e3 35 4a bd a4 91 e5 3c c5 97 fb 3c d0 5d c3 3d
       -0.049367797 0.028023548 0.030712018 0.09539378
000050 60 2a 54 bd 21 bc 8e 3d b5 06 91 3d 4b 06 20 3d
       -0.051798224 0.069694765 0.070813574 0.0390685
000060 ce 7e 51 3d 8a 66 5e 3d 4b 9e 96 bd c2 b3 4a 3d
       0.05114632 0.054297008 -0.07354411 0.049487837
000070 c4 17 a9 3c e1 2e b9 bc 6f d6 c9 3d 31 32 22 bd
       0.020641215 -0.022605361 0.09855353 -0.039598648

actor.0.weight f4 [32, 10]
000000 29 d9 a3 3d 8e 2d 53 be 70 72 0b 3d e3 9f 39 3e
       0.080004044 -0.20622846 0.034044683 0.18127398
000010 ef ae cb be 12 4d 15 3d 0f e9 e8 3b 3b 03 65 3e
       -0.397819 0.036450453 0.007107861 0.22364514
000020 39 90 32 bd 39 9c 74 be c5 8d 4c bc 44 f8 79 be
       -0.043594573 -0.23887719 -0.012484972 -0.24411112
000030 25 07 8c be f3 96 99 3e 8f 5a b1 3e f6 a4 27 3e
       -0.273492 0.29997978 0.34639403 0.16371521
000040 9a d9 5c 3e e3 1d 2c 3d 40 6d 57 be 24 06 cd be
       0.21567383 0.04202069 -0.2103777 -0.40043747
000050 e0 9c 32 3c 45 7a d1 be f7 6e 1f be 6e e9 60 3f
       0.01090166 -0.40913597 -0.15569673 0.87856185
000060 96 63 6e 3e 6b 69 a5 be 55 47 cc 3c 54 a8 3a be
       0.23280177 -0.3230699 0.024936358 -0.18228275
000070 3d 87 db 3e 7d 51 be 3e d0 0f 67 be e4 c7 38 3e
       0.42876616 0.37171546 -0.22564626 0.18045002
000080 e6 e4 ca bd cc 8d 2a 3f 18 5e a7 bd df 51 90 3c
       -0.0990694 0.66622615 -0.08172244 0.017617164
000090 af a6 7f be 2a f4 ed bc 05 fb 9e be 91 45 c0 be
       -0.24965928 -0.02904709 -0.31050888 -0.37553075
0000a0 ec e4 d4 bd 6b b1 b3 be 05 ba bd 3e 90 d5 96 be
       -0.10395226 -0.35096297 0.37055984 -0.2945981
0000b0 8b 6f 18 be d5 8a ff 3c 3e ed 76 3e df d8 a0 be
       -0.148863 0.03119413 0.24113938 -0.3141546
0000c0 9b 4d e4 3e e5 45 94 3e 1c 00 73 3e 32 94 98 be
       0.44590458 0.28959575 0.2373051 -0.29800564
0000d0 d2 81 2d 3e 09 51 45 be 47 c3 b1 be 2a d3 cd 3e
       0.16944054 -0.19269194 -0.34719297 0.40200168
0000e0 5c 86 23 be 47 77 9a ba c9 1e 35 be d8 8e b1 3e
       -0.15969223 -0.0011784815 -0.17687525 0.34679294
0000f0 89 22 b6 3e bf 27 bf 3d 03 7a b0 be e7 14 ce 3e
       0.35573223 0.09333753 -0.34468088 0.40250322
000100 c1 c1 f9 3d f9 13 19 3b 2d 65 1d bd f8 a2 18 be
       0.12195159 0.0023357852 -0.038426567 -0.14905918
000110 7a 20 12 3f 9b 3e 47 3e 75 aa 7c be 81 1e 24 bd
       0.57080805 0.19457476 -0.24674399 -0.040068153
000120 ce 4f a1 3e c8 3e 3a 3e 4e 66 01 be 70 58 bf 3e
       0.315062 0.18188012 -0.12636682 0.3737216
000130 15 1e c1 be c4 10 f5 3c 9b 0c 10 be 16 f6 96 3e
       -0.37718263 0.029915221 -0.14067309 0.29484624
000140 2d bf ec 3d e3 b3 18 3c f4 e6 eb be 05 ad c0 3e
       0.115599014 0.009320232 -0.4607464 0.37632003
000150 48 99 91 3e 8c a7 15 bd ce fb 4b 3e 48 d2 1d 3d
       0.28437257 -0.03653674 0.19920275 0.038530618
000160 ec 27 ac 3e ec 44 67 bb 28 f1 85 3e 8c 64 fc bd
       0.33624208 -0.0035288883 0.2616055 -0.12323865
000170 6e fd 89 be 79 4f 01 bf e3 ea 07 bd 98 86 07 3f
       -0.26951164 -0.5051189 -0.03318299 0.5293975
000180 b2 fd 52 3e 5a f4 6a be 6c 67 49 3e f3 86 8b bb
       0.2060459 -0.22944775 0.19668359 -0.0042580306
000190 59 f2 79 be c9 ee 8a be 89 c5 6e be 32 36 83 bd
       -0.24408855 -0.27135304 -0.23317541 -0.06406821
0001a0 6a 61 79 3d 75 76 bd bd 0e 9b 07 3d 80 c0 be b7
       0.060883917 -0.092511095 0.033106856 -2.2739405e-05
0001b0 56 c6 7e 3c 33 37 ab 3e b2 68 77 be 7f e1 b6 3e
       0.015550217 0.3344055 -0.24161032 0.35718915
0001c0 b3 00 8e bb ab 40 00 be ae e9 c3 3d 57 50 13 3f
       -0.0043335794 -0.12524669 0.09566055 0.57544464
0001d0 b0 22 18 3d 9a 3e 91 3e 2c 25 5d be 3f a3 80 3d
       0.037142456 0.28368074 -0.21596211 0.06281137
0001e0 3f 1b 4e 3e 66 4f d6 3d 09 3d 06 3b db da 32 3c
       0.20127581 0.10464363 0.0020483157 0.010916437
0001f0 d9 7c c0 3e 24 86 bf be b5 29 a9 be c0 19 4e be
       0.3759525 -0.3740703 -0.33039632 -0.2012701
000200 93 ee 9c be 39 2a 23 3e a5 fb 8a 3e 34 3d 50 bd
       -0.30650768 0.15934075 0.27145115 -0.050839618
000210 d4 30 16 bf 64 fb 2f be 4d 9b 3b bc f0 f7 7a 3d
       -0.58668256 -0.17185742 -0.011450601 0.061271608
000220 8f 51 98 3d ca dc 88 3e 8b ed 6d 3c 01 1b 58 be
       0.07437431 0.2673095 0.014521967 -0.21104051
000230 6c 2a af 3e b0 5c 62 3e d5 6e 75 3e 1a a6 c5 be
       0.34212053 0.2210567 0.2396806 -0.38603288
000240 cd a1 80 bc 94 66 ad be 44 15 30 3e 7b 7f 99 3c
       -0.015702153 -0.33867323 0.17195612 0.018737545
000250 a3 00 c6 3e e7 bd be 3e 09 a5 65 3e ab f1 60 3e
       0.3867236 0.3725426 0.22426237 0.21967189
000260 91 7d 84 3e b9 13 db 3e 7b c3 27 be 0b 8c 7b 3e
       0.2587705 0.42788485 -0.16383164 0.24565141
000270 83 c8 c0 be 15 05 c9 be f6 0c 21 3c bd 5e a7 3c
       -0.37652978 -0.3926169 0.00982975 0.020430917
000280 3e 28 6f be ad 51 cf be bf bc 99 be 0b bb 1c 3e
       -0.23355195 -0.40492 -0.30026814 0.15305726
000290 72 1b a2 3c f6 d9 66 bc 8f 48 b2 be 14 5c 2e be
       0.019788478 -0.014090052 -0.34820983 -0.17027313
0002a0 f7 ff 17 3f 45 f8 0f 3f f2 30 95 be f8 8b bb 3e
       0.59374946 0.56238204 -0.29138905 0.36630225
0002b0 cc ed db bd c5 e9 13 be 27 84 1b bf 6c 44 29 be
       -0.107387155 -0.14444645 -0.60748523 -0.16530007
0002c0 75 01 55 be fc 18 83 bd ac 5e bc be c0 51 97 be
       -0.20801337 -0.0640125 -0.3679098 -0.29554558
0002d0 de 73 5c 3e e7 b7 a1 be 8c b7 8f be 84 88 c2 bd
       0.21528575 -0.3158562 -0.28069723 -0.094986945
0002e0 45 18 69 bc 1f 6f 8d be 44 15 62 3e 3c aa 47 3e
       -0.014226978 -0.2762384 0.22078425 0.19498533
0002f0 a0 49 59 3d 66 c1 cb 3d 39 2c 8a be 72 69 80 be
       0.05304873 0.09948997 -0.26986864 -0.25080448
000300 d3 93 21 be eb 07 86 3e c8 18 b3 be 62 a9 d0 3e
       -0.15779047 0.26177916 -0.34979844 0.4075423
000310 33 cb 6a be c0 51 57 3d 70 0e 74 bd 44 85 8b 3e
       -0.22929077 0.052568197 -0.05958408 0.2725011
000320 cb e8 68 3e 45 bc 91 be b8 e3 12 3e f4 9d a6 3e
       0.22745053 -0.2846395 0.1434468 0.32542384
000330 df 6f d8 be 86 43 ba 3e 4d 9c 56 be d3 ec 78 be
       -0.4227285 0.3637964 -0.20958062 -0.24309091
000340 79 a1 06 3e 23 28 f2 3e 6a e7 79 3e 1f be 3e 3e
       0.13147534 0.47296247 0.24404684 0.18627213
000350 44 62 66 bd b2 7e bb bd 04 64 f8 be e4 c4 10 3d
       -0.056246057 -0.091550246 -0.48513806 0.03534402
000360 fc 9e d1 3d 4f 6a e6 bc f9 27 12 3e ec 4e c9 be
       0.10235402 -0.028126864 0.14273061 -0.39318025
000370 39 fa ae bd e1 f2 c5 3e e2 3d 48 be 94 bc 7c bd
       -0.0854382 0.38661864 -0.19554856 -0.06170328
000380 27 a4 a9 3d 13 87 d2 be fd 64 c0 bc 3b e9 7b bc
       0.08283263 -0.41118678 -0.023485655 -0.015375431
000390 d0 12 8a be ea b6 0e be 93 1e a1 bd f6 e3 8a 3e
       -0.26967478 -0.13936964 -0.0786716 0.27127045
0003a0 12 2d 3c 3e 7f 6f b1 be 89 89 82 be ed 6c db 3d
       0.18376568 -0.34655377 -0.25495556 0.10714135
0003b0 d5 bf c9 be 92 96 45 3e 79 54 a9 3e b1 4d 2d 3e
       -0.3940417 0.1929572 0.3307226 0.16924168
0003c0 b5 ed 80 be 1e 3b 06 3f 41 fc c7 be 46 a7 35 3e
       -0.25181356 0.52433956 -0.39059642 0.17739591
0003d0 d3 30 6d bd 8d 66 98 be 8b 49 fa bd b9 1e 2f be
       -0.05790789 -0.2976574 -0.122210585 -0.17101564
0003e0 6c ac 3c be 17 6c 93 3d 2f 02 a1 be 84 fc 2d be
       -0.18425149 0.07198351 -0.31446978 -0.16990858
0003f0 22 ec 20 be 80 2b a6 bd 88 0a 00 3f 61 e8 a0 be
       -0.15715078 -0.08113766 0.5001607 -0.3142729

actor.0.bias f4 [32]
000000 ed 31 0b be 63 b6 a4 be d7 d9 4b 3e bc fb 51 3e
       -0.13593264 -0.321704 0.19907318 0.20506185
000010 17 3c d1 bd f9 66 73 be d8 e9 9c 3e 57 cd 4e 3c
       -0.10216539 -0.2376975 0.3064716 0.012622199
000020 76 89 5d be 44 e5 cf bd 23 aa 90 3e 23 dd 3b 3e
       -0.21634468 -0.10151151 0.28254804 0.18346076
000030 a4 06 9b 3e 7c 92 df be de 3a c3 3d 52 33 89 3d
       0.30278504 -0.43666446 0.095327124 0.06699242
000040 44 c7 78 3e ee 48 1d 3e eb 27 60 be c6 f5 80 3e
       0.24294764 0.15359852 -0.21890227 0.2518751
000050 19 e8 08 3f 7c 9f f2 be 75 87 8d be 09 85 60 bd
       0.5347915 -0.47387302 -0.27642408 -0.054814372
000060 4a 13 a2 be 53 7b 3e 3c 8c 34 07 be 90 e4 a1 bb
       -0.3165534 0.0116260825 -0.13203639 -0.004940577
000070 43 0f 93 3e fe 4a 59 be a3 f9 8f 3e 7c 24 e2 3c
       0.2872258 -0.21220013 0.28120145 0.027605288

actor.2.weight f4 [32, 32]
000000 5b 78 8f 3e af 05 38 3e 4f 3c 9d be 38 52 a0 be
       0.2802151 0.17970918 -0.30710074 -0.31312728
000010 06 b7 87 3e 68 9b 9b 3e 9c ca 9b 3e cb 41 78 3d
       0.26506823 0.30392003 0.30428016 0.06060962
000020 b1 62 9a 3e 7a e3 1a 3e 52 f3 1c 3d 48 8b ac bd
       0.3015342 0.15125838 0.038317986 -0.08425003
000030 d5 6a 80 be 14 61 21 3e 20 c7 34 3e f9 cf e0 bd
       -0.25081506 0.15759689 0.17654085 -0.10977168
000040 31 16 0d 3b ab 36 bc 3c 5e 33 27 3e d5 d6 98 3e
       0.002152812 0.022975286 0.16328189 0.29851404
000050 e8 e0 c9 3e b4 87 ff bd c9 af c5 be dd 0a 04 3e
       0.39429402 -0.12477055 -0.38610676 0.12894769
000060 c9 3b 4d be 99 f4 53 be 87 8a 3b be 75 3d 88 3e
       -0.20042337 -0.20698775 -0.18314563 0.26609388
000070 a8 97 98 bd ad 0a 14 be b4 36 6f 3c 99 86 79 bc
       -0.07450801 -0.14457197 0.014600445 -0.0152298445
000080 4d ae ab 3d 7c b0 82 3e 91 1b 16 bd 2d 7e de be
       0.083828546 0.25525272 -0.036647383 -0.4345564
000090 9a 6f 4b bc bb d0 86 3d 44 21 da bd 0b 99 ee bd
       -0.012416745 0.06582781 -0.10650876 -0.116502844
0000a0 de d9 0c 3e 3e 92 d5 3d ef 51 75 3d 99 8b 1c 3e
       0.13754985 0.10428284 0.05989259 0.15287627
0000b0 b2 a2 c7 be 78 e7 bf 3e 7d 70 64 be 64 a1 ff bd
       -0.38991314 0.37481284 -0.22308536 -0.12481955
0000c0 98 67 4e 3e 57 a4 f2 bd 7c 5c 14 be 96 22 22 be
       0.20156705 -0.118477516 -0.14488405 -0.15833506
0000d0 1a 8a ba 3b ab bd 54 be bb 5d 97 be 0e e3 27 3b
       0.0056927325 -0.20775478 -0.29563698 0.0025617513
0000e0 bb 16 9d bd c0 b8 fa bd 9e a9 27 bd c9 b3 f7 bc
       -0.07670351 -0.122422695 -0.040933244 -0.030237095
0000f0 d6 ff 92 3e 6e 45 c8 3b 47 c6 b8 be 33 52 41 3d
       0.28710812 0.0061117923 -0.36088774 0.047197532
000100 d6 ba 01 3c a8 79 06 bf 2c a0 7c 3e 84 d4 a6 3e
       0.00791808 -0.5252938 0.24670476 0.32584012
000110 ba b8 16 be ba ad 4d 3e 66 a0 5d bd 19 d3 2c 3e
       -0.14718905 0.20085803 -0.054108046 0.16877402
000120 fa c5 db 3e ec 13 0e be c7 2a 6f 3d 03 e2 d3 3d
       0.42924482 -0.13874787 0.058390405 0.10345843
000130 4c 1a 84 be be 16 8e 3e b1 31 1b be b6 f4 0f 3e
       -0.25801313 0.27751726 -0.15155675 0.14058194
000140 48 74 cc 3c c8 b5 06 3e 38 67 94 3e 93 5d 7a be
       0.024957791 0.13155282 0.28985 -0.24449758
000150 92 05 8b 3e c1 32 32 3d a3 2a 20 be 0c a2 1a 3e
       0.27152687 0.043505434 -0.15641265 0.15100878
000160 a9 53 92 bd 63 1f 97 3e d4 0c 89 3d 45 00 f7 3b
       -0.07144863 0.29516134 0.066919 0.007537874
000170 fd 34 b8 3a b7 ba a6 bc 53 a7 87 3e e3 fc 20 be
       0.0014053878 -0.020352704 0.26494846 -0.15721469
000180 27 7e be bd ee 98 a3 3d d3 71 aa be 5b 96 f7 be
       -0.093014054 0.079881534 -0.33289966 -0.483569
000190 51 c5 09 3e 37 e9 4f be 20 82 23 bb c6 34 dc bd
       0.13454176 -0.20303808 -0.0024949387 -0.10752253
0001a0 4a d5 50 bd 3a c7 8f bd 06 08 f3 bd 26 51 95 be
       -0.05098466 -0.07020421 -0.11866765 -0.29163474
0001b0 c2 ee 23 be f4 c6 ec 3b b4 65 cf 3d 79 b3 dd be
       -0.16009048 0.0072258655 0.1012682 -0.4330099
0001c0 1f 8a 44 3e a1 bc 01 3e 44 ea b7 3e 8f 7d b8 bd
       0.19193314 0.12669612 0.35920918 -0.090083234
0001d0 20 61 ba be 9a 2d 14 3e 6f f0 f2 3c bd ee 36 3e
       -0.36402225 0.1447052 0.029655663 0.17864509
0001e0 7c 82 9c be fe ba 6c 3d 86 a3 0e 3e 05 2a be 3c
       -0.30568302 0.057795517 0.13929567 0.023213396
0001f0 7f df 0d 3e 63 4d 7d be 42 45 91 3e dc c9 de bc
       0.13854788 -0.24736552 0.28373152 -0.027195863
000200 ed bc a9 3d 28 6c 18 be 8b c3 fe 3d 63 18 21 be
       0.08287988 -0.14885008 0.124396406 -0.15731959
000210 27 65 7c 3e 07 66 e7 3e 62 cc 9b 3e 43 69 30 3e
       0.24647962 0.45195028 0.3042937 0.17227654
000220 e0 8d 74 3e 3e b7 fd 3d 86 cf 22 3e 2f 7e fd bd
       0.23882246 0.12388466 0.15899476 -0.12377583
000230 f6 d9 94 bb 40 2a a6 3d 85 a9 a7 3d 3a 65 ca 3d
       -0.0045425845 0.08113527 0.0818663 0.09882589
000240 8c d0 98 3e 34 39 85 3d 5b 16 8a 3e 3c 0f da bd
       0.2984661 0.06505051 0.2697018 -0.10647437
000250 52 da 23 3f 24 19 23 bd 10 c8 0d 3d 3f c5 11 3e
       0.64005005 -0.039818898 0.034614623 0.142354
000260 e5 d7 02 be 11 49 54 be 15 75 4f 3c d0 35 6a 3e
       -0.1277767 -0.20730998 0.012662192 0.2287209
000270 cd 5c 27 3e 71 ae 67 3d 6b 96 d2 3d db 54 b6 3c
       0.16343994 0.056562845 0.10282596 0.02225726
000280 97 65 4b 3e 95 df ea ba 57 29 7e bd 9e 2b cc be
       0.19862972 -0.0017919416 -0.062051143 -0.39877027
000290 0b a7 c6 3e 06 b5 3b 3e a4 99 1c 3e 05 04 c4 3d
       0.3879932 0.18330774 0.15292984 0.09571079
0002a0 66 ca 82 3e 56 36 81 3d 5b fd 09 3e 0f 96 38 3d
       0.25545043 0.06309192 0.13475554 0.045064982
0002b0 b3 15 ac be ad c7 ae bd 59 e6 71 be b1 90 bc be
       -0.33610305 -0.08534179 -0.23623027 -0.3682914
0002c0 5f d0 02 3e 73 ee e7 3d c5 e0 55 3e 8b a0 ce 3d
       0.127748 0.113247775 0.20886524 0.10089215
0002d0 b2 ad 87 3e d6 e1 b7 bd cd 9e 20 bd e0 c8 7a 3d
       0.26499707 -0.08978622 -0.039213944 0.061226726
0002e0 94 c8 35 3d 9f 3c 35 bd f5 f1 6c be ae 1a 17 3e
       0.04438074 -0.044247266 -0.23139174 0.14756271
0002f0 9d 24 a1 be b5 39 68 3d 6c 04 9e 3d 5c 49 a7 3d
       -0.31473246 0.05669566 0.07715687 0.08168289
000300 72 b9 4e 3d e5 df a1 be ef 9f 86 3e 7b 94 08 3e
       0.050469823 -0.3161613 0.26293895 0.13337891
000310 cc 3a 82 be 1a b0 fb be 14 fa 93 bd ed af f0 3d
       -0.25435483 -0.49157792 -0.07225433 0.11752305
000320 2a f4 29 be 42 2f 98 bd 2b 9d 51 be 9a 04 6a 3d
       -0.16597047 -0.07430889 -0.20470111 0.057133295
000330 74 13 23 3d e1 21 67 3d 46 d0 5a be 17 02 3f 3e
       0.039813474 0.056428794 -0.21368513 0.18653141
000340 2b e5 61 bd d4 e0 20 3e 20 b7 aa 3e e3 e6 52 3c
       -0.055150192 0.15710765 0.33342838 0.0128724305
000350 5d d7 af 3c 7a 3b 7f 3e eb b9 19 bd 0f c1 d1 bd
       0.021464998 0.24925032 -0.03753082 -0.10241901
000360 ad 16 47 3d 1b bd 71 3e ab ff 33 3e 04 a3 0a be
       0.04860561 0.23607294 0.17577998 -0.13538748
000370 c6 92 b1 3d 8b 7c 26 3e 8e 47 22 3e 38 27 21 be
       0.08670573 0.16258447 0.15847608 -0.15737617
000380 c7 5e ac 3e 69 36 c7 3e 79 a6 f7 bc 0a da a3 be
       0.3366606 0.389087 -0.030230748 -0.32002288
000390 d1 1a 09 3f 8a 0b 91 3e b2 fd 6c 3e 8a c4 2a 3e
       0.53556544 0.28329116 0.23143652 0.16676536
0003a0 04 a0 f8 3d 19 18 48 3e 65 cf 98 3c 5a 2b b0 be
       0.121398956 0.19540443 0.01865358 -0.34408075
0003b0 fb 24 76 3d 97 59 45 be 21 6f 5d bd d3 e2 f4 be
       0.06009386 -0.19272457 -0.05406106 -0.47829303
0003c0 ee 92 bf 3e f9 c4 6c 3d dd 6d 14 3e 42 c5 df 3e
       0.37416786 0.057805035 0.14495035 0.43705183
0003d0 47 99 61 3e 44 71 0c 3d 75 6e 66 bd b5 a0 b3 bd
       0.22031127 0.034287706 -0.056257684 -0.08770887
0003e0 02 02 2f be d2 3c 3f 3d a0 89 d8 3c 6a bb 33 3e
       -0.1709061 0.046688862 0.026432812 0.17551962
0003f0 03 1c b0 bd de 33 92 3d e2 8a 1b be df 81 d5 3c
       -0.08599093 0.07138799 -0.15189698 0.026062904

actor.2.bias f4 [32]
000000 16 05 4d 3e c0 24 ae bd ff d2 c1 3d 0e 63 f5 3d
       0.20021471 -0.08503103 0.094640724 0.11981784
000010 78 74 8f 3e f0 b6 3f be c9 42 0e bd 6a d6 d6 bc
       0.28018546 -0.18722129 -0.03473166 -0.026225287
000020 57 6f 27 bd 8b 24 a6 3d e9 bb 19 be 28 87 94 bb
       -0.040877666 0.08112439 -0.15013088 -0.0045327134
000030 5a 49 01 3e d4 6c 2f 3e ae 8b b5 3d 47 6a cc bd
       0.12625638 0.17131358 0.088645324 -0.09981208
000040 10 37 41 3e 62 ad 13 3e f2 bd 21 be 14 b0 20 3e
       0.18868661 0.14421609 -0.15795115 0.15692168
000050 bc bf 17 bc f6 ba 3f be 10 55 ce bd 3d 1c 1a 3e
       -0.009262022 -0.18723664 -0.10074818 0.15049835
000060 fc 9d 20 bd e2 f8 84 be 65 55 62 bd 90 40 84 3d
       -0.039213166 -0.25971133 -0.05525722 0.06457627
000070 93 44 de 3d e6 99 b6 bd 3c a2 80 3e 71 40 9e 3c
       0.10852923 -0.089160725 0.25123775 0.019317837
