results/SandingEnvEasy/ddpg/model/model_parameters_2.pt (torch, 30018 bytes, 22 tensors)

value.0.weight f4 [32, 8]
0	0xbe1460ea	-0.14490095
1	0xbe608a97	-0.21927868
2	0x3d247e4a	0.0401595
3	0xbdb01ea9	-0.08599598
4	0xbe42fc64	-0.19041592
5	0xbcb77ae6	-0.02239747
6	0x3fd9e924	1.7024274
7	0x3f0a701b	0.5407731
8	0xbd2658e8	-0.04061213
9	0x3e6e405b	0.23266737
10	0x3e1324b0	0.14369464
11	0x3dc78723	0.09742572
12	0x3dd854ad	0.105630256
13	0xbe421884	-0.18954664
14	0xbf746164	-0.95461106
15	0xbdd8b0d8	-0.10580605
16	0xbd2eaedb	-0.042647224
17	0xbdf9d306	-0.12198453
18	0x3e82bc74	0.25534403
19	0xbe71c2a4	-0.23609406
20	0x3db2c5e5	0.08729152
21	0xbded5811	-0.11589063
22	0xbf184cd2	-0.5949222
23	0xbe10b3f0	-0.1413114
24	0x3de4bbb2	0.111686125
25	0xbe02f4e7	-0.12788735
26	0xbe0f3d7d	-0.139883
27	0xbe07791e	-0.13229796
28	0x3da5c9f9	0.08095164
29	0xbdea2b55	-0.11434046
30	0xbf602397	-0.87554306
31	0x3d904bb6	0.07045691
32	0xbc5b377d	-0.013379929
33	0x3e9db7e6	0.30804366
34	0x3ddc2ca6	0.107507035
35	0x3e0314a5	0.12800844
36	0x3deb79d8	0.11497849
37	0x3dc57992	0.09642328
38	0x3f14dfdd	0.5815409
39	0x3f8f758e	1.120775
40	0xbd9a00e2	-0.075197
41	0x3e0f321a	0.13983956
42	0xbd41a67e	-0.04727792
43	0x3e59d9c9	0.21274485
44	0xbe649ebf	-0.22326182
45	0x3d931264	0.07181242
46	0xbfecaa1d	-1.8489414
47	0x3f49df5f	0.7885646
48	0x3c007701	0.007840873
49	0x3d13e4e6	0.036106966
50	0xbe6d291f	-0.23160218
51	0xbe1f43a3	-0.15553145
52	0x3e177b97	0.1479324
53	0xbe2588d7	-0.16165482
54	0xbfad066c	-1.3517585
55	0x3e33f6f1	0.1757467
56	0x3e41ccbe	0.18925759
57	0xbe1a5818	-0.15072668
58	0x3de3bca5	0.111199655
59	0xbc7a95a0	-0.015294462
60	0xbe80382c	-0.25042856
61	0x3d6fb55c	0.058522567
62	0x3aa7d614	0.0012804889
63	0xc0199c1e	-2.4001536
64	0x3e3ca1e6	0.18421134
65	0xbda30e3d	-0.079617
66	0xbe77bbe8	-0.24192774
67	0x3e04ce02	0.1296921
68	0xbe4b5efe	-0.19860455
69	0x3d53179c	0.051536188
70	0x3f49348c	0.78595805
71	0xbf272bee	-0.65301406
72	0x3dd769db	0.10518237
73	0x3e6ae97b	0.22940628
74	0xbc961475	-0.018320302
75	0x3e3a00f9	0.18164434
76	0x3b41b617	0.0029557997
77	0x3c5099c2	0.012731971
78	0x3b079f2a	0.0020694234
79	0xc0135c61	-2.3025134
80	0x3cf0892d	0.029362286
81	0xbe12901c	-0.14312786
82	0xb8e09060	-0.00010708044
83	0x3e78ac02	0.24284366
84	0x3e3058f8	0.17221439
85	0x3d16aff1	0.036788885
86	0x3dfa9734	0.12235871
87	0x3e89a1b4	0.26881182
88	0x3e3885a6	0.18019733
89	0x3e9f9f99	0.3117645
90	0xbe4191cd	-0.18903275
91	0xbe67291b	-0.22574274
92	0xbe73b056	-0.23797736
93	0xbe4c11c2	-0.19928649
94	0xbf45b1dd	-0.7722452
95	0xbd238af7	-0.03992745
96	0xbd0d9dde	-0.034574382
97	0x3d6aaf3d	0.057296026
98	0xbd26248d	-0.0405622
99	0xbe36bfa8	-0.17846549
100	0x3e3bffd9	0.18359317
101	0x3e05806e	0.13037273
102	0xbe731991	-0.23740222
103	0x3fab85c6	1.34002
104	0x3e95081b	0.29107746
105	0x3e0307e7	0.12795983
106	0x3b68f306	0.0035545244
107	0x3e828b48	0.25496888
108	0x3dc7f5e1	0.097636946
109	0xbe9216e6	-0.28533095
110	0xbe865539	-0.26236895
111	0x3fc51091	1.5395681
112	0xbe3d0c5d	-0.18461747
113	0xbe0de268	-0.13855898
114	0x3ddb1237	0.106968336
115	0xbe3f5e9a	-0.18688431
116	0xbda81d94	-0.082087666
117	0xbe109268	-0.1411835
118	0xbe5e75e2	-0.21724656
119	0xbfed6dc4	-1.8549123
120	0x3e25cc81	0.16191293
121	0xbd9b262b	-0.07575639
122	0x3e24a088	0.16076863
123	0xbde571d4	-0.112033516
124	0xbd9dfd82	-0.077143684
125	0xbe1e0354	-0.15430957
126	0xbc24e0fc	-0.010063406
127	0x3feb8606	1.8400276
128	0x3e46a3a5	0.19398363
129	0xbdb6ee75	-0.08932201
130	0xbde216c2	-0.11039497
131	0xbe5e7d43	-0.21727471
132	0xbe924c3a	-0.2857378
133	0x3e2122b8	0.157359
134	0x3dee5328	0.116369545
135	0x3f445647	0.7669415
136	0xbe6d4ad0	-0.2317307
137	0x3e9a58f2	0.30145985
138	0xbdc2f546	-0.095194384
139	0x3d5c4331	0.053775016
140	0xbd135ae6	-0.03597536
141	0x3d8f7669	0.07005007
142	0xbe95965d	-0.2921628
143	0xbdc26003	-0.09490969
144	0xbb68f4a9	-0.003554622
145	0x3e2c3ca0	0.16820002
146	0x3d49d0fb	0.049271565
147	0x3e599806	0.21249399
148	0x3e78d757	0.24300896
149	0x3e46b589	0.19405188
150	0x3ffcb746	1.9743431
151	0x3f7c6fe9	0.9860826
152	0x3d43b29f	0.04777777
153	0x3e61b667	0.22042237
154	0x3e78b38b	0.2428724
155	0xbda62fcb	-0.081145845
156	0x3e6fe124	0.23425728
157	0x3e81f8c7	0.25385115
158	0xbf7ee5d4	-0.9956944
159	0x3f12cfae	0.57348144
160	0x3decf355	0.115698494
161	0x3e550352	0.20802048
162	0xbda32d62	-0.079676405
163	0x3d17ac98	0.037029833
164	0x3e75fe00	0.24022675
165	0x3e3e8083	0.18603711
166	0xbf751d27	-0.9574761
167	0xbf808fd5	-1.0043894
168	0x3e071abb	0.1319379
169	0x3e2fd0ff	0.1716957
170	0x3e9773d9	0.29580572
171	0xbea3e45f	-0.3201017
172	0x3e9da773	0.30791816
173	0x3eae8a6a	0.34089977
174	0x3ec58bf3	0.38583335
175	0x3f58384d	0.8446091
176	0xbe01c26d	-0.12671824
177	0x3de7d058	0.11319035
178	0xbda89cb4	-0.08233014
179	0x3d49c440	0.049259424
180	0x3e15111c	0.14557308
181	0xbe7a0a4b	-0.24417989
182	0x3f6e86a4	0.93174195
183	0xbfcdfc5d	-1.609264
184	0xbd2e0e80	-0.042494297
185	0xbd8c78fc	-0.068590134
186	0x3d9d1602	0.07670213
187	0xbdc47e30	-0.09594381
188	0x3e89a07b	0.2688025
189	0x3c4d3bcd	0.012526465
190	0xbef3e50c	-0.47635686
191	0x3ea05f40	0.3132267
192	0x3e39d858	0.18148935
193	0x3e1a9167	0.15094529
194	0xbec23449	-0.37930515
195	0xbe839228	-0.25697446
196	0xbe21d24a	-0.15802875
197	0x3c663f66	0.014053201
198	0x3f61c79a	0.8819519
199	0x3e8f3836	0.27972573
200	0xbe421d7e	-0.18956563
201	0x3e0aea79	0.13566007
202	0x3e4f8e36	0.20269093
203	0xbe1a9626	-0.1509634
204	0xbe99011c	-0.2988366
205	0x3e468d7b	0.19389908
206	0x3c79c637	0.015245012
207	0xbdd98469	-0.10620958
208	0xbe07ab9c	-0.13249058
209	0xbdcf7fd8	-0.10131806
210	0xbe29a374	-0.16566259
211	0xbcd2d7fa	-0.025737751
212	0xbd33b1cf	-0.043870743
213	0x3e2ce1bb	0.16882984
214	0xbe8c011c	-0.27344596
215	0x3fdb3502	1.7125552
216	0xbe41c5f0	-0.18923163
217	0xbd18cac3	-0.037302744
218	0xbc96b477	-0.0183966
219	0x3d2940c1	0.04132152
220	0xbe0ed038	-0.13946617
221	0x3da0bd9c	0.07848665
222	0xbfc2cd7c	-1.5218959
223	0x3fea9de8	1.8329439
224	0x3e10d2d9	0.14142932
225	0xbe09b73a	-0.13448802
226	0xbe039340	-0.1284914
227	0x3e2077e8	0.1567074
228	0xbcda348f	-0.02663639
229	0x3e43889f	0.19095086
230	0xbfba08b1	-1.4533902
231	0xbf6596f3	-0.89683455
232	0xbca82e08	-0.020529762
233	0x3e2902a4	0.16504914
234	0xbdbf60e9	-0.09344656
235	0xbd3aea5b	-0.045633655
236	0x3d9be909	0.07612807
237	0xbe87b8b4	-0.26508105
238	0x3ee62959	0.4495342
239	0x3c305e67	0.010764695
240	0x3e456581	0.19277002
241	0x3d9132ee	0.07089792
242	0x3d01fe68	0.03173676
243	0x3e4fdcc8	0.20299065
244	0xbea5c26e	-0.323749
245	0xbdbd4c69	-0.0924309
246	0x3e11721d	0.14203687
247	0xbfaaf046	-1.3354576
248	0x3e098957	0.13431297
249	0xbe1af884	-0.15133864
250	0xbe5e5801	-0.21713258
251	0x3d9f40bd	0.0777602
252	0xbcfd8ee2	-0.03095192
253	0x3e523ec5	0.20531757
254	0xbf728c37	-0.947452
255	0xbe0d7b74	-0.13816625

value.0.bias f4 [32]
0	0xbdfff2e7	-0.12497502
1	0x3daadacf	0.08342516
2	0xbe533de5	-0.2062908
3	0xbdfb02e6	-0.12256412
4	0xbe70b055	-0.23504765
5	0x3ee7caa4	0.4527179
6	0x3e5ce6aa	0.21572366
7	0xbdb86924	-0.09004429
8	0xbf55a446	-0.83453786
9	0xbe269fdd	-0.1627192
10	0xbe411154	-0.18854266
11	0xbf5683a2	-0.83794606
12	0xbec5d9a2	-0.38642603
13	0x3d3c68f7	0.04599854
14	0xbd513924	-0.051079884
15	0x3ef44118	0.47705913
16	0x3eac0732	0.3359924
17	0xbbd3a400	-0.0064587593
18	0x3e737944	0.23776728
19	0x3f0fa9dd	0.56118566
20	0xbf17a297	-0.5923247
21	0x3e765446	0.24055585
22	0x3e939966	0.2882797
23	0x3df44a97	0.119282894
24	0xbf2748f6	-0.65345705
25	0x3e7c4fef	0.24639867
26	0x3de4ca2d	0.111713745
27	0x3d1d2455	0.038364727
28	0x3ee51f10	0.4475026
29	0x3e10ccae	0.14140579
30	0x3f0e636c	0.55620456
31	0xbe0eaecd	-0.13933869

value.2.weight f4 [32, 32]
0	0x3df30f1c	0.11868116
1	0x3c47bda9	0.012191215
2	0xbdb8a2c8	-0.09015423
3	0x3ce8e5a7	0.02842982
4	0x3e04c58a	0.1296598
5	0xbde4e9a1	-0.11177374
6	0xbe1a7d7c	-0.15086931
7	0x3d89f914	0.06736961
8	0xbe6036e4	-0.21895939
9	0x3e2e7e12	0.1704028
10	0xbe30bf36	-0.17260441
11	0xbe8841e2	-0.26612765
12	0x3e94c801	0.2905884
13	0xbecad152	-0.39612824
14	0xbd9d5219	-0.076816745
15	0xbe8cfd65	-0.27537075
16	0x3e392466	0.18080291
17	0xbe0faf81	-0.14031793
18	0xbd3933ee	-0.04521554
19	0x3d3861e5	0.045015235
20	0xbcb9db5b	-0.022687605
21	0xbcb26610	-0.021777183
22	0x3e577251	0.21039702
23	0xbcefd2c2	-0.029275302
24	0xbebc6d59	-0.36802176
25	0x3e1fb130	0.15594935
26	0x3cfe939d	0.031076247
27	0xbe440f02	-0.1914635
28	0x3d80b2ec	0.06284127
29	0x3daf92d2	0.085729256
30	0x3da057b0	0.07829225
31	0x3e10b91b	0.14133112
32	0x3d91971c	0.071089
33	0xbee4eef9	-0.44713572
34	0xbd3e72d8	-0.046496242
35	0xbdef5cf8	-0.11687654
36	0xbe22cd85	-0.15898712
37	0xbcd6a0cf	-0.026199726
38	0xbd490d34	-0.049084857
39	0x3ded9d3a	0.11602254
40	0x3c1d53c8	0.009602495
41	0x3c87715f	0.016533552
42	0xbe412073	-0.18860035
43	0xbd00e300	-0.031466484
44	0x3d0dcb39	0.034617636
45	0xbde4e4f0	-0.11176479
46	0x3e44c75b	0.19216673
47	0xbdf98716	-0.12183969
48	0xbe86267f	-0.26201245
49	0xbe831a34	-0.2560593
50	0x3eb8950d	0.36051217
51	0xbe8c7aab	-0.27437338
52	0xbdc86368	-0.09784585
53	0xbdbf5bbf	-0.09343671
54	0xbdaac7c8	-0.083388865
55	0xbdc6eb29	-0.09712822
56	0xbe4c7007	-0.1996461
57	0x3db1b4e2	0.08677079
58	0x3dc681dd	0.09692738
59	0x3e07003a	0.1318368
60	0x3cad9599	0.021189498
61	0xbd58ffb2	-0.052978225
62	0x3dca5138	0.098787725
63	0x3dba3cb4	0.090936095
64	0xbe51c5c5	-0.204856
65	0xbdaec464	-0.08533552
66	0x3df15bfc	0.11785123
67	0x3d40f911	0.04711253
68	0xbe96ece6	-0.29477614
69	0x3da17626	0.07883863
70	0x3e77edb7	0.24211775
71	0xbe6776f2	-0.22603968
72	0xbcd556d1	-0.026042374
73	0x3ea097d5	0.3136584
74	0x3e08ce53	0.13359956
75	0xbe7f85c1	-0.24953367
76	0xbd63046a	-0.05542413
77	0xbe2bd404	-0.16780096
78	0xbd80202d	-0.06256137
79	0x3e1fe889	0.15616049
80	0x3dcda1fd	0.100406624
81	0xbeb5dd79	-0.35520533
82	0xbe5446ae	-0.20730087
83	0x3e8fcf93	0.28088054
84	0xbe59bcf2	-0.21263483
85	0xbe3dea00	-0.18546295
86	0xbe82187b	-0.25409302
87	0x3dfbf7d0	0.12303126
88	0xbed77799	-0.42083433
89	0x3cc23fb2	0.023712013
90	0x3de9a4fd	0.11408422
91	0x3df04786	0.11732392
92	0xbdc02209	-0.09381492
93	0xbe9e94c6	-0.3097288
94	0x3de139db	0.10997363
95	0xbe4a3193	-0.19745474
96	0x3d953603	0.072856925
97	0xbd107940	-0.035271883
98	0xbc05f6d6	-0.008176526
99	0xbd8ce457	-0.0687949
100	0x3e42f135	0.19037326
101	0x3a630a41	0.0008660891
102	0x3bca8da2	0.0061814347
103	0xbd462a2f	-0.048380073
104	0x3d7c2ad0	0.061564267
105	0xbd27adc4	-0.0409372
106	0x3b575869	0.0032859093
107	0xbc4690b8	-0.012119465
108	0xbe4c9696	-0.19979319
109	0x3dfb145b	0.12259742
110	0xbe532b04	-0.20621878
111	0x3e2bf75e	0.16793582
112	0xbe72ebde	-0.23722789
113	0xbe415d47	-0.18883239
114	0x3d77f1ee	0.060533457
115	0xbd87d28c	-0.066319555
116	0xbd265cf8	-0.040616006
117	0xbc1ae98b	-0.009455095
118	0x3cfaa211	0.030594857
119	0xbdff9240	-0.12479067
120	0xbe3f69f5	-0.18692763
121	0x3e2f89a4	0.1714235
122	0xbe068021	-0.13134815
123	0xbcb6c8a3	-0.022312468
124	0xbdbf2bc9	-0.09334523
125	0x3e5f4ea9	0.2180735
126	0x3dbd99f3	0.09257879
127	0x3dcde78c	0.1005393
128	0x3d8e8e7d	0.06960771
129	0xbc809513	-0.015696084
130	0xbe2b2be7	-0.16715966
131	0x3d76cdea	0.06025497
132	0x3e173668	0.14766848
133	0x3d2bc300	0.041934013
134	0xbc9051c9	-0.017617123
135	0xbdbc85b8	-0.09205192
136	0x3dbc664d	0.091992
137	0xbc94e084	-0.018173464
138	0xbd4a495a	-0.04938636
139	0x3dec55f1	0.115398295
140	0x3da275f5	0.07932655
141	0xbe0f2177	-0.1397761
142	0x3d9592d4	0.07303396
143	0xbd25737f	-0.04039335
144	0x3d8a49b6	0.067523405
145	0xbe2e9c46	-0.17051801
146	0xbd972a7b	-0.073811494
147	0x3dd311f9	0.103061624
148	0x3e270508	0.16310513
149	0x3e10d43a	0.14143458
150	0x3dce9fd1	0.10089076
151	0x3c695d4f	0.014243438
152	0xbd621dad	-0.055204082
153	0x3d03040a	0.031986274
154	0xbe2e4890	-0.17019868
155	0xbd8c740b	-0.06858071
156	0x3e25b5cc	0.16182631
157	0xbe1f1a56	-0.1553739
158	0x3e5c8bdd	0.21537729
159	0x3d638d3f	0.055554625
160	0xbdac163b	-0.084026776
161	0x3ec0691f	0.375802
162	0x3df2f263	0.11862638
163	0x3de76127	0.11297827
164	0xbd507629	-0.050893936
165	0x3e61175e	0.2198157
166	0x3ec0f1b2	0.376844
167	0x3cd9dcde	0.026594575
168	0xbe433118	-0.19061697
169	0x3c412e8c	0.011790883
170	0x3e1f8f4e	0.1558201
171	0xc006c49c	-2.10575
172	0x3b61a9a4	0.003443339
173	0x3d8af5af	0.06785142
174	0x3de0f5ed	0.109844066
175	0xbd95192b	-0.07280191
176	0xbd1188f8	-0.035531014
177	0xbe657872	-0.22409227
178	0xbebafe3a	-0.36522084
179	0xbd29d241	-0.04146028
180	0xbea944cb	-0.33060297
181	0xbd678ac0	-0.056528807
182	0xbe2fef3e	-0.17181107
183	0xbc03e5a0	-0.008050352
184	0xbe4064c9	-0.18788446
185	0xbc63ed92	-0.013911622
186	0x3e074fa4	0.13213974
187	0xbd9fc54a	-0.07801302
188	0xbdbbf6ca	-0.09177931
189	0xbf2d99cb	-0.67812794
190	0x3e1a2170	0.15051818
191	0xbb8837e4	-0.0041570533
192	0x3dd112a4	0.102086335
193	0x3da9ec85	0.08297066
194	0xbd200fe4	-0.039077654
195	0x3c3ab86c	0.011396509
196	0xbe77607d	-0.24157901
197	0xbd2a73ec	-0.041614458
198	0x3dd8702f	0.10568272
199	0xbe6ad281	-0.22931863
200	0x3e19f84b	0.15036123
201	0x3d6eccdd	0.05830084
202	0x3e20daf6	0.15708527
203	0x3e1710be	0.1475248
204	0xbd0cd15e	-0.034379356
205	0xbe21f089	-0.15814413
206	0xbd276709	-0.040869746
207	0x3da32b2f	0.07967221
208	0x3da52719	0.08064098
209	0x3e176877	0.14785944
210	0xbd886368	-0.06659585
211	0x3d8eefa6	0.06979303
212	0xbdbcf1a3	-0.09225776
213	0xbe0ccc58	-0.13749826
214	0x3e0fea4f	0.14054225
215	0xbcb2df32	-0.021834943
216	0x3c539338	0.012913518
217	0x3e2d82db	0.16944449
218	0xbcb0f2f6	-0.021600228
219	0xbdc5f157	-0.096651725
220	0xbdf78116	-0.12085168
221	0xbe0453ec	-0.12922639
222	0xbe4d45bd	-0.20046134
223	0xbd7c9685	-0.061666984
224	0xbcdf81ba	-0.027283538
225	0x3dde17ab	0.10844358
226	0xbdc90626	-0.09815626
227	0xbca79d10	-0.020460635
228	0xbda2b741	-0.07945109
229	0x3df232c4	0.11826089
230	0xbd09bb25	-0.03362574
231	0x3bb0bbdb	0.005393488
232	0xbc4b3b4e	-0.012404276
233	0x3e895fc5	0.2683088
234	0xbd579c88	-0.052639514
235	0xbde17c1e	-0.110100016
236	0x3e113fcc	0.14184493
237	0x3bc1fdf8	0.005920168
238	0xbe362dcb	-0.17790906
239	0x3da80f5e	0.08206056
240	0x3d75a281	0.05996943
241	0x3c68d7ec	0.014211636
242	0xbdd46097	-0.103699856
243	0xbe5f89af	-0.21829866
244	0x3d9582b2	0.07300319
245	0x3d78dfae	0.060760193
246	0x3dbca881	0.09211827
247	0x3d1739e0	0.03692043
248	0x3e2b1afe	0.16709515
249	0xbd476c26	-0.048687123
250	0x3da262c3	0.079289936
251	0x3d6a8a3f	0.057260748
252	0x3dad689d	0.08467219
253	0xbddf4339	-0.109014936
254	0xbce26d7e	-0.0276401
255	0xbdaa0b73	-0.08302965

value.2.bias f4 [32]
0	0x3e7c8eed	0.24663897
1	0xbe268908	-0.16263211
2	0xbd223558	-0.039601654
3	0xbe12578a	-0.14291206
4	0xbe93f534	-0.28898013
5	0xbc4c3b6e	-0.012465341
6	0xbeb468bb	-0.35236153
7	0xbe9872a6	-0.2977497
8	0x3e325ef7	0.17419039
9	0xbe1e3ceb	-0.15452926
10	0x3dc18207	0.09448629
11	0x3e5cea55	0.21573766
12	0x3e263c17	0.1623386
13	0xbe736767	-0.23769914
14	0x3e02e873	0.12783985
15	0xbd7b108d	-0.06129508
16	0xbe68dead	-0.22741194
17	0x3cdfc70e	0.027316596
18	0xbe1505b3	-0.14552955
19	0xbdec0fab	-0.11526426
20	0xbe075ff7	-0.13220201
21	0x3e5a1d06	0.21300134
22	0xbe3593ba	-0.17732134
23	0x3e8e2c13	0.27768
24	0x3e72df68	0.23718035
25	0x3bb58ef1	0.0055407216
26	0xbeaf55cb	-0.34245142
27	0x3e3720e7	0.17883645
28	0xbe3501b5	-0.17676432
29	0x3e678d21	0.2261243
30	0x3d73bf10	0.059508383
31	0xbdb6ff84	-0.089354545

value.4.weight f4 [1, 32]
0	0xbdec5b7b	-0.11540886
1	0xbd990e96	-0.07473485
2	0x3da8f2f3	0.08249464
3	0x3da2133d	0.07913826
4	0xbcf22067	-0.029556466
5	0x3daeb8b8	0.08531326
6	0xbde716a8	-0.11283618
7	0xbd90b3d3	-0.07065549
8	0x3dcb08aa	0.09913762
9	0xbd146266	-0.036226653
10	0xbdaa7d74	-0.083247095
11	0x3cdbbced	0.026823485
12	0x3dae3617	0.085064106
13	0xbd816705	-0.063184775
14	0x3d89b757	0.067244224
15	0xbdf2c85e	-0.11854623
16	0xbd839571	-0.06424988
17	0xbd93aaed	-0.07210336
18	0xbdabf991	-0.083972104
19	0x3daf54c6	0.08561091
20	0xbca4f494	-0.020136155
21	0x3d79de32	0.061002918
22	0xbd979399	-0.07401199
23	0xbd744dce	-0.059644513
24	0x3dc4fc2b	0.0961841
25	0x3d6ad99d	0.05733644
26	0xbdc6102e	-0.09671055
27	0x3d9d5382	0.076819435
28	0x3d930986	0.07179551
29	0x3d5cab30	0.053874195
30	0x3d9f4aff	0.07777976
31	0x3d54e934	0.051980212

value.0.weight f4 [32, 8]
0	0xbe14e6ce	-0.1454117
1	0xbe6094a2	-0.21931699
2	0x3d233d59	0.039853428
3	0xbdafd59d	-0.085856654
4	0xbe44ca45	-0.19217785
5	0xbcc5e9c6	-0.024159323
6	0x3fd9a1c3	1.7002491
7	0x3f0b0ab0	0.5431318
8	0xbd1e363a	-0.038625933
9	0x3e6df7d4	0.2323907
10	0x3e130aac	0.1435954
11	0x3dc7b433	0.09751167
12	0x3dd1834c	0.10230121
13	0xbe458131	-0.19287564
14	0xbf73f3d0	-0.95293903
15	0xbdde483e	-0.10853623
16	0xbd2ee3ce	-0.04269772
17	0xbdf8e535	-0.12153093
18	0x3e82f3b6	0.25576562
19	0xbe726943	-0.23672967
20	0x3db07cbf	0.086175434
21	0xbdefa137	-0.11700671
22	0xbf1838d0	-0.5946169
23	0xbe11e614	-0.14247924
24	0x3de8a674	0.113598734
25	0xbe024004	-0.12719733
26	0xbe0ed6b9	-0.13949098
27	0xbe0788b4	-0.13235742
28	0x3daa7a40	0.083240986
29	0xbde57b0e	-0.112051114
30	0xbf5fd707	-0.8743748
31	0x3d9213bf	0.071326725
32	0xbc54169d	-0.012944845
33	0x3e9da74e	0.30791706
34	0x3ddd2be1	0.10799385
35	0x3e02614e	0.12732431
36	0x3debd50d	0.115152456
37	0x3dc5d4c7	0.09659725
38	0x3f14efb6	0.5817827
39	0x3f8f549d	1.1197697
40	0xbd9ac2a4	-0.07556656
41	0x3e0f645e	0.14003131
42	0xbd548425	-0.051883835
43	0x3e5872cd	0.21137543
44	0xbe63fa6b	-0.22263496
45	0x3d945b05	0.07243923
46	0xbfec32ad	-1.8452965
47	0x3f498f15	0.7873395
48	0x3bfa1557	0.0076319384
49	0x3d144234	0.03619595
50	0xbe6c1d4a	-0.23058048
51	0xbe1f4691	-0.15554263
52	0x3e17f887	0.148409
53	0xbe250be7	-0.16117822
54	0xbfad5cd8	-1.3543959
55	0x3e31c617	0.17360722
56	0x3e42be7f	0.19017981
57	0xbe197240	-0.14984989
58	0x3de17697	0.11008947
59	0xbc6e8de5	-0.0145601975
60	0xbe7f27f4	-0.24917585
61	0x3d74d6fb	0.059775334
62	0x3a24ae66	0.0006282091
63	0xc0198a57	-2.3990686
64	0x3e3caeb7	0.18426023
65	0xbda1ab0a	-0.07893951
66	0xbe778e41	-0.2417536
67	0x3e04c7ed	0.1296689
68	0xbe4a3087	-0.19745074
69	0x3d57d170	0.05268997
70	0x3f49c6bc	0.7881887
71	0xbf268e68	-0.65061045
72	0x3dd8d0bd	0.10586689
73	0x3e6acadc	0.22928947
74	0xbc9afa35	-0.018918136
75	0x3e3983bb	0.18116657
76	0x3a6580f8	0.00087548746
77	0x3c2e8448	0.0106516555
78	0x3b6e6ac2	0.003637955
79	0xc01325ff	-2.299194
80	0x3cf354b0	0.029703468
81	0xbe129040	-0.1431284
82	0x3a9b5ded	0.0011853554
83	0x3e7a774d	0.24459572
84	0x3e2e449f	0.17018364
85	0x3d0e5e91	0.034758154
86	0x3dfd75de	0.12375997
87	0x3e8997cb	0.2687362
88	0x3e3853ec	0.18000764
89	0x3e9f9333	0.31166992
90	0xbe427d03	-0.18993
91	0xbe67797d	-0.22604938
92	0xbe723507	-0.23653041
93	0xbe4a9673	-0.19783954
94	0xbf46a1ad	-0.7759045
95	0xbd2167d4	-0.03940566
96	0xbd0fa96e	-0.03507369
97	0x3d731484	0.059345737
98	0xbd29e808	-0.041481048
99	0xbe35e592	-0.17763355
100	0x3e3bff75	0.18359168
101	0x3e05800a	0.13037124
102	0xbe717a6a	-0.23581854
103	0x3fab5a90	1.3387012
104	0x3e955fa3	0.29174528
105	0x3e04b526	0.12959728
106	0x3bb69714	0.005572209
107	0x3e820be8	0.2539971
108	0x3dc71ec7	0.09722667
109	0xbe924cac	-0.2857412
110	0xbe8621a5	-0.26197544
111	0x3fc456d1	1.5338994
112	0xbe3d7502	-0.18501666
113	0xbe0c934d	-0.13728066
114	0x3ddbd68f	0.10734283
115	0xbe3f86fb	-0.18703835
116	0xbda8a16a	-0.08233912
117	0xbe10d451	-0.14143492
118	0xbe5e98a0	-0.2173791
119	0xbfed2d4a	-1.8529446
120	0x3e247d3b	0.16063397
121	0xbd9c9a88	-0.07646662
122	0x3e25f7ad	0.16207762
123	0xbde647bc	-0.11244151
124	0xbd9ae78e	-0.07563697
125	0xbe1c785b	-0.15280287
126	0xbc1bf2d2	-0.009518342
127	0x3feb6d86	1.8392799
128	0x3e480c1c	0.1953587
129	0xbdb7d5a8	-0.089762986
130	0xbde24ff4	-0.11050406
131	0xbe5e199c	-0.21689457
132	0xbe91b5ea	-0.28459102
133	0x3e224f66	0.158506
134	0x3deff59e	0.1171677
135	0x3f433436	0.7625154
136	0xbe6e12d7	-0.23249374
137	0x3e9b0aa2	0.3028155
138	0xbdc4324d	-0.095799066
139	0x3d5a1b27	0.05324855
140	0xbd134450	-0.03595382
141	0x3d8f81af	0.07007157
142	0xbe94e86b	-0.2908357
143	0xbdbbd987	-0.091723494
144	0xbba00096	-0.0048828823
145	0x3e2b827c	0.16748995
146	0x3d4f55a2	0.050618775
147	0x3e5c267b	0.21499054
148	0x3e78d6f3	0.24300747
149	0x3e46b525	0.19405039
150	0x3ffc5d36	1.9715946
151	0x3f7cbefc	0.9872892
152	0x3d3fc2cd	0.046816636
153	0x3e631d72	0.22179201
154	0x3e7821d1	0.2423165
155	0xbda55e37	-0.08074611
156	0x3e6fe124	0.23425728
157	0x3e81f8c7	0.25385115
158	0xbf7e657d	-0.9937361
159	0x3f1315d4	0.5745518
160	0x3dece5e5	0.115672864
161	0x3e54fd47	0.20799743
162	0xbda558b4	-0.080735594
163	0x3d15e897	0.036598768
164	0x3e75fe00	0.24022675
165	0x3e3e8083	0.18603711
166	0xbf74f539	-0.9568668
167	0xbf807150	-1.003458
168	0x3e06765d	0.1313109
169	0x3e2f37e9	0.17111172
170	0x3e97520a	0.29554778
171	0xbea416c5	-0.32048622
172	0x3e9da773	0.30791816
173	0x3eae8a6a	0.34089977
174	0x3ec41f56	0.38305157
175	0x3f57bace	0.84269416
176	0xbe00e889	-0.12588705
177	0x3de9df9d	0.11419604
178	0xbda70f98	-0.08157271
179	0x3d4ba824	0.0497209
180	0x3e1537d6	0.14572081
181	0xbe79e391	-0.24403216
182	0x3f6ef9ab	0.93349713
183	0xbfcd975a	-1.6061814
184	0xbd2cf1e0	-0.042222857
185	0xbd8b637a	-0.06806083
186	0x3d9c1d76	0.07622807
187	0xbdc3f4a0	-0.09568143
188	0x3e89a07b	0.2688025
189	0x3c4d3bcd	0.012526465
190	0xbef360d5	-0.47534814
191	0x3e9fc19f	0.3120241
192	0x3e39b20a	0.18134323
193	0x3e1ab4ba	0.15108004
194	0xbec1f105	-0.37879196
195	0xbe835623	-0.25651655
196	0xbe24437b	-0.16041367
197	0x3c3f2c1c	0.011668231
198	0x3f6133ec	0.8796985
199	0x3e900425	0.28128162
200	0xbe42d5b6	-0.19026837
201	0x3e0b4399	0.13600005
202	0x3e4fa409	0.20277418
203	0xbe1af82d	-0.15133734
204	0xbe99265a	-0.29912072
205	0x3e4642f7	0.19361483
206	0x3c744161	0.014908166
207	0xbdd0a39c	-0.10187456
208	0xbe073a6f	-0.13205884
209	0xbdccb4f5	-0.09995452
210	0xbe29ea3f	-0.16593264
211	0xbcdae730	-0.026721567
212	0xbd378118	-0.044800848
213	0x3e2bede2	0.16789964
214	0xbe8c2248	-0.27369905
215	0x3fdafcc9	1.7108394
216	0xbe4251bf	-0.18976496
217	0xbd1d21cf	-0.03836232
218	0xbc949333	-0.018136596
219	0x3d287b1a	0.041133024
220	0xbe101b60	-0.14072943
221	0x3d9e275a	0.077223495
222	0xbfc2d6ea	-1.5221837
223	0x3fea2e2b	1.8295339
224	0x3e0fafe4	0.1403194
225	0xbe0a32b9	-0.13495912
226	0xbe035306	-0.1282464
227	0x3e217189	0.15765966
228	0xbcdc8b84	-0.026921995
229	0x3e433dc0	0.19066525
230	0xbfb9e863	-1.4524044
231	0xbf64de9d	-0.8940218
232	0xbcab1d21	-0.020887913
233	0x3e2930fd	0.16522594
234	0xbdbc00ad	-0.091798164
235	0xbd325eb6	-0.043547355
236	0x3d9868b9	0.07441849
237	0xbe8898c2	-0.26679045
238	0x3ee45d1d	0.4460229
239	0x3c0f44b8	0.008744411
240	0x3e450434	0.19239885
241	0x3d90e33d	0.07074592
242	0x3d0a64c1	0.033787493
243	0x3e5035a5	0.20332964
244	0xbea5a153	-0.32349643
245	0xbdbcc80e	-0.09217845
246	0x3e0f752c	0.14009541
247	0xbfaa98a4	-1.3327832
248	0x3e095ca4	0.13414246
249	0xbe1b5d5c	-0.15172333
250	0xbe5e8ee8	-0.21734202
251	0x3da07fc8	0.07836872
252	0xbd013168	-0.031541258
253	0x3e51a440	0.20472813
254	0xbf72f80a	-0.9490973
255	0xbe0f566f	-0.13997816

value.0.bias f4 [32]
0	0xbe000091	-0.12500216
1	0x3daadbb8	0.08342689
2	0xbe52fb3b	-0.2060365
3	0xbdfa097e	-0.12208842
4	0xbe7021f6	-0.23450455
5	0x3ee7d139	0.45276812
6	0x3e5e2679	0.21694364
7	0xbdb82abc	-0.08992526
8	0xbf564104	-0.83692956
9	0xbe261f03	-0.16222768
10	0xbe416203	-0.18885045
11	0xbf56884a	-0.8380171
12	0xbec57300	-0.385643
13	0x3d376c32	0.044780917
14	0xbd542f03	-0.051802646
15	0x3ef4988f	0.47772643
16	0x3eac9ba2	0.33712488
17	0xbbc80fe7	-0.0061054113
18	0x3e739b40	0.23789692
19	0x3f0f489b	0.5597016
20	0xbf17716d	-0.5915745
21	0x3e76419c	0.24048465
22	0x3e92cb77	0.28670856
23	0x3df25ac9	0.11833722
24	0xbf27a035	-0.6547883
25	0x3e7c61cc	0.24646682
26	0x3de611ba	0.1123385
27	0x3d1de2b0	0.038546264
28	0x3ee289ce	0.44245762
29	0x3e118e50	0.14214444
30	0x3f0e85e0	0.5567303
31	0xbe0d6be2	-0.13810685

value.2.weight f4 [32, 32]
0	0x3deee600	0.11664963
1	0x3c4e0cfa	0.012576336
2	0xbdbcaa1e	-0.09212135
3	0x3ce86a82	0.0283711
4	0x3e059c37	0.13047872
5	0xbde2e6b5	-0.1107916
6	0xbe1c5eee	-0.15270588
7	0x3d900e80	0.07034016
8	0xbe5f6abc	-0.2181806
9	0x3e2e60b1	0.17029072
10	0xbe2c71a0	-0.1684022
11	0xbe884e14	-0.2662207
12	0x3e943130	0.28943777
13	0xbec9f220	-0.3944254
14	0xbda1f550	-0.07908118
15	0xbe8bc3ad	-0.27297726
16	0x3e3981c7	0.18115912
17	0xbe0ee2a8	-0.1395365
18	0xbd35ad10	-0.0443545
19	0x3d399612	0.045309134
20	0xbcb0a322	-0.021562163
21	0xbcb03d87	-0.021513714
22	0x3e5817c9	0.21102823
23	0xbd00f37e	-0.031482212
24	0xbebb08b7	-0.36530086
25	0x3e1f2697	0.15542065
26	0x3cefefa6	0.029289078
27	0xbe445b35	-0.19175418
28	0x3d83c2ee	0.06433664
29	0x3db26d98	0.087123096
30	0x3d9d6718	0.07685679
31	0x3e12902c	0.1431281
32	0x3d91f150	0.07126105
33	0xbee587f5	-0.4483029
34	0xbd3f3afa	-0.046687104
35	0xbdec1053	-0.11526551
36	0xbe270eaa	-0.16314188
37	0xbce0b339	-0.02742921
38	0xbd4025ca	-0.04691104
39	0x3ded53c8	0.11588246
40	0x3c12fe83	0.008971813
41	0x3c92da79	0.017926442
42	0xbe41ad96	-0.18913874
43	0xbd03df78	-0.03219554
44	0x3d0b7496	0.034046732
45	0xbde3a7d6	-0.111159965
46	0x3e44f17e	0.19232747
47	0xbdf80981	-0.12111188
48	0xbe859c05	-0.26095596
49	0xbe832aee	-0.2561869
50	0x3eb8b1cc	0.36073148
51	0xbe8d266c	-0.27568376
52	0xbdcbb146	-0.099459216
53	0xbdc21400	-0.09476471
54	0xbda9cc3a	-0.08290906
55	0xbdc6b67a	-0.097027734
56	0xbe4e6a73	-0.20157795
57	0x3db07a35	0.08617059
58	0x3dc7582d	0.09733615
59	0x3e07226b	0.13196723
60	0x3caa9e93	0.020827567
61	0xbd5abc96	-0.053402506
62	0x3dcbc4c6	0.09949641
63	0x3db90b20	0.09035325
64	0xbe51bb23	-0.20481543
65	0xbda9e3ea	-0.08295424
66	0x3df12e22	0.11776377
67	0x3d4253d2	0.04744322
68	0xbe96ede7	-0.2947838
69	0x3da3cbae	0.07997833
70	0x3e7840f2	0.24243525
71	0xbe648087	-0.22314654
72	0xbcb71d53	-0.02235285
73	0x3ea08a04	0.31355298
74	0x3e09de6b	0.13463752
75	0xbe7c478a	-0.24636665
76	0xbd6745d8	-0.056463093
77	0xbe28ffb8	-0.16503799
78	0xbd7ec2d3	-0.062197518
79	0x3e1b4eb6	0.15166745
80	0x3dc90130	0.098146796
81	0xbeb3ae23	-0.35093793
82	0xbe553e8c	-0.20824641
83	0x3e8e813e	0.2783298
84	0xbe59bd56	-0.21263632
85	0xbe3fe1a9	-0.18738426
86	0xbe80e878	-0.2517736
87	0x3dfb34c4	0.122659236
88	0xbed7df2f	-0.42162463
89	0x3cbe70a0	0.023247063
90	0x3de97462	0.113991514
91	0x3defb9a1	0.11705328
92	0xbdbcd7a2	-0.09220816
93	0xbea0e982	-0.31428152
94	0x3de55e7c	0.11199662
95	0xbe498a26	-0.19681606
96	0x3d96ee94	0.07369724
97	0xbd0f47c2	-0.034980543
98	0xbbe10c05	-0.006867888
99	0xbd8cb812	-0.06871046
100	0x3e42fa6d	0.19040842
101	0x3a92352c	0.0011154762
102	0x3c04bce6	0.0081016775
103	0xbd4995dd	-0.049215186
104	0x3d7a6adf	0.061137076
105	0xbd29159f	-0.041280385
106	0x3b261ddf	0.0025347394
107	0xbc4a02d1	-0.012329773
108	0xbe4d0dac	-0.20024747
109	0x3df933af	0.12168061
110	0xbe5053c9	-0.20344462
111	0x3e2bb9e7	0.16770135
112	0xbe733c80	-0.23753548
113	0xbe41ccd3	-0.1892579
114	0x3d772d48	0.060345918
115	0xbd871df1	-0.06597508
116	0xbd2a765e	-0.04161679
117	0xbc28d7a7	-0.010305322
118	0x3cf91c2e	0.030408945
119	0xbdfbae1c	-0.12289068
120	0xbe3f426d	-0.18677683
121	0x3e2fcc3b	0.17167751
122	0xbe079a80	-0.13242531
123	0xbcb55bfb	-0.022138586
124	0xbdc0a30e	-0.094061
125	0x3e5e6b82	0.21720698
126	0x3dbcd45c	0.09220192
127	0x3dccd971	0.10002411
128	0x3d8fad2f	0.07015454
129	0xbc868c66	-0.016424369
130	0xbe2bab8c	-0.16764659
131	0x3d75caa6	0.060007714
132	0x3e16d482	0.14729503
133	0x3d265860	0.040611625
134	0xbc8f4e3b	-0.017493358
135	0xbdbd9813	-0.092575215
136	0x3dbc6fc2	0.092010036
137	0xbc9720eb	-0.018448314
138	0xbd4b2b4f	-0.04960185
139	0x3dec50c7	0.115388446
140	0x3da2f459	0.07956762
141	0xbe0f283d	-0.13980193
142	0x3d95a176	0.07306187
143	0xbd28c157	-0.04120001
144	0x3d89a91d	0.06721709
145	0xbe2ef58d	-0.17085858
146	0xbd97cab7	-0.07411712
147	0x3dd2ec8c	0.10299024
148	0x3e270321	0.16309787
149	0x3e11285d	0.14175554
150	0x3dce5695	0.10075108
151	0x3c652f69	0.013988354
152	0xbd619842	-0.055076845
153	0x3d02ef83	0.031966697
154	0xbe2dc785	-0.16970642
155	0xbd8cf73b	-0.06883093
156	0x3e250402	0.1611481
157	0xbe1ee797	-0.15518032
158	0x3e5c2542	0.21498588
159	0x3d618112	0.05505473
160	0xbdad39eb	-0.084583126
161	0x3ec0bb2b	0.37642798
162	0x3df2f6f0	0.11863506
163	0x3de5d15e	0.11221574
164	0xbd5ec9ba	-0.0543916
165	0x3e6192f1	0.2202871
166	0x3ebfd9d9	0.37470892
167	0x3cdb8f4c	0.026801728
168	0xbe433003	-0.19061284
169	0x3c552fdc	0.013011899
170	0x3e1fbaae	0.15598556
171	0xc0066342	-2.0998082
172	0x3b487922	0.003058978
173	0x3d8be3de	0.068305716
174	0x3de00edb	0.109403335
175	0xbd948c44	-0.07253316
176	0xbd10ecfd	-0.03538226
177	0xbe689558	-0.2271322
178	0xbebbb4ca	-0.3666137
179	0xbd2ce55e	-0.04221093
180	0xbea81c52	-0.32834107
181	0xbd6392fa	-0.05556009
182	0xbe30ea4a	-0.17276874
183	0xbc09afaf	-0.008403703
184	0xbe3e6cba	-0.18596163
185	0xbc64293f	-0.013925849
186	0x3e066dd2	0.1312783
187	0xbda165f1	-0.07880772
188	0xbdbba922	-0.09163119
189	0xbf2cf538	-0.67561674
190	0x3e1a10af	0.15045427
191	0xbb7dcea5	-0.0038727906
192	0x3dd0b02b	0.101898514
193	0x3daa2e8d	0.0830966
194	0xbd1e38a2	-0.038628228
195	0x3c3bd824	0.011465106
196	0xbe76d100	-0.24103165
197	0xbd29ac2a	-0.041423954
198	0x3dd85308	0.10562712
199	0xbe6ba1da	-0.2301096
200	0x3e19fc6c	0.15037698
201	0x3d6cc8ce	0.05780869
202	0x3e2085ed	0.15676089
203	0x3e1710c1	0.14752485
204	0xbd0c1966	-0.03420391
205	0xbe2162bb	-0.15760319
206	0xbd280ca4	-0.04102768
207	0x3daa1ac6	0.08305888
208	0x3da55537	0.08072894
209	0x3e17ef07	0.14837275
210	0xbd86aa37	-0.06575435
211	0x3d9068f2	0.07051267
212	0xbdbd0d54	-0.09231058
213	0xbe0bf101	-0.13666154
214	0x3e104c33	0.14091568
215	0xbcaefe69	-0.021361547
216	0x3c540473	0.012940514
217	0x3e2e02d2	0.16993263
218	0xbcb167c4	-0.021655925
219	0xbdc5626b	-0.09637912
220	0xbdf805f8	-0.121105134
221	0xbe042cea	-0.12907758
222	0xbe4f3830	-0.20236278
223	0xbd7d6980	-0.06186819
224	0xbcd9dae4	-0.026593633
225	0x3dd91199	0.105990596
226	0xbdc8848f	-0.097909085
227	0xbcabf0aa	-0.020988781
228	0xbda724fb	-0.0816135
229	0x3ded912c	0.11599955
230	0xbd0a5147	-0.03376892
231	0x3bce26c3	0.006291242
232	0xbc526726	-0.012841975
233	0x3e88bc72	0.26706272
234	0xbd55cfd8	-0.05220017
235	0xbde1dea2	-0.11028792
236	0x3e1130f8	0.14178836
237	0x3bd23d09	0.0064159674
238	0xbe362772	-0.17788485
239	0x3da9e683	0.0829592
240	0x3d73fdc3	0.059568178
241	0x3c540e53	0.012942868
242	0xbdd81383	-0.105505966
243	0xbe61242c	-0.21986455
244	0x3d9463ce	0.07245599
245	0x3d7831fd	0.060594548
246	0x3db9982e	0.09062229
247	0x3d17986a	0.037010588
248	0x3e2ae339	0.16688241
249	0xbd5308b7	-0.051521983
250	0x3da2f9c0	0.07957792
251	0x3d6a620a	0.057222404
252	0x3daba5af	0.08381211
253	0xbddfd6d9	-0.10929651
254	0xbcdced71	-0.02696869
255	0xbdabf736	-0.08396761

value.2.bias f4 [32]
0	0x3e7c7d90	0.24657273
1	0xbe264a27	-0.16239224
2	0xbd1ff53e	-0.03905224
3	0xbe134c70	-0.14384627
4	0xbe93f126	-0.2889492
5	0xbc55ecfe	-0.013056992
6	0xbeb42cfd	-0.35190573
7	0xbe989fb4	-0.29809344
8	0x3e32456e	0.17409298
9	0xbe1e8d87	-0.15483676
10	0x3dc20d19	0.094751544
11	0x3e5c8a98	0.21537244
12	0x3e257c9f	0.1616082
13	0xbe72723f	-0.23676394
14	0x3e0270b7	0.1273831
15	0xbd79d945	-0.06099822
16	0xbe68458c	-0.2268278
17	0x3ce6e05b	0.028183153
18	0xbe14d776	-0.14535317
19	0xbdecd156	-0.11563365
20	0xbe05f133	-0.13080291
21	0x3e5a5719	0.21322288
22	0xbe34eff2	-0.17669657
23	0x3e8e54d3	0.2779909
24	0x3e72aa34	0.2369774
25	0x3bb1c0cc	0.0054245945
26	0xbeaf6252	-0.342547
27	0x3e37a289	0.17933096
28	0xbe34bf69	-0.17651142
29	0x3e67e9eb	0.22647826
30	0x3d7274b8	0.059193343
31	0xbdb7fd20	-0.08983827

value.4.weight f4 [1, 32]
0	0xbdea6327	-0.11444693
1	0xbd99d3b9	-0.07511086
2	0x3da35e12	0.07976927
3	0x3da194a4	0.07889679
4	0xbcf10f2d	-0.029426182
5	0x3dadfb34	0.08495179
6	0xbde74977	-0.11293309
7	0xbd907575	-0.07053653
8	0x3dcad210	0.099033475
9	0xbd15bcda	-0.036557056
10	0xbdaa3197	-0.0831024
11	0x3cdc0371	0.02685711
12	0x3dad81a2	0.08471991
13	0xbd81508c	-0.06314191
14	0x3d8a4bf9	0.06752772
15	0xbdf22378	-0.118231714
16	0xbd82edf0	-0.06393039
17	0xbd9487fe	-0.07252501
18	0xbdac1cae	-0.08403908
19	0x3db0de4e	0.08636151
20	0xbca3a1c7	-0.019974602
21	0x3d7acab0	0.061228454
22	0xbd97db55	-0.07414881
23	0xbd7477a1	-0.0596844
24	0x3dc53c5f	0.096306555
25	0x3d6dc0e0	0.058045268
26	0xbdc65820	-0.09684777
27	0x3d9d607b	0.07684418
28	0x3d938798	0.07203597
29	0x3d5b8308	0.053591758
30	0x3d9dbd60	0.07702136
31	0x3d5581ba	0.05212567

actor.0.weight f4 [32, 6]
0	0xbdf8d866	-0.1215065
1	0x3f05e7a9	0.5230661
2	0x3e908599	0.28226927
3	0xbeb164a0	-0.34647083
4	0xbeac717c	-0.33680332
5	0x3ec2cf05	0.38048568
6	0xbed2beaa	-0.4116109
7	0xbf067bc5	-0.5253261
8	0xbe926bce	-0.28597873
9	0xbe555515	-0.20833237
10	0xbd2d1d63	-0.042264353
11	0xbe51e285	-0.20496567
12	0x3e47a6e0	0.19497252
13	0x3c856eff	0.016288279
14	0x3f0b1326	0.54326093
15	0xbe87bfbc	-0.2651347
16	0xbe45d025	-0.19317682
17	0x3d8c1ec7	0.06841808
18	0xbec3a0a1	-0.38208488
19	0xbdf54982	-0.11976911
20	0x3da760fd	0.08172796
21	0x3f0f1ec4	0.5590632
22	0xbdf4a3ac	-0.119452804
23	0xbec0220c	-0.37525976
24	0x3e3dce8f	0.18535827
25	0x3daaf0c3	0.08346703
26	0xbf3ea117	-0.74464554
27	0x3e500db0	0.20317721
28	0x3f131c32	0.574649
29	0x3c0fe1db	0.0087818755
30	0xbe9e9c42	-0.3097859
31	0x3ca7099a	0.02039032
32	0xbeff53c4	-0.49868596
33	0x3e80d3fe	0.25161737
34	0x3e032e85	0.12810715
35	0x3ec09a8d	0.37617913
36	0xbe64a68d	-0.22329159
37	0xbdaa725f	-0.08322596
38	0x3ee79f5e	0.45238775
39	0xbd639d7b	-0.055570107
40	0xbefa59a1	-0.48896506
41	0x3dc5bb44	0.09654859
42	0x3e717164	0.23578411
43	0x3e1913b3	0.14948921
44	0xbefcaf14	-0.49352324
45	0x3ad1c667	0.0016004563
46	0x3f133299	0.5749908
47	0x3dbda70b	0.092603765
48	0xbd9de7f2	-0.07710256
49	0x3e9dd75f	0.30828378
50	0xbb5c6278	-0.0033628028
51	0x3e211e0b	0.15734117
52	0x3cec4959	0.028843569
53	0x3e43bacf	0.1911423
54	0x3eae5990	0.34052706
55	0xbe00a5ab	-0.12563197
56	0x3e0b42ec	0.13599747
57	0x3ef8395f	0.4848127
58	0x3e867f4d	0.26268998
59	0x3da6a7fd	0.0813751
60	0xbd711642	-0.058859117
61	0xbd3c9bd2	-0.04604704
62	0x3ef9b082	0.48767477
63	0x3f0a13ac	0.53936267
64	0x3d048eb7	0.032362666
65	0x3cd3d46b	0.025858125
66	0x3ee519bf	0.44746205
67	0xb9d982c7	-0.00041486902
68	0xbf0523f8	-0.5200801
69	0xbf2cf271	-0.67557436
70	0xbec14eff	-0.37755582
71	0xbf022149	-0.5083204
72	0x3d9514aa	0.07279332
73	0xbf04396d	-0.51650125
74	0xbe551194	-0.20807487
75	0x3f1fcc7b	0.6242139
76	0x3e305734	0.17220765
77	0x3db59d8d	0.08867941
78	0x3f338728	0.7012811
79	0x3e59e25a	0.21277753
80	0xbf0cbbd2	-0.5497409
81	0xbe8abe25	-0.27098194
82	0x3ebaf758	0.36516833
83	0xbdbca14c	-0.092104524
84	0xbee5bbc7	-0.44869825
85	0xbeb7053f	-0.3574619
86	0xbea70c16	-0.32626408
87	0x3e2cf387	0.16889773
88	0x3ee8a89a	0.45441133
89	0x3eefc3e6	0.46829146
90	0xbe89351f	-0.2679834
91	0x3edd3444	0.43203938
92	0x3e0c2d59	0.13689174
93	0x3e929352	0.2862802
94	0x3d786dfb	0.06065176
95	0xbd7f4063	-0.062317263
96	0x3ee32c55	0.4436976
97	0xbe9b7b09	-0.30367306
98	0x3ef621af	0.48072574
99	0xbe6c0658	-0.23049295
100	0xbead3a40	-0.33833504
101	0xbf238164	-0.6386931
102	0xbeb57bff	-0.35446164
103	0x3ba03051	0.0048885723
104	0xbeb19f70	-0.34691954
105	0xbf10f3aa	-0.566218
106	0x3f1c911c	0.6115892
107	0x3cee2625	0.029070923
108	0x3eee1c4f	0.46505973
109	0x3ec49fcc	0.38403165
110	0x3eac8084	0.336918
111	0x3e9db4fd	0.30802146
112	0xbe18c4fa	-0.1491889
113	0xbeaa670c	-0.33281744
114	0x3f12f421	0.5740376
115	0xbe7da977	-0.24771677
116	0x3edac9d9	0.42732123
117	0xbd8f5f1d	-0.07000563
118	0xbc03c4da	-0.008042539
119	0x3e98d7fa	0.29852277
120	0x3ed00941	0.4063206
121	0x3e9aa96b	0.3020738
122	0x3e8528f3	0.26007804
123	0xbeb46485	-0.3523294
124	0xbe89fc21	-0.26950172
125	0xbdf4caa4	-0.11952713
126	0xbf0d188e	-0.5511559
127	0xbd09b97b	-0.033624154
128	0x3ec797cf	0.38983008
129	0xbe297b10	-0.16550851
130	0x3e808abd	0.2510585
131	0x3ea30d7b	0.31846222
132	0x3e8e570f	0.27800795
133	0x3ee1bfa9	0.44091538
134	0x3e2071c6	0.15668401
135	0xbeae83c3	-0.340849
136	0xbe8a5d54	-0.2702433
137	0x3ead1804	0.33807385
138	0xbee42721	-0.44561103
139	0xbf09a027	-0.5376
140	0xbe643c49	-0.22288622
141	0xbe0eeb4e	-0.13956949
142	0xbe6a59b6	-0.22885785
143	0xbe518f50	-0.20464826
144	0xbeab162c	-0.33415353
145	0x3d665bcd	0.05623989
146	0x3da11db4	0.078669935
147	0xbe294134	-0.1652878
148	0xbe7e2142	-0.24817374
149	0xbe64ca61	-0.22342826
150	0x3cbe09ab	0.02319797
151	0x3e6f03f6	0.23341355
152	0xbec2d5ad	-0.38053647
153	0xbed36b17	-0.4129264
154	0xbdb3e9fd	-0.08784864
155	0x3c17c55e	0.009263365
156	0x3ec655eb	0.38737425
157	0xbe2227af	-0.1583545
158	0xbe8af1c7	-0.27137586
159	0xbeca0521	-0.39457038
160	0xbde2073c	-0.11036536
161	0xbe12c101	-0.14331438
162	0x3d4f2af9	0.05057809
163	0x3ee45391	0.44595006
164	0xbdd3045d	-0.103035666
165	0xbe833c01	-0.25631717
166	0x3d837fe1	0.06420875
167	0x3f1771c0	0.59157944
168	0xbeab8c92	-0.33505684
169	0xbea0651c	-0.3132714
170	0xbe9c2102	-0.30493933
171	0x3e32caa5	0.17460115
172	0x3e8f3a21	0.27974036
173	0x3e303172	0.17206362
174	0x3ec494db	0.38394818
175	0x3e5a10f3	0.21295528
176	0xbdf4d801	-0.11955262
177	0x3ec3d150	0.3824563
178	0xbe2ded2e	-0.16985008
179	0xbcd6eb2e	-0.02623519
180	0xbee2c24f	-0.4428887
181	0x3eef4006	0.46728534
182	0x3f33e229	0.7026697
183	0x3efc0df0	0.49229383
184	0xbe9bb1df	-0.30409142
185	0x3e4d81d0	0.20069051
186	0x3f17f3b0	0.5935621
187	0xbea23c99	-0.31686857
188	0xbe50b83c	-0.2038278
189	0xbdb7bd17	-0.08971613
190	0x3e72957f	0.2368984
191	0x3e1b1da7	0.1514803

actor.0.bias f4 [32]
0	0xbeb08613	-0.3447729
1	0x3e9f89d4	0.31159842
2	0x3e3f9ed3	0.1871293
3	0x3e2d520b	0.16925828
4	0x3f159d18	0.5844283
5	0xbebe0399	-0.3711212
6	0x3eb1b5f4	0.34709132
7	0xbe4d414f	-0.20044445
8	0x3e1131e6	0.14179191
9	0xbeacef0d	-0.3377613
10	0x3e0b5e40	0.13610172
11	0x3e8308e0	0.2559271
12	0xbe4ee3b6	-0.20204052
13	0x3e369613	0.17830686
14	0xbeda65f8	-0.4265592
15	0xbed23b67	-0.41060945
16	0xbea8b9dc	-0.329543
17	0xbca16ac1	-0.019704225
18	0x3f063663	0.5242674
19	0xbebc6c3c	-0.36801326
20	0xbe93ef22	-0.2889338
21	0xbea64064	-0.32471
22	0xbecbcacd	-0.39803162
23	0xbe3932e0	-0.18085814
24	0x3e5c7271	0.21528031
25	0xbe217082	-0.15765575
26	0x3e10a157	0.14124046
27	0xbe8720aa	-0.26392108
28	0xbebe6a67	-0.37190554
29	0xbda90ebf	-0.08254766
30	0x3e94b885	0.29047027
31	0xbd82835c	-0.06372711

actor.2.weight f4 [32, 32]
0	0xbe6e8bdc	-0.2329554
1	0xbc8db79f	-0.017299471
2	0xbe8066c0	-0.25078392
3	0xbdde773f	-0.10862588
4	0x3e5b1a25	0.21396692
5	0x3e546e22	0.20745137
6	0x3e0b1097	0.13580547
7	0x3d536222	0.05160726
8	0x3df70634	0.1206173
9	0xbefa3b14	-0.48873198
10	0xbe831631	-0.25602868
11	0xbbd9efa0	-0.00665088
12	0x3e5b32ae	0.21406052
13	0x3e2967df	0.1654353
14	0x3e82d8d5	0.25556055
15	0xbf15f845	-0.58581954
16	0xbee0a7d1	-0.43878034
17	0x3d6e35ff	0.058156963
18	0xbf35717a	-0.70876276
19	0xbdfec47a	-0.12439819
20	0x3bb56706	0.005535963
21	0xbe1050b1	-0.14093281
22	0xbdd33fe6	-0.10314922
23	0x3e528520	0.20558596
24	0x3e289ffd	0.1646728
25	0xbe044bed	-0.12919588
26	0xbd2649b9	-0.04059765
27	0x3bc2ad7d	0.0059410916
28	0x3e3f325e	0.18671557
29	0x3c407e86	0.011748916
30	0x3e111de1	0.14171554
31	0xbf4dcfee	-0.803954
32	0xbe054922	-0.13016179
33	0xbdee5dca	-0.116389826
34	0xbd6266e0	-0.05527389
35	0x3e3ab502	0.18233112
36	0x3e059e1f	0.130486
37	0xbe0a5b2a	-0.13511339
38	0xbcf45e0a	-0.029829998
39	0x3cb997b8	0.022655353
40	0xbeeb3dda	-0.45945626
41	0x3b2819ec	0.0025650216
42	0xbe7ebdfa	-0.24877158
43	0x3e8538c6	0.26019877
44	0xbe9a8d27	-0.30185816
45	0x3cf02162	0.029312793
46	0xbe00d851	-0.12582518
47	0xbf999a48	-1.2000208
48	0x3e50a380	0.2037487
49	0xbdc4c5c9	-0.09608037
50	0xbe364663	-0.17800288
51	0x3d9d945b	0.07694312
52	0xbe5035b6	-0.20332989
53	0xbec0fe24	-0.37693894
54	0xbe28f3a9	-0.16499199
55	0x3d10aad2	0.035319157
56	0x3c05ee8a	0.008174548
57	0x3e2deda1	0.1698518
58	0x3d87239a	0.06598587
59	0x3d3ae2db	0.045626502
60	0x3eb5a0c0	0.35474205
61	0x3e589f10	0.21154428
62	0xbdd42d22	-0.10360171
63	0x3da74e9b	0.0816929
64	0x3d015eaf	0.031584438
65	0xbd4433f0	-0.047901094
66	0xbd7dbb0d	-0.061945964
67	0xbde3058f	-0.110850446
68	0xbc8572cf	-0.016290097
69	0xbe3de8db	-0.18545859
70	0x3cd83c69	0.026395993
71	0x3dcf2702	0.10114862
72	0x3de5fb40	0.11229563
73	0x3d015bba	0.031581618
74	0xbd9ca214	-0.076481014
75	0x3c9862ad	0.01860174
76	0xbe3b085a	-0.18264905
77	0xbd3f7916	-0.046746336
78	0x3c891d99	0.016737746
79	0xbdf121ca	-0.11774023
80	0x3d0f97a0	0.03505671
81	0x3cfb8cb8	0.030706748
82	0xbc0ccc79	-0.008593672
83	0x3c9a9aaf	0.018872587
84	0xbe3214c2	-0.17390731
85	0xbe7d27d3	-0.24722223
86	0xbdabef14	-0.0839521
87	0xbcd8483a	-0.026401628
88	0x3c9d9796	0.01923732
89	0x3cf7798d	0.030209327
90	0xbd2e382b	-0.042534035
91	0xbd9fd245	-0.078037776
92	0xbd601f6c	-0.054717466
93	0xbd9e0917	-0.077165775
94	0xbdee42b0	-0.116338134
95	0x3d721d55	0.059110004
96	0xbe9d70a8	-0.30750012
97	0x3cf5c8ad	0.030002916
98	0x3d694a30	0.056955516
99	0xbcdca122	-0.026932303
100	0x3e866ed9	0.26256445
101	0xbdd4ad92	-0.103846684
102	0x3d6fb0cf	0.058518227
103	0x3e6ec161	0.23315956
104	0xbdfeff07	-0.12450986
105	0xbebe40fb	-0.3715895
106	0xbde2ec8d	-0.11080275
107	0x3ea13c16	0.31491154
108	0xbeca908f	-0.39563414
109	0x3e55d460	0.20881796
110	0x3cd6b50c	0.026209377
111	0x3e6f4a99	0.233683
112	0x3e211161	0.15729286
113	0xbe693d42	-0.22777274
114	0x3ee019c8	0.4376967
115	0x3e8b31f6	0.27186555
116	0xbe58a84e	-0.21157953
117	0xbeba6183	-0.3640252
118	0xbea0d5c0	-0.31413078
119	0x3dac4db4	0.08413258
120	0xbe834674	-0.2563969
121	0xbdaa3b70	-0.08312118
122	0x3e01e8b0	0.1268642
123	0xbc3b2486	-0.011422282
124	0xbe3f8fe2	-0.1870723
125	0xbd32ab55	-0.043620426
126	0xbce76061	-0.0282442
127	0x3e9d5e3f	0.30735967
128	0x3e21e8cc	0.15811461
129	0x3ebc0ae6	0.36727065
130	0xbe3a6c02	-0.18205264
131	0x3e6749b1	0.22586705
132	0xbf2976fd	-0.66197187
133	0xbcdf8fea	-0.027290303
134	0x3db0b121	0.08627535
135	0xbf09b65d	-0.5379389
136	0xbeab5efb	-0.33470902
137	0xbde3e0e2	-0.11126877
138	0xbc9480a1	-0.018127741
139	0xbee39e25	-0.44456592
140	0x3ec7ebc7	0.3904707
141	0xbe9c8b88	-0.30575204
142	0x3d0f6fb5	0.03501864
143	0xbee5161f	-0.4474344
144	0xbe6d38fd	-0.2316627
145	0x3e161284	0.146555
146	0xbed2e235	-0.41188207
147	0xbe309307	-0.17243586
148	0xbe612f6f	-0.2199075
149	0x39842ca2	0.00025210256
150	0x3c8d8ba9	0.01727851
151	0x3e823b35	0.25435796
152	0xbed1fe2f	-0.4101424
153	0xbef92c30	-0.48666525
154	0x3eaf9234	0.34291232
155	0xbb566f5a	-0.003272018
156	0x3e20f343	0.15717797
157	0xbe470e0c	-0.19438952
158	0xbe87d161	-0.2652693
159	0xbceab182	-0.028649095
160	0x3d872298	0.06598395
161	0x3e16847a	0.14698973
162	0x3e2dee67	0.16985475
163	0xbe03dcf1	-0.12877251
164	0xbccde8ff	-0.025135515
165	0x3e0add8d	0.13561077
166	0x3dc66352	0.096869126
167	0xbd8f0dc8	-0.069850504
168	0x3da655ab	0.081218086
169	0x3e632291	0.22181155
170	0x3e8082ac	0.25099695
171	0xbd7fea8e	-0.06247955
172	0xbea2da07	-0.31806967
173	0xbd9ae1cb	-0.07562598
174	0xbe612f38	-0.21990669
175	0xbdab94a6	-0.08377962
176	0xbe5f705e	-0.21820208
177	0x3e1bf6fa	0.15230933
178	0xbf0bfb89	-0.5468069
179	0xbf01d946	-0.5072216
180	0x3e266c74	0.16252309
181	0x3ea69d4a	0.32541877
182	0x3d954d44	0.07290128
183	0x3ad22240	0.0016031936
184	0xbe1e22ea	-0.15443006
185	0x3dae0eed	0.084989406
186	0x3d851e68	0.0649994
187	0x3db647d4	0.08900419
188	0xbe0689f7	-0.13138567
189	0xbe6b4823	-0.22976737
190	0x3e638f75	0.22222693
191	0xbf101dc8	-0.5629544
192	0x3ed1ba91	0.4096265
193	0xbe962227	-0.2932293
194	0xbe84b55b	-0.25919613
195	0x3e24a385	0.16078003
196	0xbcacd50d	-0.021097684
197	0x3e5a9e02	0.21349338
198	0x3e42c2c0	0.19019604
199	0xbe9999b6	-0.30000085
200	0xbcd2ba40	-0.025723577
201	0x3ddee265	0.10883025
202	0x3e864acb	0.26228938
203	0xbfc9148c	-1.5709395
204	0x3dcc7015	0.099823155
205	0xbef295d4	-0.47379935
206	0xbead02b3	-0.33791122
207	0x3e896995	0.26838365
208	0x3e341917	0.17587696
209	0x3e8861cd	0.26637116
210	0x3e13eb12	0.14445141
211	0xbe6d6173	-0.23181705
212	0xbf028719	-0.5098739
213	0x3dd42fb1	0.10360659
214	0xbd02a8df	-0.03189933
215	0xbe5e9743	-0.2173739
216	0xbe738b1b	-0.23783533
217	0xbe1b7798	-0.1518234
218	0x3eb0edc5	0.34556404
219	0x3e2adaeb	0.16685073
220	0xbd53cfd9	-0.05171189
221	0x3e1734e3	0.14766268
222	0x3db4e7a1	0.08833242
223	0xbe93fdaa	-0.28904468
224	0x3d5f29ed	0.054483343
225	0xbd502072	-0.050812192
226	0x3cf073a8	0.029352024
227	0x3caef91a	0.021359015
228	0xbc97b591	-0.018519195
229	0x3e28b58b	0.16475503
230	0xbd30edaa	-0.043195404
231	0xbe31e9d8	-0.1737436
232	0x3eb99137	0.36243603
233	0x3d2dad2f	0.04240149
234	0x3e0b9c3a	0.13633814
235	0xbe06b3d5	-0.13154538
236	0x3c277b15	0.010222216
237	0xbdec810c	-0.11548051
238	0x3d72e6ac	0.059302017
239	0x3e89f108	0.26941705
240	0x3d8a7ce9	0.06762106
241	0x3e4ba05c	0.19885391
242	0xbe4efe82	-0.20214275
243	0xbdac4ec7	-0.08413463
244	0x3e937a39	0.28804186
245	0x3ebf0ab4	0.37312853
246	0x3d878f0a	0.066190794
247	0xbd7cb679	-0.061697457
248	0x3e14aaa1	0.14518215
249	0x3c6e5f66	0.014549112
250	0xbdc5fc19	-0.096672244
251	0x3d9b86cd	0.075940706
252	0x3df6f45b	0.12058326
253	0xbebbb902	-0.36664587
254	0x3e1487a0	0.14504862
255	0xbf1c555e	-0.6106776

actor.2.bias f4 [32]
0	0x3e49da88	0.1971227
1	0x3d575739	0.052573416
2	0xbd04bb00	-0.0324049
3	0xbe867e57	-0.26268265
4	0x3d933331	0.07187498
5	0x3dfcfbeb	0.12352737
6	0x3d9bd7b8	0.076095045
7	0x3e477cdd	0.19481225
8	0x3e514e8e	0.20440122
9	0x3db62fe4	0.08895853
10	0x3e116249	0.14197649
11	0x3e1b83ac	0.15186948
12	0x3e8bfdc9	0.2734206
13	0x3d0400e2	0.032227404
14	0xbdcacea9	-0.099026985
15	0xbe17b59a	-0.14815369
16	0xbd98bf7d	-0.074583985
17	0x3d5a5fe5	0.05331411
18	0x3c817723	0.01580388
19	0x3cdefe3f	0.027220843
20	0x3e624da3	0.22099929
21	0xbe18a479	-0.14906491
22	0x3d70ac17	0.058757868
23	0x3e694952	0.22781876
24	0x3e594105	0.21216209
25	0xbd4c87b8	-0.04993412
26	0x3e20279d	0.15640111
27	0xbe09c377	-0.1345347
28	0xbcdd66ca	-0.027026553
29	0xbc75540c	-0.014973652
30	0xbd83911b	-0.06424161
31	0x3e62dd9e	0.22154853

actor.4.weight f4 [2, 32]
0	0xbf1d0b60	-0.6134548
1	0xbf0e6f0d	-0.556382
2	0xbd9ebe03	-0.077510856
3	0x3e80ad5d	0.25132266
4	0xbed85eb6	-0.4225976
5	0xbe073c85	-0.1320668
6	0xbea97ab3	-0.33101425
7	0x3e0493a4	0.12946945
8	0xbe601e28	-0.21886504
9	0xbf023227	-0.50857776
10	0x3e951891	0.29120305
11	0x3e89a8ef	0.268867
12	0xbfa098ab	-1.254659
13	0xbd4c90e2	-0.04994286
14	0x3eb89659	0.36052206
15	0xbefe1bf8	-0.49630713
16	0x3e632f56	0.22186026
17	0xbea65e4c	-0.32493818
18	0x3dab07c1	0.08351088
19	0x3eb01264	0.3438903
20	0xbe5eb1eb	-0.21747558
21	0xbeca5f22	-0.39525706
22	0xbe53b8b3	-0.20675926
23	0x3ef81191	0.48450902
24	0xbe5df1e0	-0.21674299
25	0x3f040159	0.51564556
26	0x3afa6572	0.0019103719
27	0x3e8d3ebf	0.27586934
28	0xb8dcd8c9	-0.00010530797
29	0xbf10b784	-0.5653002
30	0x3e8b969e	0.2726335
31	0xbe853073	-0.26013526
32	0x3e82ead3	0.25569782
33	0xbe7d2476	-0.2472094
34	0x3dcac9d5	0.09901778
35	0xbf0a4967	-0.54018253
36	0x3f3530b9	0.7077747
37	0x3e91b8d5	0.28461328
38	0x3e91e583	0.28495416
39	0x3ed29190	0.4112668
40	0xbdd56780	-0.10420132
41	0x3e323745	0.17403896
42	0x3f0bc7df	0.54601854
43	0x3f8c208a	1.094743
44	0x3dfc82c3	0.12329628
45	0xbed54743	-0.4165593
46	0xbe46cd50	-0.19414258
47	0xbf383658	-0.7195792
48	0x3f7a5c1b	0.9779679
49	0xbee6dc90	-0.4509015
50	0x3f2df979	0.6795879
51	0xbede60b1	-0.43433145
52	0xbe75d461	-0.24006797
53	0x3f49cf14	0.788316
54	0x3ec92a80	0.39290237
55	0xbe760bd7	-0.24027954
56	0x3f45fede	0.7734202
57	0x3e8d59e8	0.27607656
58	0x3e80a5b5	0.25126424
59	0xbe59c406	-0.21266183
60	0xbf227400	-0.6345825
61	0xbe6bcdd1	-0.23027731
62	0xbf195d2c	-0.59907794
63	0x3e1deb43	0.15421776

actor.4.bias f4 [2]
0	0x3d01aff0	0.031661928
1	0x3e9c7cee	0.30564064
