results/SandingEnvEasy/ddpg/model/model_parameters_43.pt (torch, 30046 bytes, 22 tensors)

value.0.weight f4 [32, 8]
00000000: 6d1a 053e ef8f 9d3e e117 393e 0e03 893e
00000010: 65ce bcbe a823 ab3d 9b54 1f3e b4b0 ef3c
00000020: aa58 25bc 213d a8bb 5098 9ebe 2dc6 10bc
00000030: 1e3f 31bd f031 a6be ceae f0be e010 95be
00000040: 5d92 003e 3254 dabd c475 9ebd b3bb 213e
00000050: 5c2a e0bd b4e9 6ebe 8e58 9a3e 0734 2abe
00000060: d3df 9d3e 2181 7abe c50e 93bd d516 3ebe
00000070: 4093 923d 73e5 42bd 4aa3 aa3d 1ae8 793c
00000080: 9195 ac3e b6b0 a5be 1a95 aa3b 90cc 3f3e
00000090: a959 383e e5c9 293e e16d dc3b 46b1 94bd
000000a0: 155e 0b3e edd2 623e 7021 db3d 26b9 c9bd
000000b0: 62f7 8d3d 1c26 9f3e 9945 dfbe 8af9 0e3e
000000c0: 56f9 6e3d d243 413d 9830 a23e c27a 81be
000000d0: ac39 9abd 0065 c4bc aece ecbd 9a8f 8e3c
000000e0: 97cc 9abd 9f2e 363e 2bb0 94be 4cff 243e
000000f0: 5c60 323e f20a 8f3e cbb8 863e a124 1c3d
00000100: 5d63 86be 84ab afbd b9cf fc3d 3f79 34be
00000110: 331a c4bd 9fdf 0b3d c1a2 73bd 4da9 173e
00000120: 6627 623e 35b0 843e b246 b6be 573a 663e
00000130: 764c b23e b78f b43e 2acb e9bb 6704 523e
00000140: b8e6 1bbe ee30 8f3e 1d90 90be a644 983d
00000150: 47d9 afbe ea0f 133d 5cd2 ce3d c181 473e
00000160: 81a7 7c3e db70 afbe 2872 673e 7514 333e
00000170: 7606 9a3e 2fbd 29be 73f3 243f 094b b6bd
00000180: 8989 8d3d 99cf 03bc df97 713c a078 99be
00000190: 1e31 2ebe b7f8 51be 05cf 2e3d fb2d 9e3e
000001a0: 5139 d5bd 7167 fcbd 8e99 36be 7dd0 1a3d
000001b0: 4cf4 3abc 09f7 12be 2f39 f2bd c616 d0be
000001c0: 10f0 623e a287 9dbe 2e71 ddbd 1ecb a0be
000001d0: faf2 2cbe cf6e 8fbe e0e2 c23e 05a1 e73c
000001e0: f24a 9fbe a492 853e 59b8 cd3a cebf 943d
000001f0: 832c 12be d2ca ba3e 37cb fc3d 03c6 953e
00000200: 1708 61be de4f 533e de6f 503c 4de3 133e
00000210: fa95 083e 10e4 af3e bbde 9dbe 36c2 00be
00000220: 827c 8c3c 68af 013e 3168 17be b918 e03d
00000230: f238 a6be d85d 793e 9056 bb3d a389 1d3e
00000240: 4039 87be 1a32 593e fe54 94be a341 cf3b
00000250: f317 a33e 2496 cebd 6d31 723e 2b11 143d
00000260: 4723 ba3d bfce 953d e362 84be cbaf 93be
00000270: 4b06 0e3e 4f4a 023e c365 b13e 33d9 9dbe
00000280: 88e5 293e 3ba6 a6be 40a8 adbd 0dda 58bd
00000290: b9d1 71be 7553 603e ff94 483e 0d6e 533e
000002a0: 161f a1be 72c3 563e 17ab d0bd 1fc1 a2bc
000002b0: cafe 6dbe 861c 6fbe e53f 08be 209e 0bbd
000002c0: 4c24 643e cfd7 d4ba 9444 af3d 0c2f 8a3d
000002d0: 822a 033e 989d 803d a70c 943e 6504 703e
000002e0: c413 8abe 60f3 3a3e 32d9 b8bd fab3 793e
000002f0: f639 99be 4132 74be 776a bd3b c479 913e
00000300: 9221 a23e 1f3b 83be c867 bc3d 3226 363e
00000310: 86ce 9a3c decd a6be f3f7 703e 960c e73e
00000320: bf5a 383e d955 303e 5f04 8abe 972c febd
00000330: 290f 003e a030 61be 0771 8e3e bd56 133f
00000340: e2f1 6d3d 2843 4e3e 46ef 00be ef44 26be
00000350: 9c11 41be c634 04be 8a33 4e3e 9ea4 b8bc
00000360: c0f6 64bd 54b5 223e 86a7 5abe 6c7e cf3d
00000370: 33af 2bbe 2d96 2b3e c71c 3c3e fd1e 00be
00000380: 9923 e9bb 2412 17be 1517 713e 5b5f 05be
00000390: 1b9d 82be 7270 3a3e ce5e 303e d009 8e3e
000003a0: 2fd8 0abe 6f52 c3bb 20c9 6e3e ed42 ffbd
000003b0: e25a 88bd 072b a43e 2624 2e3e be71 93be
000003c0: dfc4 703d 1330 993e f567 81be 4e71 b9be
000003d0: b057 a6bd 6de5 e3bd 644e 56be 2e88 1f3e
000003e0: 4ad2 823e b573 15bd 7abb 4d3e b587 c63b
000003f0: 3cb3 993e aa93 febc 46b7 223e 900d d93e
0.12998362 0.30773875 0.18075515 0.26760143 -0.36876217 0.0835641 0.15559618 0.029259063
-0.01009194 -0.0051342403 -0.3097558 -0.008836311 -0.043273084 -0.32459974 -0.47008365 -0.29114437
0.12555833 -0.1066059 -0.07737306 0.15794258 -0.109455794 -0.23331338 0.30145687 -0.1662141
0.30834827 -0.24463321 -0.071805514 -0.18563397 0.07156992 -0.0475821 0.08331926 0.015253091
0.3370786 -0.32361382 0.0052057626 0.18730378 0.18002953 0.16580923 0.006726966 -0.07260375
0.13610108 0.22150774 0.10699737 -0.098497674 0.0693195 0.31083763 -0.43607786 0.13962379
0.058343254 0.04718382 0.316777 -0.2528897 -0.07530531 -0.023973942 -0.115628585 0.017402459
-0.07558554 0.17791222 -0.29040655 0.16113013 0.1741957 0.27938038 0.2631286 0.03812087
-0.26247683 -0.08577636 0.123443075 -0.17624377 -0.095753096 0.03414881 -0.059481386 0.14810677
0.22085342 0.25915685 -0.3560081 0.22483192 0.3482396 0.35265896 -0.0071348147 0.20509492
-0.15224731 0.27967018 -0.2823495 0.07434969 -0.34345457 0.03590385 0.100987166 0.19483091
0.24673273 -0.3426579 0.22602141 0.17488272 0.30083054 -0.16576074 0.64433974 -0.089010306
0.069109984 -0.008045101 0.014745682 -0.29974842 -0.17010924 -0.20505033 0.042677898 0.30894455
-0.10411323 -0.123244174 -0.17832014 0.037796486 -0.011410784 -0.14352049 -0.11827313 -0.40642375
0.22161889 -0.30767542 -0.10812603 -0.31404966 -0.16889563 -0.28014228 0.38063717 0.028275022
-0.31111866 0.2608844 0.0015695199 0.07263146 -0.14274792 0.36482865 0.12343448 0.29252633
-0.21975742 0.20635936 0.012721984 0.14442177 0.13338462 0.34353685 -0.30833992 -0.12574086
0.017149214 0.12664568 -0.1478584 0.109422155 -0.3246532 0.24352205 0.0914737 0.15384535
-0.26410866 0.21210518 -0.28971094 0.006324963 0.3185421 -0.10087231 0.23651667 0.036149185
0.0908876 0.07314824 -0.25856695 -0.28845057 0.13869588 0.12723659 0.3464795 -0.30829772
0.16591465 -0.325487 -0.08479357 -0.052942324 -0.23615159 0.21906836 0.19588087 0.2064745
-0.3146903 0.20972994 -0.10188883 -0.019867478 -0.23241726 -0.23350725 -0.13305624 -0.034086347
0.22279471 -0.0016238632 0.08558002 0.06747255 0.12809184 0.062800586 0.28915903 0.23439176
-0.26968205 0.18256903 -0.09025802 0.24385062 -0.29927033 -0.23847295 0.005780514 0.28413212
0.31666237 -0.25631043 0.09199482 0.17788008 0.018897306 -0.3257894 0.23532085 0.4512679
0.18003367 0.17220248 -0.2695646 -0.124108486 0.12505783 -0.21991205 0.27820608 0.5755423
0.058092006 0.20142806 -0.12591276 -0.16237234 -0.18854374 -0.12910756 0.20136848 -0.022539433
-0.05589938 0.15889484 -0.21352968 0.10131535 -0.16766052 0.16756506 0.18370353 -0.12511821
-0.0071148393 -0.14753014 0.23543961 -0.13024656 -0.25510487 0.18206957 0.17223665 0.2774186
-0.1355903 -0.0059607546 0.2331891 -0.12463937 -0.066579595 0.32064077 0.17005977 -0.28797716
0.0587815 0.2991949 -0.25274625 -0.36219257 -0.08122194 -0.11127744 -0.20928341 0.15579292
0.25551063 -0.0364873 0.20091048 0.006058658 0.30019557 -0.031076271 0.15890226 0.4239316

value.0.bias f4 [32]
00000000: 12c5 433e 4e0f 87bd 2c81 22be d7db 913d
00000010: 28cf 33be 67f0 bbbe e728 553e 50a7 e83d
00000020: 0ee6 b23d 4d73 b9bd 4cb9 3c3e 9f15 afbe
00000030: 2bf2 683e b024 193e d9aa ca3e 31d4 073e
00000040: af6f 90be 2044 25bb 5eae 8bbe 2d31 2f3e
00000050: 18dc 8e3e 55f7 be3d 64f0 24be f3e3 8ebe
00000060: ec79 a73e 94d8 bcbe 8907 b1be a8e9 1d3e
00000070: 7d82 983e bdb8 8c3e 83ab 363e 6ec4 3dbe
0.19118145 -0.06594716 -0.15869588 0.07122009 -0.17559493 -0.3670685 0.20816384 0.11360037
0.08735286 -0.09055195 0.1843006 -0.34196183 0.2274863 0.14955401 0.3958347 0.13264538
-0.28210208 -0.0025217608 -0.2728147 0.17108603 0.27902293 0.093245186 -0.16107327 -0.27908286
0.32710207 -0.36883986 -0.3457606 0.15421164 0.29787055 0.27484694 0.17838864 -0.18531963

value.2.weight f4 [32, 32]
00000000: 6387 e23c 5372 16bd 0c2b 02be d4bf 1e3e
00000010: 46b4 123d 98da 86bd 3a09 febc af40 1c3e
00000020: fb92 10be ef28 c2bd 6597 febc 4214 94ba
00000030: 543f 18be d08c ab3d 426e 11be 5aba 4a3e
00000040: b66d f63c 547c b53c 2bc9 33bc 0709 963d
00000050: 0793 063e ad5e 8ebd 57b8 093c 835e 31bd
00000060: 5d81 c23d 3963 dabd ff1d c2bc 21c1 fb3d
00000070: 6d5e a2bd 8d99 823e cb86 2b3e 9552 5c3d
00000080: f54e 4bbe 03f1 0bbe 2c2c cabc d593 143e
00000090: 8108 27bd 32d4 b63d bb6c fe3c 4a28 353d
000000a0: 2227 14be 87c4 c43d c626 c1bb 1bfd 08be
000000b0: 9ba6 5cbe 9cd9 09be 9a04 603d 8f5b 32be
000000c0: d833 61bd eded 48bd fd53 1abe 318c 2ebe
000000d0: e94f aabd 6155 253e 91d6 e9bd c461 92bd
000000e0: 4d66 2f3e 137a 283e 1792 e8bd 4d8b 7c3d
000000f0: 7b5e 8e3c df66 5a3d 65c1 ef3d 4a9c 6e3d
00000100: f71f 283e 472a 65bd 30dc 14be c8bb fb3c
00000110: ec07 bc3d 1026 f43d 1a0f 4abc bca5 f6ba
00000120: 975f 363b a2bc 2b3e c712 d1bc 4e12 f2bb
00000130: daad 86bd 6e57 59be 056e 1d3e 38bb 053d
00000140: 1245 813d c3a3 bb3d d78e fe3c 6599 cbbd
00000150: 64d8 4c3d 1cb0 aabc 3b01 173e ff16 ffbc
00000160: 9256 88bd 5e51 9e3c e5a1 27be db95 b33a
00000170: 5577 073d 06dd 763d a2f5 a6bd e51f 8ebd
00000180: 06d2 1cbe 2a24 5fbc 8794 2f3d a309 cc3d
00000190: 8175 393e ddd3 8bbc 38fd e8bd 46a4 90bd
000001a0: 9666 a7bd 32e9 1d3e 2cff e03d 8e73 01be
000001b0: d941 99bd 42ef ecbd a384 1d3e 2f66 e03d
000001c0: bf32 923d 3ce3 223b 7acf de3d 4668 efbc
000001d0: 87c1 bd3d 2462 143e d14e b43d a04e fabd
000001e0: a78b 0e3e 7d3f c4bb bffc 2c3d f11c 043e
000001f0: e95c 76bd 65fc 023d f08c abbc 5679 23be
00000200: 8c48 87bc b7d1 0b3e 85d4 e8bd 412b 80bd
00000210: 158a 9e3d 6d55 b73d 76cd 92bd ec1b 373c
00000220: 4739 79bd b0f3 2b3e c7af 373e b26f 403d
00000230: b8a6 433d 1fe1 2d3d 75ff 90bd 4a46 7fbc
00000240: dec6 8ebd bb26 16be a377 2ebe 5d4f e4bd
00000250: 106b e43d fdd1 083c 9b1e f1bc 813f 9d3d
00000260: 8541 6d3d ea42 003e 097c 3b3e 015c 933c
00000270: fe21 05be b763 b63d ddb8 0ebe 158a 283e
00000280: c370 143e 4b5a b03d 48f9 17be 0308 8dbd
00000290: ddff f9bc 603a 033e 1d9d 4bbc 4574 573e
000002a0: 1e08 163e 99a5 0abb 5f06 dc3d 4ce1 21be
000002b0: b4ca 21be 6365 983c dedf 813d b298 9e3d
000002c0: 7ce6 36ba caee 453d 110f 34bd ee8a 933d
000002d0: 3a24 1d3e ec4d ccbd 0425 38bd 8933 4a3d
000002e0: 1d4a a0bc f4e0 fabd c56d c13c da07 863c
000002f0: 116f 973c c76f efbd 4a38 92bd c965 4c3d
00000300: f0f9 d43d 19a8 893c 98ac 5fbd 1cba 243e
00000310: 909a e33d e93d 2f3d df05 1bbe 8e09 573d
00000320: aaf4 c5bd 17b2 bfbd bd4f 043c 4019 543c
00000330: d0fd f13c 1a27 b33d fd21 213e c377 3ebe
00000340: 957a 2f3c ce81 1b3d c37b f5bd 0099 2e3d
00000350: 3773 f23d a25b e23d 9c65 09be e6d8 01be
00000360: d2ce e93d b23b b93b b2af 393d a111 ea3d
00000370: ca0f ff3d cdd1 a3bd 318b 003d 2bf4 913d
00000380: 1aad 17be 21ab e7bd c0fd 1bbd b903 ad3d
00000390: d7da 41be 9c7e 2d3e 283b d1bd 164a 8bbc
000003a0: dd85 f83d 614c af3d a82b 493c e2c2 0dbe
000003b0: 8f79 00be b4a3 3c3c 2d5d 223d 9269 d2bb
000003c0: c92a 60bd aa84 b8bd ed6c cbbd 3c80 973d
000003d0: 6e77 c73d f0c4 1ebe bef0 c83d 09f7 d5bd
000003e0: a4d1 203d 9c24 21be 6a38 1c3e a846 b6bb
000003f0: 5fab 9f3d 29ef ab3d 8691 cd3d 86be a6bd
0.027652448 -0.03673012 -0.12711734 0.15502864 0.035816453 -0.06584662 -0.031010259 0.1525905
-0.14118569 -0.09480464 -0.03107805 -0.0011297541 -0.14867908 0.08376467 -0.14202216 0.1979765
0.030081611 0.02215401 -0.010973255 0.073259406 0.13142024 -0.06951652 0.008405766 -0.043303024
0.0949733 -0.106634565 -0.023695944 0.12292696 -0.079281665 0.25507775 0.16750638 0.053789694
-0.19854338 -0.13666157 -0.024679266 0.14509518 -0.040779594 0.08927192 0.031057706 0.044227876
-0.14468053 0.09607797 -0.0058945147 -0.13377802 -0.2154793 -0.13461918 0.05469189 -0.1741774
-0.054981083 -0.04905503 -0.15071101 -0.17045666 -0.08316023 0.1614585 -0.114178784 -0.071475536
0.17128868 0.16452818 -0.113559894 0.061656285 0.017379036 0.05332076 0.11706809 0.058254518
0.16418444 -0.055948522 -0.1453712 0.03072919 0.091811985 0.11921322 -0.012332702 -0.0018817703
0.0027827972 0.16771176 -0.025521649 -0.007387436 -0.06576128 -0.21224758 0.15374 0.03264925
0.06312002 0.091620944 0.03107397 -0.09941367 0.050011054 -0.020835929 0.14746563 -0.031138895
-0.06657137 0.019325908 -0.16370352 0.0013701277 0.03307279 0.060269378 -0.081523195 -0.06939677
-0.15314493 -0.013619462 0.042866256 0.099627756 0.1811123 -0.017068798 -0.11376423 -0.07062583
-0.081738636 0.15420988 0.1098617 -0.12641737 -0.074832626 -0.11569072 0.15382628 0.1095699
0.07138585 0.002485468 0.10879417 -0.029224526 0.09265428 0.14490563 0.088040955 -0.12222028
0.1392046 -0.0059890137 0.042233225 0.12901665 -0.0601472 0.031978983 -0.020941228 -0.15964255
-0.016514085 0.13654219 -0.1136866 -0.0625825 0.07741181 0.089518405 -0.07168095 0.011176091
-0.06084564 0.16792178 0.17938147 0.04698152 0.047766417 0.04245102 -0.070799746 -0.015580723
-0.06971525 -0.14663212 -0.17037825 -0.1114795 0.11153233 0.008350846 -0.02943354 0.07678128
0.057923812 0.12525526 0.18309034 0.017988207 -0.13001248 0.08905738 -0.13937707 0.16458924
0.1449614 0.08610972 -0.14841187 -0.06886294 -0.030517513 0.12815237 -0.012427595 0.21040447
0.14651534 -0.0021155833 0.10743403 -0.158086 -0.15799981 0.018603032 0.063415274 0.07743968
-0.0006977094 0.04832343 -0.04395968 0.07204233 0.1534585 -0.099758 -0.044957176 0.049365554
-0.01956659 -0.12249938 0.023611913 0.016361166 0.018485578 -0.11691242 -0.071396425 0.049901757
0.10399234 0.016803788 -0.054607958 0.1608662 0.11113465 0.04278365 -0.15138958 0.052499346
-0.096658066 -0.0936014 0.008075652 0.012945473 0.029539973 0.087476924 0.15735622 -0.18600373
0.010710378 0.03796559 -0.11986496 0.04262638 0.11838382 0.11052634 -0.13417667 -0.12680396
0.11416401 0.005652868 0.04533357 0.11429144 0.124541834 -0.07999001 0.031382743 0.071266495
-0.14812127 -0.11311937 -0.03808379 0.08447976 -0.18931137 0.16942829 -0.10216361 -0.0170031
0.121349074 0.0855949 0.012278475 -0.13843873 -0.12546371 0.011513639 0.03963964 -0.0064212764
-0.054728303 -0.09009679 -0.09932885 0.07397506 0.09739576 -0.15504813 0.09811543 -0.10447509
0.03926243 -0.15736622 0.15255895 -0.005562622 0.07796358 0.083952256 0.10037522 -0.08141808

value.2.bias f4 [32]
00000000: 5a7e e5bd 88b9 c53d 5ccd 8b3c a0cb 403e
00000010: 41c7 3f3c 839f 5c3e 09b4 253e bc97 00bd
00000020: a250 6fbe bde5 d63d 61b9 ccbd 4d6b adbd
00000030: 3eaf fcbd a550 51be 17f0 1dbe 8acc f9bd
00000040: d289 883e acb0 cbbd 8e42 5cbd fce7 e83d
00000050: 3d17 04be f7b2 40be 43bb 283e a34d fabd
00000060: c0d9 ea3d 0147 1e3e 854e f43d 19d7 243d
00000070: 4cf9 b1bd 16ef e63d 1888 ab3c 2da9 cebc
-0.1120574 0.09654528 0.017065696 0.18827677 0.011705221 0.21545224 0.16181959 -0.031394705
-0.23370603 0.10493038 -0.09996296 -0.084677316 -0.12338112 -0.2044092 -0.15423618 -0.12197216
0.2666765 -0.09945807 -0.05377441 0.113723725 -0.1289949 -0.1881827 0.16477685 -0.12221839
0.11467314 0.15456773 0.11929039 0.040244196 -0.08690128 0.11276071 0.020938918 -0.025227154

value.4.weight f4 [1, 32]
00000000: 9e23 983d 1abe 56be e0dc 023e 1f5f 1bbd
00000010: 2a0f 5b3d 2819 e3bd a0d1 c9bd 47d6 1d3e
00000020: 33dd 123e 44df c9bd f461 2e3e b52b 16be
00000030: 65e6 bfbc 57f9 173c 4eff 04be d2c6 0e3e
00000040: 0cc1 79bd 1692 db3d aff1 bf3d f52f 6f3c
00000050: 8e21 e03d 99ad ffbd 0ad7 813d dc35 213e
00000060: 3520 0c3e 10a3 74bd 5baa 8abd cae8 04bd
00000070: 9906 3f3d 7574 50be df7b 2bbd f2b0 ffbd
0.074286684 -0.20970955 0.1277957 -0.03793251 0.05348126 -0.110887825 -0.09854436 0.15413772
0.14342193 -0.09857038 0.17029554 -0.1466511 -0.02342529 0.009275756 -0.12988016 0.13943031
-0.06097512 0.10721223 0.09372269 0.014598836 0.109439 -0.12484283 0.063398436 0.15743202
0.13684161 -0.05972582 -0.06770774 -0.032448567 0.04663715 -0.20356925 -0.04186618 -0.124849215

value.0.weight f4 [32, 8]
00000000: ff2b 053e 235f 9d3e b254 393e bb4b 8a3e
00000010: 6f5a bcbe 7ff3 ac3d 3736 143e 2210 b23b
00000020: 5544 1dbc 6858 cdbb f752 9fbe f11f d9bb
00000030: bfc9 34bd 46a3 a6be a74b ebbe 8efb 90be
00000040: 8bcc 003e 3b1d dbbd 89ee 9ebd 48c0 213e
00000050: 5a9d dfbd 30a3 6ebe 5727 983e 4219 28be
00000060: 9b71 9e3e 3bce 79be ad02 94bd 97fd 3dbe
00000070: 484f 8f3d 606d 49bd 8411 843d b25c 623c
00000080: e199 ac3e fb7e a5be 942f 8e3b a409 403e
00000090: 72d6 373e ae46 293e 5af8 113c 97eb 8bbd
000000a0: e734 0d3e fa43 643e bd3a dc3d 0775 c5bd
000000b0: a8f5 8d3d b825 9f3e 4873 debe 7ba5 083e
000000c0: e6e3 643d d3a8 3a3d 087e a13e 95b0 81be
000000d0: 07bd 99bd 7572 c2bc c4f1 e4bd 6153 273c
000000e0: 5ffc 99bd df13 353e 8217 95be bc73 253e
000000f0: 5c60 323e f20a 8f3e 67dd 853e 10ef 263d
00000100: 60b5 86be d815 abbd 0c69 fc3d 118b 37be
00000110: 6b37 c4bd 20a5 0b3d c27c 81bd 4e25 153e
00000120: 6fa2 643e 0b5d 843e e87f b5be 0096 663e
00000130: 764c b23e b78f b43e cfa6 63bc fc91 4d3e
00000140: ce14 1bbe a7cd 8f3e 17c9 90be b8bd 953d
00000150: e185 afbe c2aa 153d a50b c73d 7458 4c3e
00000160: 5633 7c3e 177f afbe fee3 673e 0cc5 333e
00000170: f16a 993e 49f4 2abe 1138 223f 4f6f cebd
00000180: bdd0 8c3d d225 14bc 7d76 6d3c 61a4 99be
00000190: c42b 2ebe 5df3 51be cfd6 2f3d adde 963e
000001a0: 2ef2 d5bd 966d fdbd d092 36be b01f 183d
000001b0: ed28 4abc 51ea 13be ea2e f7bd 8c26 cebe
000001c0: 8fcb 623e d77d 9dbe fbb3 ddbd 3915 a1be
000001d0: cb2a 2dbe a78a 8fbe 1309 c13e 081b 083d
000001e0: 4e4b 9fbe c382 853e c188 233a be46 943d
000001f0: c404 13be ad5e ba3e 46c6 003e 1fc0 9a3e
00000200: 49d8 60be a67c 543e 4968 413c ae41 143e
00000210: fa95 083e 10e4 af3e 0b26 95be 7aae fbbd
00000220: 2542 863c 3a57 023e 2a78 17be 79cf df3d
00000230: bf13 a6be 58a8 793e 4976 b93d 0713 1f3e
00000240: 28ce 87be 69eb 583e 8e41 94be 8797 833b
00000250: 6d4c a33e 4cc4 cdbd 59f4 7a3e 1e29 063d
00000260: b4b4 bd3d cc51 943d 1f95 84be b897 93be
00000270: 87cd 0c3e 8e11 013e 3665 b43e f918 9fbe
00000280: 393f 293e 9a11 a7be abd3 adbd 4bd6 5dbd
00000290: 07a7 70be 277e 613e c3e9 4e3e 1698 513e
000002a0: 7c21 a1be ac90 573e bbd5 d0bd 6d1e a0bc
000002b0: 9b1b 6ebe 5739 6fbe 5ff9 09be 6891 c1bc
000002c0: 9cc7 643e 6536 dcba 2eb7 ab3d cd94 8a3d
000002d0: 1e2a 033e 349d 803d 0279 963e 572f 663e
000002e0: 7acc 89be 78ea 3a3e 3d81 b8bd f73e 793e
000002f0: a982 99be 9cc3 74be d023 a4ba 1d5c 923e
00000300: 181e a23e 0273 83be abd5 be3d 5773 363e
00000310: 85c9 9b3c 2ebe a6be 4514 623e 9551 e83e
00000320: b1cb 383e 9e2f 2f3e c3bf 89be 7261 fdbd
00000330: d054 fa3d 6415 64be f1c0 8b3e 7d73 143f
00000340: 94a2 713d 10b3 4b3e 31f2 02be 68d9 26be
00000350: d3de 40be fd01 04be aa92 4b3e 54c2 43bc
00000360: 373e 63bd 9939 243e 8208 5abe 067c d13d
00000370: 1904 2bbe 4741 2c3e 40f9 3d3e d94e 02be
00000380: 71f9 c3bb c545 16be 35b6 703e b00a 07be
00000390: fec5 82be b71e 3a3e 23a6 2a3e b232 8e3e
000003a0: 2325 0cbe 8f2c 64bb dcb0 6e3e fd46 ffbd
000003b0: dc6b 8cbd c126 a33e f3f0 2f3e 541e 95be
000003c0: 7892 713d 640f 983e 52e3 81be 370b b9be
000003d0: 4300 a4bd 008e e1bd 54fe 55be addc 183e
000003e0: 915d 833e 3567 11bd 84b7 4e3e 7f15 de3b
000003f0: d8b2 993e 0e94 febc bc85 2d3e 8473 df3e
0.13005064 0.30736646 0.18098715 0.27010903 -0.36787745 0.08444881 0.14473806 0.005434052
-0.009598811 -0.0062666424 -0.31117985 -0.006626122 -0.044137713 -0.32546443 -0.45956156 -0.2831692
0.12578027 -0.10698935 -0.07760341 0.15796006 -0.10918684 -0.23304439 0.29717514 -0.16415885
0.3094605 -0.24395077 -0.07227073 -0.18553768 0.069975436 -0.049176574 0.06448653 0.013816046
0.3371115 -0.3232344 0.004339168 0.18753678 0.17952898 0.16530868 0.008909309 -0.068320446
0.13789712 0.22291556 0.10753391 -0.09641462 0.06931621 0.31083465 -0.43447328 0.13344376
0.055881403 0.04557116 0.31541467 -0.25330034 -0.07506757 -0.023736218 -0.11178926 0.01021275
-0.07518839 0.17683361 -0.29119498 0.1615743 0.1741957 0.27938038 0.2614548 0.04075533
-0.26310253 -0.08353776 0.123247236 -0.17924143 -0.09580883 0.034093022 -0.06322624 0.14565012
0.22327588 0.25852236 -0.35449147 0.22518158 0.3482396 0.35265896 -0.013894751 0.2007522
-0.15144655 0.28086588 -0.2827842 0.073115766 -0.3428183 0.0365398 0.09719018 0.19955617
0.24628958 -0.3427665 0.22645566 0.17555636 0.29964402 -0.1669475 0.633668 -0.10079824
0.06875751 -0.00904222 0.014493582 -0.30008224 -0.17008883 -0.20502992 0.042929467 0.29466763
-0.10446583 -0.123744175 -0.17829442 0.037139595 -0.012338859 -0.14444853 -0.12069495 -0.40263784
0.22147964 -0.3076007 -0.10825344 -0.31461504 -0.16910855 -0.2803547 0.37702236 0.033228904
-0.3111214 0.26076326 0.00062383345 0.072400555 -0.14357287 0.36400357 0.12575635 0.30224702
-0.21957506 0.20750675 0.011804649 0.1447818 0.13338462 0.34353685 -0.29130587 -0.12289138
0.016388962 0.12728587 -0.14791933 0.10928244 -0.3243694 0.24380624 0.09055764 0.15534602
-0.26524472 0.21183552 -0.28956264 0.004015866 0.31894246 -0.10047206 0.24507274 0.032754056
0.09262982 0.07242164 -0.2589502 -0.2882669 0.13750277 0.12604353 0.35233468 -0.3107374
0.16528024 -0.32630616 -0.08487638 -0.054159444 -0.23501216 0.2202078 0.2020636 0.20468172
-0.3147086 0.21051282 -0.10197016 -0.019545758 -0.23252718 -0.23361717 -0.13474034 -0.023628905
0.2234177 -0.0016800879 0.08384548 0.06766663 0.12809035 0.06279984 0.29389197 0.22478996
-0.26913816 0.18253505 -0.09009025 0.24340425 -0.29982498 -0.23902744 -0.001252288 0.28585902
0.31663585 -0.25673681 0.09318098 0.17817436 0.01901699 -0.3256697 0.22078045 0.45374742
0.18046452 0.17108008 -0.26904115 -0.12372102 0.12223208 -0.22273785 0.2729564 0.5798872
0.058992937 0.19892526 -0.12787701 -0.16293871 -0.18835 -0.12891383 0.19880167 -0.011948187
-0.055479255 0.16037597 -0.21292308 0.10228734 -0.16700782 0.16821776 0.18552113 -0.1272539
-0.0059806635 -0.14675052 0.23507006 -0.1318767 -0.2554168 0.1817578 0.16664939 0.27773052
-0.13686042 -0.0034816598 0.23309654 -0.12464712 -0.0685651 0.31865504 0.17181759 -0.291247
0.058977574 0.29699242 -0.25368744 -0.3614137 -0.080078624 -0.110134125 -0.208978 0.14927931
0.25657323 -0.035498817 0.20187193 0.006777465 0.3001926 -0.031076457 0.16945547 0.4364282

value.0.bias f4 [32]
00000000: b568 423e 3dc0 81bd 9bd1 1fbe 6a60 8e3d
00000010: b0d5 33be c0ee b9be 9e57 563e dca5 e63d
00000020: 2107 ab3d 5859 b8bd 5263 3b3e a438 b1be
00000030: 7409 663e 43c3 193e 737b ca3e 1c8e 0c3e
00000040: cad8 8fbe 8c2e 71ba 88bd 8bbe d7b3 2b3e
00000050: 51dc 8d3e 9613 c03d 4a3b 28be 9fe1 8dbe
00000060: 23a0 a73e beef babe 02da aebe 55e8 1e3e
00000070: 7254 983e 1910 893e db03 3a3e ff9a 3bbe
0.18985255 -0.06335495 -0.15607302 0.06951983 -0.17561984 -0.36314964 0.20931861 0.11262104
0.08350969 -0.09001416 0.18299606 -0.34613526 0.22464544 0.15015893 0.3954731 0.13726085
-0.28095084 -0.00092003564 -0.27293038 0.16767822 0.2770715 0.09378736 -0.16428867 -0.27711198
0.32739362 -0.36511034 -0.34150702 0.15518315 0.29751927 0.26770094 0.18165533 -0.18320845

value.2.weight f4 [32, 32]
00000000: c39c e83c 861f 17bd 65d1 01be f7cc 1e3e
00000010: 9353 133d d040 84bd 5240 00bd 51eb 1c3e
00000020: 30bf 0fbe 7d49 c2bd bdc9 fdbc c9cc 76ba
00000030: 71a7 17be ae0b ab3d 9e9d 11be deb4 493e
00000040: 201d f43c f991 c53c 610a 27bc 3fa2 953d
00000050: 4f8e 063e c2ec 8ebd accb 183c c3cf 32bd
00000060: 1c69 c23d c165 dbbd 1fd2 c1bc d42e fd3d
00000070: 89ca a4bd 4f03 833e 5094 2b3e 2856 5d3d
00000080: a1ac 4abe 965e 0cbe f81d c8bc eafb 133e
00000090: f167 26bd 0150 b93d 65db f83c 72d0 363d
000000a0: d0e7 04be dddb c53d 1c87 68bb 4623 09be
000000b0: d95f 5ebe b7c7 0abe 8b46 5b3d abc3 32be
000000c0: b17e 5cbd f737 49bd e724 19be 1896 2ebe
000000d0: fe3e abbd f805 283e 6517 e9bd 4da9 8fbd
000000e0: e88c 2f3e 04a1 283e dfb6 e6bd 35fc 803d
000000f0: e16f 923c 9c86 503d 831b f13d a25d 703d
00000100: 8a1c 283e 743a 67bd 8bb4 14be dc1c 003d
00000110: f96f bc3d e32c f43d 9d17 55bc 9ff7 bbba
00000120: 9b57 433b d7c1 2b3e 408d e6bc 0a8b e9bb
00000130: 3312 81bd 8e8d 59be 2989 1d3e 06f7 f73c
00000140: 7813 803d 91a9 bd3d 6a4f 073d 92c0 cbbd
00000150: 664a 4d3d d5b9 b9bc bdcd 173e 3903 f6bc
00000160: 2f46 88bd 0ed3 a03c dbb7 26be 4ba8 a63a
00000170: 9d67 013d 249e 763d 3f49 a4bd 07f8 8dbd
00000180: 8848 1cbe 4684 5dbc 442a 2d3d 5328 cc3d
00000190: aaeb 383e 5523 8dbc af04 eabd 2f54 92bd
000001a0: b293 a7bd 00c7 1e3e d777 e13d 054e 02be
000001b0: 61f6 99bd 6be3 ecbd 6998 1d3e 3313 e03d
000001c0: 0bb5 923d 6c96 153b 421c de3d 288e efbc
000001d0: fdb3 bd3d e475 143e fbd3 b13d 5a55 fabd
000001e0: ee1c 0e3e 907c bdbb ed47 2c3d 348b 033e
000001f0: 8d53 76bd d437 fe3c 7c38 adbc f052 24be
00000200: f303 93bc 95e2 0b3e 0ae8 e7bd 47d6 7fbd
00000210: 4fca 9e3d f4ed b63d 5669 92bd 8c4c 4f3c
00000220: 1453 79bd cffd 2b3e d498 373e 0516 403d
00000230: 9978 463d fef3 2b3d e6ff 90bd dee7 62bc
00000240: e0a9 8bbd a7ae 15be aee3 2dbe 2166 e3bd
00000250: 6016 e43d ddc5 0b3c 2614 ebbc 8833 9d3d
00000260: 6cfd 6c3d e968 003e 07c0 3b3e f50e 9a3c
00000270: 9bff 05be 10fc b93d 4e25 0ebe e088 283e
00000280: 14b0 113e 7469 b03d 62d9 17be f0b9 8cbd
00000290: a69c e2bc 1d1a 043e 2068 3cbc 6ca9 573e
000002a0: 0fa9 153e 705b efba dd4c dc3d 4a7b 20be
000002b0: 2104 22be 8931 9c3c 34e5 813d f5a2 9d3d
000002c0: d8ea 18bb d70b 453d a629 36bd 8b52 923d
000002d0: 94d5 1d3e 96d5 cbbd a84f 37bd 0f44 483d
000002e0: 8a9e 98bc 3a8a fcbd d1ce bc3c bf35 853c
000002f0: 665d 913c e3b3 f1bd f44a 93bd 8755 4c3d
00000300: 1423 d83d bf08 8a3c 9c5b 61bd 80d2 243e
00000310: a341 e33d 4390 303d b911 1bbe bdf2 533d
00000320: a76e c6bd 9b0c bfbd 2848 0a3c bafd 4d3c
00000330: f572 f03c 23ab b33d dd51 213e 0111 3fbe
00000340: e39b 273c 7b95 1a3d a33f f6bd 1642 2e3d
00000350: d0d3 f23d 7f87 e23d 6918 0abe d5a9 01be
00000360: 45ed e93d ce3e be3b 721d 393d 8d56 e93d
00000370: 6c5e 003e a4ee a4bd 1a3c ff3c 68e9 913d
00000380: e00d 15be 4b56 e7bd 9e38 23bd 5688 ad3d
00000390: 2575 41be e0d9 2d3e b819 cebd 5bd5 92bc
000003a0: 86d5 fa3d 2f1d b13d 4142 343c d224 0cbe
000003b0: 955f 00be 8e1e 3b3c 1fd6 223d 9b2a efbb
000003c0: 5b47 5dbd 84fa b6bd b6c6 cbbd c6c6 973d
000003d0: f5bb c73d 3542 1fbe 7b87 c73d 6284 debd
000003e0: d5b5 213d a5ed 20be 47ae 1c3e d7c6 cabb
000003f0: bf02 a13d 922e ad3d 5231 ce3d dd9b a7bd
0.028395062 -0.036895297 -0.12677534 0.15507875 0.035968374 -0.064576745 -0.03131134 0.15324141
-0.14037776 -0.09486673 -0.030979985 -0.00094146706 -0.14809968 0.08351837 -0.14220282 0.19697902
0.029799044 0.024117457 -0.010195346 0.073063366 0.13140224 -0.06978752 0.009325903 -0.04365517
0.09492704 -0.107127674 -0.023659764 0.123624474 -0.08046443 0.25588462 0.16755795 0.054037243
-0.19792415 -0.13707957 -0.024428353 0.14451566 -0.04062647 0.09048463 0.030378053 0.044632383
-0.12979054 0.09661076 -0.0035480922 -0.13392362 -0.2171625 -0.13552748 0.053534072 -0.17457454
-0.05383176 -0.049125638 -0.14955483 -0.17049444 -0.08361624 0.16408527 -0.11381415 -0.070147134
0.17143595 0.16467673 -0.11265349 0.06298105 0.017875614 0.050909624 0.117728256 0.058683045
0.16417137 -0.05645223 -0.14521997 0.031277522 0.092010446 0.11922624 -0.013006118 -0.0014340765
0.0029806856 0.16773163 -0.028143525 -0.0071271705 -0.06302299 -0.21245405 0.15384354 0.030269157
0.06253713 0.09260858 0.03303472 -0.09948839 0.05011978 -0.02267162 0.14824577 -0.030030834
-0.066540115 0.019631889 -0.16281073 0.001271495 0.031592954 0.06020941 -0.08021783 -0.06932073
-0.15262043 -0.013520306 0.042276636 0.09968629 0.18058649 -0.017228762 -0.114266746 -0.07144963
-0.081824675 0.155056 0.11009186 -0.12725075 -0.07517696 -0.11566814 0.15390171 0.10941162
0.071634375 0.0022825254 0.108452335 -0.02924259 0.09262846 0.14498097 0.0868301 -0.12223311
0.13878223 -0.0057826713 0.04206078 0.1284607 -0.060138274 0.03103248 -0.021145098 -0.16047263
-0.01794622 0.13660653 -0.11323555 -0.06246021 0.07753431 0.08932105 -0.071489975 0.012652528
-0.060870245 0.16796039 0.17929393 0.046896 0.048454855 0.041980736 -0.07080059 -0.013849227
-0.068195105 -0.14617406 -0.16981384 -0.11103464 0.1113708 0.008531061 -0.028696131 0.076758444
0.05785887 0.1254002 0.18334971 0.01880596 -0.13085787 0.0908128 -0.13881418 0.16458464
0.14227325 0.086138636 -0.14829019 -0.06871402 -0.027662586 0.12900586 -0.011499435 0.21060723
0.14615272 -0.0018261503 0.10756848 -0.15672031 -0.15821888 0.019066589 0.06342545 0.07697097
-0.0023333337 0.048106994 -0.044473313 0.0714465 0.15413505 -0.09952848 -0.0447537 0.04889303
-0.018630285 -0.12331052 0.023047836 0.01626098 0.017744731 -0.11801889 -0.071920305 0.049886253
0.105535656 0.016849874 -0.055019006 0.16095924 0.110965036 0.04310633 -0.1514348 0.051745165
-0.09689074 -0.09328576 0.008440055 0.0125727 0.02935169 0.08772876 0.15753885 -0.1865883
0.010230037 0.037740212 -0.120238565 0.042543493 0.11856806 0.11061 -0.13485874 -0.12662442
0.11422209 0.0058058267 0.045194097 0.113934614 0.12536019 -0.080533296 0.031156588 0.07124597
-0.14556074 -0.11295756 -0.039848916 0.0847327 -0.18892343 0.16977644 -0.10063499 -0.017924001
0.122477576 0.086481445 0.011002124 -0.13685921 -0.12536462 0.011420859 0.039754983 -0.00729878
-0.054023128 -0.08934501 -0.099500105 0.0741096 0.09752647 -0.155526 0.09742638 -0.10865094
0.03948005 -0.15715654 0.15300857 -0.0061882543 0.07861852 0.08456148 0.10068001 -0.081840254

value.2.bias f4 [32]
00000000: 3d65 eabd fac9 c83d 41c7 463c 4ea6 423e
00000010: 1d3b 263c c111 5f3e 399e 283e b952 10bd
00000020: e4b1 6ebe a610 db3d 9328 d3bd 330f acbd
00000030: 93cb f5bd 6e14 54be 92c8 1abe 2244 f7bd
00000040: fbfc 883e dc0d d3bd 0709 6ebd e9a0 e13d
00000050: 6708 05be 5a86 3bbe a52d 243e dc61 02be
00000060: fdc3 e93d 7199 223e 48a3 fa3d a587 2f3d
00000070: 77d1 bbbd 7bb5 ec3d 1d6b bb3c 6143 b9bc
-0.11445091 0.09804149 0.012132467 0.19008753 0.01014593 0.21784116 0.16466607 -0.03523514
-0.23310047 0.10696535 -0.10310473 -0.084013365 -0.12001719 -0.20710918 -0.15115574 -0.12073542
0.2675551 -0.10305378 -0.058114078 0.11017019 -0.12991486 -0.1831297 0.16033037 -0.12732643
0.11414335 0.15878846 0.12238175 0.04285397 -0.091708116 0.11558052 0.022878224 -0.022615137

value.4.weight f4 [1, 32]
00000000: 6010 993d bf2b 59be 2732 033e 2dfe 1bbd
00000010: a9fd 593d a566 e4bd b271 cabd f6a2 1e3e
00000020: cbfd 123e 5c2e cabd bc5d 2f3e 9878 16be
00000030: 41a9 c2bc 2a6d 173c c25c 05be 8d2b 0f3e
00000040: 0b3d 78bd 4e00 dc3d 0fed bd3d d5d7 633c
00000050: 18a9 e23d eb01 febd c050 813d 9922 213e
00000060: a218 0c3e e8d2 77bd 10db 89bd 2d78 04bd
00000070: f7c8 3c3d a191 52be 18bf 26bd a543 fbbd
0.074738264 -0.21208094 0.128121 -0.038084198 0.053220425 -0.111523904 -0.09884967 0.15491852
0.14354627 -0.098721236 0.171256 -0.1469444 -0.023762347 0.009242335 -0.13023666 0.13981457
-0.06060509 0.107422456 0.09273731 0.013906439 0.11067408 -0.124027096 0.0631423 0.15735854
0.13681272 -0.06050387 -0.06731236 -0.03234117 0.046090093 -0.20563366 -0.040709585 -0.122687615

actor.0.weight f4 [32, 6]
00000000: 90ca ccbd d4c1 063d ab0a c3be 638c d23e
00000010: 6ff7 8abe 6250 48be 929c 9bbe b66b ef3e
00000020: 2d3a dcbc af9f 81be 26ca 5ebe c22b 7abe
00000030: a725 dabe 957d b5be 94a2 2e3e 6870 3bbe
00000040: bd58 ea3e 2dcd b93d 4719 073e 3d22 da3d
00000050: b3b1 31be 220f 5fbe 179c d9bd aa42 c2be
00000060: bfb4 713c a77c 7f3d 428a ed3d fd10 89be
00000070: 77cf 8b3d ea71 05be 9381 2c3d c22f c0be
00000080: 67e7 11be 28ca afbe 727d b6be 40e1 c13d
00000090: b134 793e 8e4b eabd 5474 40be c146 093e
000000a0: c371 243d 6044 783e 84d5 c43e 8a57 363e
000000b0: e008 2d3e 883a 913e fd51 583e 5fa8 5ebe
000000c0: bcc0 8b3d 0c0d 4b3e 61f6 1e3e 1cc1 3c3e
000000d0: 8a2c 68be 8389 e1bd 5074 3dbd 12c6 b23e
000000e0: 5176 533e 16a7 0cbd cd4a 58be f404 7cbe
000000f0: 77f0 863e da2b c6be 0b64 963e f403 95be
00000100: 3006 b23e 4613 333e cdcc 80be ca74 093f
00000110: 32ec ac3e e55a 87bd 91a4 bd3e f0b3 a13d
00000120: 7ad9 02be 6e0b c2bb 21d0 8dbe 85e1 b33e
00000130: 2146 f5bc e91e 2cbe ae1d 9cbe e464 cd3d
00000140: 70a2 24be 8598 00bd 497c c73e e4f7 3d3d
00000150: fdb6 c03d 26c7 efbd b627 3e3e 654f a2be
00000160: 72ca 953e 6d25 ccbd fafb 62be 3525 0cbd
00000170: 0583 c03e b83b 623e 6e7c 82be 3116 ffbd
00000180: c682 6e3e 4b04 d6be cbf5 8f3d 1322 8cbe
00000190: 33d5 c7be 2e64 2b3d 70fc 983e 5e1c 1fbe
000001a0: 1e0a 5d3e 1896 c5be 7297 cbbe 3f3d b93e
000001b0: 2213 e33d f0db 67be 74bd 26be ad94 86be
000001c0: 1529 9f3d c5ee 08be eccb a93e 7bed 433e
000001d0: d406 b6be f593 64be 6d85 44be 0087 f3bd
000001e0: 49cd e03d a04c 06bd 7349 c3be 5fd8 c6be
000001f0: 7db6 d1be 6ff3 9abb 4b60 4abe 350d 853e
00000200: 97be 8bbe 9109 c23e fab4 90be 6906 863e
00000210: 4c1e 3b3e 46ea a2be 6ac0 913e 4e13 bb3e
00000220: fbff c7bd cdb9 25be e844 9abe b2fa 06be
00000230: b9d4 b03e d2a8 80be 58d1 243e 313c b03e
00000240: a7bb 763e 3c35 a0be 37a1 75be b875 bb3d
00000250: 5640 86be 777a 4e3d 6aa1 81be 3fbf 4a3d
00000260: a5e9 183e 2312 143d d869 e2bd 854c 273e
00000270: 32b0 7cbe 1c75 933e 2ca8 ce3e 4ad6 be3e
00000280: 2833 f53d 96e1 77be ff82 f3be 6199 35bd
00000290: fcf5 22be 4ef0 003e 0258 a33b 2812 773e
000002a0: 8102 2b3d 5405 78be a71b 733e 56fe 39be
000002b0: 299c 7fbe e85f f83d ddbe 6cbe 0397 cabe
000002c0: e445 983e a982 ee3d adca c7bd 2ff5 583d
000002d0: 9d50 a1ba c46e 493e 92ed 8cbe b253 a13e
000002e0: 494d c8be cd07 fdbd 40ef 173e 41e1 93bd
000002f0: dbba 043f 17d1 573e ed5b 89be 2d48 5b3e
-0.09999573 0.032899693 -0.38094077 0.41122732 -0.27141902 -0.19561914 -0.3039289 0.46761864
-0.02688321 -0.2531714 -0.21756801 -0.24430755 -0.4260685 -0.35447374 0.17054206 -0.18304598
0.45770827 0.09072337 0.13193236 0.10651062 -0.17352943 -0.21783116 -0.10625475 -0.37941486
0.014752566 0.062374737 0.11598636 -0.26770774 0.0682668 -0.13031736 0.04211576 -0.37536436
-0.14248429 -0.3433392 -0.35642582 0.09466791 0.24336506 -0.11440192 -0.18794376 0.13405897
0.040147554 0.24244833 0.3844415 0.17806831 0.16897917 0.28364968 0.21125026 -0.21743916
0.068238705 0.19829196 0.15523674 0.1843304 -0.2267324 -0.110125564 -0.046253502 0.3491674
0.20650603 -0.034339033 -0.21122284 -0.24611264 0.26355335 -0.3870533 0.29373202 -0.29104578
0.34770346 0.17487821 -0.2515625 0.5369383 0.33773953 -0.06609134 0.37039617 0.078956485
-0.12778273 -0.0059217727 -0.27697852 0.35132995 -0.029940667 -0.16808666 -0.30491394 0.10029009
-0.1607759 -0.031395454 0.3896201 0.046378985 0.09409902 -0.117079064 0.18569836 -0.31701198
0.29256016 -0.09968076 -0.22166434 -0.03421517 0.3759996 0.22093093 -0.25485557 -0.124554045
0.23292074 -0.4180015 0.07029303 -0.27369747 -0.39029846 0.041843586 0.29880095 -0.15538165
0.2158589 -0.38591075 -0.3976398 0.3617954 0.11087634 -0.22642493 -0.16283208 -0.26285306
0.07771508 -0.13372333 0.33163393 0.1913356 -0.35552084 -0.22322066 -0.19191523 -0.118909836
0.10976655 -0.03278792 -0.38141975 -0.38836953 -0.4095954 -0.0047287266 -0.19763295 0.2598664
-0.27293846 0.37897924 -0.28263074 0.26176766 0.18273276 -0.3181936 0.28467113 0.36538166
-0.09765621 -0.16184159 -0.30130696 -0.1318157 0.34537295 -0.251288 0.16095483 0.34420922
0.24095021 -0.31290615 -0.2398728 0.091533124 -0.2622096 0.05040976 -0.25318462 0.049498793
0.14932878 0.03615011 -0.11055344 0.16337784 -0.24676588 0.28800285 0.4036268 0.37272865
0.11972648 -0.24207148 -0.4756088 -0.044335727 -0.15914148 0.12591669 0.0049848566 0.2412802
0.041750435 -0.24220783 0.23741017 -0.18163428 -0.24961914 0.12127668 -0.23119684 -0.39568338
0.29740822 0.11646015 -0.09755454 0.0529682 -0.001230735 0.1967116 -0.27525002 0.31509167
-0.39121464 -0.123550035 0.1483736 -0.07220698 0.5184762 0.21075855 -0.26827946 0.21414252

actor.0.bias f4 [32]
00000000: e45c b43e 8dff 39be 09d2 a3bc 5d46 b83e
00000010: cce6 8e3d 84c2 95be 2ffe 20be 0754 2dbe
00000020: a80e 803e 2ec5 e53e 4302 af3d 6592 0b3f
00000030: 6f80 8c3e f4d1 a83d 0953 1abe 89cc 89be
00000040: f1e1 9a3e b36d 263e 4460 d1bd 5ded ffbc
00000050: 62e6 81bd 8e69 183e e4bc a0bd 3474 a3be
00000060: a977 8e3b 0db1 cd3d 26e8 ae3d 4c7f 973e
00000070: 3581 87be 577f f73d 2957 613e eff5 a13e
0.3522712 -0.18163891 -0.019997614 0.35991183 0.06977615 -0.29249966 -0.15721963 -0.16926585
0.25011182 0.44877 0.08545353 0.54520255 0.27441737 0.082431704 -0.15070738 -0.2691386
0.30250505 0.16252784 -0.10223439 -0.031241113 -0.0634277 0.14884016 -0.07848528 -0.31924593
0.0043477607 0.100435354 0.085403726 0.29589307 -0.26465765 0.12084835 0.22005905 0.31632945

actor.2.weight f4 [32, 32]
00000000: be9f 70bd ad98 063e b05a 873b 2768 bbbd
00000010: f992 9d3d 6a82 7f3d 4589 a5bd 834b 253e
00000020: 76ad 063e 7dc8 183d 2357 d63d 9ea2 243c
00000030: 85ef 21be c21e 2fbb 8c96 0fbe a4e4 bfbc
00000040: b2f0 9ebb c611 0d3e bb70 263e a51d 15be
00000050: 962b b93d 33a1 003e d8a8 cd3d db8a 41be
00000060: 3318 4e3d 4254 b93d cf4d 733d d493 aabb
00000070: 2044 9cbd 17e2 a3bd 352d e9bd e9bd 15bc
00000080: b8b2 763d fa46 313e 3f17 473d 1baf b1bc
00000090: c974 333e 2f3e 4b3d 40e5 d0bc b932 6a3e
000000a0: edde 8bbd ab06 f1bd 78d9 3a3e f33e 09bd
000000b0: 0ede 213d 39a3 273e b7fb 713d 7a5a bfbd
000000c0: 361d 72bd be2d 103d dc3f 243e 1c3a bcbd
000000d0: 6f4c 3c3d a340 02be 371d 253e ad46 e43d
000000e0: 5ae5 4d3e a372 c83d ed27 d93d c8d7 f0bc
000000f0: 56fd 6dbc ef91 9bbd a205 40bd d78c 863e
00000100: 9b5e 543e c809 4fbe 5d56 9bbd 57db a4bd
00000110: e1b1 90be 381a 083d 35e3 d93c 41f9 71bd
00000120: 5a32 2b3e 9ed3 1ebc ff64 c7bd b8bf 573d
00000130: 96a1 4e3d b246 88bd 1922 bcbe 2233 b03c
00000140: f684 d43c 4404 72be fefe 72be fda6 073e
00000150: 9e59 02bc 5d27 73bd cb67 913d 7c9e b2bd
00000160: 9911 f13c cda1 873a 12e4 7fbe 0951 52bd
00000170: 3363 d73d b59d 5c3e e3ea c43d 76a8 003e
00000180: 987e 90bd 4e3a 06bc 24a3 543d be04 7dbd
00000190: 61ce 19bd d452 9c3c 73ec 8ebd 40a0 493d
000001a0: 5555 b7bd 7070 703d 0b4e 1ebe 8706 54be
000001b0: a9ad 11be f2cf d73d cfb2 c53d 9c11 29be
000001c0: 41b4 35bc 0b34 1b3e 5a8e b93d 081e c83d
000001d0: 4f1c 86bd ec4d 7dbe 3d6d a93d 3221 733c
000001e0: 34d5 f1bd 70c8 cabb d1c0 8abd be57 40be
000001f0: b537 10be 7cc6 24be 33c3 bdbd ad08 37be
00000200: cd78 c53d c63c a3bd ea94 00be 1133 0fbd
00000210: e404 983d 8212 8b3d c45f e13c d037 76bd
00000220: 9092 b43d 4832 1abe 7a38 92be aa0c aa3d
00000230: 546a 353e 14ad e93d cc45 9a3d 319b f83d
00000240: 633a 6fbe 7a60 57be 949a 4ebe 7926 993d
00000250: 54ec 1f3e 9616 7c3e 3445 a53d c319 06be
00000260: dcd4 1dbe 909b dbbd 054a 36bd 7137 a13d
00000270: 390f 13be 792a a5bd 5709 06bc 0c4b 833d
00000280: 5991 393e d558 013e 8952 f03d 0397 003d
00000290: 34e7 e13d 20a2 84bd f0fb 8cbd 3402 9f3d
000002a0: 67a8 ccbd 9b00 163e f806 153e 8f60 a33e
000002b0: 23d4 98bc 1133 043e 6c5c f03d a268 493e
000002c0: 23b3 2c3e 4c93 083e cc6b f03d af91 c6bd
000002d0: ace7 3cbd 61b0 dbbd 41c3 40bd 17c8 0a3d
000002e0: 2267 0c3d 7265 2abe a187 85bc aad5 23be
000002f0: 8aae 0cbe b9b2 87bd 774a ddbd 7342 e63d
00000300: cd0d fb3d c290 8fbd 6453 403e e6f3 253e
00000310: 80eb b4bd c1de b0bd 35b3 0cbe 7385 d23d
00000320: f4c5 82bb 2e4e 08be dde7 15bd d64a 4ebe
00000330: 9454 123e 0183 083e 2596 f33d 7eb5 cebd
00000340: a1a5 e13d b769 443d 0717 15bd dcfd 22be
00000350: e51f 813d 3ecf 7d3e 1cd8 3fbe 77dc 0c3e
00000360: 1e6c e2bd 6f57 65bd 15c7 a33d 387c 76bd
00000370: b81e 053d be18 423d 59ad d13d 5de1 29be
00000380: e571 f3bd da0a acbd 4fad 2cbe f7a0 59bd
00000390: 6c39 27be 11c5 123d edab 0d3d 32b3 23be
000003a0: 4ea3 403c 130e 173e 51f5 e2bd 3164 c73d
000003b0: aefb c73c 6f25 19be 300e 78bd 911c f3bd
000003c0: 3a0e babc 6892 cc3d 419a a1bd ea1d bcbd
000003d0: 6e09 f53d fdd2 6fbc 0df9 6dbc 43c8 7d3c
000003e0: 6808 ab3c 829e c9bc 5312 dcbd 1e70 f73d
000003f0: b0f8 15be 8685 fabc 60ae f5bd 7b92 1a3e
-0.058746092 0.13144179 0.004130684 -0.09150725 0.076940484 0.062380232 -0.08082823 0.16142087
0.13152108 0.037300576 0.10465839 0.010048537 -0.15814026 -0.0026721214 -0.14022273 -0.023424454
-0.0048504705 0.13776311 0.16253941 -0.1456209 0.090415165 0.12561493 0.1004197 -0.18900625
0.050316047 0.09049274 0.059400376 -0.0052056108 -0.07630181 -0.080021076 -0.11385576 -0.009139516
0.060229033 0.17312232 0.048606154 -0.021689942 0.17525019 0.04961985 -0.02549994 0.22870912
-0.06829629 -0.1176885 0.1824702 -0.0335073 0.03951841 0.16370858 0.059077945 -0.09343429
-0.05910989 0.035199873 0.16039985 -0.09190771 0.04597133 -0.1271997 0.16124426 0.11146293
0.20107022 0.0978749 0.10603318 -0.029399768 -0.014525732 -0.07596194 -0.046880372 0.26279327
0.20739214 -0.20218575 -0.07584832 -0.08049648 -0.2826071 0.03322813 0.026597599 -0.059075598
0.16718426 -0.009694008 -0.0973606 0.05267307 0.05044707 -0.06654109 -0.36744764 0.021508757
0.025942307 -0.2363444 -0.23730084 0.13247295 -0.007955937 -0.05936371 0.07099875 -0.08721635
0.029427337 0.0010347903 -0.24989346 -0.051346812 0.105169676 0.21544535 0.096151136 0.12564263
-0.07055396 -0.008192612 0.051913396 -0.0617721 -0.037550334 0.019082464 -0.06978693 0.049225092
-0.08951823 0.05870098 -0.15459459 -0.20705615 -0.14226402 0.10537709 0.09653246 -0.16510624
-0.011090339 0.15156572 0.090603545 0.09771353 -0.06548368 -0.24736756 0.08272789 0.014839457
-0.118082434 -0.006188445 -0.06775058 -0.18783471 -0.1408375 -0.16091341 -0.09265747 -0.17874403
0.096421815 -0.07970576 -0.12556806 -0.03496081 0.07422808 0.067906395 0.027511485 -0.06011182
0.08817017 -0.15058243 -0.28558713 0.08303197 0.17716342 0.11409965 0.07532844 0.121389754
-0.23362117 -0.21032897 -0.20176154 0.07478041 0.15617496 0.24617991 0.0806984 -0.13095765
-0.1541323 -0.107230306 -0.044504184 0.07871903 -0.14361276 -0.08064742 -0.008180938 0.064107984
0.18121852 0.12631543 0.11734492 0.031394016 0.110304266 -0.064762354 -0.06883991 0.07764092
-0.09993058 0.14648668 0.1455344 0.31909606 -0.018655842 0.12910105 0.11736378 0.1966882
0.1686521 0.1333744 0.117393106 -0.09695756 -0.046119377 -0.10727001 -0.04706121 0.033882227
0.034278043 -0.16640261 -0.016300024 -0.15999475 -0.13738456 -0.066258855 -0.10805219 0.11243143
0.12258492 -0.07010032 0.18781811 0.16206321 -0.088339806 -0.08636237 -0.13740237 0.1027936
-0.003990883 -0.13311073 -0.036598075 -0.20145735 0.14290076 0.13331224 0.11893872 -0.10093211
0.11017919 0.04795238 -0.036398914 -0.15917152 0.063049115 0.24786088 -0.18734783 0.13755976
-0.11055778 -0.055991586 0.07996956 -0.060177058 0.0325 0.047386877 0.102381416 -0.16589876
-0.11886958 -0.08400507 -0.16862987 -0.053132024 -0.16330498 0.03583247 0.03458779 -0.15986326
0.011757685 0.14751463 -0.11081947 0.09735907 0.024412002 -0.14955686 -0.060560405 -0.11870683
-0.022711862 0.09988862 -0.0789075 -0.09185393 0.11964689 -0.014637706 -0.01452471 0.015489641
0.020878032 -0.024611715 -0.107456826 0.120819315 -0.14645648 -0.030581247 -0.1199615 0.1509494

actor.2.bias f4 [32]
00000000: 4d91 3c3d 23a4 0a3e 79e1 3dbe 6b7c 3bbd
00000010: 071a e1bd f9ca d9bd 1cf9 4a3d 70fe 24be
00000020: 3edc 37be 9cab 25be 7671 803d c1c9 d4bd
00000030: 3453 2e3c b3fd 1f3d 82a0 a1bd 28dd 293d
00000040: d6ec 043e 1411 f3bc 32a4 32be 6cae 22bd
00000050: 5b77 c3bd e728 7c3d 0fb0 113e e5fe ecbd
00000060: 4907 233e 0f4e b8bb 8a5d babd e74c 703d
00000070: e6fb 2cbe ed53 e2bd fffd dcbc 7d19 103e
0.046037007 0.13539176 -0.18543042 -0.04577295 -0.109912924 -0.10634417 0.049553975 -0.16112685
-0.1795511 -0.16178745 0.06271641 -0.10390044 0.010639954 0.039060306 -0.078919426 0.041470677
0.1298097 -0.02967123 -0.17445448 -0.039717123 -0.095442496 0.061562445 0.14227317 -0.11572055
0.15920748 -0.0056245397 -0.090998724 0.05866709 -0.16892967 -0.11051164 -0.026976584 0.14072223

actor.4.weight f4 [2, 32]
00000000: 9f35 0d3c edca 063d 6152 fdbd 366c d63d
00000010: 7df7 ec3d ee02 bfbd 1dd1 043e 0e5a 173e
00000020: 2176 2abe 318c bd3d 8485 d73d 8c2f 6b3e
00000030: 657e 56be a175 a33e e544 0d3e 19c0 2a3e
00000040: 0fc6 98be ec4a 1dbe 09bb 993d 8cde 6b3d
00000050: 582c 57bd 2760 e5bd 1128 8e3e 10b8 033d
00000060: 6cc7 e23d c1f4 9c3d 5537 d9bd 0048 5b3e
00000070: 65c6 853d 5b6d d2bd b666 55bd 4038 29be
00000080: 290f a9bc 838a 35be e678 1fbd 4067 0fbd
00000090: 4772 dc3d 7f3e 1cbd e94d 5a3d 9466 2dbe
000000a0: cd72 cbbc 65f8 d43c af24 a53c 025e 1fbe
000000b0: c8b1 55be 3c6e b23d 9c0c 94be 1793 72be
000000c0: 18c5 a3be 8f49 20be 2647 323d 4cdd d6bd
000000d0: 955f 893d 8807 633d 6fac 94be 95a7 06be
000000e0: 4f88 5e3d ec1f 87bb a133 54bd b3dd 12be
000000f0: 1f8c c2bd 87b6 26be 3f3d e63d 362c 7e3d
0.008618741 0.03290837 -0.12369228 0.10469858 0.11570642 -0.09326731 0.12970395 0.14780447
-0.16646625 0.09255255 0.10523513 0.22967356 -0.20946653 0.3192568 0.13795812 0.16674842
-0.29838607 -0.15360612 0.07506377 0.057585284 -0.052532524 -0.1119998 0.27764943 0.032157958
0.11073193 0.076638706 -0.10606257 0.21414185 0.065319814 -0.10274764 -0.052099906 -0.16525364
-0.020637112 -0.1772862 -0.038933657 -0.035010576 0.10763984 -0.03814554 0.053296957 -0.16933662
-0.024835015 0.02599735 0.020159094 -0.15563205 -0.208686 0.08712432 -0.2891587 -0.23688923
-0.31986308 -0.1565306 0.043524884 -0.10491428 0.06707684 0.055427104 -0.29037806 -0.13149865
0.054329213 -0.0041236784 -0.05180705 -0.14342384 -0.09499382 -0.16280566 0.112421505 0.06205388

actor.4.bias f4 [2]
00000000: 28a2 8d3d 4394 ccbd
0.069156945 -0.09989216

actor.0.weight f4 [32, 6]
00000000: 2ce6 e7bd 5b06 273d 6311 c3be b065 cd3e
00000010: 9d52 8abe c006 47be df8a 9bbe c147 eb3e
00000020: f319 e2bc dce0 81be 3700 60be d461 7bbe
00000030: b9f2 d8be 5960 b8be fee8 2c3e 7497 3abe
00000040: 4555 ea3e 47bf b93d 2a87 013e 26f0 da3d
00000050: c3ad 32be b784 5ebe ef10 ddbd da1f c3be
00000060: 94f9 553c 091b 7a3d 14df e83d ed68 89be
00000070: bfd5 8b3d c36e 05be 32da 2e3d 6984 c0be
00000080: 61e3 11be 400c afbe c384 b6be 08c4 c13d
00000090: 35b9 793e f365 e6bd 7365 3fbe b3cc 093e
000000a0: 5f71 243d fc43 783e 2399 c43e 2c46 373e
000000b0: 25b0 1b3e 77be 913e 6152 583e fba7 5ebe
000000c0: 7265 943d a695 3b3e 03f1 253e ea2f 3f3e
000000d0: 1579 68be a522 e2bd 46c3 4bbd 4c06 ae3e
000000e0: dfb6 523e 6676 09bd 662a 5cbe 96e4 7fbe
000000f0: cf3b 873e b84a c6be 0a66 943e 8dac 95be
00000100: 3006 b23e 4613 333e 9a95 84be 0b79 063f
00000110: 503e ac3e bea6 8ebd b14e bd3e 625c a03d
00000120: 59a9 09be c999 1cbb 3300 8dbe 2802 b13e
00000130: 95dd fdbc d931 2dbe cea4 9abe 4c24 ca3d
00000140: cdaf 21be 4540 ebbc e57b c73e 80f7 3d3d
00000150: 48d4 a93d 05af e4bd 264b 3b3e c30b a6be
00000160: 25c5 953e 9b3a ccbd f208 5ebe 7072 1bbd
00000170: ac84 c13e 467e 663e 3ecd 83be b52c 02be
00000180: 27cb 703e b5b0 d5be 59a9 8a3d 596d 8abe
00000190: 5ad4 c7be b26a 2b3d 0e4c 983e e8d7 1cbe
000001a0: 1f88 5d3e 3a98 c4be 2f95 cbbe 823f b93e
000001b0: 788b e03d 30bc 64be 113e 28be 473f 86be
000001c0: 3a2d 9f3d b7ec 08be d371 a43e 2a0e 473e
000001d0: bec9 b5be f636 68be a8d9 45be 7b2f f6bd
000001e0: dc02 d23d fb34 dabc 1538 c3be f205 c7be
000001f0: d4a7 d2be 1e4a d7bb b6d4 47be 0c4d 883e
00000200: 343a 8bbe dc3e bf3e a14f 8fbe c26b 873e
00000210: 0626 3f3e fbac a3be b8f9 913e 28fb bd3e
00000220: 3af5 c8bd 6934 26be 2dab 97be 1024 0abe
00000230: 10da b13e cc2d 7fbe dac2 243e f234 b03e
00000240: abff 753e 83ef 9ebe 01de 6fbe b7bf c33d
00000250: 9654 86be 98d8 4d3d 968e 80be 4161 633d
00000260: c36e 163e 01e4 ec3c b7a2 e5bd 1eb0 253e
00000270: d6d1 82be 5913 9a3e 4620 c93e eb99 b53e
00000280: 533b f83d 7b5d 76be b4a2 f1be ab9f 2abd
00000290: e227 23be 72df 003e be16 b13b 1f80 773e
000002a0: c1d5 283d 397a 75be 32f1 733e b3e8 38be
000002b0: 0e9e 7fbe 1a5c f83d 43a0 6cbe d4b1 c8be
000002c0: 5172 9d3e f96c f43d 4dc9 c7bd e8f7 583d
000002d0: 2a14 743b 2ae1 4d3e 74f4 8cbe 8842 a13e
000002e0: f301 c7be 86da f7bd 8045 183e 23b7 97bd
000002f0: 7793 013f 3134 4f3e 935f 89be e540 5b3e
-0.11323199 0.040777545 -0.38099203 0.40116644 -0.27016154 -0.19436169 -0.30379388 0.4595318
-0.027600264 -0.25366867 -0.21875082 -0.24549037 -0.42372683 -0.36011007 0.16885754 -0.18221837
0.4576818 0.090696864 0.12649217 0.10690336 -0.17449097 -0.21730314 -0.107942455 -0.38110238
0.013059992 0.06106094 0.11370674 -0.26837865 0.06827878 -0.13030533 0.042688556 -0.3760102
-0.14246894 -0.34189034 -0.35648164 0.09461218 0.24387057 -0.11249914 -0.18691044 0.13456993
0.04014718 0.24244684 0.38398084 0.17897862 0.15203913 0.28465626 0.21125175 -0.21743767
0.07245912 0.18318805 0.1620522 0.18670622 -0.22702439 -0.11041764 -0.049746774 0.3398918
0.20577572 -0.03356018 -0.21500549 -0.24989542 0.26412818 -0.3872888 0.289841 -0.29233208
0.34770346 0.17487821 -0.25895387 0.52528447 0.3364129 -0.06965397 0.369741 0.078301206
-0.13443507 -0.0023895374 -0.27539214 0.34571958 -0.030989448 -0.16913547 -0.3020386 0.09870204
-0.15789719 -0.02871717 0.38961712 0.046378613 0.082924426 -0.11166195 0.18290386 -0.32430848
0.29251972 -0.099721156 -0.216831 -0.037950933 0.37796533 0.22509107 -0.25742525 -0.12712367
0.23514996 -0.4173638 0.06770582 -0.2703655 -0.390292 0.0418498 0.29745525 -0.15316737
0.21633957 -0.3839739 -0.39762256 0.36181265 0.109641016 -0.22337413 -0.16429926 -0.26220152
0.07772298 -0.1337155 0.3211809 0.19438997 -0.3550548 -0.22677216 -0.1932131 -0.12020775
0.10254452 -0.026636591 -0.38128725 -0.38871723 -0.41143668 -0.0065701148 -0.19514737 0.26621282
-0.27192843 0.37352645 -0.2799044 0.264494 0.18666849 -0.3196791 0.28510833 0.3710568
-0.09812398 -0.1623093 -0.29622784 -0.13490319 0.3473668 -0.24919814 0.16089955 0.34415394
0.24023311 -0.31042108 -0.23424532 0.09558051 -0.2623641 0.050255388 -0.25108784 0.05551267
0.1469069 0.028917314 -0.11212676 0.16180465 -0.25550717 0.30092886 0.39282435 0.35468993
0.1212069 -0.24059097 -0.47194445 -0.041656177 -0.15933183 0.12585238 0.0054043224 0.24169968
0.041219477 -0.23972405 0.23822477 -0.18057518 -0.24962637 0.12126942 -0.2310801 -0.39198172
0.3075128 0.119348474 -0.09755192 0.052970797 0.0037243464 0.20105425 -0.27530253 0.31496072
-0.38868675 -0.12102227 0.14870262 -0.074079774 0.5061564 0.20234753 -0.2683073 0.21411474

actor.0.bias f4 [32]
00000000: b006 ac3e 5375 3bbe 564d 28bc 5a62 b63e
00000010: c2bf 8f3d b73f 93be 2300 22be 8550 2cbe
00000020: a49b 823e 38ba e23e a69b b23d 0702 083f
00000030: 896b 863e dc8d a33d ab2b 1fbe 7985 86be
00000040: 616b 9c3e 02be 243e 96cd d4bd bc15 27bd
00000050: c823 95bd 3f12 183e 1215 9abd 6b57 9fbe
00000060: 7639 083b 1e18 c43d 5613 953d 4ea0 963e
00000070: 7e25 87be 1fd9 f33d a689 643e 68d3 a23e
0.33598852 -0.18306474 -0.010272345 0.3562191 0.07018997 -0.28759548 -0.15820365 -0.16827591
0.2550937 0.442827 0.08721094 0.53128093 0.26253918 0.07986042 -0.15544002 -0.26273707
0.30550674 0.16088107 -0.10390775 -0.040792212 -0.07282215 0.1485071 -0.0752355 -0.31121382
0.0020786203 0.095749125 0.07279079 0.29419178 -0.26395792 0.11906647 0.22318134 0.31801915
