results/SandingEnvEasy/ddpg/model/model_parameters_0.pt (torch, 30018 bytes, 22 tensors)

value.0.weight f4 [32, 8]
000000 e3 ba 50 3d 1f 25 16 be dd 33 eb bd df 9b 28 bd
       0.05095948 -0.14662598 -0.114845015 -0.041164275
000010 d1 0d 0a 3d 21 c9 36 be f7 d7 cb 3f fa 11 f7 3e
       0.033704583 -0.17850162 1.5925282 0.48255903
000020 02 87 bb 3d 23 2e 14 3d c3 22 e7 bd ca 2e 91 bc
       0.0915661 0.036176812 -0.11285927 -0.017722506
000030 f5 7d 12 be 8d 3b ca 3e c2 09 3d 3f 07 a4 5a 3f
       -0.14305861 0.3949856 0.73843014 0.85406536
000040 4c b8 1b be a5 da 87 3d cc e8 81 3e a0 fd 43 be
       -0.15207022 0.066335 0.25372922 -0.19139719
000050 9b 3c a9 bd 23 2c e9 bd d4 71 cc be 3f 71 f1 be
       -0.08263513 -0.113853715 -0.39930594 -0.47156712
000060 76 2d 0c 3d 07 e4 82 be 85 0c 3c bd b9 c5 bc 3d
       0.034223042 -0.25564596 -0.045910377 0.092174
000070 e2 62 78 3e 08 1d 10 be 40 7a 21 c0 40 7e 49 be
       0.24256471 -0.14073575 -2.5230865 -0.19677067
000080 91 bb c9 3d b9 58 29 be 73 9d 36 be 83 d4 a0 3d
       0.098502286 -0.16537751 -0.178335 0.078530334
000090 e1 e7 8e 3e 6d 0e 94 be 96 e1 a2 bf 88 d4 64 be
       0.27911285 -0.28917256 -1.2725093 -0.22346699
0000a0 e6 3d e3 bc 56 42 7d be 29 1e 8f bb 93 ff 7e 3d
       -0.027739476 -0.24732336 -0.004367609 0.062255453
0000b0 41 5f 89 be 91 49 58 3e b4 25 0c c0 d0 42 33 3f
       -0.26830485 0.21121813 -2.1898012 0.7002382
0000c0 16 7a 25 3e f2 90 2b 3d c9 b3 b4 3d 96 95 d2 3d
       0.16159853 0.041886277 0.08823354 0.102824375
0000d0 b3 a6 48 be 6b bf 3c be a8 a4 bd bf 2d 4d a4 be
       -0.1959484 -0.18432395 -1.4815874 -0.3209013
0000e0 b0 62 1b bd 61 bf f2 bd 30 57 a4 3e 5b 3a 2f 3e
       -0.037935913 -0.11852909 0.3209777 0.17112105
0000f0 09 78 52 be bd 1c 20 3e 68 56 02 bf 7c e9 ca 3e
       -0.20553602 0.15635963 -0.50913095 0.3963126
000100 78 a6 c5 3d 52 cc da 3d d7 89 4e be 90 79 eb 3d
       0.09650892 0.10683502 -0.20169769 0.114977956
000110 d5 64 95 bd 6b 70 3c 3d e6 0b 57 bf f9 90 91 bf
       -0.07294623 0.046005648 -0.8400253 -1.1372367
000120 fd a5 22 3e dc dd 02 be 42 00 92 be 81 b6 9b 3c
       0.15883632 -0.12779945 -0.28515822 0.019007923
000130 51 b7 09 be 00 c8 22 bd 59 f9 04 3f a9 82 9a be
       -0.13448836 -0.039741516 0.51942974 -0.3017781
000140 a7 87 cc 3d 91 56 5c ba bd 01 86 3e 2d 50 aa 3d
       0.09986811 -0.00084052334 0.261732 0.083160736
000150 5f ba 1b be 78 4d fc bd 70 27 31 3f 3e 08 14 bf
       -0.15207814 -0.123194635 0.692008 -0.57825077
000160 40 b8 85 be 87 e9 24 be 0f 57 ff bd 9f ee 3a 3e
       -0.26117134 -0.16104709 -0.12467777 0.18255089
000170 dc 38 5c 3c 49 03 17 bd d6 e5 4e bf d7 97 67 3f
       0.013441291 -0.036868367 -0.8081945 0.90466064
000180 cb 36 a1 be ca e6 16 3d 4a 9d 43 3e aa 47 26 3d
       -0.31487116 0.03684119 0.1910297 0.040595688
000190 21 d5 9d be 44 20 cd 3c b8 23 7e 3f 31 2d 7f bd
       -0.30826667 0.0250398 0.9927325 -0.062298957
0001a0 5f 9e 24 3e 87 bf 10 be 35 2f 6f 3e 5b 36 76 3e
       0.16076039 -0.14135562 0.23357852 0.24044172
0001b0 6a cb f7 3d 92 60 24 be 38 7f 10 3f 33 3c 0f bf
       0.12099345 -0.16052464 0.5644412 -0.5595123
0001c0 bc d7 a3 bd a0 5a 16 3e 7d 9f 97 3e 53 43 ca 3d
       -0.080001324 0.14683008 0.29613867 0.09876122
0001d0 9d c0 88 3d 00 65 60 3d 5b d1 b2 3e a6 9e b5 bf
       0.06677363 0.05478382 0.3492535 -1.4189041
0001e0 32 aa 21 be bf 4a 77 3a 6b 74 8c 3e 99 9e 85 3c
       -0.1578758 0.000943344 0.2743257 0.016310977
0001f0 1c 3c 15 3e 87 5b 1a 3d 2c b7 14 3f f4 40 3b bf
       0.14573711 0.037684944 0.58092 -0.73145986
000200 96 6a b4 bd 92 f0 c1 3d 5d f8 49 3e 84 12 5e 3e
       -0.08809392 0.09469713 0.1972365 0.2168675
000210 53 76 ca 3d 57 82 6e be 3c a9 7f 3e 95 79 7b be
       0.0988585 -0.23291908 0.24966902 -0.24558099
000220 51 49 7c 3d 0e 1e 8d 3c c4 f9 80 bd fa f7 a7 3d
       0.061593357 0.017226245 -0.06297639 0.08201595
000230 10 93 34 3d 50 dd bd bd 93 9a 4f 40 a2 4e f1 3d
       0.044085562 -0.09270728 3.2438095 0.11782576
000240 0f 5f 00 3e c4 95 85 bd f9 3d 66 3c 55 49 52 be
       0.12536262 -0.06522706 0.014052861 -0.20535786
000250 09 bf ca bc e8 04 45 bd 99 b4 fc 3f 0d ce ed be
       -0.024749296 -0.048100382 1.9742614 -0.46446267
000260 6a ff fe 3d da 8a 7d be 24 14 0e 3d 82 aa 64 be
       0.1245106 -0.24759999 0.034687176 -0.22330669
000270 84 50 5c be c7 d2 2f 3d cd 62 34 bd b7 f4 30 bf
       -0.2151509 0.042925622 -0.044039536 -0.69123405
000280 43 5c 40 3d 31 e9 0e be 3e c0 4b 3e 98 3b 87 bd
       0.046962988 -0.13956143 0.19897553 -0.066031635
000290 20 4b b2 be 56 52 29 3e 02 3c cf 3e f5 a9 03 be
       -0.3482294 0.16535315 0.4047547 -0.12857802
0002a0 49 2c 70 be 57 e7 29 3e a0 13 fc bd 65 e1 f6 bb
       -0.23454393 0.16592155 -0.12308431 -0.0075341933
0002b0 3f f4 dd 3e 34 8d da 3d ae 1c eb 3f 88 7e 37 3f
       0.43350407 0.106714636 1.8368127 0.71677446
0002c0 e6 ae c9 3c 51 df 83 3d 36 ad b9 3e d6 ed fd 3c
       0.02461953 0.064390786 0.36264962 0.030997198
0002d0 72 6e 9e bd 1b 5e b9 3e 62 d7 0d 3f 43 1d ea 3f
       -0.077359095 0.3620461 0.55406773 1.829018
0002e0 28 04 10 bd 76 f2 85 3e b4 e8 e1 bc 8c ef a9 3e
       -0.035160214 0.26161546 -0.027576782 0.33190572
0002f0 37 7b 1e be af 92 61 be 43 09 22 bf 36 06 53 3d
       -0.1547669 -0.22028612 -0.6329538 0.051519595
000300 39 92 fb 3d e6 d1 08 be 9a ca 74 3d 3a 8a 3c be
       0.12283749 -0.1336132 0.05976353 -0.18412104
000310 da 76 e1 bd b1 c0 d5 3c d0 30 38 3d dc fb c7 3e
       -0.11008997 0.026092859 0.044968426 0.3905934
000320 76 dc 59 be fd 69 47 3d 75 ce ab 3d 9c ac 2f bd
       -0.21275505 0.048685063 0.08388988 -0.042889223
000330 1e ad 8c bd 7d 8b 4c be 47 e5 b4 bd e8 ee a7 bf
       -0.06868957 -0.19975086 -0.08832794 -1.3119783
000340 eb a8 01 be 4e 78 5b be c0 14 e7 bc b1 4f ea bd
       -0.12662093 -0.21432611 -0.028208137 -0.11440981
000350 67 b9 83 be 1d a2 91 3e 89 3d 92 3f c9 80 59 bf
       -0.25727388 0.28443995 1.1425029 -0.84962136
000360 46 1a ad bc 6e f8 2a be 61 02 38 3b e0 1b 0e 3e
       -0.021130692 -0.16696331 0.002807759 0.13877821
000370 9a c1 88 3e 82 f2 a1 be 7f 15 11 3f 7c 52 a2 be
       0.26710206 -0.3163033 0.56673425 -0.31703556
000380 58 5e 14 3e 81 c0 63 be bc cb 69 be 2e af 16 3e
       0.14489114 -0.22241403 -0.22831625 0.14715263
000390 82 5f d4 3d 0d d9 c7 3e 6c 0c d9 3f 33 b4 cf bd
       0.10369779 0.39032784 1.6956916 -0.10141792
0003a0 bc c8 39 be 04 66 4d 3e 6c 94 1f bd 3a 81 3d 3e
       -0.1814298 0.20058447 -0.038959906 0.18506327
0003b0 1f 63 43 be 5a 7b 42 bd 6c ba e5 3e 0c ae 63 be
       -0.1908078 -0.04748092 0.4486879 -0.22234362
0003c0 8d 7a 87 3e 03 2a 4f bd 2b 14 9c 3d 72 6a d9 3d
       0.26460686 -0.050577175 0.07621034 0.10616006
0003d0 a8 e7 db bd ee 84 99 3e 6c ff 9c 3f 03 3a 99 bf
       -0.10737544 0.2998423 1.2265449 -1.1970829
0003e0 85 97 ee bd 31 f5 56 3e a2 ac 61 3e 27 6d 77 be
       -0.11649994 0.2099197 0.2203851 -0.24162732
0003f0 39 4d aa 3e f1 a4 9e be 01 be 69 3e 14 85 3a 3e
       0.3326204 -0.30985215 0.22826387 0.18214828

value.0.bias f4 [32]
000000 ce c2 89 bd 7f c6 92 bf e5 e6 57 be 45 df ad be
       -0.06726609 -1.1466826 -0.21084173 -0.33959404
000010 ab 5e 01 3f c6 56 dd be 1a 40 47 be e0 8e 9c 3d
       0.50535077 -0.43230265 -0.19458047 0.07644439
000020 cc 3a 46 bd 28 a2 35 3e 17 4d 0f be 0d 4f 65 3e
       -0.048395917 0.17737639 -0.13994251 0.22393437
000030 7f e8 d0 be b9 df 77 3d 14 17 f0 be 66 1b 9e bd
       -0.4080238 0.060516093 -0.46892607 -0.077200696
000040 d0 fd 1a bf f5 89 6f 3f 2a f6 94 be 74 b3 17 be
       -0.6054354 0.9356988 -0.29094058 -0.1481455
000050 1b d7 0c bf 1e 82 d5 be 38 76 d1 bd 36 74 0e 3e
       -0.55015725 -0.41700834 -0.102276266 0.13911518
000060 7f a0 41 bd ed 22 16 3f 2a 9c 9d be 2a 87 50 bf
       -0.0472722 0.5864704 -0.30783206 -0.81456244
000070 2b 23 3d bf 76 c6 26 3e c0 2f 4a 3b 3d e5 f3 bd
       -0.7388179 0.16286644 0.0030851215 -0.11908958

value.2.weight f4 [32, 32]
000000 21 18 f2 3d 75 53 aa 3e cf fa d8 bd 23 fe 3e 3d
       0.118210085 0.33266798 -0.10594713 0.046629082
000010 cf 7a 1a 3e f2 85 51 3d cb 8b 0f bf 7f 6d 09 bd
       0.1508591 0.05115313 -0.5607268 -0.03355169
000020 a5 b3 7c 3d d0 06 24 bd 05 1a d8 bd 66 91 b3 bd
       0.06169476 -0.04004556 -0.10551838 -0.08767967
000030 4a 24 01 3e ac 39 46 be bb 10 4b bd 8d cf 9b 3c
       0.126115 -0.19357938 -0.049576502 0.019019866
000040 f8 c6 a8 be 01 64 46 be 6a 00 6a be 25 07 db bd
       -0.329643 -0.19374086 -0.2285172 -0.10694722
000050 d5 24 bd 3e f8 1b a3 3d 8b b5 66 3a 4c 73 09 3e
       0.36942163 0.07964319 0.0008800856 0.13422889
000060 38 69 52 bd df 15 4c bd b6 74 16 3e b5 d5 09 3e
       -0.051369876 -0.049825545 0.14692959 0.13460429
000070 d5 96 17 3d 22 b5 f3 3d d2 cc 47 be eb b3 b3 be
       0.03700908 0.11899783 -0.19511726 -0.35098204
000080 79 36 80 3d 52 e1 0e be 3c 7c a1 3c 87 7b 11 be
       0.0626039 -0.1395314 0.01971256 -0.14207278
000090 57 84 08 be 13 e9 d3 bd 66 e7 26 3d 47 7d 7f be
       -0.13331734 -0.1034719 0.040748022 -0.24950133
0000a0 5a 88 22 3e 5d 17 25 3e 74 87 88 bd c8 69 42 3e
       0.15872326 0.16122194 -0.06666461 0.18985665
0000b0 de 45 05 be a5 a4 91 3d 62 c5 82 be 16 f0 9d 3e
       -0.13014933 0.071114816 -0.25541216 0.30847234
0000c0 02 da ee 3d fe 8e 51 bd 8a 32 46 3a ec b2 02 be
       0.116626754 -0.05116176 0.00075606315 -0.12763566
0000d0 d2 33 e5 3d 8d 1f 7c bd 09 f4 56 3e 8a 1e 36 bc
       0.111915246 -0.061553527 0.2099153 -0.0111156795
0000e0 fe 35 97 3b a0 4d f0 bd a5 63 cf bc ad 30 cc 3d
       0.0046145907 -0.11733556 -0.025316069 0.09970222
0000f0 7c 19 12 3e 91 2f 01 3d d6 4e 5a 3d 74 1f 1f be
       0.14267534 0.031539503 0.05329784 -0.15539342
000100 14 dd 56 bb af fa 2c be c7 b6 f4 bd 56 f9 2e be
       -0.0032785581 -0.16892503 -0.119489245 -0.17087302
000110 6f f8 39 be e7 14 e4 bd 5c d1 b3 3d e8 b4 10 be
       -0.18161176 -0.11136799 0.087801665 -0.1413151
000120 1e 0f b7 bd 24 fb ec bd 4a e9 a1 3d 23 07 e4 3d
       -0.0893843 -0.11571339 0.079058245 0.11134174
000130 ec a5 18 bc 11 a3 ca bc cc 06 42 3e 03 20 5e bd
       -0.009316903 -0.02473596 0.18947905 -0.054229748
000140 ae 36 c6 3d 53 7f 89 3d c3 e1 3e be 35 7d 14 3e
       0.09678398 0.06713738 -0.18640809 0.14500888
000150 67 dc c1 bd fb da 27 bd f7 cf 78 bd a1 09 9d be
       -0.094658665 -0.04098032 -0.060745206 -0.3067141
000160 c8 e1 fb bd 29 ab c3 3d 71 56 12 3d 86 93 5e 3e
       -0.12298924 0.095541306 0.03572697 0.21735963
000170 6b 88 88 3e 7c 6e 2e be 4f 13 f5 bc dd 4a 55 3e
       0.2666658 -0.17034334 -0.029916434 0.2082934
000180 29 43 3e be 12 b9 85 bf 56 d8 8e 3d e2 f9 47 3e
       -0.18580307 -1.0447104 0.069748566 0.19528916
000190 59 0b 84 3c a2 6c 3d 3e ab d3 09 3c d9 a7 2d be
       0.016118692 0.18498471 0.008412282 -0.1695856
0001a0 10 dd 51 3e b4 d1 cf 3c 42 e0 e0 3c 66 71 97 3d
       0.20494485 0.025368549 0.027450684 0.07394676
0001b0 ee 0f af bd c7 9f 96 3d 95 3d 1a 3e dc 0e 4e 3c
       -0.0854796 0.07354694 0.15062554 0.012576785
0001c0 4c a0 15 be 3d ad 12 be e0 f0 0a be 42 46 f7 3d
       -0.1461193 -0.14323898 -0.13568449 0.120739475
0001d0 b5 99 0b 3e 1d f6 ce bd 6b 3d 9c be 1a 54 31 bd
       0.13632853 -0.10105536 -0.30515608 -0.043293096
0001e0 df 1a 47 be e8 c0 e1 3d 69 67 7b 3b a6 2f e2 bd
       -0.19443844 0.11023122 0.0038361198 -0.110442445
0001f0 98 fa 01 be 9c 01 46 3d a4 bc f5 bd 0b 3a b3 3d
       -0.1269325 0.04834138 -0.11998871 0.08751305
000200 fd d9 06 3c 57 20 3e be 65 d4 d2 bd 68 61 e9 3d
       0.008230683 -0.18567024 -0.10294417 0.11395532
000210 cd 96 0b 3e ce cc 09 3e 85 df b0 bc 14 36 83 3d
       0.13631745 0.13457033 -0.021590957 0.06406799
000220 b5 6c 17 bc b3 96 eb 3c 5c aa 10 3e 48 cd 4e 3e
       -0.009242226 0.028758382 0.14127487 0.20195496
000230 48 b6 66 be af bd a3 be ab b7 a6 bd c6 6f a8 bd
       -0.22530472 -0.31980655 -0.08140501 -0.08224444
000240 b2 77 a8 bd dc dd 5d be 68 b8 b0 bc d7 85 d4 bd
       -0.08225955 -0.21666664 -0.021572307 -0.103770904
000250 cd d5 2b bc 59 87 2e 3e 53 f9 d6 3e 09 05 f4 3d
       -0.010487986 0.17043819 0.41987094 0.11915023
000260 25 91 75 3d 6f 96 6b 3d 0f 5f 3c be 37 a3 59 be
       0.059952874 0.05751651 -0.18395637 -0.21253668
000270 1f c7 de bc ce d9 09 3e c1 65 5c be 2b 76 e2 bd
       -0.027194558 0.13461992 -0.21523191 -0.11057695
000280 2a f4 01 3e 03 87 29 3d 25 16 a0 bd 44 52 84 bd
       0.12690797 0.041388523 -0.07816724 -0.064610034
000290 14 73 87 be 8d b8 9d 3d ed b2 7a bd 5a b4 a4 bc
       -0.26454985 0.07701216 -0.061205793 -0.02010553
0002a0 18 78 cd 3d b6 7f 32 be f7 15 66 bd 2b 72 09 bd
       0.10032672 -0.1743153 -0.05617329 -0.033556145
0002b0 58 9e df bc 3c b5 30 3e 71 76 56 3c ad ab 49 3e
       -0.027297184 0.17256635 0.013089762 0.19694395
0002c0 ca 3d e3 3d 9d 34 ab 3e 4c 2d e4 3d 9a 76 b0 bd
       0.1109577 0.33438578 0.11141452 -0.086163715
0002d0 f7 07 d2 bd d8 2e 03 3e 4f 32 cd bd aa 70 1b bd
       -0.102554254 0.12810838 -0.10019361 -0.03794924
0002e0 e5 03 ca 3c 97 cb 10 3d b9 b6 9c 3d 59 ea c4 bd
       0.02466006 0.03535041 0.07652039 -0.09615011
0002f0 a8 21 31 3e 04 bd 17 be 65 6d 82 bc a1 df 10 bd
       0.17297995 -0.14818197 -0.015921304 -0.03536952
000300 7a 14 02 3e e0 74 bd bd 4a 23 8f bd 11 72 cb bc
       0.12703124 -0.09250808 -0.06989153 -0.024834665
000310 56 19 2e 3d 5d 9b b8 3d 3f 09 4a be 3d 0c 13 bd
       0.04250463 0.09014008 -0.1973009 -0.035900343
000320 c9 dc 8f 3d 5c d5 0c 3e db c6 ad be 9a de 94 bd
       0.07024533 0.13753265 -0.33940777 -0.072690204
000330 53 7a a3 bd 46 42 45 be e0 75 cc be 8e f2 af 3c
       -0.07982316 -0.19263563 -0.3993368 0.021477964
000340 1a 61 4d bb 19 67 b3 3c 3f 32 ad 3d 2c ef 65 bd
       -0.0031338395 0.021899747 0.08456849 -0.056136295
000350 f0 9b 14 3d 59 71 27 be 0f bb 7e 3d 94 9e c6 ba
       0.036281526 -0.16351832 0.06219011 -0.0015153461
000360 aa 2d 85 b9 68 a6 e7 3d b0 b6 06 3e c3 1d bf bd
       -0.0002540176 0.11311036 0.13155627 -0.093318485
000370 7c 4e 8a 3e 21 ae f9 3d 10 ee 25 3e 23 6a 22 3d
       0.27013004 0.121914156 0.16204095 0.039652
000380 e7 12 e8 bc ef 1f 35 be 64 48 16 3d 6c 8b 0e bd
       -0.028329326 -0.17687963 0.03669013 -0.03480093
000390 8d b5 80 3b 96 5c ad 3d fd 52 a6 bd 7b fd 64 bd
       0.0039278925 0.08464925 -0.081212975 -0.0559058
0003a0 1d a8 eb 3b 8e ae 0a 3e eb d1 eb 3d 2f 01 06 be
       0.0071916715 0.1354315 0.11514648 -0.13086389
0003b0 c7 c9 ad bd 30 0b c5 3d 8f 25 0a 3e 67 48 10 bd
       -0.084857516 0.096212745 0.1349089 -0.0352253
0003c0 44 37 01 3d a5 e4 d1 3d 81 31 13 3e 80 db 4c bd
       0.031546846 0.102486886 0.14374353 -0.05001402
0003d0 92 e6 e8 bc 8e 65 82 bd 9e 69 21 3e d4 de e9 3c
       -0.028430257 -0.06367026 0.15762946 0.028548636
0003e0 c7 9d 30 3e 46 8b b8 3a a0 40 3d 3e c7 c6 11 be
       0.17247687 0.0014079593 0.18481684 -0.14235984
0003f0 bb 2e 65 bd ae 47 8a 3d 48 f9 2a 3e 34 61 a8 3d
       -0.05595277 0.06751953 0.16696656 0.08221665

value.2.bias f4 [32]
000000 16 31 0f bf e6 92 fe bd 70 93 b0 3d bd ba 88 3e
       -0.55934274 -0.124303624 0.086218715 0.2670497
000010 0c 2b 01 3f 26 83 a1 3c 07 e7 b7 be f2 15 45 3e
       0.5045631 0.019715857 -0.35918447 0.19246653
000020 be 84 38 bd d6 4b 67 3e d0 5f c3 be 1b 86 39 3e
       -0.045048468 0.22587523 -0.38159037 0.18117563
000030 f8 e5 9b be 51 d2 2a 3e ff 1a c3 bb 89 5f b9 3e
       -0.3044889 0.16681792 -0.005954146 0.362057
000040 93 f1 d6 3d 68 18 7e 3e a9 d7 88 be 56 7a 98 be
       0.104952954 0.24813998 -0.26727036 -0.29780835
000050 60 b0 ba be bf ca c3 3d 09 1b 88 be 5b 94 1d bf
       -0.36462688 0.09560155 -0.26583126 -0.615545
000060 1f a3 5c be d1 36 6b 3e 9f 94 b4 be 19 a4 dd bd
       -0.21546601 0.2297013 -0.3526964 -0.10822315
000070 3d 10 67 be fc 26 24 3e db 85 71 be dc f5 5d 3e
       -0.22564788 0.16030496 -0.23586218 0.21675819

value.4.weight f4 [1, 32]
000000 ff 82 ca bd 57 75 8b bd e8 05 c2 3d c4 26 d5 3d
       -0.09888267 -0.0680949 0.09473783 0.104077846
000010 89 9c f6 3d 9d ba 03 bd d8 76 58 bd e3 95 bc 3d
       0.120415755 -0.03216039 -0.052847713 0.09208276
000020 27 a9 a9 bd dd ba 87 3d 70 bf 3e bd 9d 7c 4a 3d
       -0.082842164 0.06627438 -0.046569288 0.049435247
000030 81 2e 7c bd 11 c2 c7 3d 1c 79 11 be e4 1e 43 3d
       -0.061567787 0.09753812 -0.14206356 0.04763688
000040 72 a4 0f bd 9a 26 9c 3d 11 c5 6b bd 71 dc 18 bd
       -0.035068937 0.0762455 -0.057560984 -0.037319604
000050 a0 4a 96 bc 89 e5 03 3d fe 80 20 bc e5 90 54 be
       -0.01834613 0.032201324 -0.009796379 -0.20758398
000060 e4 2d e4 3d a4 c9 8a 3d 97 73 ce bd 33 99 57 3d
       0.111415654 0.06776741 -0.10080641 0.052636337
000070 f2 5b 0f bd 12 7f 13 3c 5f 9b 89 bd 13 c7 8e 3d
       -0.034999795 0.009002464 -0.06719088 0.06971564

value.0.weight f4 [32, 8]
000000 2d 52 4c 3d 43 b3 15 be a5 88 ec bd 67 70 26 bd
       0.049883056 -0.14619164 -0.115495004 -0.04063454
000010 7e 4f 09 3d b8 f8 36 be 73 a2 cb 3f 68 e3 f5 3e
       0.033523075 -0.17868316 1.590895 0.4802506
000020 a4 3d be 3d 9d 3f 18 3d 2c 0e e9 bd 9d 81 99 bc
       0.09289101 0.03717004 -0.11379656 -0.018738562
000030 59 7e 12 be 29 3b ca 3e e4 4c 3c 3f ec 92 5a 3f
       -0.1430601 0.3949826 0.73554826 0.85380435
000040 49 9d 19 be 6b 07 8a 3d 21 54 82 3e e0 3a 44 be
       -0.15001406 0.06739696 0.2545481 -0.19163084
000050 4e a8 a9 bd d6 97 e9 bd 3e cb c9 be c2 54 f1 be
       -0.08284055 -0.114059135 -0.39412874 -0.47134978
000060 b2 69 0f 3d 9f 6b 82 be 60 a2 3b bd 9f 28 bf 3d
       0.03501291 -0.25472733 -0.04580915 0.0933392
000070 eb 5e 77 3e ff 20 11 be c0 66 21 c0 be 3b 48 be
       0.24157302 -0.14172743 -2.5218964 -0.1955404
000080 88 b3 c9 3d 2d f5 27 be 98 2d 39 be ff cc 9f 3d
       0.09848696 -0.16402121 -0.18083799 0.07802772
000090 3e 9e 8e 3e 10 58 94 be d1 a4 a2 bf 76 47 64 be
       0.27855104 -0.28973436 -1.2706548 -0.22292885
0000a0 9e cd e6 bc bf 78 7d be 4f 1d cd bb 75 ff 7a 3d
       -0.028174218 -0.24753092 -0.0062595974 0.06127878
0000b0 a7 61 8a be c9 44 56 3e 54 25 0c c0 46 82 33 3f
       -0.27027628 0.20924677 -2.1897783 0.70120656
0000c0 37 8e 25 3e a8 1f 24 3d d0 ce b2 3d 58 80 d2 3d
       0.16167532 0.040069252 0.087308526 0.10278386
0000d0 07 da 49 be bf f2 3d be bf a6 bd bf 11 ca a3 be
       -0.19712077 -0.18549632 -1.4816512 -0.31990102
0000e0 13 e6 24 bd a3 7e f4 bd 41 53 a4 3e 87 7e 30 3e
       -0.04025848 -0.119382165 0.32094768 0.17235766
0000f0 4a 2c 50 be 7c 68 22 3e 6c f3 02 bf d6 90 cc 3e
       -0.20329395 0.1586017 -0.5115268 0.3995425
000100 1b 13 c9 3d 24 a5 d9 3d 2a 52 4f be 97 14 eb 3d
       0.09818097 0.10627201 -0.20246187 0.114785366
000110 f8 c1 95 bd 1e b6 3b 3d 47 35 56 bf 50 4c 91 bf
       -0.07312387 0.045827977 -0.83675045 -1.1351414
000120 dd bb 21 3e 9f 23 03 be 96 aa 92 be 27 1b a7 3c
       0.1579432 -0.12806557 -0.28645772 0.02039869
000130 b5 5b 08 be 9f 59 1d bd c7 bd 04 3f c6 61 9b be
       -0.13316233 -0.038415547 0.5185208 -0.30348033
000140 dc 30 cb 3d 29 89 bf ba 3f ed 85 3e 14 ee a8 3d
       0.099214286 -0.001461302 0.26157567 0.08248535
000150 9a f2 1a be eb bd fa bd 7e 2c 31 3f 1d 2d 14 bf
       -0.15131608 -0.12243255 0.69208515 -0.5788134
000160 76 d3 85 be 2e 36 25 be 44 b7 fe bd 5a 76 3b 3e
       -0.26137894 -0.16133949 -0.12437299 0.18306866
000170 eb cb 6c 3c 86 de 12 bd d0 1a 4f bf cf 4e 67 3f
       0.014452915 -0.035856746 -0.8090029 0.9035463
000180 09 49 a1 be 37 d9 16 3d ab ad 41 3e e4 f5 21 3d
       -0.31501034 0.036828246 0.18913905 0.03954114
000190 17 94 9f be fa 30 b1 3c c3 6a 7e 3f a9 9a 7e bd
       -0.3116767 0.0216298 0.99381655 -0.062159214
0001a0 6b 7b 24 3e 08 7e 11 be 65 d5 70 3e d1 9e 72 3e
       0.16062705 -0.14208233 0.23518904 0.23693396
0001b0 05 8c f4 3d 47 00 26 be 39 1c 10 3f 53 22 0f bf
       0.11940769 -0.16211043 0.56293064 -0.5591175
0001c0 a4 ce a5 bd 50 7f 15 3e 6a da 97 3e 0f 61 ca 3d
       -0.08096054 0.14599347 0.29658824 0.09881794
0001d0 7a 00 87 3d ae e4 5c 3d 50 60 b1 3e 8e 7a b5 bf
       0.06591888 0.053929023 0.34643793 -1.4178026
0001e0 a6 84 20 be e0 42 bd 3a 76 2a 8d 3e 2c 5d 6e 3c
       -0.15675601 0.0014439486 0.27571458 0.014548581
0001f0 a7 a3 16 3e c8 f9 1f 3d 39 43 15 3f e3 bb 3b bf
       0.14710866 0.03905657 0.583057 -0.7333357
000200 9f 6f b3 bd 78 b1 c1 3d 1d c5 49 3e a4 6e 5d 3e
       -0.087615244 0.094576776 0.19704099 0.21624237
000210 3d 75 c8 3d df 82 6f be 66 17 7b 3e d7 a3 79 be
       0.097879864 -0.23389767 0.24520645 -0.24378906
000220 d2 78 7e 3d f3 79 92 3c b0 d3 7f bd d8 12 a6 3d
       0.062126942 0.017880416 -0.06245774 0.08109063
000230 40 8d 36 3d 3b e0 bc bd 29 95 4f 40 42 00 ef 3d
       0.0445683 -0.09222456 3.243479 0.11669971
000240 15 19 01 3e 3b cb 83 bd 85 2d 77 3c 3d d7 52 be
       0.12607224 -0.064352475 0.015086536 -0.2058992
000250 ab bf c4 bc 3f 05 42 bd 08 26 fc 3f 02 e1 ec be
       -0.024017176 -0.047368284 1.9699106 -0.46265417
000260 eb 54 00 3e 68 a7 7d be 9e 3c 0c 3d af 84 62 be
       0.12532394 -0.24770892 0.034237497 -0.22120927
000270 b8 df 5d be 00 96 29 3d f1 8f 2d bd 03 ac 30 bf
       -0.21667373 0.041402817 -0.0423736 -0.6901247
000280 d0 a4 3f 3d ad 89 0f be 65 44 49 3e b5 93 86 bd
       0.046788037 -0.14017363 0.19654997 -0.06571142
000290 3f 22 b2 be 0d a4 29 3e e7 38 d0 3e 72 a8 04 be
       -0.34791753 0.16566487 0.40668413 -0.12954882
0002a0 be ec 71 be 86 ab 29 3e bc ba fc bd 59 ea ef bb
       -0.23625466 0.16569337 -0.12340304 -0.0073216376
0002b0 db f3 dd 3e d0 8c da 3d cf d1 ea 3f ca ea 36 3f
       0.4335011 0.10671389 1.8345279 0.7145201
0002c0 17 39 c8 3c 42 81 87 3d 1c cb b8 3e 76 b9 07 3d
       0.024441285 0.06616451 0.3609246 0.033135854
0002d0 d6 6e 9e bd b7 5d b9 3e fd d3 0c 3f ba ca e9 3f
       -0.07735984 0.3620431 0.5501097 1.8264992
0002e0 70 0b 13 bd df 07 86 3e 45 c3 df bc c6 95 aa 3e
       -0.03589958 0.2617788 -0.027314791 0.33317393
0002f0 d5 37 1e be 4d 4f 61 be 85 0b 21 bf e2 f7 4e 3d
       -0.15450986 -0.22002907 -0.629082 0.05052937
000300 1e f9 f9 3d 9b 96 0a be e3 22 75 3d 3e ab 3e be
       0.122057185 -0.13534014 0.059847724 -0.18620011
000310 6b 33 e1 bd 61 ce d6 3c 86 2d 32 3d 72 b2 c8 3e
       -0.10996135 0.026221456 0.043500446 0.39198643
000320 28 cf 5a be 8a 49 43 3d c7 9e ad 3d 47 bc 2e bd
       -0.21368086 0.047677554 0.0847755 -0.042660024
000330 7c 6e 8c bd 2d 6c 4c be e2 fa b4 bd ca c3 a7 bf
       -0.06857011 -0.19963141 -0.088369146 -1.3106625
000340 c2 48 01 be bf 7a 5a be 8e 30 ea bc b7 cf ec bd
       -0.12625411 -0.21335886 -0.028587606 -0.11563056
000350 cb 8f 83 be b9 cb 91 3e 7b 75 92 3f ab 8f 58 bf
       -0.25695643 0.2847574 1.1442102 -0.8459422
000360 45 2c ab bc ea 21 2a be 4f 81 1c 3b 74 ac 0e 3e
       -0.020895133 -0.166145 0.0023880785 0.13932973
000370 f2 e5 87 3e 2a ce a2 be 86 ca 10 3f 1b 81 a2 be
       0.26542622 -0.31797916 0.56559026 -0.31739125
000380 94 b2 14 3e 08 5b 63 be e0 85 69 be 7f 77 17 3e
       0.14521247 -0.22202694 -0.22804976 0.14791678
000390 1e 5f d4 3d a9 d8 c7 3e f4 e1 d8 3f 84 31 d5 bd
       0.10369705 0.39032486 1.6943955 -0.10409835
0003a0 a8 6d 38 be 05 91 4f 3e 61 87 1f bd 69 e8 3e 3e
       -0.1801058 0.20270164 -0.038947467 0.18643345
0003b0 0f 25 42 be 3e 83 3d bd 15 14 e7 3e c9 69 64 be
       -0.18959449 -0.04626774 0.4513251 -0.22305979
0003c0 ca 24 88 3e 0d 57 4a bd e8 7a a3 3d 07 d3 d3 3d
       0.26590568 -0.049399424 0.07982427 0.10342985
0003d0 39 d9 db bd 8f 88 99 3e 09 2a 9d 3f 12 05 99 bf
       -0.10734791 0.29986998 1.2278453 -1.1954672
0003e0 1a 91 eb bd 71 4a 56 3e 72 5a 62 3e 61 5d 78 be
       -0.11502285 0.20926835 0.22104815 -0.24254371
0003f0 2c fc a9 3e fe f5 9e be 85 e5 68 3e f9 51 3c 3e
       0.33200204 -0.31047052 0.22743805 0.18390645

value.0.bias f4 [32]
000000 db c1 8b bd 3b 38 92 bf 6e e0 58 be f7 51 ad be
       -0.06824084 -1.142341 -0.21179363 -0.33851597
000010 d7 fb 00 3f 0a 85 dd be 58 14 47 be 3f 42 9a 3d
       0.5038428 -0.43265563 -0.19441354 0.07532167
000020 d3 bb 40 bd 02 38 37 3e bb 95 0f be 86 93 64 3e
       -0.047054123 0.17892459 -0.14021961 0.223219
000030 ca 70 d0 be 58 d5 7a 3d 0d d5 ef be 58 16 9d bd
       -0.4071105 0.061238617 -0.46842232 -0.07670277
000040 a6 b3 1a bf af 99 6e 3f ae bc 93 be f4 04 18 be
       -0.6043037 0.9320325 -0.2885489 -0.1484564
000050 36 cf 0c bf 58 ea d4 be cc 63 d9 bd 90 b6 0e 3e
       -0.5500368 -0.4158504 -0.10614738 0.1393683
000060 f9 e3 39 bd 4f 31 16 3f 93 e2 9d be ca 61 50 bf
       -0.045383427 0.5866899 -0.30836925 -0.81399214
000070 d4 23 3c bf df b6 26 3e de 5b 8e 3b 7c d1 f4 bd
       -0.7349217 0.16280697 0.0043444475 -0.119540185

value.2.weight f4 [32, 32]
000000 b9 c6 f2 3d 1b c9 aa 3e b2 8d da bd 25 fb 3b 3d
       0.118543096 0.33356556 -0.106715575 0.045893807
000010 40 b0 1a 3e 9c 67 4e 3d 46 72 0f bf a4 3e 0e bd
       0.15106297 0.05039178 -0.5603374 -0.034727708
000020 85 f4 80 3d 83 b2 22 bd 00 21 d8 bd 2b 0c b4 bd
       0.062966384 -0.039721023 -0.10553169 -0.08791383
000030 16 9c 01 3e b8 bb 46 be a0 97 47 bd 7c 18 94 3c
       0.12657198 -0.19407547 -0.048728585 0.018078081
000040 d9 79 a8 be c9 d3 46 be f2 5f 69 be db a5 db bd
       -0.32905462 -0.19416727 -0.22790506 -0.10724994
000050 e4 4b bc 3e 68 03 a4 3d ba ad 4c 3b 93 1e 0a 3e
       0.3677665 0.08008462 0.0031231479 0.13488226
000060 2d a2 52 bd a8 e0 49 bd 3b 28 16 3e cf 37 09 3e
       -0.051424194 -0.049286515 0.14663784 0.13400196
000070 a0 e1 17 3d 68 34 f5 3d 4a 16 48 be d5 ad b3 be
       0.037080407 0.11972886 -0.19539753 -0.3509356
000080 71 c8 7d 3d af 40 0f be d0 52 a4 3c c8 ef 11 be
       0.061958734 -0.13989519 0.02005902 -0.14251626
000090 ba a7 08 be d1 05 d6 bd 83 dd 25 3d b4 50 7f be
       -0.13345233 -0.10450328 0.040494453 -0.2493313
0000a0 d8 e6 21 3e 28 d6 24 3e c9 43 89 bd 7e 14 41 3e
       0.15810716 0.16097319 -0.06702382 0.18855473
0000b0 41 8f 06 be be 80 91 3d 41 89 83 be d5 d1 9d 3e
       -0.13140585 0.07104634 -0.25690654 0.30824152
0000c0 62 63 ec 3d a1 6d 55 bd fc 98 48 3a 7f 8f 02 be
       0.11542393 -0.052106503 0.0007652191 -0.12750052
0000d0 31 20 e5 3d b8 74 82 bd 37 2b 56 3e f7 13 49 bc
       0.11187781 -0.063699186 0.20914923 -0.012272826
0000e0 75 77 9d 3b 64 6e f1 bd 2f f6 d3 bc 28 a9 cb 3d
       0.0048055 -0.117886335 -0.025874225 0.09944373
0000f0 42 e4 11 3e 07 85 f6 3c fd 59 59 3d 76 8b 1f be
       0.1424723 0.03009273 0.053064335 -0.15580544
000100 e0 d4 84 bb 92 65 2d be 02 9a f5 bd 80 7f 2d be
       -0.004053697 -0.16933277 -0.11992265 -0.16943169
000110 05 80 39 be 90 0b e2 bd ca ea b3 3d 9c 8f 0f be
       -0.18115242 -0.110373616 0.08785017 -0.14019626
000120 71 28 bb bd db ec f0 bd c7 90 a1 3d cf 0f e6 3d
       -0.09138573 -0.117639266 0.07888942 0.11233484
000130 fc 66 17 bc 62 ea cd bc f5 ef 42 3e ec 3b 59 bd
       -0.009240862 -0.025136176 0.19036849 -0.05303566
000140 04 58 c4 3d 6b 19 86 3d 99 f9 3e be 63 ab 13 3e
       0.095871 0.06547817 -0.18649901 0.14420848
000150 a6 42 c0 bd 8b f9 26 bd f2 22 74 bd 7e a4 9e be
       -0.09387712 -0.040765326 -0.05960364 -0.30984873
000160 e2 1f 00 be 73 9c c4 3d 63 a4 12 3d 66 2e 5f 3e
       -0.12512162 0.09600153 0.035801303 0.21795043
000170 37 0b 88 3e e3 71 2e be 28 b1 f5 bc 83 03 55 3e
       0.26571056 -0.17035632 -0.029991701 0.20802121
000180 e8 b4 3d be bd 91 85 bf 04 55 8d 3d e6 d7 47 3e
       -0.18526042 -1.0435101 0.06900981 0.19515952
000190 23 3a 85 3c 0f c2 3c 3e 7f 0d 02 3c 78 ab 2d be
       0.016263073 0.18433402 0.007937788 -0.16959941
0001a0 1b 50 50 3e 2b 2e d3 3c 1e 0f db 3c 68 fa 96 3d
       0.20343058 0.02577885 0.026740607 0.0737198
0001b0 c6 58 b0 bd d8 0d 96 3d 57 0d 1a 3e 5a 18 4a 3c
       -0.08610682 0.07326859 0.15044151 0.012334907
0001c0 f0 cb 16 be e6 05 12 be f7 3c 09 be b6 05 f6 3d
       -0.14726233 -0.14260063 -0.13402162 0.12012808
0001d0 0f 49 0b 3e a6 5c d1 bd 8d 58 9c be 2f 5f 34 bd
       0.13602088 -0.102227494 -0.3053631 -0.044036087
0001e0 2a ea 47 be e1 ca df 3d e8 de 4c 3b 04 aa e1 bd
       -0.1952292 0.10927368 0.0031260792 -0.11018756
0001f0 64 1b 01 be 1f ed 43 3d dc ae ec bd 09 97 b2 3d
       -0.12608105 0.04783356 -0.11556789 0.08720214
000200 fb f2 09 3c 06 5f 3e be cf 3a d3 bd 20 af ea 3d
       0.008419747 -0.18590936 -0.10313951 0.11459184
000210 5e ea 0b 3e 0b 4e 0a 3e c2 c4 bc bc df 9f 84 3d
       0.13663623 0.13506334 -0.02304304 0.064758055
000220 57 7a 1b bc ab 9a ef 3c cf e1 0e 3e f8 ba 4f 3e
       -0.009489617 0.029248556 0.13953327 0.20286167
000230 04 90 66 be b5 d3 a3 be 25 bc a4 bd de 80 a4 bd
       -0.22515875 -0.31997457 -0.08043698 -0.08032392
000240 af 02 a8 bd 3c e7 5d be 53 18 af bc 87 82 d4 bd
       -0.08203637 -0.2167024 -0.021373903 -0.103764586
000250 e0 21 45 bc 11 0a 2f 3e 1e 3d d7 3e 7a 42 f3 3d
       -0.012032002 0.17093684 0.42038816 0.11877914
000260 04 d8 77 3d 86 70 6b 3d 19 a9 3b be ed 05 59 be
       0.060508743 0.057480358 -0.18326224 -0.21193667
000270 b3 dd d4 bc 9d 1c 0a 3e 72 f9 5d be 17 48 e2 bd
       -0.02598462 0.13487478 -0.21677187 -0.11048906
000280 ea 26 01 3e 4f 78 2a 3d 2e 04 a0 bd b1 4e 84 bd
       0.12612501 0.04161864 -0.07813297 -0.06460322
000290 d0 6a 87 be df dd 9c 3d 49 1e 7a bd 4f 0e a6 bc
       -0.2644868 0.07659506 -0.06106404 -0.020270495
0002a0 1e bf cd 3d 1f 60 32 be 54 ec 64 bd 27 6c 0b bd
       0.10046218 -0.1741948 -0.055889443 -0.03403869
0002b0 73 6e e2 bc f6 fc 30 3e 5d 3e 5a 3c ab 8b 49 3e
       -0.027640557 0.17283997 0.013320533 0.19682185
0002c0 f2 f0 e4 3d ac 9c aa 3e 8d 67 e4 3d 19 da b0 bd
       0.11178769 0.33322656 0.11152563 -0.08635349
0002d0 86 f5 d2 bd 3c 09 03 3e 40 b9 cd bd 64 87 1b bd
       -0.10300736 0.12796491 -0.10045099 -0.037970915
0002e0 ec b5 c7 3c 7c b3 11 3d a0 12 9b 3d 9d 5c c5 bd
       0.02437874 0.03557156 0.07571912 -0.09636805
0002f0 2e 05 31 3e 5f 37 18 be b5 88 83 bc db 4b 0e bd
       0.17287132 -0.14864872 -0.016056398 -0.03474031
000300 ff 92 01 3e 80 aa bc bd e5 d1 8b bd db 3e c6 bc
       0.12653731 -0.09212208 -0.068271436 -0.024199894
000310 81 de 2c 3d db 60 ba 3d 69 07 49 be 59 04 12 bd
       0.042204384 0.09100505 -0.19631733 -0.035648677
000320 ce f0 90 3d 77 a6 0c 3e 8d 27 ad be 80 20 93 bd
       0.0707718 0.13735376 -0.33819237 -0.07183933
000330 01 fa a0 bd 05 8e 45 be 30 80 cb be 15 04 b6 3c
       -0.078601845 -0.19292457 -0.39746237 0.022218743
000340 a3 19 21 bb 56 e8 b6 3c c1 63 ad 3d 6c a3 63 bd
       -0.002458193 0.022327583 0.08466292 -0.055575773
000350 ac 1a 16 3d 1d 11 27 be 6b 66 80 3d fe 58 f4 b9
       0.03664653 -0.16315122 0.06269535 -0.0004660561
000360 af 7d 0c 3a da eb e9 3d 8a 99 07 3e 2c 17 bf bd
       0.00053593045 0.11421938 0.13242164 -0.093305916
000370 c3 0d 8a 3e d7 fa f8 3d 71 91 26 3e 21 25 27 3d
       0.26963624 0.12157219 0.16266419 0.040806893
000380 54 09 e3 bc 80 8d 35 be f8 ff 13 3d c5 22 10 bd
       -0.027714409 -0.17729759 0.036132783 -0.03518941
000390 9c 73 98 3b 87 53 ac 3d 70 59 a6 bd b6 06 66 bd
       0.0046524536 0.08414369 -0.081225276 -0.056158744
0003a0 46 88 d6 3b 40 c9 0a 3e 0d e6 eb 3d 9f 50 06 be
       0.006547007 0.13553333 0.11518488 -0.13116692
0003b0 19 dd ae bd ab ad c4 3d 9a 93 0a 3e 16 b7 14 bd
       -0.08538265 0.09603437 0.13532868 -0.036307417
0003c0 70 9e fe 3c 9a 13 d3 3d 06 45 13 3e e3 47 4e bd
       0.031081408 0.10306473 0.14381799 -0.050361525
0003d0 00 c2 ea bc f8 8a 82 bd 1b 3c 22 3e 68 cd e8 3c
       -0.02865696 -0.063741624 0.15843241 0.028418258
0003e0 ff 50 30 3e 15 6e 54 3a 26 be 3c 3e 89 81 11 be
       0.17218398 0.00081035617 0.18431911 -0.1420957
0003f0 54 36 64 bd cb 5f 8a 3d 9f 14 2b 3e 54 eb a8 3d
       -0.055715874 0.06756552 0.16707085 0.0824801

value.2.bias f4 [32]
000000 c7 13 0f bf 74 63 fe bd 6d 87 b0 3d 8b 71 88 3e
       -0.5588955 -0.12421313 0.086195804 0.26649126
000010 e5 12 01 3f c0 a9 a4 3c f3 19 b7 be 2e 79 44 3e
       0.50419456 0.020100474 -0.35761985 0.19186851
000020 3a 85 34 bd a4 22 66 3e b4 1d c3 be d3 d9 38 3e
       -0.044072367 0.22474152 -0.381086 0.18051843
000030 f9 cb 9b be 15 d9 2a 3e 3c 20 9c bb c6 e9 b8 3e
       -0.30429056 0.16684373 -0.004764585 0.36115855
000040 6b b6 d7 3d 52 79 7d 3e 07 19 88 be 18 2c 98 be
       0.1053284 0.24753311 -0.26581594 -0.2972114
000050 29 6f ba be 33 0e c2 3d 88 0a 87 be 14 63 1d bf
       -0.36412933 0.094753645 -0.26375222 -0.61479306
000060 5d a0 5e be 40 f0 6a 3e 88 82 b4 be 1d c7 db bd
       -0.21740861 0.2294321 -0.35255837 -0.10731337
000070 a4 2d 67 be 0f 05 24 3e ea 42 71 be 5d a2 5d 3e
       -0.22576004 0.16017555 -0.23560682 0.21643968

value.4.weight f4 [1, 32]
000000 21 9b ca bd 77 6b 8b bd 13 ae c1 3d 7f 19 d3 3d
       -0.0989287 -0.06807607 0.0945703 0.10307597
000010 f0 5a f8 3d 3f d9 02 bd d1 51 56 bd d5 76 bd 3d
       0.1212672 -0.031945463 -0.05232412 0.09251181
000020 6e 1e aa bd 1f 1c 88 3d 67 96 3a bd 9d 97 48 3d
       -0.08306585 0.06645989 -0.04555359 0.048972715
000030 87 7c 7d bd 07 b6 c6 3d fe b3 11 be 7a 21 42 3d
       -0.061886337 0.09702688 -0.14228818 0.047395207
000040 a8 cc 0d bd a6 a3 9b 3d 91 1a 6d bd 09 8f 1a bd
       -0.034619004 0.07599573 -0.057886664 -0.037734065
000050 59 7f 9c bc 76 51 04 3d e9 ca 17 bc 6c c2 58 be
       -0.019103693 0.03230425 -0.009264686 -0.21167916
000060 9d 84 e2 3d 98 5d 8a 3d 39 eb ce bd e5 ae 55 3d
       0.1106045 0.06756133 -0.10103459 0.052168746
000070 3e ff 0d bd b0 93 1a 3c ea b8 89 bd 70 34 8f 3d
       -0.034667246 0.0094346255 -0.06724723 0.069924235

actor.0.weight f4 [32, 6]
000000 8b d6 a0 bd eb 37 3a 3d 67 89 df be 56 b0 50 be
       -0.07853421 0.045463484 -0.43659517 -0.20379767
000010 cd b6 89 bc 73 26 d9 3e 02 42 a1 be 34 76 b2 3e
       -0.016810799 0.42412147 -0.31495672 0.34855807
000020 4b 56 bf 3e cd fe ba 3e 01 db 47 3e 21 f4 92 3e
       0.37370524 0.36522523 0.19517137 0.2870188
000030 58 91 38 be 93 eb ca be fa 4b 79 bc 45 d1 6b be
       -0.18024194 -0.39632854 -0.015215868 -0.23029049
000040 5d 47 75 3e 47 a3 f9 3e f4 0f c1 3e 47 93 7d 3e
       0.23953004 0.48757383 0.37707484 0.24763213
000050 2a af b6 3e 4b 5d 4b 3f 07 ba d2 bd 1c 95 50 be
       0.35680515 0.7943923 -0.10289388 -0.2036938
000060 90 19 9c be 74 ce f8 3e 1a df eb 3e 80 32 e1 3d
       -0.30488253 0.4859501 0.4606865 0.1099596
000070 8a 96 99 be d8 90 7d 3e da ac a1 be 27 3a 9d 3e
       -0.29997665 0.24762285 -0.31577188 0.3070843
000080 a6 6f 31 3e 68 ea d7 be ac 9b fe be 2c 73 33 be
       0.17327747 -0.42171025 -0.49728143 -0.17524403
000090 59 f9 e7 bd 38 a4 d5 bd 54 87 67 be ab fa f9 3c
       -0.11326856 -0.10431713 -0.22610217 0.030515036
0000a0 14 7a fe be 10 11 d9 3d 4f 99 65 3e 3c de 37 bd
       -0.49702513 0.105989575 0.22421764 -0.044889674
0000b0 53 10 8f 3d 4c 7f 14 bf e5 27 b7 3e 78 e5 87 bd
       0.069855355 -0.5800674 0.35772625 -0.066355646
0000c0 71 a1 1a be 4b ea 41 3e c2 6b 32 3f 5e 84 fb be
       -0.15100648 0.18937032 0.69695675 -0.49124426
0000d0 ee 95 25 be 29 50 b0 3e cd 46 97 3e 98 46 e9 bb
       -0.16170475 0.34436157 0.29546204 -0.007119011
0000e0 7e 29 96 3e 94 79 97 3e 5b c9 c9 be 72 66 21 be
       0.2932853 0.29584944 -0.39411435 -0.15761736
0000f0 fe c8 93 be 3f 2e 80 bd c4 92 cc 3c a0 c1 da bd
       -0.28864282 -0.06258821 0.024972327 -0.10681462
000100 8c 09 ec be a4 97 a4 bd f7 98 23 be 66 49 82 3d
       -0.46101034 -0.08036736 -0.1597632 0.06361656
000110 c3 f5 1e bf 70 8a 2d 3d 81 bc 98 3e 6e 20 63 3e
       -0.6209375 0.042368352 0.29831317 0.2218034
000120 fe b0 df be af f5 81 3e 8d 17 66 3e 69 92 34 3d
       -0.43689722 0.25382754 0.22469921 0.04408494
000130 ac 6a 4f 3d b3 55 28 be 62 a6 8a be 25 29 30 be
       0.05063884 -0.16438942 -0.27080065 -0.17203195
000140 6d b6 05 bc 0e 68 b0 bd c3 a2 1a bd 2c db 9b 3e
       -0.0081611695 -0.08613597 -0.037752878 0.30440652
000150 44 b3 a4 3e d9 b4 52 3d 22 72 bc 3b 79 fb 9e 3e
       0.3216802 0.051442 0.0057509104 0.31051233
000160 64 2b 49 bd 93 45 78 3b 7b 19 49 bd 72 47 18 3f
       -0.049113646 0.0037883266 -0.049096566 0.59484017
000170 74 ab 0b bc 40 8f 4d be 1e e4 f8 bd d9 9f 1b be
       -0.008524764 -0.20074177 -0.12152885 -0.15197696
000180 1a e0 69 be 2e 7c e3 3e f7 ed b0 be 8a cd 9e 3e
       -0.22839394 0.4443068 -0.34556553 0.3101619
000190 8e 16 a2 be 14 40 7b be 4b b2 ed 3e 7a 6c e5 3d
       -0.31657833 -0.24536163 0.4642509 0.11202331
0001a0 8d 7f 2f be c8 0e 93 bc 4d a5 8f be b8 c7 9d 3d
       -0.171385 -0.017951384 -0.28055802 0.07704109
0001b0 d0 ab 9f 3d 1f e9 3d 3e f0 6a df 3d 69 33 b2 3e
       0.077964425 0.1854596 0.109090686 0.34804848
0001c0 89 d2 ca bc ee d7 8c be ad 22 7a 3e 69 03 e1 3e
       -0.024758594 -0.2750849 0.2442729 0.43947914
0001d0 11 6f fb be 3a b9 8b 3e a5 eb fb bd 08 05 82 bc
       -0.49108174 0.27289754 -0.12300805 -0.01587154
0001e0 1d 30 0d 3f ef ea 90 bd 92 04 0d bd 29 6e 74 be
       0.5515154 -0.0707606 -0.034428187 -0.23870148
0001f0 da e6 b4 3e 26 75 8d be 3f 37 58 3e 6d 69 bf be
       0.35332376 -0.2762844 0.21114825 -0.3738512
000200 0c 2c 6d 3d ed 8a 9d 3d 8d c2 4d be ef 62 d4 be
       0.057903334 0.076925136 -0.20093746 -0.4148173
000210 18 b1 ab 3e fb 8d 9a be 34 cd 75 be b8 ff 30 3c
       0.3353355 -0.30186448 -0.2400406 0.010803156
000220 41 d5 fb bd 7d 67 c1 bd 91 14 b9 3d 77 1f 13 3f
       -0.12296534 -0.09443567 0.09037126 0.57469887
000230 3f 9d b7 be 04 93 b7 3e 18 b6 e3 bd 39 f5 0d 3e
       -0.35862157 0.35854352 -0.11118716 0.13863076
000240 d1 5e 96 be 33 38 d7 3e 80 f0 3f 3f e0 a8 46 3d
       -0.29369214 0.42035064 0.7497635 0.048500896
000250 74 a3 12 3f ca c2 88 3d 3d 44 da 3e c9 0d 34 be
       0.5728066 0.06677778 0.42630187 -0.17583384
000260 96 2f e7 bd 6d 7f da be 36 87 2b 3e d9 8b 7a 3d
       -0.11288373 -0.42675343 0.16750798 0.061168525
000270 72 e3 f6 bd 61 b4 85 bd ca 79 62 be 5c 58 ae be
       -0.120551005 -0.06528545 -0.22116771 -0.34051788
000280 f3 7f 93 3d a5 4a c0 3d e7 d7 38 be b0 de 17 be
       0.07202139 0.09389237 -0.1805111 -0.14831042
000290 f4 99 db 3e 80 35 b4 3d ed 46 79 3c a5 0d a7 be
       0.42890894 0.08799267 0.015214664 -0.32627597
0002a0 93 fd a0 be 5b b2 23 3e 48 ef be 3e 79 b2 b9 be
       -0.31443462 0.15986006 0.37291932 -0.36268976
0002b0 44 fb 86 be f7 b2 10 be 07 79 08 be 9f 44 8a 3c
       -0.26363575 -0.1413077 -0.13327418 0.016878424
0002c0 42 ea 0a 3f 13 62 d8 bd 8e e7 98 3e 70 d2 a7 3e
       0.542637 -0.10565581 0.29864162 0.3277774
0002d0 8a c2 42 3e ec 37 9a 3e ce 6e de 3e 84 c6 8a 3e
       0.19019523 0.3012079 0.43443912 0.2710458
0002e0 6a c6 de 3e 0e f9 59 be 5c 71 be 3d ca dd a8 3e
       0.43510753 -0.21286413 0.09298965 0.32981712
0002f0 69 ef 15 3e dc cc a8 3e e0 17 da bd d4 ee 8e bd
       0.14642109 0.32968795 -0.10649085 -0.069791466

actor.0.bias f4 [32]
000000 14 be 72 3e f7 05 92 bb fd ee 1f bd 74 31 cb 3d
       0.23705322 -0.0044562775 -0.039046276 0.09921542
000010 01 ec c2 3c 51 eb 42 be d3 40 84 bc 0e 76 1f be
       0.023794176 -0.19035079 -0.016144192 -0.15572378
000020 87 d1 4e 3d 15 e5 15 bf ef af db 3d 34 f5 c9 3d
       0.05049279 -0.58552676 0.10726916 0.09861222
000030 94 50 9a be 36 1a 98 be 47 97 bd be 72 8d ed 3c
       -0.301396 -0.29707497 -0.37029478 0.02899811
000040 f3 34 e2 3e d9 4f 93 bd 37 e0 02 3e 93 a3 ff be
       0.44181022 -0.07192964 0.12780844 -0.49929485
000050 5c 69 09 3f d2 37 61 be 7c 7a fc 3d 2f 1e 05 bf
       0.5367639 -0.2199395 0.123280495 -0.5199918
000060 ba 83 0d bf 2b 98 c2 3d 6d 99 ec bd e2 3e 2e be
       -0.55279124 0.0950168 -0.11552701 -0.17016175
000070 6e c4 b9 bd 45 3f 34 be de 12 14 bd 57 d3 b9 be
       -0.09070669 -0.1760226 -0.036150806 -0.36294052

actor.2.weight f4 [32, 32]
000000 40 32 c8 bc 2d bd 8d 3e a2 26 3a 3e b5 d4 1b 3d
       -0.024438024 0.27683392 0.181788 0.03804465
000010 d0 f0 ca be 55 55 5c be c4 f8 74 3e 75 a0 ca 3d
       -0.3963685 -0.21516927 0.23923022 0.09893886
000020 b6 23 02 3e 23 a6 e1 bd c1 13 a2 be d3 af 97 3e
       0.12708935 -0.11018016 -0.31655696 0.2962633
000030 ab 8c d2 bd 6f a4 9a be ec 92 55 bd b3 5c 59 bd
       -0.102807365 -0.30203578 -0.05214207 -0.05306692
000040 d3 92 a6 bd 3d 33 77 3d eb 50 52 be f4 d2 be 3d
       -0.08133473 0.0603516 -0.2053868 0.0931758
000050 51 09 f8 3d a8 9a a1 3d d1 6c 15 3e 44 e3 bb bc
       0.12111152 0.078908265 0.14592291 -0.022935517
000060 52 06 bf 3d 6b 93 4a 3e 3d 50 57 be 46 a2 ba 3d
       0.093273774 0.19782798 -0.21026702 0.091129825
000070 3b 07 2c bf ad ba d1 bd 58 c6 66 3c cb 9e 4a be
       -0.6719853 -0.10240684 0.014085375 -0.19787137
000080 ce 63 e8 3b 3e a9 d4 bc be 68 71 bd 20 d3 7c be
       0.007091976 -0.025959607 -0.05893778 -0.24689913
000090 0d 15 2f bd fb 97 28 3e 6d 46 64 bd f2 d2 8e 3e
       -0.042744685 0.16464226 -0.055731226 0.27895314
0000a0 7b 53 ab bd d0 2d 19 be 05 b8 70 3d ba bf f9 bd
       -0.08365532 -0.14958882 0.058769245 -0.12194772
0000b0 17 76 17 3e c7 0e 43 3d 0a f6 b9 3c 59 01 a4 3e
       0.14791141 0.047621515 0.022700328 0.32032278
0000c0 5e 56 fe 3d 44 46 63 3d 46 3a c5 be 85 71 11 3e
       0.12418817 0.055486932 -0.38521022 0.1420346
0000d0 68 86 07 b9 c1 78 34 3e 81 2a 10 3d 16 90 76 39
       -0.00012924674 0.17624189 0.035196785 0.00023514064
0000e0 78 e4 cf 3e 23 1c 7d bc 85 7a 15 bd 7f 62 39 3e
       0.40603995 -0.015448603 -0.036493797 0.1810398
0000f0 18 39 44 bd 7a 47 29 3d be 45 e6 be b7 0a c8 be
       -0.04790601 0.04132793 -0.44975084 -0.39070675
000100 41 13 93 3e 35 47 36 be 55 f6 96 3d 29 12 7e 3d
       0.28725627 -0.17800601 0.07371203 0.062029038
000110 94 82 5d 3e e1 89 98 bb 67 45 c1 3c b0 b1 7a bd
       0.21631843 -0.0046551083 0.023592664 -0.061204612
000120 e8 ea 21 3e 7a d5 ef 3c b3 4e 13 3e d7 7f 81 3e
       0.15812266 0.029276598 0.1438549 0.25292847
000130 02 68 99 3b 17 e3 02 3e ba 32 4d bd 06 21 8d bd
       0.004681588 0.1278194 -0.050097205 -0.06891064
000140 92 00 75 bd ad 9d ca 3d 9e 3e d2 be 6d da 0f 3e
       -0.059814997 0.098933555 -0.41063398 0.14048167
000150 ac 9a 0d 3e 15 e7 97 bd 85 e5 2b 3e b9 60 37 be
       0.13828534 -0.07417122 0.16786774 -0.1790799
000160 22 09 fb be a5 05 f1 3d 68 f1 fc bc 50 9e 0f be
       -0.49030405 0.11768655 -0.03087683 -0.14025235
000170 6c 57 38 3e f5 da 81 bd 10 92 d7 bd 07 84 68 be
       0.18002099 -0.06340591 -0.10525906 -0.22706614
000180 de b5 c8 3e 4e 92 85 3e cc 60 02 3a 72 19 a1 bc
       0.39201254 0.26088184 0.00049735303 -0.019665454
000190 a7 65 b9 bc f4 3c 02 bd ab c9 22 bd cd e1 90 3e
       -0.02263148 -0.03179641 -0.039743107 0.28297272
0001a0 5c da 33 3e 69 75 e3 3b 99 68 3f 3e 3a 40 c5 be
       0.17563766 0.0069414866 0.18692245 -0.38525563
0001b0 07 67 16 be bc 60 7c be e4 b5 21 be d2 1a 04 be
       -0.1468774 -0.24646276 -0.15792042 -0.12900856
0001c0 cf 7f f9 3d ce 30 94 be c2 f5 8e 3e 22 c0 5b be
       0.12182581 -0.28943485 0.27921873 -0.21460012
0001d0 a8 1b b4 bd 77 96 7c be a4 7b 56 bf c3 54 81 3d
       -0.087943375 -0.24666773 -0.8378241 0.06314995
0001e0 67 e3 ac bd 2b 58 94 bd 89 33 b7 bd fb db 1d 3e
       -0.08441811 -0.07243379 -0.089453764 0.15415947
0001f0 a8 64 a8 3d 84 54 4e 3e 57 38 ff 3c 20 78 80 3e
       0.08222324 0.20149428 0.031154795 0.25091648
000200 57 fe e9 3e 3f e1 a1 3d f8 c7 3d bd d8 76 1d 3e
       0.45701858 0.079042904 -0.046333283 0.15377367
000210 a2 20 4d 3e e1 d3 40 3e e3 da ad be ce a9 af 3e
       0.2003198 0.18830825 -0.3395606 0.34309238
000220 7c 48 79 3c d0 e7 8a 3e 5b d9 fb 3b 47 cd 7d be
       0.0152150355 0.27129984 0.007685823 -0.24785338
000230 30 9a 33 be df d9 8d 3d 54 21 69 3e 44 73 15 3e
       -0.17539287 0.06926321 0.2276662 0.14594752
000240 84 bc 84 be eb 99 47 bf d6 0b 2d be 4f 1f 62 bf
       -0.25925076 -0.77969235 -0.16899046 -0.88329023
000250 8a 96 72 be 92 05 d3 bd 82 93 84 be 22 72 35 bf
       -0.23690239 -0.10303797 -0.2589379 -0.7087728
000260 eb 1a a9 3e e4 f0 9e be 89 8e 30 3e 89 1d 50 3e
       0.3302835 -0.3104316 0.17241873 0.20323767
000270 ac 7c d8 3d 1e c3 38 3e f2 5d 7f be 0e 46 14 bf
       0.10570654 0.18043181 -0.24938181 -0.57919395
000280 ea 7b 31 be 0d ea 02 3e 0f 60 e4 3c 9d 89 e0 be
       -0.17332426 0.12784596 0.027877836 -0.4385499
000290 12 27 72 3d 36 4c 14 be a2 cd 72 bc 6b a5 97 3e
       0.05911929 -0.14482197 -0.0148195345 0.2961839
0002a0 93 63 0d 3d ef 65 d4 3e 92 f3 01 bb 17 13 27 bc
       0.03451879 0.4148402 -0.0019829017 -0.0101974225
0002b0 37 54 03 be c5 55 34 3e c8 86 16 3e 8e a8 ad 3d
       -0.12825094 0.17610843 0.14699852 0.08479415
0002c0 8a ba e5 bd 87 6c c9 be ea 17 66 be c0 00 a5 3d
       -0.1121722 -0.39340612 -0.2247006 0.08056784
0002d0 91 b1 f3 be 9b 54 55 be 53 29 29 3e ad 3a 29 3e
       -0.4759641 -0.20833056 0.1651967 0.1652629
0002e0 8b 8e 17 3e 56 4d d1 3d 9e 39 50 bd fb 9d 18 3e
       0.1480047 0.10219829 -0.050836198 0.14904015
0002f0 73 59 0e 3e 5c 68 95 3e 1b 06 83 be 11 8a 92 3d
       0.1390131 0.29181182 -0.25590596 0.0715524
000300 42 81 96 3d 48 19 45 3d 7b dd cd bd 03 98 46 3d
       0.07348873 0.048119813 -0.1005201 0.048484813
000310 d2 49 0b 3d f6 e5 e8 3c 1b 5a aa be 0f 12 d0 bd
       0.034005947 0.028429966 -0.3327187 -0.101596944
000320 b0 f2 ef bd a7 8c a8 bd 9f ce 7b 3e f9 5b 4f c0
       -0.11716211 -0.08229952 0.24590538 -3.2399886
000330 90 cc 5e bd ab 92 49 be 69 fa a5 be 10 4d 97 3c
       -0.054394305 -0.19684856 -0.3241761 0.018469363
000340 04 72 4a 3d 93 69 85 3d eb 68 8e 3d ef ae 2a bc
       0.04942514 0.06514277 0.06953605 -0.010417684
000350 ec ec d2 be dd bd f0 3d 1e 41 50 bd d1 b4 c7 be
       -0.41196382 0.117549635 -0.05084335 -0.3900514
000360 a3 9c f7 3d ab 01 5c 3e 85 84 db bd f3 e3 9e 3e
       0.12090423 0.21485011 -0.107186355 0.31033286
000370 da 95 3b 3d e7 bf 7c 3e d1 ff c0 be 05 e3 6d be
       0.045797206 0.2468258 -0.37695172 -0.23231132
000380 e4 b1 f7 bd ce 9b 79 3e 65 56 d9 bf 9a b7 86 bc
       -0.12094477 0.24375841 -1.697949 -0.01644497
000390 9e e3 0c bc 5d b3 5b bd 2a 97 d0 bc 9a 3a 1f be
       -0.00859919 -0.05363785 -0.025462706 -0.15549698
0003a0 88 c9 c5 3e 87 9c 4c be 65 e2 f2 bd af 11 0e bd
       0.3863032 -0.19981585 -0.118595876 -0.034684833
0003b0 4b bf 2e 3e 64 6f 6b be 89 2e de 3d 73 86 1b 3e
       0.1706516 -0.22991711 0.108487196 0.15188007
0003c0 b0 76 e3 3d f8 93 a1 3d 48 76 6e 3d 54 ea d4 3c
       0.11106622 0.07889551 0.05821827 0.025990643
0003d0 6a 02 24 3d f1 b3 d6 bd 72 19 44 be bf 3c 19 3e
       0.040041365 -0.1048354 -0.19150332 0.14964579
0003e0 63 07 28 3e d6 06 1f 3d aa 4a 61 3e de fb 92 bb
       0.16409068 0.03882488 0.22001138 -0.0044855913
0003f0 01 92 7f bc 76 2f 0f 3e 37 08 01 3c b7 f2 93 bd
       -0.015598775 0.13982949 0.007875494 -0.072240286

actor.2.bias f4 [32]
000000 73 87 01 3e a9 d8 8b be 96 38 95 3e 9f 47 ba bb
       0.12649326 -0.27313736 0.29144734 -0.0056848074
000010 7f 39 a4 be 11 c4 74 3e a9 18 8a 3c 45 d3 0f 3b
       -0.32075116 0.23902918 0.016857462 0.0021945995
000020 32 a7 b7 be ec 8c 18 3e 53 9c 02 3e 31 e2 07 3d
       -0.35869747 0.14897507 0.12754945 0.033174697
000030 7f b3 0f be fd 09 6b 3e c3 23 64 be f4 0c b0 3d
       -0.14033316 0.22953029 -0.22279267 0.085962206
000040 9c 3a 19 be ca b1 6c bd 4c 5f 2c be 29 cb fa bd
       -0.14963764 -0.05778674 -0.16833228 -0.12245781
000050 13 3e 63 3e 58 e2 44 3e 47 59 37 bd 39 dd 41 bd
       0.22191648 0.19226968 -0.044762876 -0.047330115
000060 1b ef 1c 3e 18 ef c1 bd 2a fb a9 bd 20 05 15 3d
       0.15325586 -0.09469432 -0.08299859 0.03638184
000070 07 f9 82 bd 57 4d 8d bd cb c4 4f 3e 50 fa f5 3c
       -0.063951544 -0.06899517 0.20289914 0.030026585

actor.4.weight f4 [2, 32]
000000 8a 41 46 3e 88 cb 0d bd 6c 8a 81 3d c9 a2 fc 3e
       0.19360939 -0.03461793 0.0632523 0.49342945
000010 e5 27 b0 3c 4b 3c 72 be f7 5c e4 3e 21 37 28 3e
       0.021503398 -0.23655812 0.44602177 0.1642728
000020 73 8e 20 bd 05 70 db 3d f4 3d 74 be 9f e4 58 bf
       -0.03919835 0.107147254 -0.23851758 -0.8472385
000030 9d 1b 2b 3e f5 94 2a 3e 29 0b 59 3e d2 bb 78 be
       0.16709752 0.16658385 0.21195664 -0.24290398
000040 50 06 b5 bd 22 1b 64 be b7 2a 2d 3e bc e5 a0 3e
       -0.08839095 -0.22275975 0.16910826 0.31425273
000050 7f a7 9c be 33 96 d0 be eb a7 bf 3e 03 ad 43 bb
       -0.3059654 -0.40739593 0.374328 -0.0029857762
000060 84 9f 9c be d1 1f 8f 3e 26 44 ba ba 25 46 e8 bd
       -0.3059045 0.27953961 -0.0014210984 -0.11341504
000070 d3 13 e8 be c5 b2 8b bd d2 36 44 3e 38 db 69 3e
       -0.45327625 -0.06821207 0.19161537 0.22837532
000080 53 06 65 be c8 b0 9c be fc 55 b2 3e 58 1a 55 be
       -0.22365694 -0.30603623 0.34831226 -0.2081083
000090 d5 0a a2 bf 04 62 77 3d cf 23 ae bf 5d 26 9a 3e
       -1.2659556 0.06039621 -1.3604678 0.30107394
0000a0 f9 48 47 bf eb 9b 81 3e 8c a6 84 3e 4c 7c 91 3f
       -0.7784572 0.25314268 0.25908315 1.1366057
0000b0 a1 8d ee bc 6f 60 da 3e 54 fb 4d be da ae 2c 3e
       -0.029120268 0.42651698 -0.20115405 0.16863576
0000c0 2d 7f 9a be 80 8f de 3e ef 09 a4 bd 86 c0 ba 3e
       -0.30175152 0.43468857 -0.08009707 0.3647501
0000d0 c9 82 da bc f9 e9 0d 3d e6 09 b3 3e ad 5c 07 bf
       -0.026673691 0.03464696 0.3496849 -0.52875787
0000e0 00 f0 4a 3e e9 05 9a 3e 75 88 e5 3e a2 72 35 bd
       0.19818115 0.30082634 0.4483067 -0.044298775
0000f0 0d 1a 89 3e 19 47 e7 be 0d f0 93 3e b5 f5 30 bf
       0.26777688 -0.4517143 0.28894082 -0.6912492

actor.4.bias f4 [2]
000000 cb 0b 9e 3d 4e 17 80 bd
       0.07717093 -0.06254445
