results/SandingEnvEasy/ddpg/model/model_parameters_1.pt (torch, 30018 bytes, 22 tensors)

value.0.weight f4 [32, 8]
0	0x3e2dc7dc	0.16970772
1	0xbe4428e5	-0.19156225
2	0xbd9858ca	-0.0743881
3	0xbd822fc3	-0.06356766
4	0xbeacda0c	-0.33760107
5	0x3e8d31de	0.27577108
6	0xbfb466f7	-1.4093922
7	0x3f5add63	0.8549406
8	0xba3fa93e	-0.0007311291
9	0x3ba672b6	0.0050795926
10	0x3e7e172d	0.24813528
11	0x3e5c66cf	0.21523593
12	0x3de07e23	0.10961559
13	0xbde76f4b	-0.11300524
14	0xbe96f993	-0.29487285
15	0xbccb687d	-0.024830097
16	0x3da33b95	0.07970349
17	0x3b9f57f2	0.004862779
18	0x3e85ef12	0.2615896
19	0xbe4abd25	-0.19798715
20	0x3d469fea	0.04849235
21	0x3e13f916	0.14450487
22	0x3e98888d	0.2979168
23	0x3e833810	0.2562871
24	0xbdc4e47a	-0.09613891
25	0xbe20d189	-0.15704931
26	0x3e1cec43	0.15324502
27	0x3e0611c1	0.1309271
28	0x3cb10c81	0.021612408
29	0x3e11a532	0.14223173
30	0xbf830117	-1.0234708
31	0xbe767e98	-0.24071729
32	0x3e2bbd1d	0.1677136
33	0x3e231b01	0.1592827
34	0xbe3d61ca	-0.18494335
35	0x3e15c0bd	0.14624305
36	0x3d8d49cc	0.06898841
37	0xbe492ad0	-0.19645238
38	0xbfe82337	-1.8135747
39	0x3f70c29a	0.9404694
40	0x3de37268	0.11105806
41	0x3e374919	0.17898978
42	0x3e3709ff	0.17874907
43	0xbdad76c6	-0.0846992
44	0x3e3765d1	0.17909934
45	0xbe4f112d	-0.20221396
46	0x3fd75d16	1.6825283
47	0xbf734656	-0.950292
48	0xbe166050	-0.14685178
49	0xbbc94199	-0.006141853
50	0xbce4496c	-0.027867042
51	0xbd8bacfd	-0.06820104
52	0xbdb6431f	-0.08899521
53	0x3e80771c	0.25090873
54	0xbfa78d7b	-1.3090051
55	0xbfaf5698	-1.3698301
56	0x3e487b92	0.19578388
57	0xbdb3763a	-0.08762784
58	0x3e220aca	0.15824428
59	0x3d04fe44	0.03246905
60	0x3e1ee117	0.15515552
61	0xbe3ccdbf	-0.18437861
62	0x3ef2fae7	0.47457048
63	0x3f78dbbd	0.97210294
64	0xbe142827	-0.14468442
65	0x3e10b632	0.14132002
66	0xbe5dfaa4	-0.21677643
67	0xbdc10ba8	-0.094260514
68	0x3e783349	0.24238314
69	0xbeaea5fd	-0.34111014
70	0x3e63f88f	0.22262786
71	0x3df8a597	0.12140959
72	0xbe5f8f87	-0.21832095
73	0xbe4f588b	-0.2024862
74	0x3ced802c	0.028991781
75	0x3e2505df	0.16115521
76	0x3e4b347b	0.19844238
77	0xbda019dc	-0.07817432
78	0x3e782e39	0.24236383
79	0x3f29f18a	0.66384184
80	0xbe85348f	-0.26016662
81	0x3ea57418	0.32315135
82	0x3df550f2	0.1197833
83	0x3db735b1	0.08945788
84	0x3e96f222	0.29481608
85	0xbdc06ced	-0.09395776
86	0xbff5d849	-1.920663
87	0xbe5c5233	-0.21515732
88	0x3e80dda2	0.25169092
89	0xbe193c15	-0.14964326
90	0xbe50c00a	-0.20385757
91	0x3db9001b	0.09033223
92	0x3d66634d	0.056247044
93	0x3e8c312d	0.27381268
94	0xbfe88d36	-1.8168094
95	0xbf7624e3	-0.96150035
96	0xbd53486b	-0.051582735
97	0x3d5081e3	0.05090512
98	0xbe1dc256	-0.15406165
99	0xbd8309a5	-0.06398324
100	0x3e645a5d	0.22300096
101	0xbd9867af	-0.07441651
102	0x3e79f847	0.24411117
103	0xbce83dd0	-0.028349787
104	0x3c24dabe	0.010061918
105	0x3e14006c	0.14453286
106	0x3cc833e8	0.024438813
107	0xbe9b91b3	-0.30384597
108	0x3d85de4b	0.0653654
109	0xbc841c5b	-0.016126802
110	0x3dbd9520	0.09256959
111	0xbf051a16	-0.5199293
112	0x3dbd257a	0.09235664
113	0x3b9f10b9	0.0048542884
114	0xbe9d8b52	-0.30770355
115	0x3e64fd7d	0.22362323
116	0x3e781395	0.2422622
117	0x3e38078d	0.1797163
118	0xbf571e7a	-0.8403088
119	0xbf7e9b37	-0.9945559
120	0x3e90a900	0.28253937
121	0xbe0e4df9	-0.13896932
122	0xbeb0dc92	-0.34543282
123	0x3cc237ab	0.023708185
124	0x3e701e53	0.23449068
125	0xbd0a350c	-0.033741996
126	0xbca9f94a	-0.020748753
127	0x3ea698ee	0.3253855
128	0x3e2174f3	0.15767269
129	0x3d2fe644	0.042944208
130	0xbc9232f5	-0.017846564
131	0xbe55c1f0	-0.20874763
132	0x3d82cf13	0.063871525
133	0xbe818460	-0.25296307
134	0xbf20f553	-0.62874335
135	0x3ec9c21e	0.39405912
136	0xbad7a4b9	-0.001645229
137	0x3e8100e7	0.25196
138	0xbe468ac3	-0.19388871
139	0xbc4b56e4	-0.012410853
140	0x3e92e6a1	0.2869158
141	0x3e49319e	0.19647834
142	0xbf2257d8	-0.6341529
143	0xbf53dd9f	-0.8276004
144	0xbc2f8b16	-0.010714313
145	0x3e492962	0.19644693
146	0xbd643a5f	-0.05571973
147	0xbe7ffbc2	-0.24998382
148	0x3def0052	0.11669983
149	0x3eba6807	0.36407492
150	0xbdde32b5	-0.10849515
151	0xbef0801a	-0.46972734
152	0x3dd42a94	0.10359684
153	0x3de7e144	0.11322263
154	0xbe56f4c5	-0.2099181
155	0xbe5fa17f	-0.2183895
156	0x3cd8f14e	0.02648225
157	0x3e7fcab5	0.2497967
158	0xc0124c4c	-2.2859068
159	0xbfa74a00	-1.3069458
160	0x3d5cfc66	0.053951643
161	0xbc8ca8f8	-0.017170414
162	0x3e681aaf	0.22666429
163	0x3e11ff64	0.1425758
164	0xbd9f8395	-0.07788769
165	0xbe528071	-0.20556809
166	0x3f311d08	0.69184923
167	0xbf02a327	-0.510302
168	0xbcbde2e9	-0.023179488
169	0xbde75f31	-0.11297453
170	0x3d2c2a3c	0.042032465
171	0x3e558540	0.20851612
172	0x3dd79653	0.10526719
173	0x3e398062	0.1811538
174	0x3ed4fced	0.41599217
175	0x3efd5b6c	0.49483812
176	0x3dc3f674	0.095684916
177	0xbe222b5f	-0.15836857
178	0xbdf9241e	-0.12165092
179	0xbdd106bd	-0.10206363
180	0x3e6aa811	0.22915675
181	0x3e149b0b	0.14512269
182	0x3f74f1b6	0.9568132
183	0xbfab58b6	-1.3386447
184	0xbd8a5aff	-0.067556374
185	0xbd0d334b	-0.034472745
186	0xbc4a5728	-0.012349881
187	0x3da8f481	0.082497604
188	0xbe59c8eb	-0.2126805
189	0x3e8c1229	0.27357605
190	0xbec674e6	-0.3876106
191	0xc0047131	-2.0694087
192	0xbd9117f5	-0.070846476
193	0x3e871f31	0.26390985
194	0xbe91d182	-0.28480154
195	0xbdc8efcb	-0.09811362
196	0x3e0a3d7a	0.13500014
197	0xbb4bdf42	-0.0031108414
198	0x400d763e	2.210342
199	0x3fb89aa8	1.4422197
200	0x3ca194e7	0.019724322
201	0x3e32c9e9	0.17459835
202	0x3d4a400a	0.04937748
203	0x3d677b62	0.05651415
204	0xbdee1c57	-0.11626499
205	0xbe7e76a7	-0.2484995
206	0x3f803c13	1.0018333
207	0x3fd41a8e	1.6570604
208	0x3e6ecf18	0.23321187
209	0x3e7fe606	0.2499009
210	0x3d99e2c6	0.07513957
211	0x3dd448b7	0.10365432
212	0xbd9ebc77	-0.077507906
213	0x3eaf07a4	0.34185517
214	0xbff61f5d	-1.9228321
215	0xbe44eee2	-0.19231752
216	0x3d931f47	0.071837
217	0xbde7e4e9	-0.11322958
218	0xbd2f1971	-0.042748872
219	0xbce002fc	-0.027345173
220	0x3e4be4eb	0.19911544
221	0xbe0dc85d	-0.13845964
222	0x401604e8	2.3440495
223	0x3fb1a350	1.3877964
224	0x3d60866e	0.054815702
225	0x3e9de5e9	0.3083947
226	0xbd3bf35c	-0.045886382
227	0xbe9721ac	-0.29517877
228	0x3dec3e09	0.1153527
229	0xbe5716c0	-0.21004772
230	0x3f46369b	0.7742707
231	0x400b9c2f	2.1814077
232	0xbe08ae81	-0.13347818
233	0x3cc09695	0.023509303
234	0x3c2fd4e8	0.010731913
235	0x3b5694a7	0.0032742412
236	0x3da22f7f	0.079192154
237	0x3e9c4ee3	0.30528936
238	0xbf7444c2	-0.95417416
239	0x3f771f44	0.9653208
240	0x3d9962f9	0.07489581
241	0x3def74c6	0.11692195
242	0xbdbfc33e	-0.09363411
243	0x3e39c1ce	0.18140337
244	0x3eafa743	0.34307298
245	0xbe141133	-0.14459686
246	0x4036e986	2.8580031
247	0x3d0e8238	0.034792155
248	0xbe0edf15	-0.13952287
249	0x3c2796bf	0.010228812
250	0xbd96ff95	-0.07372967
251	0x3db644ac	0.08899817
252	0xbddfcda1	-0.109278925
253	0xbe682b72	-0.22672823
254	0xbf8bb40a	-1.0914319
255	0x3ea45d87	0.32102606

value.0.bias f4 [32]
0	0x3d8ea278	0.06964582
1	0xbe4cbb36	-0.1999329
2	0xbd290bbf	-0.041270968
3	0xbdb92a00	-0.09041214
4	0x3e33b518	0.1754955
5	0xbf290818	-0.66027975
6	0x3e63e406	0.22254953
7	0x3c729124	0.014805112
8	0xbe99f9a3	-0.3007327
9	0x3dcff8cf	0.10154878
10	0x3eea3974	0.45746958
11	0xbf069fc2	-0.5258752
12	0x3f053932	0.520404
13	0x3dd78027	0.1052249
14	0xbdaf3dce	-0.0855671
15	0x3e8a910a	0.2706378
16	0xbe52283e	-0.20523164
17	0x3e1bc442	0.15211585
18	0x3e2bab97	0.16764675
19	0xbdaa89bc	-0.08327052
20	0xbef52862	-0.47882372
21	0x3ed1eaa9	0.40999344
22	0xbe9d66c9	-0.3074248
23	0xbed8eb94	-0.42367232
24	0xbc8ff5c7	-0.01757325
25	0x3d9dd45b	0.07706519
26	0xbd25c194	-0.040467814
27	0x3e9d8e05	0.30772415
28	0xbe65f8be	-0.22458169
29	0x3e21715e	0.15765902
30	0x3e2e1158	0.16998804
31	0x3ea98627	0.33110163

value.2.weight f4 [32, 32]
0	0xbc9f1ad1	-0.019421967
1	0x3d442f97	0.047896948
2	0x3e1f8fc8	0.15582192
3	0xbd79776a	-0.060904898
4	0x3df41d7b	0.119196855
5	0x3e383c27	0.17991696
6	0x3d5a8c9d	0.053356756
7	0xbe33290e	-0.1749613
8	0x3cec63ba	0.028856147
9	0xbcc1a3fe	-0.023637768
10	0xbb8aa255	-0.0042307773
11	0x3e11d780	0.14242363
12	0xbcf1eb9f	-0.029531298
13	0xbe1a860e	-0.150902
14	0x3d6edf3a	0.058318354
15	0x3da5047d	0.08057497
16	0x3c8c10b4	0.017097808
17	0xbe1143e7	-0.14186059
18	0x3d932caf	0.07186257
19	0x3e4a16e2	0.19735292
20	0xbe3eda10	-0.18637872
21	0xbe0c6e86	-0.13714036
22	0xbd61b8d1	-0.055107895
23	0x3e019131	0.12653042
24	0xbdcd10b9	-0.10012955
25	0x3e04ff15	0.12987931
26	0xbd077efa	-0.03308008
27	0xbd1d27fe	-0.038368218
28	0xbd177a68	-0.03698197
29	0xbe588395	-0.21143945
30	0x3e3a266c	0.1817872
31	0x3df9defd	0.12200735
32	0xbe4efb26	-0.20212993
33	0x3c5b19be	0.013372837
34	0x3e04c957	0.1296743
35	0xbe09c188	-0.13452733
36	0xbe0a9c58	-0.13536203
37	0xbd040276	-0.03222891
38	0xbe4d1a65	-0.200296
39	0xbe42ab3d	-0.19010635
40	0x3c800198	0.01562576
41	0x3dc54411	0.09632123
42	0xbdc49e60	-0.0960052
43	0x3d75a4c4	0.059971586
44	0x3e16b417	0.14717136
45	0x3ca6dc75	0.020368794
46	0x3ddc770b	0.10764893
47	0x3e111413	0.14167814
48	0xbe1c3912	-0.15256146
49	0xbd14ba5d	-0.036310542
50	0xbdce84c5	-0.100839175
51	0xbb27cfaa	-0.0025605955
52	0x3d9f5c66	0.077812955
53	0x3e20cc14	0.1570285
54	0x3d30c0bd	0.04315256
55	0xbe4f5554	-0.20247394
56	0xbd3f12c4	-0.046648756
57	0x3d49abcd	0.049236108
58	0x3e5533c3	0.20820527
59	0x3e027e51	0.12743498
60	0x39b4511f	0.00034392715
61	0x3e08b561	0.1335044
62	0xbe191ec5	-0.14953144
63	0xbda3950e	-0.07987414
64	0x3e11adac	0.14226407
65	0x3e1f50a4	0.15558106
66	0xbd03c525	-0.032170434
67	0xbe02cb51	-0.12772872
68	0xbd807f28	-0.06274253
69	0xbe47a68e	-0.1949713
70	0x3d6be09c	0.05758725
71	0xbdd05b4a	-0.10173662
72	0xbd86c77a	-0.06581016
73	0xbe11d16b	-0.14240043
74	0x3d54eaf7	0.051981892
75	0x3dd2d70b	0.102949224
76	0xbd0438cd	-0.032280732
77	0xbe04c665	-0.12966307
78	0xbd5dacb7	-0.05411979
79	0xbdc21069	-0.09475786
80	0xbd4f7cd9	-0.050656173
81	0x3e0974d9	0.1342348
82	0x3e65473e	0.22390458
83	0x3dc93ae8	0.098256886
84	0x3d317863	0.0433277
85	0xbc68844a	-0.014191696
86	0x3e163667	0.1466919
87	0x3e495425	0.19661005
88	0x3e268928	0.16263258
89	0x3e0d05d0	0.13771749
90	0xbdab0acc	-0.08351669
91	0xbe0171df	-0.12641095
92	0xbd7f24b6	-0.06229087
93	0x3c303e80	0.010757089
94	0xbd99e5b6	-0.07514517
95	0xbdb68fb5	-0.08914129
96	0xbe6d4d9b	-0.23174135
97	0xb950deb0	-0.00019919383
98	0x3ca3a5f6	0.019976597
99	0xbbbfebcd	-0.005856967
100	0xbd1bd7ab	-0.038047474
101	0x3d142ae9	0.036173735
102	0xbe766de9	-0.24065365
103	0xbe3ca632	-0.18422773
104	0x3d774d4d	0.060376454
105	0x3d8a3cd9	0.06749887
106	0x3dc23610	0.09482968
107	0xbf00abe7	-0.502623
108	0x3dab75cf	0.083720796
109	0x3b661316	0.003510659
110	0xbc495316	-0.012287876
111	0x3ea7c1ac	0.32764947
112	0xbf7d4a39	-0.9894138
113	0x3d470f5a	0.048598625
114	0x3c7d9d5f	0.015479415
115	0x3d3e1083	0.046402466
116	0xbcebf0a5	-0.028801272
117	0xbd0e1b63	-0.034694087
118	0xbe8ec24d	-0.27882615
119	0xbde05b31	-0.109548934
120	0xbd874d6f	-0.06606566
121	0xbdb0d781	-0.08634854
122	0xbcd84ec5	-0.026404748
123	0x3f07e42c	0.5308254
124	0xbdd020f0	-0.10162532
125	0x3daa3e32	0.08312644
126	0x3db7a3da	0.08966799
127	0xbda43770	-0.08018386
128	0xbc4d88dd	-0.012544838
129	0x3cc6cad0	0.02426663
130	0xbd20eea8	-0.0392901
131	0xbc9ac235	-0.018891433
132	0xbc3eeef4	-0.011653651
133	0xbd118f9b	-0.035537343
134	0xbbed06e8	-0.0072334893
135	0xbe5006e8	-0.20315135
136	0x3d902316	0.07037942
137	0x3dd65900	0.10466194
138	0xbd152aff	-0.036417957
139	0x3de4bcb7	0.11168807
140	0xbdc3a559	-0.09553022
141	0x3d310926	0.043221615
142	0x3e563f8e	0.20922682
143	0xbddaf2cf	-0.10690843
144	0xbda4cc87	-0.08046823
145	0x3d1204c3	0.035649072
146	0xbdf36b84	-0.11885741
147	0x3e55c7a1	0.20876934
148	0x3dee446a	0.11634143
149	0xbe52d4da	-0.20589009
150	0x3c177456	0.009244045
151	0x3da1574e	0.0787798
152	0xbe670086	-0.22558793
153	0x3d99bd10	0.07506764
154	0x3dc21b85	0.09477905
155	0xbea4b14f	-0.32166526
156	0x3e12f586	0.14351472
157	0x3dd2c895	0.10292164
158	0xbeca7860	-0.39544964
159	0xbe08207d	-0.13293643
160	0xbe0d3241	-0.13788702
161	0x3e678794	0.22610313
162	0x3df3c656	0.11903064
163	0xbdb89fc9	-0.090148516
164	0xbe8e9345	-0.27846733
165	0xbd1140b3	-0.035462093
166	0xbe850afe	-0.2598495
167	0x3d6333f4	0.05546947
168	0xbd67aa78	-0.056559056
169	0x3e0363a5	0.1283098
170	0x3dde3cbb	0.10851427
171	0x3e15e2b3	0.1463726
172	0xbdf0f63a	-0.11765714
173	0xbdfe41f9	-0.12414927
174	0x3e41f212	0.18939999
175	0x3ad4ea3d	0.0016244125
176	0x3d84f0c6	0.064912364
177	0x3d6eb40b	0.05827717
178	0xbd875c93	-0.06609454
179	0xbe74a2e5	-0.23890264
180	0x3cbed8e5	0.023296783
181	0x3e63e29a	0.2225441
182	0xbd9eec97	-0.0775997
183	0x3db4d375	0.08829395
184	0xbcdec0d9	-0.027191566
185	0x3e04d089	0.12970175
186	0x3d29c214	0.041444853
187	0xbd6fe024	-0.058563367
188	0x3dc2ae8e	0.0950595
189	0x3ca2f76d	0.019893372
190	0xbd698ac7	-0.057017114
191	0xbe10d026	-0.14141902
192	0x3e2cccc9	0.16874994
193	0x3db965dc	0.09052631
194	0x3d838e51	0.06423629
195	0x3c94c9b1	0.01816258
196	0x3e1f614e	0.15564463
197	0x3e2480f0	0.16064811
198	0xbd579b4d	-0.05263834
199	0x3d7914b5	0.060810763
200	0xbd202469	-0.039097223
201	0xbe00cbde	-0.12577769
202	0x3e0aa6ad	0.13540144
203	0xbda7f6bd	-0.082013585
204	0x3dd5d902	0.104417816
205	0xbd89cbbb	-0.06728312
206	0x3d8ad8d8	0.06779641
207	0xbc41aac9	-0.0118205035
208	0x3cf8fbe9	0.030393558
209	0x3e284260	0.1643157
210	0xbd8462cf	-0.06464159
211	0x3e2ac538	0.16676795
212	0x3de2a14d	0.11065922
213	0xbd9febb8	-0.07808632
214	0xbe6c4431	-0.23072888
215	0x3e39ff23	0.18163733
216	0xbdcd79c9	-0.10032994
217	0xbe238d77	-0.15971933
218	0x3e6fd22a	0.23420015
219	0xbe5995d1	-0.21248557
220	0xbe103963	-0.14084391
221	0x3d95839d	0.07300494
222	0x3c012a5d	0.007883635
223	0xbd863a31	-0.06554068
224	0xbd6b36b4	-0.057425216
225	0xbe105bf9	-0.14097585
226	0x3cf74564	0.030184455
227	0xbd587a0d	-0.05285077
228	0xbe008f36	-0.1255463
229	0x3e19d8bb	0.15024082
230	0x3e131633	0.14363937
231	0x3e336875	0.17520316
232	0xbe4fad24	-0.20280892
233	0xbca6e9c4	-0.02037514
234	0x3db3e238	0.08783382
235	0xbd91622b	-0.07098802
236	0xbe1ded1e	-0.15422484
237	0xbe804e42	-0.25059706
238	0x3d965676	0.0734071
239	0x3db7b381	0.089697845
240	0x3d3708e8	0.044686228
241	0xba5e7488	-0.00084859924
242	0x3dec7d9d	0.11547396
243	0xbe6bb6f7	-0.23019014
244	0x3b7b1670	0.0038312934
245	0xbdc575f9	-0.09641642
246	0x3daff9f1	0.085925944
247	0x3e6b6a5c	0.22989792
248	0x3cf1d7c4	0.02952183
249	0x3db4ffb2	0.088378325
250	0xbe3814ef	-0.17976736
251	0x3cc4b518	0.024012133
252	0x3cbd0103	0.023071771
253	0xbe099e8d	-0.13439389
254	0x3e2f6f9a	0.17132416
255	0xbdabe224	-0.08392742

value.2.bias f4 [32]
0	0xbe9bf2c0	-0.3045864
1	0xbed69058	-0.41907
2	0xbd4dc318	-0.050234884
3	0x3dd5d943	0.1044183
4	0xbed27d26	-0.41111106
5	0x3e3a9f21	0.18224765
6	0xbe2e0f90	-0.16998124
7	0x3d4c3818	0.049858183
8	0xbe24c670	-0.16091323
9	0x3ed6a8cf	0.41925666
10	0x3e82cf31	0.255487
11	0x3d1c6487	0.038181808
12	0x3d2cc824	0.042183056
13	0x3e868be0	0.2627859
14	0xbda81c3d	-0.08208511
15	0x3d1efad5	0.03881343
16	0x3e7e32f9	0.24824132
17	0x3dcb7bd0	0.09935725
18	0x3dfac5a8	0.12244731
19	0x3e325aef	0.17417501
20	0xbe1ff748	-0.15621674
21	0x3d4fd8ab	0.05074374
22	0x3ec14c3c	0.37753475
23	0xbdb1cf96	-0.08682172
24	0xbe906be7	-0.28207323
25	0xbc5a4af6	-0.013323536
26	0xbda6caae	-0.08144127
27	0xbe98bde0	-0.29832363
28	0x3de54525	0.11194829
29	0x3e588ad4	0.21146709
30	0xbd86d540	-0.06583643
31	0xbe58beac	-0.21166486

value.4.weight f4 [1, 32]
0	0xbd56fe83	-0.052488815
1	0xbdb49970	-0.088183284
2	0xbd1a1924	-0.037621632
3	0xbe979ff0	-0.2961421
4	0xbd5abdac	-0.05340354
5	0x3d5e9e33	0.05435009
6	0xbd41877d	-0.047248352
7	0xbdb50b1a	-0.08840008
8	0xbdb426f7	-0.087964945
9	0x3d8dab35	0.06917421
10	0x3d1cbf92	0.038268633
11	0x3d94ecb0	0.07271707
12	0xbd97e2b9	-0.07416291
13	0x3dda9521	0.10672975
14	0x3d34c665	0.044134516
15	0xbd3125ba	-0.04324887
16	0x3cb03a34	0.021512128
17	0xbdbfb585	-0.09360794
18	0x3ce05fb7	0.02738939
19	0x3d699924	0.057030812
20	0x3d96f3f3	0.07370748
21	0x3d4f9900	0.05068302
22	0x3d4f6048	0.05062893
23	0x3de81108	0.113313735
24	0xbd9374ef	-0.07200038
25	0x3d4a0cf2	0.04932875
26	0xbd37bedd	-0.044859756
27	0xbe3c3dd1	-0.18382956
28	0xbd6ba0ec	-0.057526514
29	0x3dedfe8b	0.11620816
30	0xbe085f99	-0.13317718
31	0x3d693cf9	0.056942914

value.0.weight f4 [32, 8]
0	0x3e2de816	0.16983065
1	0xbe440981	-0.1914425
2	0xbd971db8	-0.07378715
3	0xbd806420	-0.06269097
4	0xbeac6761	-0.33672622
5	0x3e8da489	0.27664593
6	0xbfb45f6e	-1.4091623
7	0x3f5a369e	0.8523959
8	0x39ec293b	0.00045044147
9	0x3b95409c	0.004554821
10	0x3e7db0e1	0.24774505
11	0x3e5c4ccf	0.21513675
12	0x3dde8436	0.10865061
13	0xbde96938	-0.11397022
14	0xbe9684d5	-0.29398218
15	0xbcccbc9c	-0.02499228
16	0x3da13a3d	0.07872436
17	0x3b5e7218	0.0033942517
18	0x3e862420	0.26199436
19	0xbe4b3dfc	-0.19847864
20	0x3d3fecb6	0.046856605
21	0x3e124c4a	0.14286914
22	0x3e98a975	0.29816785
23	0x3e8348d3	0.25641498
24	0xbdc4b30a	-0.096044615
25	0xbe202348	-0.15638459
26	0x3e1bf31b	0.15229456
27	0x3e072984	0.1319943
28	0x3cafcb80	0.021459341
29	0x3e117d17	0.14207874
30	0xbf830803	-1.023682
31	0xbe7478e9	-0.23874249
32	0x3e2c74cc	0.1684143
33	0x3e2240cd	0.15845032
34	0xbe4152ac	-0.18879193
35	0x3e1604d5	0.14650281
36	0x3d8ffa42	0.07030155
37	0xbe47d299	-0.1951393
38	0xbfe7fb6b	-1.8123602
39	0x3f6f223f	0.9341163
40	0x3ddf5e22	0.10906626
41	0x3e39c463	0.18141322
42	0x3e35e995	0.17764886
43	0xbdabe531	-0.08393324
44	0x3e384455	0.17994817
45	0xbe4e32a9	-0.20136513
46	0x3fd7413a	1.681678
47	0xbf726cec	-0.9469745
48	0xbe16a1a8	-0.14710104
49	0xbb9ff3fc	-0.00488138
50	0xbce823f4	-0.028337456
51	0xbd89bd03	-0.06725504
52	0xbdb75664	-0.089520246
53	0x3e80324a	0.25038368
54	0xbfa78d71	-1.309004
55	0xbfaf50f2	-1.3696578
56	0x3e48541b	0.19563334
57	0xbdb42515	-0.08796135
58	0x3e231f3f	0.15929888
59	0x3cfe7a70	0.031064242
60	0x3e1ae928	0.15128005
61	0xbe40c5ae	-0.18825409
62	0x3ef1f900	0.47260284
63	0x3f789b65	0.97112113
64	0xbe134881	-0.14383127
65	0x3e117570	0.14204955
66	0xbe5e6e6b	-0.21721809
67	0xbdc0bada	-0.09410639
68	0x3e790f86	0.24322328
69	0xbeae37db	-0.3402699
70	0x3e64ea67	0.22355042
71	0x3df8560c	0.12125787
72	0xbe5ebc7e	-0.21751592
73	0xbe521b44	-0.20518214
74	0x3cf227c7	0.029559983
75	0x3e261133	0.16217498
76	0x3e47c372	0.1950815
77	0xbda6fc03	-0.08153536
78	0x3e77f0fa	0.24213019
79	0x3f29c422	0.663149
80	0xbe85d1e7	-0.26136705
81	0x3ea51ab4	0.32246935
82	0x3df4e2af	0.11957299
83	0x3db7da61	0.08977199
84	0x3e9686a0	0.29399586
85	0xbdc21b08	-0.09477812
86	0xbff5bc23	-1.919804
87	0xbe5a44b0	-0.21315265
88	0x3e80e444	0.25174153
89	0xbe1764d6	-0.1478456
90	0xbe4f8bb7	-0.2026814
91	0x3dba4068	0.09094316
92	0x3d62da74	0.055384114
93	0x3e8bc010	0.2729497
94	0xbfe912f9	-1.8208915
95	0xbf767d01	-0.9628449
96	0xbd526f86	-0.05137589
97	0x3d534477	0.051578965
98	0xbe1d6fc6	-0.1537467
99	0xbd84b7f3	-0.06480398
100	0x3e65ba53	0.22434358
101	0xbd95a7bf	-0.07307386
102	0x3e7d694c	0.24747199
103	0xbcecd76d	-0.028911317
104	0x3c23e785	0.010003929
105	0x3e133008	0.14373791
106	0x3ccf1ae3	0.025281375
107	0xbe9be533	-0.30448303
108	0x3d853fa5	0.0650628
109	0xbc8696ef	-0.016429393
110	0x3dbc8e0e	0.09206782
111	0xbf064f0c	-0.52464366
112	0x3dbe8378	0.093024194
113	0x3b8baf9a	0.0042628767
114	0xbe9dd398	-0.30825496
115	0x3e64bdb1	0.22337987
116	0x3e781331	0.24226071
117	0x3e380729	0.17971481
118	0xbf574d42	-0.8410226
119	0xbf7eaf7a	-0.99486506
120	0x3e901bb2	0.2814613
121	0xbe0efa21	-0.13962604
122	0xbeb115df	-0.34587
123	0x3cc4fac8	0.024045363
124	0x3e6fed81	0.23430444
125	0xbd0af862	-0.033928283
126	0xbc9568f6	-0.018238526
127	0x3ea76bed	0.32699528
128	0x3e21d7ab	0.15804927
129	0x3d285331	0.041094963
130	0xbc9718c0	-0.018444419
131	0xbe554a97	-0.20829235
132	0x3d78252a	0.060582317
133	0xbe833382	-0.25625235
134	0xbf20cca2	-0.62812245
135	0x3ecaaaf0	0.3958354
136	0x393bd538	0.0001791314
137	0x3e8161d3	0.25269946
138	0xbe469cfd	-0.19395824
139	0xbc526394	-0.012841124
140	0x3e92e63d	0.28691283
141	0x3e49313a	0.19647685
142	0xbf20d158	-0.62819433
143	0xbf53bbd0	-0.82708454
144	0xbc264d0b	-0.010150204
145	0x3e4a50af	0.19757341
146	0xbd658aa0	-0.056040406
147	0xbe7ed351	-0.24885298
148	0x3deeffee	0.116699085
149	0x3eba67a3	0.36407194
150	0xbddb9ef6	-0.10723679
151	0xbef01148	-0.46888185
152	0x3dd31a0b	0.10307702
153	0x3dea0dd9	0.114284225
154	0xbe57902c	-0.21051091
155	0xbe5f06b6	-0.21779904
156	0x3cb57f2b	0.022155365
157	0x3e7b5c73	0.24546985
158	0xc01233b8	-2.2844067
159	0xbfa72dd8	-1.3060865
160	0x3d63efa2	0.055648454
161	0xbc847830	-0.016170591
162	0x3e68c96e	0.2273309
163	0x3e123174	0.14276677
164	0xbd9f98f5	-0.07792846
165	0xbe528b18	-0.20560873
166	0x3f31a57c	0.69393134
167	0xbf01cb31	-0.5070067
168	0xbcaed42a	-0.021341402
169	0xbde2b169	-0.110689946
170	0x3d2444f0	0.040104806
171	0x3e588405	0.21144111
172	0x3dd79653	0.10526719
173	0x3e398062	0.1811538
174	0x3ed4fe3b	0.41600212
175	0x3effbe28	0.49949765
176	0x3dc7b7be	0.09751843
177	0xbe203712	-0.15646008
178	0xbdfb59af	-0.12272965
179	0xbdce6cb3	-0.100793265
180	0x3e670e95	0.22564156
181	0x3e11018f	0.14160751
182	0x3f73cc65	0.95233756
183	0xbfab5c7a	-1.3387597
184	0xbd890b7c	-0.066916436
185	0xbd0b7d44	-0.03405501
186	0xbc5c7667	-0.013455964
187	0x3da9f2df	0.08298277
188	0xbe599bbf	-0.21250819
189	0x3e8c28b9	0.2737482
190	0xbec8955b	-0.3917645
191	0xc0045eea	-2.068293
192	0xbd9419dc	-0.07231495
193	0x3e869d37	0.2629182
194	0xbe9220a6	-0.28540534
195	0xbdc9dad5	-0.09856192
196	0x3e0a3d7d	0.13500018
197	0xbb4bdfe8	-0.00311088
198	0x400d19f7	2.2047098
199	0x3fb91492	1.4459403
200	0x3caa70a3	0.020805662
201	0x3e32771d	0.1742825
202	0x3d49844d	0.049198437
203	0x3d6dd15a	0.05806098
204	0xbdee3f2e	-0.11633144
205	0xbe7e880d	-0.24856587
206	0x3f806403	1.0030521
207	0x3fd37ec5	1.6523062
208	0x3e6e9756	0.23299918
209	0x3e803b6f	0.25045344
210	0x3d98ad99	0.07454986
211	0x3dd294ed	0.102823116
212	0xbd9ef64e	-0.07761823
213	0x3eaef929	0.3417447
214	0xbff62c94	-1.9232354
215	0xbe456744	-0.19277674
216	0x3d8ccddb	0.06875201
217	0xbdef3a2c	-0.11681017
218	0xbd2be135	-0.04196282
219	0xbce9b19c	-0.028527074
220	0x3e4da461	0.20082237
221	0xbe0c08e7	-0.13675271
222	0x40163278	2.3468304
223	0x3fb1c650	1.3888645
224	0x3d58aab9	0.05289719
225	0x3e9e267f	0.30888745
226	0xbd43ed47	-0.047833707
227	0xbe96b82c	-0.29437387
228	0x3deec257	0.11658161
229	0xbe55d497	-0.20881878
230	0x3f44f06b	0.7692935
231	0x400b3c1c	2.1755438
232	0xbe07e934	-0.13272554
233	0x3cc41b96	0.023938935
234	0x3c2f7c87	0.010710842
235	0x3b8a58b0	0.004221998
236	0x3da22f7f	0.079192154
237	0x3e9c4ee3	0.30528936
238	0xbf741c6f	-0.95355886
239	0x3f760696	0.961038
240	0x3d9975ba	0.07493158
241	0x3df2ccdc	0.1185548
242	0xbdc2be3d	-0.09508941
243	0x3e3922b4	0.18079644
244	0x3eaee68a	0.34160262
245	0xbe1592aa	-0.14606729
246	0x4036c57b	2.8558033
247	0x3d0b97aa	0.034080185
248	0xbe1006e9	-0.14065136
249	0x3c2d6610	0.010583416
250	0xbd93e02c	-0.07220492
251	0x3db605d5	0.08887831
252	0xbdde1859	-0.10844488
253	0xbe6750cf	-0.2258942
254	0xbf8b93ac	-1.0904441
255	0x3ea3f828	0.32025266

value.0.bias f4 [32]
0	0x3d8a39d8	0.06749314
1	0xbe4ae8c5	-0.19815357
2	0xbd2947a8	-0.041328102
3	0xbdb8e17c	-0.09027383
4	0x3e356caf	0.17717241
5	0xbf28bc06	-0.659119
6	0x3e62dee7	0.22155343
7	0x3c79a1cb	0.015236328
8	0xbe99edb7	-0.30064175
9	0x3dd43b0e	0.10362826
10	0x3eea73a0	0.4579134
11	0xbf0729a2	-0.527979
12	0x3f04e139	0.5190616
13	0x3dd92c97	0.10604208
14	0xbdb01901	-0.08598519
15	0x3e8aaccb	0.27084956
16	0xbe536438	-0.20643699
17	0x3e1b7a4c	0.15183371
18	0x3e2b6749	0.16738619
19	0xbda8c8b5	-0.08241407
20	0xbef40d07	-0.4766619
21	0x3ecf3730	0.40471792
22	0xbe9e86e5	-0.3096229
23	0xbeda669c	-0.4265641
24	0xbc83afa4	-0.016074963
25	0x3d9f81f5	0.07788459
26	0xbd255b09	-0.04037002
27	0x3e9f35d7	0.31095764
28	0xbe67d4ec	-0.22639817
29	0x3e2057bc	0.15658468
30	0x3e2fe7c1	0.17178251
31	0x3ea91629	0.3302472

value.2.weight f4 [32, 32]
0	0xbc9e6367	-0.019334508
1	0x3d4a0028	0.049316555
2	0x3e1fad22	0.15593389
3	0xbd745e32	-0.059660144
4	0x3df56eef	0.119840495
5	0x3e37beba	0.1794385
6	0x3d5ca073	0.053863954
7	0xbe33963f	-0.17537783
8	0x3cebf427	0.028802944
9	0xbcc208ba	-0.023685802
10	0xbb44a6a8	-0.0030006561
11	0x3e12114b	0.14264409
12	0xbcf225c5	-0.029559026
13	0xbe1b3e6b	-0.1516053
14	0x3d7005f1	0.058599416
15	0x3da4debf	0.08050298
16	0x3c88a156	0.016678493
17	0xbe1195a2	-0.14217237
18	0x3d92b5c8	0.07163578
19	0x3e49f88d	0.19723721
20	0xbe3dab7b	-0.18522446
21	0xbe0c7b06	-0.13718805
22	0xbd6194e2	-0.055073626
23	0x3e01f20c	0.1268999
24	0xbdcd21c2	-0.100162044
25	0x3e05eb17	0.13077961
26	0xbd0645e8	-0.03278151
27	0xbd1eab76	-0.038737737
28	0xbd181932	-0.037133403
29	0xbe56f26f	-0.20990919
30	0x3e3a02cf	0.18165134
31	0x3dfa7f26	0.12231283
32	0xbe4f6947	-0.20255004
33	0x3c7b4877	0.015337101
34	0x3e035f72	0.12829378
35	0xbe08edd3	-0.13371973
36	0xbe09f9aa	-0.13474146
37	0xbd073e1d	-0.03301822
38	0xbe4d8020	-0.20068407
39	0xbe453534	-0.19258577
40	0x3c86c8c8	0.016453162
41	0x3dc51dc3	0.09624817
42	0xbdbe5efa	-0.09295459
43	0x3d738876	0.05945631
44	0x3e16edcc	0.1473915
45	0x3ca55ea2	0.020186726
46	0x3ddc70c3	0.10763695
47	0x3e10b45e	0.14131305
48	0xbe1cd7d6	-0.1531671
49	0xbd12b117	-0.035813417
50	0xbdce7a69	-0.10081942
51	0xbb1f85d1	-0.0024341235
52	0x3d9ff7cd	0.07810936
53	0x3e20e232	0.15711287
54	0x3d2e4e5c	0.042555198
55	0xbe500fa8	-0.20318472
56	0xbd3a039f	-0.04541361
57	0x3d4b2e40	0.049604654
58	0x3e5462cc	0.20740813
59	0x3e019bf7	0.12657152
60	0x3a16e5e8	0.00057563046
61	0x3e082946	0.13296995
62	0xbe196d97	-0.14983211
63	0xbda52db0	-0.08065355
64	0x3e122af3	0.14274196
65	0x3e1f00de	0.15527675
66	0xbcf076ad	-0.029353464
67	0xbe01db47	-0.12681304
68	0xbd80b223	-0.06283977
69	0xbe4783f8	-0.19483936
70	0x3d6e69af	0.058206256
71	0xbdce06cf	-0.100598924
72	0xbd86f169	-0.06589014
73	0xbe11e845	-0.1424876
74	0x3d548b2c	0.051890537
75	0x3dd45ccd	0.10369263
76	0xbd049a42	-0.032373674
77	0xbe04ae76	-0.12957177
78	0xbd5c1e13	-0.05373962
79	0xbdc176d2	-0.09446491
80	0xbd4fa9b2	-0.050698943
81	0x3e08eecd	0.13372345
82	0x3e652f65	0.22381361
83	0x3dc9053a	0.0981545
84	0x3d2dca6a	0.042429365
85	0xbc568489	-0.013093122
86	0x3e169716	0.14706072
87	0x3e495590	0.19661546
88	0x3e268247	0.16260634
89	0x3e0c4326	0.1369749
90	0xbdaa6dbd	-0.08321712
91	0xbe010f46	-0.12603483
92	0xbd7fd3d8	-0.06245789
93	0x3c336bf8	0.010951035
94	0xbd9a0554	-0.075205475
95	0xbdb88da4	-0.09011391
96	0xbe6873e6	-0.22700462
97	0x397167ec	0.00023022265
98	0x3cae9410	0.021310836
99	0xbb928891	-0.0044718464
100	0xbd1d5d3a	-0.038418986
101	0x3d1c6299	0.038179968
102	0xbe75e33c	-0.24012464
103	0xbe397efb	-0.18114845
104	0x3d772804	0.060340896
105	0x3d8e16e3	0.06937959
106	0x3dc21be2	0.094779745
107	0xbeffa4a6	-0.49930304
108	0x3dabb41a	0.08383961
109	0x3baaa261	0.0052073454
110	0xbc4f910e	-0.012668861
111	0x3ea962b3	0.33083114
112	0xbf7c28a9	-0.9849954
113	0x3d4673a7	0.04845014
114	0x3c839bff	0.016065596
115	0x3d3ea4fb	0.046544056
116	0xbcdf103e	-0.027229425
117	0xbd08ced8	-0.033400387
118	0xbe8cc509	-0.27494076
119	0xbde27de1	-0.11059166
120	0xbd87655b	-0.06611129
121	0xbdb04d1d	-0.08608458
122	0xbcd26067	-0.025680734
123	0x3f08e24d	0.5347031
124	0xbdce8bc7	-0.10085254
125	0x3daadd85	0.08343033
126	0x3db7250a	0.089426115
127	0xbda47f02	-0.08032037
128	0xbc33373e	-0.010938464
129	0x3cc40f8e	0.023933198
130	0xbd22da5f	-0.039759036
131	0xbca5b6c6	-0.020228755
132	0xbc36e2b2	-0.011162447
133	0xbd0ae788	-0.03391221
134	0xbc150c57	-0.00909718
135	0xbe4efa26	-0.20212612
136	0x3d8f0c2a	0.06984742
137	0x3dd409a3	0.103534006
138	0xbd113c50	-0.03545791
139	0x3de80853	0.11329713
140	0xbdc4c9f3	-0.09608831
141	0x3d2dd14f	0.04243594
142	0x3e56f307	0.20991145
143	0xbdd9026e	-0.105961666
144	0xbda54759	-0.08070249
145	0x3d09731b	0.03355704
146	0xbdf3adc6	-0.11898379
147	0x3e54fa66	0.20798644
148	0x3dedb433	0.11606636
149	0xbe520e33	-0.20513229
150	0x3c1a7873	0.009428131
151	0x3da0c0b6	0.07849257
152	0xbe67eea6	-0.22649631
153	0x3d9a518c	0.07535085
154	0x3dc18f9c	0.094512194
155	0xbea423e3	-0.3205863
156	0x3e13755b	0.14400236
157	0x3dd0505e	0.10171579
158	0xbeca8479	-0.39554194
159	0xbe090e39	-0.13384332
160	0xbe0cdcea	-0.13756147
161	0x3e679bc8	0.2261802
162	0x3df2be58	0.118527114
163	0xbdb5db93	-0.08879771
164	0xbe8e4eb6	-0.27794427
165	0xbd12a21d	-0.035799135
166	0xbe841358	-0.25796008
167	0x3d69384f	0.056938466
168	0xbd6b823f	-0.05749726
169	0x3e0495b8	0.12947738
170	0x3ddcda40	0.107838154
171	0x3e157ca9	0.14598335
172	0xbdf3056d	-0.11866269
173	0xbdfd442a	-0.12366517
174	0x3e41573b	0.18880932
175	0x3b03abfd	0.0020091527
176	0x3d86c47b	0.065804444
177	0x3d6ceb83	0.05784179
178	0xbd88a79a	-0.066725925
179	0xbe752362	-0.23939279
180	0x3cc4b534	0.024012186
181	0x3e64f669	0.22359623
182	0xbd9f5054	-0.07778993
183	0x3db69207	0.08914571
184	0xbce375ee	-0.027766194
185	0x3e0525d8	0.13002717
186	0x3d29b3df	0.041431304
187	0xbd673a4f	-0.05645209
188	0x3dc22c49	0.09481103
189	0x3ca99dd9	0.02070515
190	0xbd680783	-0.05664779
191	0xbe0f7b02	-0.14011768
192	0x3e2c6122	0.16833928
193	0x3db9532b	0.09049066
194	0x3d84b8e1	0.06480575
195	0x3c8d1dbd	0.017226094
196	0x3e202753	0.15640001
197	0x3e24d369	0.16096272
198	0xbd57d74f	-0.05269557
199	0x3d73f7d9	0.059562538
200	0xbd1cfd3d	-0.038327444
201	0xbe01c99e	-0.12674567
202	0x3e0ab93f	0.13547228
203	0xbda7ae71	-0.08187569
204	0x3dd7629a	0.10516854
205	0xbd886655	-0.06660143
206	0x3d8dab63	0.06917455
207	0xbc3bd791	-0.011464969
208	0x3cf857e7	0.030315353
209	0x3e286310	0.1644404
210	0xbd83947f	-0.06424808
211	0x3e2b1910	0.1670878
212	0x3de1fb70	0.11034286
213	0xbda12190	-0.0786773
214	0xbe6bb58c	-0.23018473
215	0x3e3936a2	0.18087247
216	0xbdcce3b0	-0.100043654
217	0xbe237b52	-0.15965012
218	0x3e70167a	0.23446074
219	0xbe5a9b90	-0.21348405
220	0xbe0f7a57	-0.14011513
221	0x3d94ae60	0.07259822
222	0x3bfb80af	0.0076752524
223	0xbd87fb24	-0.06639698
224	0xbd6bd0fe	-0.057572357
225	0xbe11aec2	-0.14226821
226	0x3cfb7db5	0.03069959
227	0xbd580ed8	-0.05274853
228	0xbe0234f9	-0.1271552
229	0x3e181f8c	0.14855784
230	0x3e139248	0.1441127
231	0x3e313ad0	0.17307591
232	0xbe4fee07	-0.20305644
233	0xbca37e07	-0.019957555
234	0x3db40e8c	0.08791837
235	0xbd91c5a6	-0.071177766
236	0xbe1f2649	-0.15541948
237	0xbe8086fb	-0.25102982
238	0x3d95b8c7	0.07310634
239	0x3db6662a	0.08906205
240	0x3d358774	0.04431863
241	0xbb4d8798	-0.0031361338
242	0x3de9e4e2	0.11420609
243	0xbe6c1cd6	-0.23057875
244	0x3b10cdb9	0.0022095277
245	0xbdc746b5	-0.09730283
246	0x3db071b9	0.08615441
247	0x3e6ac946	0.22928342
248	0x3ce719f9	0.028210627
249	0x3db3a81e	0.087723
250	0xbe3a243a	-0.18177882
251	0x3cb63113	0.022240197
252	0x3caf4fd9	0.021400379
253	0xbe08a045	-0.13342388
254	0x3e2d98ca	0.16952816
255	0xbdaa66fb	-0.08320423

value.2.bias f4 [32]
0	0xbe9b8b96	-0.30379933
1	0xbed67e2a	-0.4189313
2	0xbd4c3645	-0.049856443
3	0x3dd71d0a	0.10503586
4	0xbed29cbc	-0.41135204
5	0x3e3b3a20	0.18283892
6	0xbe2e56ae	-0.17025253
7	0x3d490e72	0.04908604
8	0xbe249c66	-0.16075286
9	0x3ed6a161	0.41919997
10	0x3e831db3	0.25608596
11	0x3d1ab1e3	0.037767302
12	0x3d2929bd	0.04129957
13	0x3e86d83c	0.2633685
14	0xbda99ad3	-0.082814835
15	0x3d2062fa	0.03915689
16	0x3e7deb6b	0.24796836
17	0x3dcb94c0	0.09940481
18	0x3dfbbb62	0.122916
19	0x3e321334	0.17390138
20	0xbe1f8121	-0.15576603
21	0x3d4ef513	0.05052669
22	0x3ec14e88	0.37755227
23	0xbdb40572	-0.08790101
24	0xbe900889	-0.28131512
25	0xbc66e534	-0.014092732
26	0xbda67731	-0.08128203
27	0xbe98c328	-0.29836392
28	0x3de552f4	0.11197463
29	0x3e584a93	0.21122198
30	0xbd87508d	-0.06607161
31	0xbe5a1d7d	-0.21300311

value.4.weight f4 [1, 32]
0	0xbd58867b	-0.052862626
1	0xbdb536dc	-0.08848354
2	0xbd1a450b	-0.0376635
3	0xbe98270c	-0.2971729
4	0xbd551da1	-0.05203021
5	0x3d5cae95	0.053877432
6	0xbd434d3d	-0.047681082
7	0xbdb3ad1f	-0.087732546
8	0xbdb41327	-0.087927155
9	0x3d8f4d18	0.06997126
10	0x3d1e4e69	0.038648997
11	0x3d9584bd	0.073007084
12	0xbd9760df	-0.073915236
13	0x3dda07ee	0.10646044
14	0x3d3538bd	0.044243563
15	0xbd3070ac	-0.043076202
16	0x3cb3d051	0.021949919
17	0xbdc10ca4	-0.09426239
18	0x3cdc5d84	0.02690006
19	0x3d68ed78	0.056867093
20	0x3d998492	0.07495989
21	0x3d513b67	0.05108204
22	0x3d5032d0	0.05082971
23	0x3de855d1	0.11344493
24	0xbd93b0aa	-0.0721143
25	0x3d44a6bd	0.048010577
26	0xbd365df3	-0.04452319
27	0xbe3c90d8	-0.18414629
28	0xbd6de030	-0.05807513
29	0x3dedd437	0.116127424
30	0xbe098549	-0.1342975
31	0x3d664db9	0.056226466

actor.0.weight f4 [32, 6]
0	0x3e2708fa	0.16312018
1	0xbea05dfc	-0.31321704
2	0xbe7eaeb9	-0.24871339
3	0xbe4b65e0	-0.19863081
4	0xbdb5436b	-0.088507496
5	0x3dc9329b	0.09824105
6	0x3e8ee9e6	0.27912825
7	0xbe93991a	-0.28827745
8	0xbe67656f	-0.22597288
9	0xbcb4599c	-0.022015385
10	0xbde2418a	-0.11047657
11	0xbc9ad201	-0.018898966
12	0x3ef90f6e	0.48644584
13	0xbe9f2e18	-0.31089854
14	0xbed776cc	-0.42082822
15	0x3e9edc46	0.3102743
16	0x3eadd973	0.33954963
17	0x3e747ed3	0.23876505
18	0x3d582593	0.05277021
19	0xbea0d538	-0.31412673
20	0x3e6347e8	0.22195399
21	0x3dcfad6b	0.10140499
22	0xbedc6eca	-0.43053275
23	0x3e351819	0.17684974
24	0xbd055c23	-0.03255857
25	0xbeb084c8	-0.34476304
26	0xbe403a2f	-0.18772195
27	0x3cbca1a3	0.023026293
28	0x3db69cf8	0.08916658
29	0xbdc9157e	-0.098185524
30	0x3ea50b78	0.32235312
31	0x3e7dbbb5	0.24778636
32	0xbea4ec2e	-0.3221144
33	0x3e826803	0.2546998
34	0x3ddb6fe2	0.10714699
35	0x3ec2dfa5	0.38061252
36	0x3ee5bdb4	0.44871294
37	0xbec86152	-0.3913675
38	0xbe0883d1	-0.13331534
39	0x3d9abe74	0.07555857
40	0x3e880ec4	0.26573765
41	0xbe966460	-0.29373455
42	0xbcc70e70	-0.024298877
43	0x3ef8d962	0.4860335
44	0xbe3ee4fe	-0.18642041
45	0x3c68854c	0.014191937
46	0x3e1f840b	0.15577714
47	0x3e8f5c16	0.27999943
48	0xbe4d8b6e	-0.2007272
49	0xbdcce1a6	-0.100039765
50	0x3d0bd3b1	0.03413743
51	0xbe285fc2	-0.16442779
52	0xbed0e969	-0.40803078
53	0x3df8dbfa	0.12151332
54	0x3f0d7f78	0.55272627
55	0x3da02159	0.078188606
56	0x3e74f51c	0.23921627
57	0x3e4bd39c	0.19904941
58	0xbeb8e96c	-0.36115587
59	0x3e5f7a65	0.21824034
60	0x3d96df3c	0.07366797
61	0x3f20b34d	0.6277359
62	0x3e046827	0.12930356
63	0x3c3900a2	0.011291655
64	0xbdc49d25	-0.096002854
65	0xbe7a1c4e	-0.2442486
66	0xbea6f528	-0.32608914
67	0xbe868ce9	-0.2627938
68	0x3e2cdea3	0.16881804
69	0x3e6fab7e	0.23405263
70	0xbe0d9bf7	-0.13829027
71	0xbedf5e25	-0.43626514
72	0xbe688554	-0.2270711
73	0x3eabcca5	0.3355457
74	0x3c9c9e31	0.0191184
75	0xbf0988d7	-0.53724426
76	0xbe30f974	-0.17282659
77	0xbe9d18a3	-0.3068286
78	0x3eed1121	0.4630213
79	0x3e959278	0.2921331
80	0x3f29d640	0.66342545
81	0x3eae0e4c	0.33995283
82	0xbeb6566c	-0.3561281
83	0xbf05ef02	-0.5231782
84	0x3f069b90	0.5258112
85	0x3c272fde	0.0102042835
86	0xbeea8230	-0.4580245
87	0x3e7e49e7	0.24832879
88	0x3e378f4d	0.17925759
89	0x3e8bc0e2	0.27295595
90	0xbe9f269e	-0.3108415
91	0x3d58f04b	0.052963536
92	0xbe5b554a	-0.21419254
93	0x3e30b8e9	0.17258038
94	0x3de8443c	0.1134114
95	0xbbe2250e	-0.00690139
96	0xbc99d83c	-0.018779866
97	0x3e3eea4e	0.18644068
98	0x3e895e71	0.26829866
99	0x3f0663aa	0.52495825
100	0xbd9c303d	-0.07626388
101	0xbe29015c	-0.16504425
102	0xbe84c077	-0.2592809
103	0x3cf585c1	0.029971005
104	0xbee39fbf	-0.44457814
105	0x3e737ee6	0.23778877
106	0x3f057a7e	0.52140033
107	0x3d51c23c	0.051210627
108	0xbdd426b7	-0.10358947
109	0xbe8b223f	-0.27174565
110	0xbe588306	-0.21143731
111	0x3e8bc211	0.27296498
112	0xbd917084	-0.07101539
113	0xbe284645	-0.16433056
114	0x3f1dead8	0.6168647
115	0xbd9e9c3e	-0.077446446
116	0x3ebb8655	0.36625925
117	0xbeba0841	-0.36334422
118	0x3ea1cc92	0.31601387
119	0xbe8c7d3a	-0.2743929
120	0x3eae0770	0.3399005
121	0x3e8eae3a	0.278673
122	0xbecb1744	-0.39666188
123	0xbef8d244	-0.4859792
124	0x3d84b1df	0.06479239
125	0xbce573ff	-0.028009413
126	0x3d881cfa	0.06646152
127	0x3e913701	0.28362277
128	0xbee8a62d	-0.45439282
129	0x3e51037f	0.2041149
130	0xbe553fb0	-0.20825076
131	0x3e57cb62	0.21073678
132	0xbe1fb483	-0.15596204
133	0x3e6a339d	0.22871251
134	0xbf0170bb	-0.5056264
135	0xbe04fe5b	-0.12987654
136	0xbe053ffe	-0.13012692
137	0x3e80177f	0.25017926
138	0xbc47ab39	-0.012186819
139	0xbde6d8f9	-0.11271853
140	0xbe0db0bf	-0.13836955
141	0xbee0244f	-0.437777
142	0xbeb57257	-0.35438797
143	0x3e7934dd	0.24336572
144	0x3df9973f	0.12187051
145	0xbe0f2f34	-0.1398285
146	0x3ee218d3	0.44159564
147	0x3f0ec474	0.55768514
148	0x3e015b18	0.12632406
149	0xbea2162a	-0.31657535
150	0x3eba3b1e	0.36373228
151	0x3e9e6911	0.30939534
152	0xbe4eb022	-0.20184377
153	0x3e91b70e	0.28459972
154	0xbe026795	-0.12734826
155	0xbb1e1e5a	-0.0024126978
156	0xbe7409ab	-0.23831813
157	0x3de0aec5	0.10970835
158	0x3e087442	0.13325599
159	0xbec84139	-0.3911226
160	0xbec9c35e	-0.39406866
161	0x3ea69670	0.3253665
162	0xbef755af	-0.4830756
163	0xbddadf57	-0.1068713
164	0x3ecba083	0.39770898
165	0x3d00ab5f	0.031413432
166	0xbe68a1bf	-0.22717951
167	0x3e722386	0.23646364
168	0xbecc4cac	-0.39902246
169	0x3e8f074d	0.27935258
170	0xbc83d803	-0.016094213
171	0x3ddb0d37	0.1069588
172	0x3b5e20fe	0.0033894177
173	0xbdf9ff84	-0.12206939
174	0xbe35c54e	-0.17751047
175	0xbe8f8ad5	-0.28035608
176	0x3e6f44b3	0.2336605
177	0x3e0e4ce2	0.13896516
178	0x3de1847a	0.11011596
179	0x3ea40bc1	0.32040218
180	0x3ee7a0fd	0.45240012
181	0x3f08f1da	0.53494036
182	0xbe3fa89a	-0.1871666
183	0x3eebd665	0.46062008
184	0xbe20556a	-0.15657583
185	0x3dcb8c96	0.09938924
186	0xbe4361c3	-0.19080262
187	0x3dae2166	0.08502464
188	0x3f1140a2	0.56739247
189	0x3deaa70b	0.11457642
190	0xbd957ebd	-0.07299564
191	0x3e535795	0.20638879

actor.0.bias f4 [32]
0	0x3de1ca6e	0.110249385
1	0xbefe64e0	-0.49686337
2	0xbe98e6f8	-0.29863715
3	0x3da19307	0.07889371
4	0x3e4522ad	0.19251509
5	0x3cf65fb5	0.030074934
6	0xbd5bd419	-0.05366907
7	0xbde1c75a	-0.110243514
8	0xbe948e1d	-0.29014674
9	0x3e8cb22b	0.2747968
10	0x3eba71d5	0.36414972
11	0x3ef4a8be	0.4778499
12	0xbdcd2f3e	-0.10018776
13	0xbf1b7e2f	-0.60739416
14	0xbe61dde1	-0.22057296
15	0x3ef4f8ca	0.4784606
16	0x3ebf1cdb	0.37326702
17	0xbdf3dc38	-0.11907238
18	0x3e26caf3	0.16288356
19	0x3e86afae	0.26305908
20	0xbf164957	-0.5870566
21	0x3ea3ca12	0.31990105
22	0xbe7735ec	-0.24141663
23	0xbe4115bb	-0.18855946
24	0xbe82370f	-0.2543263
25	0xbee1d95f	-0.44111153
26	0xbea5716d	-0.323131
27	0x3ea78970	0.32722044
28	0x3e6e8621	0.23293354
29	0xbd1d7121	-0.038437966
30	0x3f37def7	0.7182459
31	0x3d00bc16	0.031429373

actor.2.weight f4 [32, 32]
0	0x3e33dd7e	0.17564961
1	0xbde42483	-0.111397766
2	0xbf845ffb	-1.0341791
3	0x3e1d2f49	0.15350069
4	0x3dc8dd9a	0.09807892
5	0xbef29ce3	-0.4738532
6	0xbe3bc309	-0.18336119
7	0x3d9aa9c5	0.07551912
8	0x3e64da06	0.22348794
9	0x3ca72157	0.02040164
10	0x3f027acc	0.50968623
11	0x3e2e4fd1	0.17022635
12	0x3e19f341	0.150342
13	0xbe2aa3b5	-0.16664012
14	0xbf12079c	-0.5704286
15	0xbdbdabfe	-0.092613205
16	0x3e2fa87b	0.17154114
17	0x3e3910c7	0.18072806
18	0xbd04f31f	-0.03245842
19	0x3db88a21	0.09010721
20	0xbede1d64	-0.43381798
21	0xbbb512f4	-0.005525941
22	0x3da3e6d0	0.08003008
23	0x3dcce187	0.100039534
24	0xbed4724a	-0.41493446
25	0xbe14e962	-0.14542153
26	0xbdd401e4	-0.10351923
27	0x3dc00505	0.093759574
28	0x3cdebdb8	0.027190074
29	0x3e5472ff	0.20746993
30	0xbca97947	-0.020687712
31	0xbdaa976a	-0.08329661
32	0x3d110bf1	0.03541178
33	0x3e18228a	0.14856926
34	0xbdea3e58	-0.114376724
35	0xbdceeb6a	-0.101034954
36	0x3cb45737	0.022014244
37	0x3e67b247	0.22626601
38	0xbe95ed27	-0.29282495
39	0xbcdf5ac9	-0.02726497
40	0x3e49cf07	0.19707881
41	0xbd506cb8	-0.050884932
42	0xbfc5859e	-1.5431402
43	0x3cad2499	0.021135615
44	0xbe971b68	-0.29513097
45	0x3eaba720	0.33525944
46	0xbe832cc2	-0.25620085
47	0x3e154dc8	0.14580452
48	0xbc0cab75	-0.0085858
49	0xbdfc5eff	-0.123228066
50	0x3e748ddb	0.23882239
51	0xbdcf8595	-0.101329006
52	0xbf1fe5fb	-0.624603
53	0x3d8f9d23	0.07012393
54	0x3da81f49	0.08209092
55	0xbd00cc4d	-0.031444836
56	0x3ea7eafd	0.3279647
57	0x3e300e0c	0.17192858
58	0xbd33aaf4	-0.043864205
59	0x3e5d4cdc	0.21611351
60	0x3e1c66f4	0.15273649
61	0x3de161c6	0.11004977
62	0xbf62fd8d	-0.8866814
63	0x3e44e199	0.19226684
64	0xbdc05f0f	-0.09393131
65	0xbe00f660	-0.12593985
66	0xbc0f2d1c	-0.008738782
67	0x3e09bebf	0.1345167
68	0xbe29c9f9	-0.16580953
69	0xbf690ff8	-0.9103999
70	0xbe9115fb	-0.28337082
71	0x3e8e4652	0.27788025
72	0x3d7decb5	0.06199332
73	0x3e9052d5	0.28188196
74	0x3f17a300	0.59233093
75	0xbc73c6b2	-0.014878916
76	0x3ebd6454	0.36990607
77	0x3e1f9d24	0.15587288
78	0x3e910cc0	0.2833004
79	0x3c51be89	0.012801775
80	0xbede438c	-0.4341091
81	0xbc0b36f5	-0.0084969895
82	0x3dde8c59	0.10866613
83	0x3d86dc02	0.06584932
84	0xbf1f808e	-0.62305534
85	0xbe957b12	-0.29195458
86	0xbefa2446	-0.488558
87	0xbdc78428	-0.09742004
88	0x3e10bb7a	0.14134017
89	0xbf02539e	-0.5090884
90	0x3e659bea	0.22422758
91	0x3e125588	0.1429044
92	0xbe29a23e	-0.16565797
93	0x3e6b8cba	0.23002902
94	0xbe89c6bb	-0.26909432
95	0xbcf41133	-0.029793357
96	0x3e3409ea	0.17581907
97	0x3e120b62	0.14262155
98	0x3d82bcd2	0.06383671
99	0xbe3abbf9	-0.18235768
100	0x3e58cfe0	0.21173048
101	0xbdd504c4	-0.104012996
102	0x3dd20d44	0.102564365
103	0xbf390ead	-0.7228802
104	0xbd78caeb	-0.060740393
105	0x3c520e00	0.012820721
106	0xbec6d7cd	-0.38836518
107	0xbbe5b7d2	-0.0070104385
108	0x3e93d1c7	0.28870985
109	0xbf0cd137	-0.55006737
110	0xbd3e2048	-0.046417505
111	0xbd819af2	-0.063283816
112	0xbc8b38cc	-0.016994856
113	0x3e202636	0.15639576
114	0xbd72b579	-0.059255097
115	0x3e142398	0.14466703
116	0x3d376ac5	0.044779558
117	0x3c90322f	0.017602054
118	0x3a80f55d	0.0009838749
119	0xbddc1d84	-0.10747817
120	0xbe23123e	-0.15924928
121	0xbec11786	-0.3771326
122	0x3c1e33dd	0.00965592
123	0xbd9dd4b4	-0.077065855
124	0xbe2a0862	-0.1660476
125	0x3d2d6591	0.04233319
126	0xbef2ea0a	-0.47444183
127	0x3c6e1289	0.014530786
128	0x3d32ef16	0.04368504
129	0xbe39b34d	-0.18134804
130	0xbde74d3c	-0.11294028
131	0x3dffc7e9	0.12489302
132	0x3e75fdb2	0.24022558
133	0x3ef85282	0.48500448
134	0xbe13ff89	-0.14452948
135	0x3e250357	0.16114555
136	0x3cb6f4cd	0.022333527
137	0xbf150689	-0.58213097
138	0x3d7d7540	0.061879396
139	0x3e6734e9	0.22578777
140	0xbdb6a01b	-0.089172564
141	0xbdc82d86	-0.09774308
142	0xbe5a5646	-0.21321973
143	0x3e774fb1	0.24151494
144	0xbcc88747	-0.024478568
145	0xbe02823d	-0.12744994
146	0x3d813e9a	0.063107684
147	0x3c211bbb	0.009833272
148	0xbe11579c	-0.14193577
149	0x3eac804a	0.33691627
150	0xba4a0c05	-0.00077074795
151	0xbcddad69	-0.027060227
152	0xbe212d7b	-0.15740006
153	0x3e57cf67	0.21075211
154	0xbca5cc46	-0.020239007
155	0x3e623545	0.22090633
156	0x3dc72cbe	0.09725331
157	0x3d928ff4	0.07156363
158	0xbe4fbb2c	-0.20286244
159	0x3c9b27f5	0.018939951
160	0xbede2fc9	-0.43395832
161	0xbea87ab2	-0.3290611
162	0x3daa45e0	0.08314109
163	0x3e2bb915	0.16769822
164	0x3e034801	0.12820436
165	0x3d1c22b7	0.038119044
166	0xbc57059f	-0.013123899
167	0x3dc62f06	0.09676938
168	0x3e2afa28	0.1669699
169	0xbcdde42d	-0.027086342
170	0xbdf757de	-0.12077306
171	0x3e082c33	0.1329811
172	0xbc9fefcf	-0.01952353
173	0x3e213ffb	0.15747063
174	0x3de90630	0.11378133
175	0x3dc62642	0.09675266
176	0x3e5ced8c	0.21574992
177	0xbe115cae	-0.1419551
178	0x3e61fe38	0.22069633
179	0x3e20883a	0.15676966
180	0xbe06ad2b	-0.13151996
181	0x3cd6b1d8	0.02620785
182	0xbda4494f	-0.08021795
183	0xbdc5c326	-0.09656362
184	0x3e8b96ce	0.27263492
185	0x3e4a0de0	0.19731855
186	0xbd832542	-0.06403591
187	0x3e54d228	0.20783293
188	0x3e0bc9d0	0.13651204
189	0x3caef307	0.021356119
190	0xbde417bf	-0.11137342
191	0x3d6fca02	0.05854226
192	0x3db1050d	0.086435415
193	0x3e025c2c	0.12730473
194	0x3e4ab8b0	0.19797015
195	0xbd5535cb	-0.052053254
196	0x3e4f7167	0.20258103
197	0x3dbfa162	0.09356953
198	0x3e064e0f	0.13115714
199	0x3de534ec	0.11191735
200	0x3b0ef908	0.0021815915
201	0x3dafcc3f	0.08583879
202	0x3c48e177	0.012260786
203	0x3e64f505	0.22359093
204	0xbde74b63	-0.11293676
205	0x3d3e64d2	0.04648287
206	0xbd7a022a	-0.06103722
207	0xbd5638c3	-0.052300226
208	0x3e246b92	0.1605666
209	0xbe14701c	-0.14495891
210	0x3d81d290	0.0633899
211	0x3cf2724b	0.029595515
212	0xbe0c43df	-0.13697766
213	0xbd4adf98	-0.049529642
214	0x3df94377	0.12171071
215	0xbd79602b	-0.06088273
216	0x3d0eddc6	0.03487947
217	0x3e2a04a9	0.1660334
218	0xbe12fe0e	-0.14354727
219	0x3e0a17bd	0.13485618
220	0x3da77abe	0.08177708
221	0x3de4f883	0.11180212
222	0xbea2a82c	-0.3176893
223	0x3d1489db	0.03626428
224	0x3e84181b	0.2579964
225	0xbdd4bbeb	-0.10387405
226	0xbe1156b8	-0.14193237
227	0xbe3979a4	-0.18112808
228	0xbe0c1b64	-0.13682324
229	0xbf0f5f90	-0.5600519
230	0xbd2536ba	-0.040335394
231	0xbe144184	-0.14478117
232	0x3e202213	0.15637998
233	0x3d83ad3f	0.064295284
234	0xbc9c87c0	-0.0191077
235	0x3d3cb061	0.046066646
236	0x3e11a992	0.14224842
237	0x3ce1d7b0	0.027568668
238	0xbdbd22df	-0.09235167
239	0xbf84e3ef	-1.038206
240	0x3f0d599a	0.55214846
241	0x3e8597ff	0.26092526
242	0xbe8cb9e4	-0.27485573
243	0x3ea71bbb	0.32638344
244	0xbdeb242c	-0.114815086
245	0xbebc68fb	-0.36798844
246	0xbde527b9	-0.11189217
247	0x3e2c6754	0.16836292
248	0xbf1ef5c9	-0.6209379
249	0xbebae718	-0.36504436
250	0xbda1e49a	-0.079049304
251	0x3ca9bfe0	0.020721376
252	0xbe91c9ab	-0.28474173
253	0x3cb27bc5	0.021787534
254	0x3f0faee0	0.56126213
255	0xbdd66ae0	-0.104696035

actor.2.bias f4 [32]
0	0xbe86d8b8	-0.26337218
1	0xbd017d5e	-0.0316137
2	0x3e593195	0.2121032
3	0xbcbf8df8	-0.023383126
4	0x3e2936a6	0.16524753
5	0x3dc4cf3d	0.0960984
6	0x3d91851b	0.07105466
7	0xbe2d7fed	-0.16943331
8	0xbe2ce7c8	-0.16885293
9	0x3d65a1ed	0.056062628
10	0xbe1814e8	-0.14851725
11	0x3dcff344	0.10153821
12	0xbd99179f	-0.074752085
13	0x3e22842e	0.15870735
14	0xbd795239	-0.06086943
15	0xbe6460bd	-0.22302528
16	0x3e27164b	0.16317098
17	0x3c190b57	0.009341083
18	0xbe222610	-0.15834832
19	0x3de4c1a9	0.1116975
20	0x3e81706c	0.25281084
21	0x3e382e68	0.17986453
22	0x3d97dc85	0.07415108
23	0x3e1786bd	0.14797492
24	0xbcf294ea	-0.029612023
25	0xbbcd772d	-0.0062703104
26	0xbdc558fa	-0.096361116
27	0xbda63595	-0.08115689
28	0xbd347fed	-0.044067312
29	0xbd9436ba	-0.07237001
30	0x3e6c6e1c	0.23088878
31	0x3e90b986	0.28266543

actor.4.weight f4 [2, 32]
0	0x3e58d484	0.21174818
1	0xbebf23d1	-0.37332013
2	0x3eadf83d	0.33978453
3	0xbdc9b3be	-0.09848736
4	0xbe7fc235	-0.24976428
5	0x3d312029	0.04324356
6	0xbdbae4c7	-0.09125667
7	0xbdd0585e	-0.10173105
8	0xbd07f6e6	-0.033194445
9	0x3e8dbd09	0.27683285
10	0x3f676a87	0.9039692
11	0x3e8c9d5e	0.27463812
12	0x3ec2ae4a	0.38023597
13	0xbe4cdc67	-0.20005952
14	0x3ea09b24	0.31368363
15	0x3eae4585	0.34037414
16	0xbe30aee1	-0.17254211
17	0x3dc77f5e	0.0974109
18	0x3e117c70	0.14207625
19	0xbe26945a	-0.16267529
20	0xbeb75738	-0.3580873
21	0x3e28b4c2	0.16475204
22	0xbdce10f2	-0.10061826
23	0xbe3c9dee	-0.1841962
24	0x3d904879	0.07045073
25	0x3e27311e	0.1632733
26	0xbf05070a	-0.51963866
27	0xbe31b067	-0.17352448
28	0x3e8f194b	0.27948985
29	0x3e40c60e	0.18825552
30	0xbe90c3f2	-0.28274494
31	0xbf85bc8f	-1.0448169
32	0x3ce90667	0.028445436
33	0xbeb3b968	-0.3510239
34	0x3e96ba74	0.29439127
35	0xbe3d2fb5	-0.1847523
36	0x3e333da3	0.17503981
37	0x3e1a787a	0.1508502
38	0x3e40ca40	0.18827152
39	0xbf3d5489	-0.73957115
40	0xbe288345	-0.16456325
41	0x3eb7cf67	0.35900423
42	0xbe12b728	-0.14327681
43	0xbf230e04	-0.6369326
44	0xbdf4e196	-0.119570896
45	0xbe44d3e2	-0.19221452
46	0xbec1bd62	-0.378398
47	0xbde3c44f	-0.11121427
48	0xbea4c032	-0.32177883
49	0xbec13de0	-0.3774252
50	0x3f2d5a20	0.67715645
51	0xbe490641	-0.19631292
52	0x3cd4120f	0.025887517
53	0x3dba097d	0.09083841
54	0x3ecb0f47	0.39660093
55	0x3eb189e9	0.3467553
56	0x3de80a1c	0.11330053
57	0xbe7284ff	-0.23683546
58	0xbe438ac5	-0.19095905
59	0xbe331867	-0.17489778
60	0x3e8bb6a0	0.2728777
61	0xbf3e071d	-0.74229604
62	0xbf092070	-0.5356512
63	0xbe847935	-0.25873724

actor.4.bias f4 [2]
0	0xbdb3007e	-0.08740328
1	0x3eaf93f3	0.34292564
