results/SandingEnvEasy/ddpg_extension/model/model_parameters_2.pt (torch, 30018 bytes, 22 tensors)

value.0.weight f4 [32, 8]
0	0x3ca958e4	0.02067227
1	0xbe2491df	-0.1607127
2	0x3e82211d	0.25415888
3	0xbcf0bf6f	-0.029388158
4	0xbead19cc	-0.33808744
5	0x3e97552a	0.29557163
6	0xbde22fca	-0.11044271
7	0xbf6c6fb6	-0.9235796
8	0x3e07f793	0.13278036
9	0xbd34a8ff	-0.04410648
10	0xbea54efc	-0.32286823
11	0x3e179ed0	0.14806676
12	0x3eb84848	0.35992646
13	0xbe53178f	-0.20614456
14	0xbea19ca2	-0.31564814
15	0x3ebb0266	0.36525267
16	0x3e474d4a	0.19463077
17	0xbe5905e3	-0.21193652
18	0x3e6aac1d	0.22917219
19	0x3e64cd23	0.22343878
20	0xbdffa058	-0.12481755
21	0xbe000e52	-0.12505463
22	0xbfd26f2b	-1.6440176
23	0x3ed2b438	0.4115312
24	0x3ea604be	0.32425493
25	0x3d9921b2	0.0747713
26	0xbe2b1123	-0.16705756
27	0x3d12c3b9	0.035831187
28	0x3d712138	0.05886957
29	0x3e74868e	0.23879454
30	0x3fa971ff	1.3237914
31	0xbcbd5877	-0.023113472
32	0x3d86c0e7	0.06579762
33	0x3e064ffa	0.13116446
34	0xbe9c4240	-0.30519295
35	0xbd426a6c	-0.047464773
36	0xbd9b1f42	-0.07574321
37	0x3db35426	0.087562844
38	0x3eab97aa	0.33514148
39	0x3e48dd52	0.19615677
40	0xbd18b550	-0.037282288
41	0xbe4e7984	-0.20163542
42	0x3ded2a7a	0.115803674
43	0xbe992f14	-0.2991873
44	0xbd927124	-0.07150486
45	0xbc0f589d	-0.008749154
46	0x3e3dd859	0.18539561
47	0xbdfb20be	-0.122621045
48	0xbd862021	-0.06549097
49	0x3da0e4bc	0.078561276
50	0xbe0761dd	-0.13220926
51	0x3d3223b2	0.043491073
52	0xbe51ae13	-0.2047656
53	0x3dee8e46	0.1164823
54	0x3ed19416	0.40933293
55	0xbf69c720	-0.91319466
56	0x3bf9aefb	0.0076197363
57	0xbe977fc5	-0.29589668
58	0xbe275490	-0.16340852
59	0x3eb01260	0.3438902
60	0xbe4eb667	-0.20186768
61	0xbe46f06f	-0.19427656
62	0x3f3b55a0	0.7317753
63	0xbed3ec15	-0.41391054
64	0x3e6ff1a6	0.23432025
65	0xbb466ac7	-0.0030276047
66	0xbe982b7f	-0.29720685
67	0xbdf1da11	-0.11809171
68	0xbe984b2c	-0.29744852
69	0xbe538a5d	-0.2065825
70	0x3f4adc2f	0.79242224
71	0x3dcaa882	0.098954216
72	0x3ac3e214	0.0014944696
73	0x3c9f60d8	0.019455358
74	0x3e83e485	0.25760284
75	0x3d1510fe	0.03639316
76	0xbe2ef254	-0.17084628
77	0xbdd040c1	-0.10168601
78	0x3f8dee82	1.1088412
79	0xbf2200f1	-0.63282686
80	0xbe9af6a5	-0.302663
81	0x3dcf22d7	0.10114067
82	0x3de282de	0.11060117
83	0x3d0ff786	0.035148166
84	0xbe9386d8	-0.28813815
85	0xbea6c08c	-0.32568777
86	0x3e63abdc	0.22233528
87	0x3cfda2fb	0.030961504
88	0xbe41f989	-0.18942846
89	0x3dca2479	0.09870238
90	0xbd2ff7cb	-0.042960923
91	0xbd9424ca	-0.072335795
92	0xbe7e4987	-0.24832736
93	0x3e986155	0.29761758
94	0x3f8b80a3	1.0898632
95	0xbefbc91c	-0.49176872
96	0x3ea2b9a4	0.31782258
97	0xbca21e13	-0.019789731
98	0xbe94b270	-0.29042387
99	0x3e523564	0.2052818
100	0xbcbf5155	-0.023354212
101	0xbde02f46	-0.10946517
102	0xbf72c127	-0.9482598
103	0xc04ea23a	-3.2286515
104	0x3e244a15	0.16043885
105	0x3e574529	0.21022476
106	0x3e27eefc	0.16399759
107	0x3db9c201	0.090702064
108	0x3d827412	0.06369795
109	0x3e6d638b	0.23182504
110	0xbec581f0	-0.38575697
111	0xbf6b781c	-0.9198015
112	0xbc8ab7c3	-0.016933328
113	0xbd4efb97	-0.050532904
114	0xbca3374d	-0.01992383
115	0x3e93f0f0	0.28894758
116	0xbe38a512	-0.1803172
117	0xbe538424	-0.20655876
118	0x3f908d09	1.129304
119	0x3d871315	0.065954365
120	0x3eb09d4f	0.34495017
121	0xbe87f455	-0.26553598
122	0xbe93919d	-0.28822032
123	0x3e99748f	0.2997174
124	0xbe866465	-0.2624847
125	0x3de0be59	0.10973806
126	0x3fa2a6b6	1.2707126
127	0x3edb1f55	0.42797342
128	0x3e01a269	0.12659611
129	0xbe87b656	-0.265063
130	0x3c43f8d5	0.011961182
131	0xbe14f0dd	-0.14545007
132	0x3dfcd189	0.12344653
133	0xbe5a80aa	-0.21338144
134	0x3fd04594	1.6271234
135	0xbe9b0722	-0.3027888
136	0x3de7f90a	0.11326797
137	0x3bece785	0.0072297477
138	0x3de72e5a	0.11288138
139	0x3eac9a0b	0.33711275
140	0x3e08a63e	0.13344666
141	0x3e45698d	0.19278546
142	0xbe366d51	-0.17815138
143	0xbe530f08	-0.20611203
144	0xbd7af0bd	-0.061264742
145	0x3cf415c8	0.029795542
146	0x3dff5b45	0.1246858
147	0x3e3c3d15	0.18382676
148	0xbe30087d	-0.17190738
149	0xbd803bf3	-0.062614344
150	0x3f4c87f7	0.79894966
151	0x3f1750ab	0.59107465
152	0xbd81444f	-0.06311857
153	0xbe386928	-0.18008864
154	0x3e9671f8	0.29383826
155	0x3dc16d5c	0.09444687
156	0xbd6f3dd7	-0.058408584
157	0x3d7b5418	0.061359495
158	0x3f01eb83	0.5074999
159	0x3eb3cdd1	0.35117963
160	0x3ec8de1a	0.3923195
161	0xbd4dd67b	-0.050253373
162	0xbdf610f6	-0.12014954
163	0xbe6a6300	-0.22889328
164	0xbe742be3	-0.23844866
165	0x3d847f7f	0.064696305
166	0xbe6bcbdd	-0.23026986
167	0x3fbe34cc	1.4859862
168	0xbe0741ef	-0.13208745
169	0x3e2bbe43	0.16771798
170	0xbe7c2808	-0.24624646
171	0x3e1446a9	0.1448008
172	0x3de6faec	0.11278328
173	0xbd9db5c4	-0.07700685
174	0xbe8f60f8	-0.2800367
175	0x3ee7d7b5	0.4528176
176	0xbe31456c	-0.17311639
177	0xbc8d5d18	-0.017256305
178	0x3c8ea64f	0.017413286
179	0x3e93fc29	0.2890332
180	0xbe34d485	-0.17659195
181	0x3e58bca7	0.21165715
182	0xc009da31	-2.1539423
183	0x3f3364bc	0.70075583
184	0x3df14a01	0.11781693
185	0xbd968956	-0.073504135
186	0x3e9b422d	0.30323926
187	0xbeb1c333	-0.34719238
188	0xbc640552	-0.013917284
189	0x3d0f3ebb	0.034971934
190	0xbe5f957a	-0.21834365
191	0x3e97db17	0.2965934
192	0xbe93f8f2	-0.28900868
193	0x3e161b80	0.14658928
194	0x3d8c9bf0	0.0686568
195	0xbd612270	-0.054964483
196	0xbde20da0	-0.11037755
197	0x3cd965aa	0.026537735
198	0xbef5f7b9	-0.4804056
199	0x3ed73428	0.4203198
200	0xbe2e7073	-0.17035083
201	0xbd30e74a	-0.043189324
202	0x3d6cafc1	0.0577848
203	0x3e41f919	0.1894268
204	0xbe8545ba	-0.2602976
205	0xbd728f14	-0.05921848
206	0xbfbe5f9b	-1.4872926
207	0xbe9e4c09	-0.30917385
208	0xbd405347	-0.04695442
209	0xbd777d14	-0.06042202
210	0xbdef80ea	-0.1169451
211	0xbd887e72	-0.066647425
212	0xbdd2b3a5	-0.10288171
213	0xbc07e815	-0.008295079
214	0xbf99d50b	-1.201814
215	0xbfc89736	-1.5671146
216	0x3d8d186c	0.06889424
217	0x3e720bab	0.23637263
218	0x3ba3efb6	0.005002941
219	0x3e28bf08	0.16479123
220	0x3eceaf39	0.4036806
221	0x3c328ede	0.01089832
222	0x3f81a884	1.0129552
223	0xbd2986f7	-0.041388478
224	0xbd680982	-0.056649692
225	0xbd6b2237	-0.057405677
226	0xbe3984b4	-0.18117028
227	0x3e8d2ba1	0.2757235
228	0xbe20d169	-0.15704884
229	0x3d00f957	0.03148779
230	0xbe00b769	-0.12569965
231	0x3cb4b3f7	0.02205847
232	0xbd9ccf11	-0.07656682
233	0x3d2ffd75	0.042966325
234	0xbe99ae82	-0.3001595
235	0x3c94751d	0.01812225
236	0x3e8dc8c4	0.27692235
237	0x3dc7dcde	0.09758924
238	0xbd1a9414	-0.037738875
239	0xbe80faec	-0.25191438
240	0xbe03f1f4	-0.12885267
241	0xbe181358	-0.14851129
242	0x3e24784c	0.16061515
243	0x3e16c518	0.14723623
244	0x3e35f6af	0.17769884
245	0x3ea468d7	0.32111236
246	0x401554a2	2.3332906
247	0xbead4941	-0.3384495
248	0x3bde8d87	0.0067917737
249	0x3ea194a2	0.3155871
250	0x3e19997b	0.14999954
251	0xbd7181b3	-0.05896158
252	0x3e80b50e	0.25138134
253	0x3e458311	0.19288279
254	0xbe90fc35	-0.2831742
255	0xbbdc3756	-0.0067204637

value.0.bias f4 [32]
0	0xbea1ac54	-0.31576788
1	0x3e7e28e4	0.24820286
2	0xbe7ef8f1	-0.24899651
3	0xbe0928a2	-0.13394406
4	0xbe09447e	-0.13405034
5	0x3db6b85e	0.08921884
6	0xbef5d8bc	-0.48016918
7	0x3f534005	0.8251956
8	0xbea2d399	-0.3180206
9	0x3f0fd9c3	0.56191653
10	0x3e25cc77	0.16191278
11	0xbe20a78c	-0.15688914
12	0xbe1266b8	-0.14296997
13	0xbea87f4b	-0.32909617
14	0x3e2437ce	0.16036913
15	0xbeb60056	-0.3554713
16	0xbee3fda0	-0.44529438
17	0x3e87bce4	0.265113
18	0x3eab6c9e	0.33481306
19	0xbd4d2d9d	-0.05009233
20	0xbf84eac2	-1.0384142
21	0xbe9fb07e	-0.3118934
22	0x3e92fca7	0.28708383
23	0x3e313448	0.173051
24	0x3f0454cd	0.51691896
25	0xbd0bde8b	-0.03414778
26	0x3f11d9ea	0.56973135
27	0x3e8d1d42	0.27561384
28	0x3efc8fd2	0.49328476
29	0x3cd8e759	0.026477503
30	0x3e215dac	0.15758389
31	0xbf06bfcf	-0.52636427

value.2.weight f4 [32, 32]
0	0x3e18691a	0.14883843
1	0x3d8a06dc	0.067395896
2	0xbe99600e	-0.29956096
3	0xb6921e20	-4.354646e-06
4	0x3dfed77b	0.124434434
5	0xbe1633a4	-0.14668137
6	0xbe140f81	-0.1445904
7	0x3d6f7917	0.05846509
8	0xbd27cbb4	-0.04096575
9	0x3dd6baec	0.10484871
10	0xbc54ed73	-0.012996065
11	0x3d7c3e5a	0.0615829
12	0x3de02d09	0.1094609
13	0x3e217ecd	0.15771027
14	0xbbd9d43c	-0.0066476148
15	0xbe55ddd0	-0.20885396
16	0x3e881672	0.26579624
17	0xbde0faf4	-0.109853655
18	0xbc5a4e39	-0.013324314
19	0xbee97508	-0.455971
20	0x3e03fe4e	0.12889978
21	0xbd994401	-0.07483674
22	0xbeaf5a20	-0.34248447
23	0x3dff1b5c	0.1245639
24	0x3d4b60dd	0.049652923
25	0xbc8890eb	-0.016670665
26	0xbd5e6584	-0.05429603
27	0x3d62fd5a	0.055417396
28	0x3ddc761d	0.10764716
29	0x3c742eb0	0.014903709
30	0xbf6222f4	-0.88334584
31	0xbdf91aa5	-0.12163285
32	0x3e21d978	0.15805614
33	0xbdbcccf1	-0.09218777
34	0x3db63a87	0.08897882
35	0xbd9c6df8	-0.076381624
36	0xbde4918e	-0.11160575
37	0x3e1266f9	0.14297093
38	0xbe83f04a	-0.25769264
39	0x3e723bc7	0.23655616
40	0x3ddbb180	0.10727215
41	0xbd494354	-0.049136475
42	0x3d50f2c8	0.051012784
43	0x3d1b13d9	0.037860725
44	0x3e16829c	0.14698261
45	0x3d8bb90a	0.06822403
46	0xbd514875	-0.05109449
47	0x3d43b293	0.047777724
48	0x3e5c5515	0.21516831
49	0x3e234bb7	0.15946852
50	0xbdf095c5	-0.11747316
51	0xbe5d3a6a	-0.21604314
52	0xbd9629b8	-0.07332176
53	0xbdf07601	-0.117412575
54	0xbd24097f	-0.04004812
55	0xbd066485	-0.032810707
56	0x3c0be66b	0.008538823
57	0x3d254bd8	0.040355533
58	0xbdcdb942	-0.10045101
59	0xbeb9522c	-0.36195505
60	0x3d6dfd14	0.058102682
61	0xbdfe881d	-0.12428305
62	0xbd3a702f	-0.045517143
63	0xbefc24c6	-0.49246806
64	0x3b338b27	0.0027396174
65	0x3e41debc	0.18932623
66	0x3d866f40	0.06564188
67	0xbd9c35a6	-0.0762742
68	0x3d900e2e	0.070339546
69	0xbdcf8c37	-0.10134166
70	0x3c844e7d	0.016150707
71	0xbc7eabaa	-0.015543858
72	0x3e2a5f00	0.16637802
73	0x3e8eb3bd	0.27871504
74	0xbd4a5af1	-0.049403135
75	0xbdcaa772	-0.09895219
76	0x3c2ba8f4	0.010477293
77	0x3d27c040	0.04095483
78	0x3d264356	0.04059156
79	0xbccbea7d	-0.024892086
80	0xbd65b60c	-0.056081817
81	0x3d9f8999	0.077899165
82	0xbe090e46	-0.13384351
83	0xbe126c9f	-0.14299248
84	0xbd2f0359	-0.042727802
85	0x3dfff241	0.12497378
86	0x3dbfe5bc	0.0936999
87	0xbb3b407e	-0.0028572376
88	0x3ce0764d	0.02740016
89	0xbdfa03c3	-0.12207749
90	0x3e1dfecb	0.15429227
91	0x3d6d5838	0.05794546
92	0xbdd6c897	-0.10487478
93	0x3deac7ae	0.11463867
94	0xbe2719a5	-0.16318376
95	0xbc6c817b	-0.014435167
96	0xbc8f40a5	-0.01748688
97	0xbd11c406	-0.035587333
98	0x3e10a9ac	0.14127225
99	0x3d3fbb91	0.046809737
100	0x3d93271f	0.07185196
101	0x3dbcb8a3	0.09214904
102	0xbe1e65e5	-0.15468557
103	0xbc35bafc	-0.011091944
104	0xbd26e18a	-0.040742435
105	0x3d621153	0.055192303
106	0xbd6c8308	-0.05774215
107	0x3d94374d	0.0723711
108	0xbe043214	-0.12909728
109	0xbd21fbfe	-0.03954696
110	0x3c6ea0b5	0.014564683
111	0xbc8cc7c8	-0.017185107
112	0xbe2887d5	-0.16458066
113	0xbe155a82	-0.14585307
114	0x3d9ab49e	0.07553981
115	0x3db2cf20	0.08730912
116	0x3dfa2c64	0.12215498
117	0xbdaf8414	-0.08570114
118	0xbd440699	-0.047857855
119	0xbd76130d	-0.060076762
120	0x3de558cc	0.11198577
121	0x3ded8cdd	0.11599133
122	0x3e2f2f85	0.17107971
123	0xbea36ce5	-0.31919017
124	0xbdc6c2d4	-0.09705129
125	0x3d4f7cff	0.050656315
126	0x3e29d228	0.16584074
127	0xbc9a14d7	-0.018808765
128	0x3d614484	0.054996982
129	0x3dc1b066	0.094574735
130	0x3e1c1604	0.15242773
131	0x3e3a0a92	0.18168095
132	0xbe36746c	-0.17817849
133	0x3e0e29ae	0.13883087
134	0xbe0c9b2a	-0.13731065
135	0xbde1e861	-0.11030651
136	0xbe6e90e0	-0.23297453
137	0xbde69f2e	-0.1126083
138	0xbd3a7006	-0.04551699
139	0xbb2733ad	-0.002551298
140	0x3e897ac8	0.26851487
141	0x3db53614	0.08848205
142	0xbe4ed5e3	-0.20198779
143	0xbe9994c4	-0.29996312
144	0xbe3d8236	-0.18506703
145	0xbc9309d7	-0.017949028
146	0x3e109ae9	0.14121594
147	0xbe1ecf9f	-0.15508889
148	0xbeab3a38	-0.33442855
149	0x3e4b425e	0.19849536
150	0x3d905f08	0.07049376
151	0x3dcb0993	0.099139355
152	0x3dfdf60e	0.12400447
153	0x3e55fda7	0.20897542
154	0x3e34202e	0.175904
155	0xbd6b37d5	-0.057426292
156	0x3e4b7b16	0.19871172
157	0xbdc68de7	-0.096950345
158	0xbe3d81e4	-0.1850658
159	0x3dd5fa06	0.10448079
160	0xbc49057e	-0.012269376
161	0x3e07b99c	0.13254398
162	0xbe046413	-0.129288
163	0x3df30e07	0.1186791
164	0xbd9bcb47	-0.076071315
165	0x3d8ee7d7	0.06977814
166	0x3e21859d	0.15773626
167	0x3e55fbe6	0.20896873
168	0x3e0868fc	0.13321298
169	0x3d88bb16	0.06676309
170	0x3e0cbeb5	0.13744624
171	0xbd2af420	-0.041736722
172	0x3de8545f	0.113442175
173	0x3e0da74b	0.13833348
174	0x3c922187	0.017838253
175	0x3de0f91d	0.109850146
176	0xbda1b85a	-0.078964904
177	0x3dd939b4	0.10606709
178	0xbc878679	-0.016543614
179	0x3e0610ea	0.1309239
180	0x3da7d985	0.081957854
181	0xbd99a306	-0.075017974
182	0x3dbe9da4	0.09307411
183	0x3e209854	0.15683109
184	0xbd861ab5	-0.06548063
185	0xbda31d48	-0.07964569
186	0xbd86e293	-0.06586184
187	0xbbe99d2e	-0.007129333
188	0xbe022943	-0.12711053
189	0xbd5c9ea0	-0.053862214
190	0x3cd2422a	0.025666315
191	0x3de6a452	0.1126181
192	0x3eec3e23	0.46141157
193	0x3cc6446f	0.024202554
194	0xbdbfaf02	-0.09359552
195	0xbe90492c	-0.28180826
196	0x3da99b00	0.08281517
197	0xbe240ffe	-0.16021726
198	0x3e0f7aac	0.1401164
199	0xbcc8b2aa	-0.024499256
200	0xbd211bef	-0.03933328
201	0xbdba1958	-0.09086865
202	0x3d9ed47a	0.077553704
203	0xbdcb3ba0	-0.09923482
204	0xbc04e243	-0.008110586
205	0x3d03a70b	0.032141726
206	0xbc18d6ba	-0.009328539
207	0x3e0dd2bd	0.13849922
208	0x3df1ffde	0.11816381
209	0xbf22a310	-0.63530064
210	0xbe62bd1e	-0.22142455
211	0xbf3d3640	-0.73910904
212	0xbd823d14	-0.06359306
213	0x3c84e0ef	0.016220538
214	0xbd50a842	-0.050941713
215	0xbe5272d5	-0.20551617
216	0x3dfb3fed	0.12268052
217	0xbdad66e8	-0.084668934
218	0x3df5c26e	0.11999975
219	0x3ae2cc23	0.0017303269
220	0x3e4fe04c	0.20300406
221	0xbd8e6227	-0.06952315
222	0xbe366cf6	-0.17815003
223	0xbe0a4765	-0.13503797
224	0x3e340bc8	0.17582619
225	0xbdc9acdf	-0.09847426
226	0x3e1f0c95	0.15532143
227	0x3d1cca03	0.03827859
228	0xbd31c43f	-0.043400045
229	0x3d9c0ac2	0.076192394
230	0xbdcf1b67	-0.101126485
231	0xbcb70db9	-0.02234541
232	0xbe12b14f	-0.1432545
233	0xbdc3c2b3	-0.0955862
234	0x3d592ba0	0.05302012
235	0x3bf2d8b4	0.007411087
236	0x3e835710	0.2565236
237	0xbe340190	-0.17578721
238	0x3d6a9fa5	0.057281155
239	0x3e6435e5	0.22286184
240	0xbcfe72d4	-0.031060614
241	0xbcabb2f0	-0.020959347
242	0xbd00dcc9	-0.031460557
243	0xbe25705e	-0.16156146
244	0xbea8f73d	-0.33001128
245	0xbcb790fb	-0.022408
246	0xbdaa2967	-0.08308678
247	0x3beb1193	0.007173726
248	0xbcceecb9	-0.025259363
249	0x3cce3993	0.025173938
250	0x3e1edef6	0.1551474
251	0xbd8ef5bc	-0.06980464
252	0xbe3dd9e7	-0.18540154
253	0xbecd9733	-0.40154418
254	0xbdc384e7	-0.095468335
255	0x3e112a37	0.1417626

value.2.bias f4 [32]
0	0x3e9838da	0.29730874
1	0x3dca49cc	0.09877357
2	0x3e5ee701	0.21767808
3	0xbea328c8	-0.3186705
4	0x3e30775a	0.17233029
5	0xbe83a545	-0.25712028
6	0x3e3c58a2	0.18393186
7	0xbe4afe0a	-0.1982347
8	0x3d496f64	0.049178496
9	0x3d42ead6	0.04758724
10	0xbe6c33d8	-0.23066652
11	0x3d4c6947	0.049905088
12	0x3df095b0	0.117473006
13	0x3d8634c0	0.0655303
14	0x3e9fef41	0.31237224
15	0x3d825ea5	0.06365708
16	0xbd6346cc	-0.05548744
17	0xbefa4008	-0.48876977
18	0xbdab4501	-0.08362771
19	0x3df01056	0.11721866
20	0xbe6acdb9	-0.2293004
21	0x3ea501ac	0.32227838
22	0xbe07edf6	-0.13274369
23	0x3e0480ab	0.12939708
24	0xbe4f7ec5	-0.20263202
25	0xbc7fc5d0	-0.015611127
26	0x3d455dc4	0.048185125
27	0xbca07651	-0.019587668
28	0xbdc3c834	-0.0955967
29	0xbacc6c25	-0.0015596194
30	0xbe377552	-0.17915848
31	0xbdc5af70	-0.09652603

value.4.weight f4 [1, 32]
0	0x3d556653	0.052099537
1	0x3d23dd9a	0.040006258
2	0x3de509a5	0.1118348
3	0xbd526961	-0.05137003
4	0xbda5ca31	-0.080952056
5	0xbde7e7bb	-0.11323496
6	0xbd910d7f	-0.07082652
7	0xbd80eb63	-0.062948965
8	0xbd522e3f	-0.051313635
9	0x3da929ec	0.08259949
10	0xbd37474c	-0.04474573
11	0x3dc260a3	0.09491088
12	0x3d617f63	0.055053126
13	0x3d3cc264	0.046083823
14	0x3e14249d	0.14467092
15	0xbd2cba49	-0.042169843
16	0xbd229118	-0.039689153
17	0xbdf06c37	-0.1173939
18	0x3e40546c	0.18782204
19	0x3cdaf745	0.026729235
20	0xbdb4892b	-0.08815225
21	0x3def4ec5	0.11684946
22	0x3e140670	0.1445558
23	0x3de3f7a8	0.11131221
24	0xbd4d52bb	-0.050127726
25	0xbe03bd57	-0.12865196
26	0xbd688eb4	-0.056776717
27	0x3c7a36b0	0.015271828
28	0xbe18d376	-0.14924416
29	0xbd6f9950	-0.05849582
30	0x3d8561cc	0.06512794
31	0x3d20a35c	0.03921829

value.0.weight f4 [32, 8]
0	0x3ca01a16	0.019543689
1	0xbe26f65e	-0.16304919
2	0x3e8113b0	0.25210333
3	0xbcffedf8	-0.031241402
4	0xbeac6d42	-0.33677107
5	0x3e9801b4	0.296888
6	0xbde00c92	-0.109398976
7	0xbf6bd9b8	-0.9212909
8	0x3e06be7b	0.131586
9	0xbd3ae190	-0.04562527
10	0xbea5775a	-0.3231762
11	0x3e16c968	0.14725268
12	0x3eb91d83	0.36155328
13	0xbe516d13	-0.20451765
14	0xbea04354	-0.31301367
15	0x3ebb849f	0.3662462
16	0x3e47504f	0.19464229
17	0xbe5ad71e	-0.21371123
18	0x3e6b5bf3	0.22984295
19	0x3e61f56c	0.22066277
20	0xbe00a17e	-0.12561604
21	0xbe00dfa7	-0.12585317
22	0xbfd213a0	-1.6412239
23	0x3ed3bbca	0.4135421
24	0x3ea61f7d	0.324459
25	0x3d99e9e9	0.07515318
26	0xbe2a2bc1	-0.16618253
27	0x3d1691be	0.036760084
28	0x3d6445f5	0.05573078
29	0x3e714fbb	0.23565571
30	0x3fa95e8c	1.3231978
31	0xbca7c64b	-0.020480296
32	0x3d86112d	0.06546245
33	0x3e0717f1	0.13192727
34	0xbe9c40da	-0.30518228
35	0xbd45dd07	-0.04830649
36	0xbd9ca276	-0.076481745
37	0x3db1d0f2	0.08682431
38	0x3eaac796	0.33355397
39	0x3e4b91f4	0.19879895
40	0xbd1c35b3	-0.03813715
41	0xbe4f13e4	-0.20222431
42	0x3decbbd7	0.11559265
43	0xbe996bcd	-0.29965058
44	0xbd943fa7	-0.07238703
45	0xbc1dccad	-0.009631318
46	0x3e3b5731	0.1829498
47	0xbdff306a	-0.12460406
48	0xbd8666aa	-0.0656255
49	0x3da27f1d	0.07934401
50	0xbe068964	-0.13138348
51	0x3d3404cc	0.043949887
52	0xbe51f643	-0.20504098
53	0x3dedfdcd	0.11620674
54	0x3ed244b1	0.41068032
55	0xbf6961cf	-0.9116487
56	0x3bda9e94	0.006671736
57	0xbe97103f	-0.29504582
58	0xbe27ebab	-0.16398494
59	0x3eb0d634	0.34538424
60	0xbe4d96b0	-0.20077014
61	0xbe45d0b8	-0.19317901
62	0x3f3b7edc	0.7324045
63	0xbed309f8	-0.41218543
64	0x3e70394f	0.23459361
65	0xbb6ffc27	-0.00366188
66	0xbe982195	-0.2971312
67	0xbdf193f2	-0.117957965
68	0xbe9864c6	-0.29764384
69	0xbe53bd82	-0.2067776
70	0x3f4a2cc0	0.78974533
71	0x3dc5517d	0.09634683
72	0x3a80c11c	0.0009823176
73	0x3ca2359a	0.01980095
74	0x3e839be0	0.2570486
75	0x3d163948	0.03667572
76	0xbe2e9713	-0.17049818
77	0xbdcf8a31	-0.1013378
78	0x3f8e21e4	1.1104093
79	0xbf214b8d	-0.63005906
80	0xbe9af52d	-0.3026518
81	0x3dcdebed	0.10054765
82	0x3de618a5	0.11235169
83	0x3d0fa9c5	0.035074014
84	0xbe93d540	-0.28873634
85	0xbea70ef4	-0.32628596
86	0x3e6401f0	0.22266364
87	0x3d02ad01	0.03190327
88	0xbe42e0fa	-0.19031134
89	0x3dcd930f	0.10037815
90	0xbd2fd388	-0.04292634
91	0xbd955109	-0.07290847
92	0xbe7f3eb2	-0.2492626
93	0x3e97e6bf	0.29668233
94	0x3f8b2573	1.0870804
95	0xbefc1b19	-0.49239424
96	0x3ea3fe47	0.32029936
97	0xbc994d9d	-0.018713767
98	0xbe93a854	-0.28839362
99	0x3e523b37	0.20530401
100	0xbcbaf114	-0.022820033
101	0xbddf173c	-0.108931035
102	0xbf726b49	-0.94694954
103	0xc04e1fd3	-3.2206924
104	0x3e243310	0.16035104
105	0x3e5671b5	0.20941813
106	0x3e27aa21	0.16373493
107	0x3db8c3fa	0.090217546
108	0x3d8a4c5b	0.06752845
109	0x3e714fad	0.2356555
110	0xbec56ebe	-0.38561052
111	0xbf6b023c	-0.91800284
112	0xbc874435	-0.016512016
113	0xbd4e53d4	-0.050372913
114	0xbcab1fa9	-0.02088912
115	0x3e93a922	0.28839976
116	0xbe38dc24	-0.18052727
117	0xbe53bb36	-0.20676884
118	0x3f8fc38b	1.123155
119	0x3d86d61f	0.06583809
120	0x3eb1163d	0.3458728
121	0xbe8725ef	-0.2639613
122	0xbe93fdef	-0.28904673
123	0x3e996007	0.29956076
124	0xbe863eb9	-0.2621973
125	0x3de15509	0.11002547
126	0x3fa2571c	1.2682834
127	0x3edc2156	0.42994183
128	0x3e01041c	0.12599224
129	0xbe882072	-0.26587254
130	0x3c4b34eb	0.012402753
131	0xbe146914	-0.14493209
132	0x3dfa5a2f	0.122242324
133	0xbe5bbc56	-0.21458563
134	0x3fcff291	1.62459
135	0xbe9ac170	-0.30225706
136	0x3deb80fc	0.11499211
137	0x3c231ee4	0.009956095
138	0x3de548e5	0.11195544
139	0x3ead26d8	0.33818698
140	0x3e0ad5b1	0.1355808
141	0x3e479900	0.19491959
142	0xbe338a9c	-0.17533344
143	0xbe4e9358	-0.20173395
144	0xbd7d94f1	-0.06190962
145	0x3d04e777	0.032447305
146	0x3e000e68	0.12505496
147	0x3e3ae169	0.1825005
148	0xbe3113d0	-0.17292714
149	0xbd82528c	-0.06363401
150	0x3f4c105b	0.79712456
151	0x3f186bbd	0.59539396
152	0xbd8197b4	-0.06327763
153	0xbe381c11	-0.17979456
154	0x3e976e4b	0.29576334
155	0x3dc3eac5	0.09566263
156	0xbd6ef520	-0.05833924
157	0x3d7b9ccf	0.06142884
158	0x3f0187d4	0.5059788
159	0x3eb3aa9a	0.35091096
160	0x3ec91ac7	0.39278242
161	0xbd4b7856	-0.04967531
162	0xbdf86a51	-0.12129653
163	0xbe6af15a	-0.22943631
164	0xbe74f9b4	-0.23923379
165	0x3d82e3dd	0.06391118
166	0xbe6d1717	-0.2315334
167	0x3fbdf1dc	1.4839435
168	0xbe067f91	-0.131346
169	0x3e2b6c3e	0.1674051
170	0xbe7e6e1a	-0.24846688
171	0x3e1571b1	0.14594151
172	0x3de841b9	0.113406606
173	0xbd9c6ef7	-0.07638352
174	0xbe8f192e	-0.27948898
175	0x3ee5379c	0.4476899
176	0xbe311942	-0.17294791
177	0xbc8a3004	-0.016868599
178	0x3c9ef2e5	0.01940293
179	0x3e93eb22	0.2889033
180	0xbe32ea69	-0.17472233
181	0x3e5aa6c3	0.21352677
182	0xc0098431	-2.1486933
183	0x3f34a5d4	0.70565534
184	0x3df12d3b	0.11776205
185	0xbd94eb19	-0.07271404
186	0x3e9b50b8	0.3033502
187	0xbeb1f98d	-0.34760705
188	0xbc7a4b8f	-0.015276804
189	0x3d09ad2f	0.033612426
190	0xbe603779	-0.21896161
191	0x3e9729da	0.29524118
192	0xbe93ec24	-0.28891098
193	0x3e1624f7	0.14662538
194	0x3d8d003d	0.06884811
195	0xbd62e798	-0.055396646
196	0xbde04a4f	-0.10951673
197	0x3ce072e0	0.027398527
198	0xbef58c87	-0.47958776
199	0x3ed82af9	0.42220286
200	0xbe2d6fee	-0.16937229
201	0xbd35b7b3	-0.044364642
202	0x3d6c2bc5	0.05765893
203	0x3e42ceed	0.19024248
204	0xbe85567b	-0.26042542
205	0xbd73151b	-0.0593463
206	0xbfbdf678	-1.4840841
207	0xbe9d228a	-0.30690414
208	0xbd40bfdd	-0.047057975
209	0xbd78d6e8	-0.060751826
210	0xbdf07cb0	-0.11742532
211	0xbd88b567	-0.06675225
212	0xbdd011e4	-0.10159662
213	0xbbe5b454	-0.007010022
214	0xbf995ff9	-1.1982414
215	0xbfc86ff1	-1.5659162
216	0x3d8f4b0f	0.06996738
217	0x3e7119c2	0.23544982
218	0x3bbed388	0.0058235563
219	0x3e2a8a53	0.16654329
220	0x3eceaed5	0.4036776
221	0x3c328e7a	0.010898227
222	0x3f81b2bf	1.0132674
223	0xbd234189	-0.03985742
224	0xbd689d17	-0.056790438
225	0xbd6d2db2	-0.057904907
226	0xbe39f4f4	-0.18159848
227	0x3e8ca974	0.27473032
228	0xbe1fe593	-0.1561492
229	0x3d04a88f	0.032387313
230	0xbe0265d2	-0.12734154
231	0x3cb1585f	0.021648584
232	0xbd9f043e	-0.07764481
233	0x3d28ba64	0.04119338
234	0xbe9a35d6	-0.301192
235	0x3c8fa291	0.017533572
236	0x3e8d377d	0.27581397
237	0x3dc597a7	0.09648066
238	0xbd236138	-0.039887637
239	0xbe81c115	-0.25342622
240	0xbe04ea38	-0.12979972
241	0xbe18262f	-0.14858316
242	0x3e2345c2	0.15944579
243	0x3e17d582	0.1482754
244	0x3e35f64b	0.17769735
245	0x3ea46873	0.32110938
246	0x401515b2	2.3294492
247	0xbeaf351d	-0.3422021
248	0x3c0bec5f	0.008540242
249	0x3ea1a234	0.31569064
250	0x3e18c543	0.14919
251	0xbd7320e2	-0.05935753
252	0x3e80b4aa	0.25137836
253	0x3e4582ad	0.1928813
254	0xbe91cde7	-0.28477404
255	0xbc62a88a	-0.013834128

value.0.bias f4 [32]
0	0xbea17f61	-0.31542495
1	0x3e7ef1f2	0.24896982
2	0xbe801ae3	-0.25020513
3	0xbe08e8bb	-0.1337003
4	0xbe08b8fa	-0.13351813
5	0x3dba17a7	0.090865426
6	0xbef61fc7	-0.4807112
7	0x3f532a8f	0.82486814
8	0xbea366bd	-0.3191432
9	0x3f0f3337	0.5593752
10	0x3e269085	0.16266067
11	0xbe1e0dd2	-0.1543496
12	0xbe102fb7	-0.14080702
13	0xbea7df3b	-0.327875
14	0x3e23598a	0.15952125
15	0xbeb686de	-0.3564977
16	0xbee35830	-0.4440322
17	0x3e897dd4	0.26853812
18	0x3eab7a97	0.33491966
19	0xbd4ae5e7	-0.04953566
20	0xbf84d4cb	-1.0377439
21	0xbea057f5	-0.31317106
22	0x3e91612b	0.28394446
23	0x3e31cc01	0.17362978
24	0x3f04194b	0.51601094
25	0xbd0eb94c	-0.03484468
26	0x3f117dc7	0.56832546
27	0x3e8bd500	0.27310944
28	0x3efc3612	0.49260002
29	0x3ce7392c	0.028225504
30	0x3e21477c	0.15749925
31	0xbf06da31	-0.52676684

value.2.weight f4 [32, 32]
0	0x3e16933c	0.14704603
1	0x3d89ec0c	0.067344755
2	0xbe99c235	-0.3003098
3	0x3a15c88e	0.0005713784
4	0x3dff2c12	0.124595776
5	0xbe1620b7	-0.14660917
6	0xbe14b792	-0.14523152
7	0x3d71c5b3	0.05902643
8	0xbd276bec	-0.040874407
9	0x3dd49af7	0.1038112
10	0xbc65b7ed	-0.014020902
11	0x3d7b3579	0.061330292
12	0x3de26cf9	0.11055941
13	0x3e21c3cb	0.15797345
14	0xbbf74d47	-0.007547054
15	0xbe553fcf	-0.20825122
16	0x3e883ddd	0.26609698
17	0xbde03724	-0.10948017
18	0xbc568ec1	-0.013095559
19	0xbeea2a3a	-0.4573534
20	0x3e04a953	0.12955217
21	0xbd98d6ca	-0.07462843
22	0xbeae0556	-0.33988446
23	0x3e000c83	0.12504773
24	0x3d4a19f1	0.049341146
25	0xbc9ce0f7	-0.01915024
26	0xbd5f7ed0	-0.054564297
27	0x3d668f7f	0.056289192
28	0x3ddb5d5f	0.107111685
29	0x3c71e88c	0.014764916
30	0xbf625f09	-0.8842626
31	0xbdf79474	-0.12088862
32	0x3e226a95	0.1586097
33	0xbdbdb3bc	-0.09262797
34	0x3db68bba	0.089133695
35	0xbd9dd5b4	-0.07706776
36	0xbde5625a	-0.112004
37	0x3e13186d	0.14364786
38	0xbe8460e2	-0.25855166
39	0x3e71efd3	0.23626642
40	0x3ddb0dc7	0.10695987
41	0xbd4c7392	-0.049914904
42	0x3d4ea579	0.050450776
43	0x3d1c47c4	0.03815438
44	0x3e16ad5e	0.14714572
45	0x3d8f0a4b	0.06984385
46	0xbd568826	-0.052375935
47	0x3d441bb9	0.047878
48	0x3e5cc713	0.21560316
49	0x3e251447	0.16121016
50	0xbdf2cd9c	-0.11855623
51	0xbe5d5508	-0.21614468
52	0xbd95722a	-0.07297166
53	0xbdf1d307	-0.118078284
54	0xbd280280	-0.04101801
55	0xbcffd994	-0.031231679
56	0x3c11abab	0.0088910265
57	0x3d21de0d	0.039518405
58	0xbdcca85c	-0.099930495
59	0xbeb8f276	-0.36122483
60	0x3d6b2478	0.057407826
61	0xbdfe8167	-0.12427025
62	0xbd3b08ef	-0.045662817
63	0xbef810cb	-0.48450312
64	0x3b56e19d	0.0032788285
65	0x3e41f059	0.18939342
66	0x3d8593ec	0.065223545
67	0xbd9bb0c2	-0.07602073
68	0x3d90dfb4	0.07073918
69	0xbdd07203	-0.10177996
70	0x3c854e3a	0.016272653
71	0xbc82308b	-0.015892288
72	0x3e2a1a93	0.166117
73	0x3e8e1f17	0.27758095
74	0xbd4dfe6a	-0.050291456
75	0xbdcaa574	-0.09894839
76	0x3c31221b	0.010811354
77	0x3d26cf2d	0.040724922
78	0x3d20baba	0.039240576
79	0xbcce76c2	-0.025203113
80	0xbd6531ae	-0.05595558
81	0x3d9e56a0	0.07731366
82	0xbe09a6bc	-0.1344251
83	0xbe124ac7	-0.14286338
84	0xbd2fda58	-0.04293284
85	0x3e0063ff	0.12538145
86	0x3dbf6fa8	0.093474686
87	0xbb67c195	-0.0035363187
88	0x3cdd1a0b	0.026989957
89	0xbdfcd454	-0.12345186
90	0x3e1db511	0.15401103
91	0x3d6f7538	0.058461398
92	0xbdd7d501	-0.10538674
93	0x3deabc05	0.11461643
94	0xbe27d7f2	-0.1639097
95	0xbc66f1d1	-0.014095739
96	0xbc8e834c	-0.017396592
97	0xbd1091ce	-0.0352953
98	0x3e0fe184	0.14050871
99	0x3d3cdf41	0.04611135
100	0x3d937099	0.07199211
101	0x3dbd0d7e	0.09231089
102	0xbe1dd9bf	-0.15415095
103	0xbc2c97f1	-0.0105342725
104	0xbd24295b	-0.040078502
105	0x3d6393aa	0.055560745
106	0xbd6ac91c	-0.0573207
107	0x3d945ac1	0.072438724
108	0xbe033548	-0.12813294
109	0xbd2426f2	-0.040076204
110	0x3c7d733c	0.015469369
111	0xbc8aada3	-0.0169285
112	0xbe284d2e	-0.16435692
113	0xbe1842ee	-0.14869282
114	0x3d9a9d94	0.07549587
115	0x3db2c185	0.08728317
116	0x3dfb1281	0.12259389
117	0xbdafbca2	-0.08580901
118	0xbd427646	-0.047476076
119	0xbd75d3a0	-0.060016274
120	0x3de58183	0.11206343
121	0x3dee6cb4	0.11641827
122	0x3e2fa955	0.17154439
123	0xbea38265	-0.3193542
124	0xbdc4e236	-0.09613459
125	0x3d4fad5a	0.05070243
126	0x3e29d04e	0.16583368
127	0xbc9848e5	-0.018589446
128	0x3d656e4a	0.056013383
129	0x3dc269fb	0.094928704
130	0x3e1c8e6a	0.15288702
131	0x3e3924d9	0.18080463
132	0xbe3749c2	-0.1789923
133	0x3e0e3e0f	0.13890861
134	0xbe0cb630	-0.13741374
135	0xbde20333	-0.110357665
136	0xbe70cf15	-0.23516496
137	0xbde80ac5	-0.11330179
138	0xbd3e554a	-0.046468057
139	0xbb3f88db	-0.002922586
140	0x3e8922f3	0.26784477
141	0x3db511e5	0.08841304
142	0xbe4f52a5	-0.2024637
143	0xbe9987cc	-0.29986417
144	0xbe3cde1e	-0.18444106
145	0xbc8e2f55	-0.017356554
146	0x3e0fae27	0.14031278
147	0xbe1e0959	-0.15433253
148	0xbeab4e44	-0.3345815
149	0x3e4adf07	0.1981164
150	0x3d90b550	0.070658326
151	0x3dcbd909	0.099535055
152	0x3dfcf01e	0.12350486
153	0x3e54f1b0	0.20795321
154	0x3e343574	0.17598516
155	0xbd6d7075	-0.057968576
156	0x3e4b7d38	0.19871986
157	0xbdc7b44b	-0.09751185
158	0xbe3c745c	-0.18403763
159	0x3dd546c5	0.10413889
160	0xbc475145	-0.012165372
161	0x3e07ea47	0.13272963
162	0xbe047b45	-0.12937649
163	0x3df22c40	0.11824846
164	0xbd9df2fe	-0.07712363
165	0x3d8eac10	0.06966412
166	0x3e21296a	0.15738454
167	0x3e564c87	0.2092763
168	0x3e083472	0.13301256
169	0x3d898aab	0.06715902
170	0x3e0cab75	0.1373728
171	0xbd2d74ac	-0.042347595
172	0x3de752e0	0.11295104
173	0x3e0dd0f7	0.13849245
174	0x3c9a4a46	0.018834244
175	0x3de10de0	0.109889746
176	0xbda23444	-0.07920125
177	0x3dd95c40	0.106132984
178	0xbc8775bb	-0.01653563
179	0x3e0638d6	0.13107619
180	0x3da7a81d	0.08186362
181	0xbd9bf1f1	-0.07614506
182	0x3dbf1114	0.09329429
183	0x3e209eea	0.15685621
184	0xbd87206f	-0.06597983
185	0xbda2d924	-0.079515725
186	0xbd8757bd	-0.066085316
187	0xbbf25a0a	-0.0073959874
188	0xbe013563	-0.12618022
189	0xbd5fa6d1	-0.054602448
190	0x3cd6ee95	0.026236812
191	0x3de5f532	0.11228408
192	0x3eec0d8d	0.46104088
193	0x3cb74fe6	0.022376966
194	0xbdbf2299	-0.09332771
195	0xbe90a426	-0.28250235
196	0x3da8da38	0.08244747
197	0xbe2452a4	-0.1604715
198	0x3e0ee688	0.13955128
199	0xbccdd13f	-0.02512419
200	0xbd23e158	-0.040009826
201	0xbdbb1937	-0.09135669
202	0x3d9d984b	0.07695063
203	0xbdcbba8e	-0.09947692
204	0xbc371f4a	-0.0111768935
205	0x3ceb11e4	0.028695054
206	0xbc23a1a0	-0.009987265
207	0x3e0c3616	0.13692507
208	0x3df0a178	0.11749548
209	0xbf22b23b	-0.6355321
210	0xbe63db50	-0.2225163
211	0xbf3c9d17	-0.736772
212	0xbd84ec9b	-0.064904414
213	0x3c808308	0.01568748
214	0xbd562e78	-0.05229041
215	0xbe53cf11	-0.20684458
216	0x3dfa7833	0.122299574
217	0xbdaea98b	-0.085284315
218	0x3df50cbb	0.11965319
219	0x3a0fc23d	0.0005483961
220	0x3e4eb1e5	0.20185049
221	0xbd8e5c87	-0.06951242
222	0xbe34cbc7	-0.1765586
223	0xbe0b14f3	-0.1358221
224	0x3e349645	0.17635448
225	0xbdcb0f8e	-0.09915076
226	0x3e1eed84	0.15520293
227	0x3d241de7	0.04006758
228	0xbd2d0482	-0.042240627
229	0x3d9ba4c5	0.07599787
230	0xbdcc0e05	-0.099636115
231	0xbcbce4e4	-0.023058362
232	0xbe12e258	-0.14344156
233	0xbdc407fc	-0.095718354
234	0x3d589df7	0.052885022
235	0x3c043812	0.008070009
236	0x3e8389d3	0.2569109
237	0xbe325248	-0.174142
238	0x3d6bf697	0.057608213
239	0x3e64765f	0.2231078
240	0xbcfdf3f6	-0.031000119
241	0xbca8cd0f	-0.020605592
242	0xbd023fa3	-0.03179897
243	0xbe250da4	-0.16118485
244	0xbea81b27	-0.32833216
245	0xbcb00074	-0.021484591
246	0xbdaa9103	-0.0832844
247	0x3bf4abf4	0.0074667875
248	0xbccec49a	-0.025240231
249	0x3cc9a4e5	0.02461476
250	0x3e1e523b	0.15461056
251	0xbd8a9927	-0.06767493
252	0xbe3dbac6	-0.1852828
253	0xbecf62bd	-0.4050502
254	0xbdc18e91	-0.094510205
255	0x3e11cc7f	0.14238165

value.2.bias f4 [32]
0	0x3e986d0a	0.2977069
1	0x3dcaf900	0.09910774
2	0x3e5eb85a	0.21750012
3	0xbea2ac03	-0.3177186
4	0x3e30c70d	0.17263432
5	0xbe8390cd	-0.25696412
6	0x3e3b7413	0.18305998
7	0xbe4a249a	-0.19740525
8	0x3d4ab0bf	0.049484964
9	0x3d471655	0.04860528
10	0xbe6b2119	-0.22961845
11	0x3d4b0cba	0.049572684
12	0x3df010a2	0.117219225
13	0x3d878eb2	0.06619014
14	0x3e9fbc5c	0.31198394
15	0x3d824974	0.06361666
16	0xbd63914f	-0.0555585
17	0xbefa29cd	-0.48860016
18	0xbdae9c8b	-0.08525952
19	0x3dee8d24	0.11648014
20	0xbe6aeced	-0.22941943
21	0x3ea4d91c	0.3219689
22	0xbe081bf3	-0.13291912
23	0x3e03d6d7	0.12874924
24	0xbe4e28c8	-0.20132744
25	0xbc76e703	-0.015069726
26	0x3d45386f	0.048149522
27	0xbc9d3dc7	-0.019194497
28	0xbdc33cd7	-0.09533089
29	0xbab0306b	-0.0013442164
30	0xbe363e8d	-0.17797299
31	0xbdc34d8b	-0.095362745

value.4.weight f4 [1, 32]
0	0x3d59bc06	0.05315783
1	0x3d25bc2b	0.040462654
2	0x3de56eeb	0.112027965
3	0xbd530718	-0.051520437
4	0xbda5001b	-0.08056661
5	0xbde88b5f	-0.11354708
6	0xbd90a552	-0.07062782
7	0xbd8188c2	-0.063249126
8	0xbd4fb5f6	-0.05071064
9	0x3daae486	0.08344369
10	0xbd3902f2	-0.045168824
11	0x3dc21f29	0.094785996
12	0x3d636e7b	0.055525284
13	0x3d3cf04b	0.0461276
14	0x3e141f44	0.14465052
15	0xbd2d58bc	-0.04232095
16	0xbd24ad8c	-0.04020457
17	0xbdf06b3c	-0.11739203
18	0x3e420b79	0.18949689
19	0x3cd2b7c4	0.025722392
20	0xbdb384d8	-0.08765572
21	0x3df05429	0.11734802
22	0x3e13897a	0.14407912
23	0x3de5b9b1	0.112170584
24	0xbd4f4790	-0.050605357
25	0xbe03b48d	-0.12861843
26	0xbd6981a5	-0.057008404
27	0x3c690a46	0.014223641
28	0xbe18f3b9	-0.14936723
29	0xbd6edbd5	-0.058315117
30	0x3d8756f3	0.06608381
31	0x3d222ec3	0.039595377

actor.0.weight f4 [32, 6]
0	0x3f0de616	0.5542921
1	0x3aeaaf9d	0.001790512
2	0xbe93e13a	-0.28882772
3	0xbf2993ea	-0.66241324
4	0x3d024e7d	0.031813134
5	0x3d678c65	0.056530375
6	0xbe6cf5cd	-0.2314064
7	0xbe1c77b2	-0.15280035
8	0xbeb21edd	-0.34789172
9	0xbe9d62e4	-0.3073951
10	0xbe82194a	-0.2540992
11	0xbf3433e0	-0.70391655
12	0xbece84b2	-0.40335613
13	0x3cc8d0b7	0.024513585
14	0x3f061c69	0.523871
15	0x3ee3b6a6	0.44475287
16	0xbe5903fc	-0.21192926
17	0x3eb8bb86	0.3608057
18	0x3ee7433f	0.45168492
19	0xbe1eebc9	-0.15519632
20	0xbf02c819	-0.51086575
21	0x3ec4c0b4	0.3842827
22	0x3ea9bfb5	0.33154073
23	0xbee3c28f	-0.44484374
24	0xbda98042	-0.08276416
25	0x3e0d1782	0.13778499
26	0x3f6f8128	0.9355645
27	0xbe8f4f2c	-0.2799009
28	0x3ed0ce40	0.40782356
29	0x3db82e80	0.08993244
30	0xbe2ad78d	-0.16683789
31	0x3eb0cf4e	0.3453316
32	0x3eb528fd	0.35382834
33	0xbe93cf96	-0.28869313
34	0x3eb466aa	0.35234576
35	0x3e873ee7	0.26415178
36	0xbdb54d9f	-0.08852696
37	0x3df80e8e	0.12112151
38	0xbecf6e72	-0.4051395
39	0xbe477cda	-0.19481221
40	0xbe447aea	-0.19187513
41	0x3e809f63	0.25121602
42	0xbe70f349	-0.23530306
43	0x3d2d6aca	0.04233817
44	0x3d898349	0.06714494
45	0xbede0b62	-0.4336806
46	0xbf05e769	-0.5230623
47	0xbdafd12f	-0.085848205
48	0x3eb9b03a	0.36267263
49	0x3e0afa4b	0.13572042
50	0xbed440af	-0.414556
51	0x3e9d449e	0.30716413
52	0xbdff2249	-0.12457711
53	0x3e962327	0.29323694
54	0xbf02c628	-0.5108361
55	0x3e0d1eb9	0.13781251
56	0x3ee972d0	0.45595407
57	0x3f05b608	0.5223088
58	0xbef9973a	-0.4874819
59	0x3e2159e5	0.15756948
60	0x3c0c29f8	0.008554928
61	0xbe88afe5	-0.26696697
62	0x3eae4a95	0.34041277
63	0x3d90c3d9	0.07068605
64	0x3ed7395e	0.42035955
65	0x3da3f8f2	0.08006467
66	0xbef26fbc	-0.47350872
67	0x3bd4a526	0.006489414
68	0xbe3a0a22	-0.18167928
69	0x3d924ace	0.07143174
70	0x3e66cfd7	0.22540222
71	0x3e8f83f5	0.28030363
72	0x3e3553ef	0.177078
73	0xbeecdd1f	-0.46262452
74	0x3ed3c2ee	0.41359657
75	0xbe742ab6	-0.23844418
76	0xbe74a927	-0.23892651
77	0xbecf65c2	-0.40507323
78	0x3e93b4de	0.28848928
79	0xbf1143fd	-0.56744367
80	0xbebc1d0c	-0.3674091
81	0xbda37a6e	-0.07982336
82	0xbeaaa807	-0.3333132
83	0x3dd7ee98	0.10543555
84	0x3e7aafd3	0.24481134
85	0x3cca2352	0.024675045
86	0xbf2b046d	-0.6680363
87	0x3edeb709	0.4349902
88	0x3e4f3215	0.20233949
89	0xbdd44a52	-0.10365738
90	0xbcf3017c	-0.029663794
91	0xbd8537b8	-0.06504768
92	0xbed6cf41	-0.41954997
93	0xbea602d3	-0.3242403
94	0xbf0460b5	-0.51710063
95	0xbf19d30b	-0.6008765
96	0xbe42ed7b	-0.19035904
97	0x3ecdb35f	0.40175912
98	0x3eeee4ee	0.46659034
99	0x3f32fee8	0.69920206
100	0x3e643426	0.22285518
101	0xbe338718	-0.17532003
102	0x3d468694	0.048468187
103	0xbf1ae0ae	-0.60499084
104	0xbeb06894	-0.34454787
105	0xbea7ce6a	-0.3277467
106	0x3e6602cb	0.22462003
107	0xbda76a27	-0.08174544
108	0x3e965076	0.29358262
109	0x3ef31f0b	0.4748462
110	0x3e9c2237	0.30494854
111	0x3e60c7fd	0.2195129
112	0xba1b01c0	-0.00059130415
113	0x3edfc66d	0.43706074
114	0xbecf1d3f	-0.40452
115	0x3c5c20b0	0.013435528
116	0x3f4a5996	0.7904295
117	0xbef8f0e7	-0.48621294
118	0xbdfcd1f7	-0.12344735
119	0x3e1eafc1	0.15496732
120	0xbe9d51cc	-0.3072647
121	0x3efdc832	0.495668
122	0xbeb5dac6	-0.35518473
123	0x3eb7e673	0.35918006
124	0xbf18f06c	-0.59741855
125	0xbee7fbee	-0.45309395
126	0xbe1d8051	-0.1538098
127	0xbe315333	-0.17316894
128	0xbf0ce87b	-0.5504224
129	0x3f057d33	0.52144164
130	0xbd1b5aa0	-0.037928224
131	0xbd10ffa2	-0.03540004
132	0xbe921b1f	-0.28536317
133	0x3e40e3aa	0.18836847
134	0x3f10beb9	0.5654102
135	0xbf0c1142	-0.54713833
136	0x3f16aed6	0.5886053
137	0xbd5a5fb7	-0.053313937
138	0xbe6aae88	-0.22918141
139	0x3ec1d7ac	0.37859857
140	0x3dcded8a	0.100550726
141	0x3b88c1fd	0.004173516
142	0x3ecea668	0.40361333
143	0x3d28c1fc	0.041200623
144	0x3eada365	0.33913723
145	0x3e281c76	0.16417107
146	0xbf215817	-0.6302504
147	0x3e0827aa	0.1329638
148	0xbd7a8e7d	-0.061171044
149	0xbee740ad	-0.4516653
150	0x3ed30ff0	0.41223097
151	0x3e5f9d41	0.21837331
152	0x3e55f0f3	0.20892696
153	0x3e42ca69	0.19022526
154	0xbef6eb6d	-0.4822649
155	0x3e0163eb	0.12635772
156	0xbb51385e	-0.0031924467
157	0x3ed21d34	0.41037905
158	0xbe842c29	-0.25814942
159	0xbea80427	-0.32815668
160	0xbeabc253	-0.33546695
161	0xbe4154b1	-0.18879963
162	0xbe4ed94b	-0.20200078
163	0xbf2f951d	-0.68586904
164	0xbeb9fd08	-0.3632586
165	0x3ece9e7e	0.40355295
166	0xbd208e4c	-0.039198205
167	0x3e2c1294	0.16803962
168	0x39cb8be4	0.00038823404
169	0x3f0728f1	0.52796847
170	0x3e445688	0.19173634
171	0xbea4152b	-0.320474
172	0xbec27f5e	-0.37987798
173	0x3d5807b2	0.052741714
174	0xbef5de0a	-0.48020965
175	0x3e4e99b9	0.20175828
176	0xbd5645e3	-0.052312743
177	0x3d7aa317	0.06119069
178	0x3e44aaaf	0.19205736
179	0xbd87fe9e	-0.06640361
180	0x3eed3113	0.46326503
181	0x3da7a889	0.081864424
182	0x3ececb51	0.40389493
183	0xbe172b08	-0.14762509
184	0xbea8a69b	-0.3293961
185	0xbea74599	-0.32670286
186	0x3dcd3a32	0.100208655
187	0x3ea06a61	0.3133116
188	0xbf063e90	-0.5243921
189	0xbec6fc5c	-0.3886441
190	0xbcca4356	-0.024690311
191	0x3f24fda1	0.64449507

actor.0.bias f4 [32]
0	0xbe29cf08	-0.16582882
1	0x3ec34451	0.3813806
2	0x3f10aa88	0.5651021
3	0x3cc02940	0.02345717
4	0xbe59e768	-0.2127968
5	0xbe984ca3	-0.2974597
6	0x3db06872	0.08613671
7	0xbee99cca	-0.45627433
8	0xbe56e94d	-0.20987435
9	0xbecba4b0	-0.39774084
10	0xbd0691d7	-0.032853927
11	0xbe126107	-0.14294825
12	0xbf11f2bd	-0.57011014
13	0x3eca59b6	0.3952157
14	0xbdf39e04	-0.118953735
15	0xbd038acf	-0.0321148
16	0x3e7f2980	0.24918175
17	0xbce71d5a	-0.028212238
18	0xbdf5f424	-0.12009457
19	0x3ecdb03e	0.40173525
20	0xbeebc3a1	-0.4604769
21	0x3e02e2a0	0.12781763
22	0xbd2e5e85	-0.04257061
23	0x3ea0e429	0.31424072
24	0xbec00b74	-0.37508738
25	0x3edcd2ba	0.43129522
26	0x3e1c6ebe	0.1527662
27	0xbcc586d9	-0.024112152
28	0xbcbd786e	-0.023128714
29	0xbee014a2	-0.43765742
30	0xbdc36f8a	-0.09542759
31	0xbcfb2775	-0.030658463

actor.2.weight f4 [32, 32]
0	0xbf01a061	-0.50635344
1	0x3d80b391	0.062842496
2	0xba097a30	-0.00052443426
3	0x3ec55ebe	0.38548845
4	0x3d33b75c	0.043876037
5	0xbeb55848	-0.35418916
6	0xbdb355f6	-0.0875663
7	0x3e469315	0.19392045
8	0x39d07c4f	0.0003976547
9	0xbba9e1cf	-0.005184389
10	0xbec54a13	-0.38533077
11	0x3e28f718	0.16500509
12	0x3d6f50fa	0.058426835
13	0x3d211cbe	0.03933405
14	0x3ec5d931	0.38642266
15	0xbdafa9b7	-0.085772924
16	0xbe96d39a	-0.29458314
17	0x3dd625f0	0.10456455
18	0x3d592b3b	0.053019743
19	0xbe80418d	-0.2505001
20	0x3e1cbdf7	0.15306841
21	0x3df23d38	0.11828083
22	0x3e3a8c05	0.18217476
23	0xbe89d3bd	-0.26919356
24	0xbe9b8d55	-0.30381265
25	0x3e657fdd	0.22412057
26	0x3e25d816	0.16195711
27	0x3e1e8894	0.15481788
28	0xbe84d3b8	-0.2594278
29	0x3e310ec3	0.17290787
30	0xbf021180	-0.5080795
31	0x3c96444d	0.018343115
32	0x3dee14ea	0.11625083
33	0xbe00fc9d	-0.12596364
34	0xbe31ad86	-0.1735135
35	0xbcfb2b19	-0.030660199
36	0xbc0da2b6	-0.00864475
37	0x3e230719	0.15920676
38	0x3e113b45	0.14182766
39	0xbeb504cb	-0.3535522
40	0xbb8227b2	-0.003972017
41	0xbe59937b	-0.21247666
42	0xbe76e296	-0.24109873
43	0xbf94a38a	-1.1612408
44	0xbf427cd2	-0.7597171
45	0xbe33a083	-0.17541699
46	0x3e0e9863	0.13925318
47	0xbed324b4	-0.4123894
48	0x3e766419	0.24061622
49	0xbede243e	-0.43387026
50	0x3e91a41a	0.28445512
51	0xbeef179a	-0.46697694
52	0xbc3243fa	-0.010880465
53	0xbeab5db2	-0.3346992
54	0xbef69e0b	-0.48167452
55	0x3ef33910	0.47504473
56	0x3d190547	0.03735855
57	0x3e00460e	0.12526724
58	0x3e0696c0	0.13143444
59	0x3e802125	0.25025287
60	0xbd77888b	-0.060432952
61	0xbefa99d2	-0.4894548
62	0x3d9def9e	0.07711719
63	0x3e3b4d10	0.18291116
64	0x3dd4f0a6	0.103974625
65	0x3e34022f	0.17578958
66	0xbdac6762	-0.08418156
67	0xbe620329	-0.22071518
68	0x3da8d017	0.08242815
69	0x3e563266	0.20917663
70	0xbe179d96	-0.14806208
71	0x3e124115	0.1428264
72	0xbf560425	-0.83600074
73	0x3c45f914	0.012083311
74	0xbe1563c9	-0.14588846
75	0xbd572048	-0.05252102
76	0x3d570d8c	0.052503154
77	0xbe501acf	-0.20322727
78	0xbe4ac9e5	-0.19803579
79	0x3e877d56	0.2646281
80	0x3e1a9f3d	0.15099807
81	0x3dae9ab4	0.08525601
82	0x3ce4a041	0.027908446
83	0xbcc79dbb	-0.024367204
84	0x3d6771c1	0.05650497
85	0xbe3ae2f1	-0.18250634
86	0x3e01ac6c	0.1266343
87	0xbef90cfc	-0.4864272
88	0xbda25632	-0.07926597
89	0xbee02c95	-0.43784013
90	0xbe2dfba2	-0.16990522
91	0xbe7d39f4	-0.24729139
92	0xbe7b4733	-0.24538879
93	0xbdc11ad5	-0.09428946
94	0x3e39fb09	0.18162169
95	0xbe57881e	-0.21048018
96	0xbe2b67e4	-0.1673885
97	0xbd405130	-0.046952426
98	0x3e871e78	0.26390433
99	0xbe4979a4	-0.19675308
100	0x3ed2de43	0.41185197
101	0x3d30fce9	0.043209944
102	0x3d459ca7	0.0482451
103	0xbd3f7583	-0.046742927
104	0x3dd22bc0	0.10262251
105	0x3e62fb19	0.22166099
106	0x3e2cb4eb	0.1686589
107	0x3ad2fc1d	0.0016096864
108	0xbb876116	-0.0041314466
109	0x3e330a26	0.1748434
110	0x3d92c71a	0.07166882
111	0x3d44a669	0.048010264
112	0x3eaf14e2	0.3419562
113	0x3ea45dbb	0.3210276
114	0xbebd45c2	-0.36967283
115	0xbd18708b	-0.037216704
116	0x3e4c24cf	0.19935916
117	0x3e795b41	0.24351217
118	0xbd67a6c1	-0.056555513
119	0x3e83b725	0.25725666
120	0xbd2af082	-0.041733272
121	0xbf815f1e	-1.0107152
122	0xbec6d349	-0.38833073
123	0x3dd0f80b	0.102035604
124	0x3e0b7e65	0.13622434
125	0x3dfc807a	0.123291925
126	0xbe0fdbde	-0.14048716
127	0xbe9832b9	-0.29726198
128	0xbf02e6f3	-0.5113365
129	0x3e756fc8	0.23968422
130	0xbe771523	-0.24129157
131	0xbe51c4c1	-0.20485212
132	0x3eac91b9	0.33704928
133	0x3df8477c	0.121230096
134	0x3cca2f05	0.024680624
135	0x3e9e1e30	0.30882406
136	0x3e29b8c7	0.16574393
137	0xbd5f9888	-0.054588825
138	0xbed96765	-0.42461696
139	0xbd75a869	-0.05997506
140	0x3ca54f01	0.020179274
141	0xbea476c8	-0.32121873
142	0x3d9ec88d	0.07753096
143	0xba3037d7	-0.0006722188
144	0x3e441ff4	0.19152814
145	0x3ec2ce0f	0.38047835
146	0x3eaddf68	0.33959508
147	0x3da9434c	0.08264789
148	0x3da240e6	0.07922535
149	0xbe465b5f	-0.19370793
150	0x3d15e5a4	0.036595955
151	0xbdcf22a0	-0.10114026
152	0x3d0e088a	0.034676112
153	0xbc17443b	-0.009232576
154	0xbd5870a1	-0.052841786
155	0xbce846bb	-0.02835404
156	0x3e259ff5	0.161743
157	0xbd1ab899	-0.037773702
158	0xbaf0bfa4	-0.001836766
159	0xbdc06c2a	-0.09395631
160	0xbd425a82	-0.047449596
161	0x3e9bc39b	0.30422673
162	0xbda5454f	-0.0806986
163	0x3e91f005	0.28503433
164	0x3ca78989	0.020451324
165	0x3e83611e	0.25660032
166	0xbe8ddb29	-0.27706268
167	0x3dc7d3c9	0.09757192
168	0xbe383de7	-0.17992364
169	0xbe7dbe25	-0.24779566
170	0x3eb98ee2	0.36241823
171	0xbb6f9c0b	-0.0036561515
172	0xbdb25664	-0.08707884
173	0x3d2320e3	0.039826285
174	0xbe06fd14	-0.13182479
175	0x3d2d55d7	0.04231819
176	0x3e11d124	0.14239937
177	0xbd881e26	-0.06646375
178	0x3cdbaece	0.026816752
179	0x3e9d08f6	0.306709
180	0xbe19a83c	-0.15005583
181	0xbe8fd67d	-0.2809333
182	0x3ebc57d4	0.36785758
183	0xbdfc44e6	-0.12317829
184	0xbd29c8c9	-0.04145125
185	0x3d841558	0.064493835
186	0xbdec64ce	-0.115426645
187	0x3dc90ea8	0.098172486
188	0x3d8bfefe	0.06835745
189	0xbb780941	-0.0037847313
190	0x3e9b9a2b	0.30391058
191	0x3d798bd7	0.060924377
192	0xbe59ff44	-0.21288782
193	0xbd44d2c1	-0.048052553
194	0x3d9d29a1	0.07673956
195	0xbebda229	-0.3703778
196	0x3efa019c	0.48829353
197	0x3d048190	0.032350123
198	0x3e174082	0.14770702
199	0x3df53eea	0.119748905
200	0x3d725ccd	0.059170533
201	0x3db2fe03	0.08739855
202	0xbf37d889	-0.7181478
203	0xbdc382ec	-0.09546456
204	0xbe118d0b	-0.1421396
205	0xbee16739	-0.44024065
206	0xbd125627	-0.035726693
207	0x3e75ce4f	0.24004482
208	0xbeec62f2	-0.4616924
209	0xbe5f94bc	-0.21834081
210	0xbd5bd715	-0.053671915
211	0xbd8599a3	-0.065234445
212	0x3e1fd9b9	0.15610398
213	0xbe8ab511	-0.27091268
214	0x3e0b0b83	0.1357861
215	0x3d5ac733	0.053412627
216	0x3e2276ff	0.15865706
217	0xbe72ed15	-0.23723252
218	0x3e7555cc	0.2395851
219	0xbefdcbf4	-0.49569666
220	0x3e36dbfe	0.17857358
221	0xbe60d9a3	-0.21958022
222	0x3e0203f2	0.12696818
223	0xbe2a358d	-0.1662199
224	0xbe697e1f	-0.22802018
225	0xbdc2c32a	-0.09509881
226	0x3e076c06	0.13224801
227	0x3e9ddde1	0.30833343
228	0xbeaff4f1	-0.34366563
229	0x3eaa51e3	0.332656
230	0xbdb22314	-0.08698097
231	0x3d95e45b	0.07318946
232	0x3dfd5908	0.12370497
233	0x3bd2d999	0.006434631
234	0x3ea1cfe2	0.31603914
235	0x3e92fea8	0.28709912
236	0xbddc2726	-0.107496545
237	0x3cb17144	0.021660455
238	0x3df48186	0.11938767
239	0x3e0549fe	0.13016507
240	0x3e45a446	0.19300947
241	0xbdf60fa2	-0.120147005
242	0x3e4aa81f	0.19790696
243	0xbccd342f	-0.025049297
244	0x3de0ab5e	0.10970186
245	0x3d747a3e	0.05968689
246	0x3e7b99d0	0.24570394
247	0x3e2c3f32	0.16820982
248	0xbe2b5d12	-0.16734722
249	0x3e2dc332	0.16968992
250	0x3dcd2374	0.10016528
251	0x3e06e9ad	0.13175078
252	0xbe607703	-0.219204
253	0x3cc2477a	0.023715723
254	0x3e2c2be3	0.16813616
255	0xbddce6e0	-0.107862234

actor.2.bias f4 [32]
0	0x3e093048	0.13397324
1	0x3c2efcc6	0.010680383
2	0xbe8a65df	-0.27030846
3	0x3d8201cf	0.06348001
4	0xbdbf2780	-0.09333706
5	0xbc2db92c	-0.01060323
6	0xbd8391f2	-0.06424321
7	0xbe5a736c	-0.21333092
8	0xbe15c338	-0.14625251
9	0x3d168316	0.036746107
10	0xbdb3410b	-0.0875264
11	0x3e0dfc9b	0.13865893
12	0xbaf58d10	-0.0018734057
13	0x3e0bea08	0.13663495
14	0xbb6a4395	-0.0035745848
15	0xbe1adb20	-0.15122652
16	0x3c95c341	0.01828158
17	0xbd8e2f9c	-0.069426745
18	0xbd68881c	-0.05677043
19	0x3ccf1ddd	0.025282795
20	0x3e36d46a	0.17854467
21	0xbda6f351	-0.08151878
22	0xbd9705d7	-0.07374161
23	0x3cacd3ab	0.021097025
24	0x3d4d13b1	0.050067607
25	0xbcc23351	-0.02370611
26	0x3e8cb8c4	0.27484715
27	0x3c7c2695	0.015390058
28	0x3d14377d	0.03618573
29	0xbd53bb47	-0.051692273
30	0xbe3ec06c	-0.1862809
31	0x3cc7be53	0.024382746

actor.4.weight f4 [2, 32]
0	0xbe266e50	-0.16253018
1	0x3eecef3f	0.4627628
2	0x3df56c95	0.11983601
3	0x3e175d1f	0.14781617
4	0xbd010be3	-0.031505477
5	0x3edeafe7	0.43493578
6	0x3def5b78	0.11687368
7	0xbdd78b7e	-0.10524653
8	0xbf523f9f	-0.8212833
9	0x3e99efd4	0.30065787
10	0xbdd5cc13	-0.10439315
11	0xbe64b3bd	-0.2233419
12	0xbede81df	-0.4345846
13	0x3daf7b01	0.08568383
14	0xbf2f8746	-0.68565786
15	0xbfb0724e	-1.3784883
16	0x3efffcc2	0.49997526
17	0xbeda71d3	-0.42664966
18	0x3e38f0d1	0.18060614
19	0x3e696e8b	0.22796075
20	0xbd67d983	-0.05660392
21	0x3f073fb9	0.5283161
22	0x3eea0289	0.4570506
23	0x3d1fb27d	0.03898858
24	0xbd9ec63d	-0.07752655
25	0x3e6e1338	0.23249519
26	0xbe5db3bf	-0.21650599
27	0xbf555fd8	-0.8334937
28	0xbbbc8f6a	-0.005754401
29	0xbe94a132	-0.29029232
30	0x3eb8799b	0.36030278
31	0xbf45b9e5	-0.7723678
32	0x3f0bc4a2	0.5459691
33	0x3d824679	0.06361098
34	0xbe878ba6	-0.2647373
35	0x3f759bb8	0.9594073
36	0x3e85f7c8	0.26165605
37	0xbe35ad73	-0.17741947
38	0x3e827951	0.25483182
39	0xbecac71c	-0.39605033
40	0x3e3a3ccb	0.18187253
41	0xbc95ea22	-0.01830012
42	0xbdacfb2a	-0.08446343
43	0x3ef28b89	0.47372082
44	0x3e897af9	0.26851633
45	0xbecb8c35	-0.39755407
46	0x3e5ee7a1	0.21768047
47	0x3eae9934	0.3410126
48	0xbe72b1f1	-0.23700692
49	0x3da07c65	0.078362264
50	0xbc1e87d8	-0.009675942
51	0xbee330de	-0.4437322
52	0xbed608ed	-0.41803685
53	0x3f9bc098	1.216815
54	0x3f0978cc	0.53699946
55	0xba9af1e8	-0.0011821361
56	0xbe8a1c47	-0.269747
57	0xbefbf7b3	-0.49212417
58	0xbf1a663d	-0.60312253
59	0xbdaa335d	-0.08310578
60	0x3f8c72bb	1.0972513
61	0x3f16ce65	0.58908683
62	0x3f017106	0.50563085
63	0xbf0ff68a	-0.56235564

actor.4.bias f4 [2]
0	0xbd32593c	-0.04354213
1	0xbe446b7b	-0.19181626
