results/SandingEnvEasy/ddpg_extension/model/model_parameters_1.pt (torch, 30018 bytes, 22 tensors)

value.0.weight f4 [32, 8]
00000000: 71bd c93b 1c6a d43c d477 bc3d fddc 5abd
00000010: 9666 d9bd 0473 a93d bf61 5dbd dca2 e73f
00000020: 149a c5bd a554 6cbd bb8b 953d 2c1c d23d
00000030: 4268 ab3e fbd8 a9bd dc3f 7ebe 1d76 adbe
00000040: 2d68 2ebe dfdc 8c3e ba82 4c3e 2f51 b53d
00000050: 21d8 4b3e 0c97 cb3e 8f33 28be 0a03 adbf
00000060: 7581 81be 5773 0a3d 3990 c5bd 70a2 fa3d
00000070: a2b8 2f3e e156 c3bb a4b3 54bf 335f eb3e
00000080: 665e 983e 8d5f 67bd 10e9 9ebe 1ba2 d6bc
00000090: c92a 083e 9e05 f43c 854a 80bf ac74 9a3f
000000a0: b80d a93d c353 f5bc 9597 81bd 4ffe 85bd
000000b0: a2af cebd 9da8 683e 9173 2040 f005 8fbf
000000c0: 10f6 b3bd 0cac 163e e309 af3d 1b6a 3f3e
000000d0: 28f9 3dbe 3aed 4abd ea07 30bf 1808 52bf
000000e0: e207 0d3e 8433 7fbe b030 253e 5503 cb3c
000000f0: c2d6 1fbd b1c5 2e3e 06f1 10c0 1ec7 7ebf
00000100: 62b4 e43d a0c0 0e3d 902d bb3d aaa2 323e
00000110: 6b5d 2e3e 8952 cd3d 68de 83be 1d61 bc3f
00000120: 3582 bebb 2626 4d3e f5ad 76be 0708 d3bd
00000130: d5a9 893d facb 8e3e 76cf e2be 8549 77be
00000140: ea0a 08bd 5150 62be 5488 41be 9620 4e3e
00000150: be6c e8bd d8b8 d83e 3d31 4cbf 2d5d 913f
00000160: 8fb0 7dbd 86cc 5b3e f351 553d 8adf 7abe
00000170: e356 653d aaae 17be 8707 a2be 3748 1e3f
00000180: 6d53 ac3b 744f 3abe 305c aa39 b16e 2dbd
00000190: c5ef 1dbe 2304 47be 7e45 60bf 55df a7bd
000001a0: c93c 223e fdee 08be 8ac5 6cbe 954a d3bd
000001b0: 0a52 6dbe a7aa d23d 5ce6 363f 526d cebf
000001c0: 4e00 fd3d 0d63 323e 2602 673e 77ca b53c
000001d0: 1e6d bc3e 5ffc 78be a439 abbc 32c9 83bf
000001e0: 265c e6bd 7ca0 71bc b21e 233e 53e0 e3bd
000001f0: 23f6 fcbc 9f51 a43e 7b36 c73f a1b7 353e
00000200: 5a3c 213c c419 0a3e 1c10 003e e6f7 3a3c
00000210: 15ed f3bb 5230 d7bd 82a4 513f 9f71 493f
00000220: 1c42 ecbd b3e4 7cbb 6b45 9a3d 53e0 ee3c
00000230: 1344 033e df1a 12be 2fa9 823f b922 3d3f
00000240: 0794 a73d b70d 653c 60bb 3abe 3b48 54bc
00000250: fcbd 1d3e b66a 8f3e da9b 723f 6dc9 dc3e
00000260: f4b5 a6bd 0f87 27be 7bd4 bebd 8f92 86be
00000270: f3b4 68be 303e ca3e bc6c c3bf 5f97 243f
00000280: dbf8 1bbe dd83 47be dd99 60be 6d90 9fbd
00000290: 9f6e f2bd b029 54bd b6b6 393e 7be5 26bf
000002a0: 0372 c73d f5ab 7abd 00e2 d93d 2cf0 7bbe
000002b0: 0b00 4dbe 6c9f 9fbc 77d7 68bc 0483 dfbe
000002c0: 3987 9a3e d9e6 36be dc9a 3b3e 0717 233e
000002d0: 9ca2 9cbe e4b1 9f3e 7774 b33f 6b5d 10bf
000002e0: dd6d a43d 4bd9 363d af85 51be 64fb 46be
000002f0: 8aab 9fbb d1ed 26be c84d 193f 6a5b 1a3e
00000300: c1d8 24bd d7be 89be c2e6 cc3d 7d6b 2f3e
00000310: 542f 16be a245 1abe 0368 a13f 9fee 693d
00000320: ac2d 853e 171d abbc a0f0 953e b247 3dbe
00000330: 4329 aa3e 188f 05be 6dbd bebc f5a2 80bf
00000340: 6464 b4bd a13b 0f3d 8fb8 433e 6453 b63d
00000350: 3cc5 a13e d584 923e 0be8 073f 2576 70bd
00000360: f8db 923c b2e6 20be b613 4dbd cea9 c3bd
00000370: e6d6 efbc 10dc ad3e 1e06 0a40 321c c93f
00000380: b9ef 5c3d 574d 443b f128 a23d 52ae 9f3d
00000390: e43b 573e e71f b53d 6b60 8dbf 4359 34be
000003a0: fbaf a53d 2ac4 3fbe 4a7e b53d 1103 5b3e
000003b0: 31bd 643e d5dc 76be 31b6 5ebf a0f2 573f
000003c0: 99f1 af3b b1c3 083e 5c96 55be a876 7a3e
000003d0: 6e83 23be a476 2e3e 9ca2 a6be 43a7 803f
000003e0: ff25 15be 72a5 743d 6fe9 943c e3ce 47be
000003f0: 8900 3c3d 4c23 dcbc 90c5 61bf eaf5 c03f
0.0061566164 0.025929503 0.09202543 -0.053433407 -0.1061527 0.082738906 -0.054048296 1.8096576
-0.09648529 -0.05769791 0.07302042 0.102592796 0.3347798 -0.08293339 -0.24829048 -0.33879176
-0.17031927 0.2751226 0.19971743 0.08853375 0.19906665 0.39763677 -0.16425918 -1.3516552
-0.2529408 0.033801403 -0.09646649 0.12238014 0.17160276 -0.0059612845 -0.8308661 0.4597107
0.2975952 -0.05648761 -0.31037188 -0.026200345 0.13297571 0.029787835 -1.0022742 1.2066855
0.0825457 -0.029947167 -0.0632774 -0.06542646 -0.10092093 0.22720571 2.5070536 -1.1173687
-0.08787167 0.14714068 0.085468076 0.1869282 -0.18552077 -0.049542643 -0.68762076 -0.820436
0.13772538 -0.24921995 0.16131854 0.024781862 -0.03902317 0.17067601 -2.264711 -0.9952258
0.11167218 0.03485167 0.0913955 0.17444864 0.17027824 0.10025508 -0.2575562 1.4717137
-0.0058138617 0.20034084 -0.24089797 -0.103042655 0.06721846 0.27889997 -0.44298905 -0.24149139
-0.033213533 -0.22100951 -0.18899661 0.20129618 -0.11348866 0.42328525 -0.7976263 1.135656
-0.061935958 0.21464738 0.052080106 -0.24499336 0.055991065 -0.14812723 -0.31646368 0.6182894
0.0052589686 -0.18194371 0.00032493612 -0.04234189 -0.15423496 -0.19435172 -0.87606037 -0.08196894
0.158435 -0.13372417 -0.2312223 -0.1031696 -0.23175827 0.102864556 0.7144525 -1.6127112
0.12353574 0.17420597 0.22559413 0.02219127 0.36802 -0.24315022 -0.020901509 -1.0295775
-0.11248045 -0.014747735 0.15929678 -0.11126771 -0.030879086 0.32093522 1.5563501 0.1774583
0.009841049 0.13486391 0.12506145 0.011411643 -0.007444034 -0.10507263 0.81891644 0.78689
-0.11536047 -0.0038588464 0.07532772 0.0291597 0.12818937 -0.14268063 1.0207881 0.7388111
0.08182531 0.013980321 -0.1823554 -0.012956674 0.15404505 0.280111 0.9476906 0.43122426
-0.081401736 -0.16360115 -0.09317871 -0.2628369 -0.22725277 0.3950057 -1.5267558 0.64293474
-0.1523165 -0.19483896 -0.21933694 -0.07791219 -0.118375055 -0.05179757 0.18136105 -0.6519391
0.09738543 -0.061199147 0.10638809 -0.24603337 -0.20019548 -0.019485198 -0.014211527 -0.43654644
0.30181292 -0.17861499 0.18320793 0.15926753 -0.3059281 0.31190407 1.4019917 -0.56392545
0.08028767 0.04464082 -0.20461152 -0.19431835 -0.004872744 -0.16301657 0.5988431 0.15073934
-0.040245775 -0.26903412 0.10004951 0.17130847 -0.14666492 -0.15065625 1.2609867 0.057112332
0.26011407 -0.020887895 0.29285145 -0.18484381 0.33234605 -0.13042867 -0.023283685 -1.004973
-0.088082105 0.034968976 0.19113372 0.08902624 0.3159579 0.28616968 0.53088444 -0.05870642
0.017927155 -0.15713003 -0.050067626 -0.09553872 -0.029277276 0.33956957 2.1566234 1.571173
0.053939555 0.0029953325 0.07917965 0.07796921 0.2101894 0.088439755 -1.104505 -0.17612176
0.08090206 -0.18727174 0.08861978 0.21387888 0.22337796 -0.24107678 -0.8699675 0.8435459
0.005369377 0.133559 -0.20858139 0.24459326 -0.15968105 0.17037445 -0.32545936 1.0051044
-0.14565276 0.059728093 0.018177716 -0.19512515 0.045898948 -0.0268723 -0.8819208 1.5075047

value.0.bias f4 [32]
00000000: d087 c73e 9d0d 78be 0484 96be dd7e 133f
00000010: 054a 0abc f455 a1be 23bf 88be 28ed ccbc
00000020: 9b84 35bd 11c5 24be 11b0 723a a935 5b3e
00000030: 39a7 9b3d b495 533d f611 843e 82b1 6bbe
00000040: cd20 42bf 3b24 19be be18 d7be f8b2 103f
00000050: d5a0 233e d1cb 28bc 1c12 e7be b543 81be
00000060: 131c c9bd f887 37bf 065a 7a3e 3509 e43c
00000070: 90c2 e9be 601c 523d 1c00 78be 1b40 bd3e
0.38970804 -0.24223943 -0.29397595 0.57615453 -0.008440499 -0.3151089 -0.26708326 -0.025015429
-0.044315916 -0.160908 0.00092578033 0.21407188 0.076002546 0.05165644 0.25794953 -0.23016933
-0.758313 -0.14955227 -0.42011064 0.56523085 0.15979321 -0.0103025 -0.45131004 -0.2524697
-0.09819808 -0.71691847 0.24448404 0.027836422 -0.45656252 0.05129659 -0.24218792 0.3696297

value.2.weight f4 [32, 32]
00000000: 0cd7 bb3d 1603 233e c6fe 68be d540 963c
00000010: e438 8e3d 02c5 053e 7bef 183e ad42 6abd
00000020: 5ee7 1b3e 68d1 12be 9e62 f93d 0ee4 22be
00000030: 1a01 f63d 1bc6 8f3e bbe5 01be 520a a6be
00000040: c376 9e3d cd7d 0bbe bd20 10bf 6107 8d3c
00000050: 384d 39be 98d8 f2bd 8731 8bbc 55f8 a4bd
00000060: b274 87bd e4ba 24be 4889 6a3e 9d29 8a3d
00000070: 095c 6abe be94 84bd c766 b4bc 4652 62bd
00000080: fb64 27be 25fb 2cbe a5c1 9f3d ecca 8e3d
00000090: 0a80 3bbd d104 343e f722 1abb 7c77 7e3e
000000a0: 855e 0d3e 1c00 663d 23ac 743d be37 06be
000000b0: 902a a23d d03c 31bd 5c8d 30bd f700 463d
000000c0: 45ba 74bd 6acc d4bd 6ebc f6bd 7ae0 723d
000000d0: 8b2b b5bd c0b0 153c b0fc 1dbe ea5e ae3c
000000e0: f37a 7ebd 0a65 d13d 09c4 e9bd 2532 dfbd
000000f0: d538 05be 2c3b 033e 3136 843d cb48 ea3d
00000100: 4c81 25bd e538 663d 55a0 203e 5e79 9c3d
00000110: f0a6 b0bc 2e1b 663e 1176 923d c3fc 57be
00000120: ce94 64be 28f7 2c3e aa5b 2c3d 53a7 0dbf
00000130: 1a5b 51bd 7285 8cbd a756 153d edb9 c83a
00000140: ee11 013e 492f 723d 54e3 a7bd cc25 103d
00000150: 68b5 b53b 6f25 f7bd a08d 52bd 56fc 6f3d
00000160: 148f dabc 8012 2cbf 540f b0bd 56d8 973e
00000170: 4d57 8ebe 14e8 173d 570f 71bd c97e 77be
00000180: 3645 dbbc 09c3 bdbd 71ee 903d 2cda f43d
00000190: 379c a83d 7857 ecbd 7e24 273d e058 263e
000001a0: b318 533e d4b9 f93d 7222 b6bd ff38 833d
000001b0: 0102 353e d669 193e 1d61 b73c 3adb ddbd
000001c0: 36ea af3d df4f f43d cfc4 bf3d 4ffd 973d
000001d0: dc41 a13d c27a 09be c366 9cbd 668b 86bd
000001e0: a62c 093e b54e ae3d 1e70 44bb 8d69 91bd
000001f0: e84f 613d 7e9d ebbd 8b19 8ebd 775e 033e
00000200: 6bae 2fbe 1ca5 44be b3fd 36be 35f1 2d3d
00000210: cb47 223d 88c3 2cbe 5173 073e 509e c8bd
00000220: 79f9 4abe 1663 143e ead5 e6bd 149f 5cbd
00000230: 6e94 4cbe b52f 38bd c0ed 27bd c806 17be
00000240: a4a7 bb3d 2e4c 86bc 93d4 a6bd 00a7 c8bd
00000250: a201 dc3d 7873 26bd e98a 4d3e 89ee e43c
00000260: 6669 443e 8fb5 0c3e 1dbf 4abe c562 19be
00000270: 6d70 793d 86a1 043e 59bb 983d a0ee dd3c
00000280: 1d1f 0e3d 01c6 4a3d a62e 103e c627 ee3d
00000290: 69e8 903d 40d1 e93c c337 f0bc 18ee 043e
000002a0: cdb5 aa3b 7ac3 88bd 2100 54bc e762 3d3d
000002b0: 019f cf3c f927 f73d 136b 8fbc 6c47 3c3e
000002c0: 35af dd3b 254e 513c a2a4 0a3d 1e7d b4bd
000002d0: da83 17bc ea1c fc3c 4e0e 00be 670f 8f3d
000002e0: c158 adbd d660 183d 0ae9 e93d 7b67 3f3e
000002f0: 791a 9c3d 5be5 52be 2731 0bbe a601 853d
00000300: b078 98bd f248 c73d 2869 57bd 0184 22be
00000310: 1f71 b2bd 2ec4 913b 686a ef3d 76ae 45bd
00000320: fde6 e7bd 2e13 9d3d 6643 b0bc 7a99 97bd
00000330: 62a0 32be d704 a43d cc39 c5bd e21e e33d
00000340: 42ec 453c b999 edbc dfb3 153e 2be7 5f3d
00000350: 06b3 bc3c 3117 3abe 17fd 533d 3f2f f8bd
00000360: 3c41 86bd 3b69 c9bd 12ee c4bd a054 2abd
00000370: 7603 7e3d 624a 5ebd 1576 e8bc 47c2 d1bd
00000380: 8079 b23d 6af7 0ebc ba51 b33d 4d14 edbc
00000390: b29a d73d bb44 4ebd e88e f43d 7d9e 8f3e
000003a0: bbd9 90be 2b68 b03d 6818 cf3d 6832 783d
000003b0: a327 1cbe 934b f0bd b439 d0bd 5cef 0bbc
000003c0: 0b2a f8bc 30f9 103e 4a65 e4bc 8b24 d7bd
000003d0: 2294 1fbd 1de2 533c 1223 8abc f4c0 073e
000003e0: 6522 7e3c 018f 9fbe d18c 163e 0ac4 0abe
000003f0: 81b6 8bbd 7193 cfbb a3ed 10be 0449 a43c
0.09171876 0.15919146 -0.22753438 0.018341461 0.06944445 0.13063434 0.14935105 -0.057192493
0.15224978 -0.14337695 0.12177013 -0.15907308 0.12011929 0.2808083 -0.12685291 -0.3242975
0.07737496 -0.13622208 -0.56299955 0.017215433 -0.18095863 -0.11857718 -0.01699139 -0.08055178
-0.06614055 -0.16086918 0.22903931 0.06746218 -0.22886671 -0.06473683 -0.022021664 -0.055254243
-0.16347115 -0.16892679 0.07800607 0.06972298 -0.045776404 0.17579962 -0.0023519376 0.24850267
0.13805588 0.056152448 0.059734475 -0.13107201 0.079182744 -0.043270886 -0.04310356 0.048340764
-0.059747953 -0.103905514 -0.12047659 0.05929611 -0.08846196 0.009136379 -0.15428424 0.021285493
-0.062128972 0.1022435 -0.11414344 -0.10898236 -0.13009961 0.12815541 0.06455649 0.114396654
-0.04040651 0.056206603 0.15686162 0.076403365 -0.021563977 0.22471306 0.07151426 -0.21092515
-0.2232239 0.16891158 0.042079605 -0.5533344 -0.05111227 -0.0686139 0.03645959 0.0015314199
0.12604496 0.059127126 -0.08197656 0.035192296 0.005545307 -0.12067687 -0.051404595 0.058590256
-0.026679553 -0.6721573 -0.085966736 0.2965724 -0.2780098 0.03708656 -0.05885252 -0.24169458
-0.0267664 -0.09265716 0.07076729 0.119556755 0.082329206 -0.11540121 0.040806286 0.1624484
0.20614891 0.12193647 -0.08893289 0.064073555 0.17676546 0.1498178 0.022385174 -0.1083283
0.08589594 0.11929297 0.0936371 0.07421362 0.0787389 -0.13425735 -0.07636788 -0.06569557
0.13395938 0.08511106 -0.0029974054 -0.0710021 0.055007845 -0.115046486 -0.06938466 0.12829004
-0.17156379 -0.19203609 -0.17870216 0.04246636 0.03961925 -0.16871464 0.13227583 -0.09795821
-0.19821729 0.14490923 -0.112712696 -0.053862646 -0.19978496 -0.044967372 -0.04099822 -0.1474868
0.09162834 -0.016393747 -0.08146014 -0.09797478 0.10742499 -0.040637463 0.20072521 0.027945774
0.19180831 0.13741134 -0.19799466 -0.14979084 0.060898233 0.12952241 0.07457609 0.027091324
0.03469764 0.049505237 0.14080295 0.1162868 0.07075579 0.028542161 -0.029323464 0.1298145
0.0052096606 -0.06677909 -0.012939484 0.0462369 0.025344374 0.12068171 -0.017507112 0.1838662
0.006765271 0.012774979 0.033848412 -0.08812927 -0.009247744 0.030775506 -0.12505457 0.0698536
-0.08464194 0.037201725 0.11421402 0.18691818 0.07622237 -0.20595305 -0.13592969 0.06494455
-0.07444894 0.0973071 -0.05259052 -0.15870668 -0.087129824 0.0044484353 0.11690217 -0.048262082
-0.113233544 0.07669674 -0.021516513 -0.0740232 -0.17443994 0.080087356 -0.096301645 0.11089875
0.012080254 -0.029003965 0.14619397 0.05466382 0.023034584 -0.1817291 0.051755037 -0.121183865
-0.06555411 -0.09834524 -0.09615721 -0.04158461 0.06201502 -0.054270156 -0.028376618 -0.102421336
0.087145805 -0.00872598 0.087558225 -0.028940344 0.10527553 -0.050358515 0.1194132 0.28050604
-0.28291115 0.086136185 0.10112077 0.060594946 -0.15249495 -0.11733165 -0.10167256 -0.008540954
-0.030293485 0.14157557 -0.02788033 -0.10505017 -0.03895963 0.012932328 -0.016862426 0.132572
0.01551113 -0.3116379 0.14702155 -0.13551345 -0.06821919 -0.006334715 -0.14153151 0.020054348

value.2.bias f4 [32]
00000000: ad04 903c b7d1 2e3f 3370 cd3e e7e9 ddbe
00000010: 42c6 64be b60e c33e d50d 173e 8f6d 8e3e
00000020: 00a3 173e 1054 11be 206e 723e 6d3d 2bbd
00000030: 1411 1f3d d83b c2be 9988 b13e 16d1 54be
00000040: 5da7 343e 6452 7bbe 4583 fc3e 5d04 7a3d
00000050: 1281 9a3d a709 5b3e c749 ae3d 939d 1c3f
00000060: 78c4 cabd e6ec a5be e4ed 1d3c b658 cf3d
00000070: 2605 6f3e f60d 5e3d aaeb 0fbe 9a19 423e
0.017580355 0.6828875 0.40124664 -0.43342516 -0.22341254 0.3809716 0.1475137 0.27817962
0.14808273 -0.14192224 0.23674822 -0.041806627 0.038834646 -0.37936282 0.34674528 -0.20782885
0.17641969 -0.24543148 0.493189 0.061039317 0.075441495 0.21390401 0.08510166 0.6117794
-0.09900755 -0.32407302 0.009639237 0.10124342 0.23341808 0.054212533 -0.14054742 0.18955079

value.4.weight f4 [1, 32]
00000000: 336e 793d 31f6 ec3d f892 773d c0ca 79bd
00000010: a4b1 36bd a5af a43d 9747 083e ecea f13c
00000020: f8ae f03d ef78 6cbd 4aeb ae3d 27bc 0e3d
00000030: 23ef 63bd 48b3 97bd eeb3 943d 04c0 86bd
00000040: 5cfa 9e3d a279 c7be 6603 c33d 0e2c 80bd
00000050: fb84 203d a650 753d cd3c e13d a7bd 993e
00000060: 0321 01be a956 18be 5793 733d 889f 66bd
00000070: c133 833d d4e8 343d deef c9bd f68f 5a3d
0.06089611 0.11570395 0.060442895 -0.060984373 -0.044603005 0.08041314 0.1330856 0.029530965
0.11752123 -0.05773252 0.085409716 0.034847405 -0.05564798 -0.07407242 0.07260881 -0.06579593
0.07762596 -0.38959986 0.095221326 -0.06258403 0.03918932 0.059891365 0.10997925 0.30027506
-0.12610249 -0.14876808 0.059466686 -0.056304485 0.06406356 0.044167355 -0.09860204 0.053359948

value.0.weight f4 [32, 8]
00000000: 08ab bc3b 866d d13c b412 bd3d 8a85 5ebd
00000010: 904c dabd 0a8d a83d 597c 61bd b98f e73f
00000020: fba7 c6bd 4979 70bd 3282 933d 425c d33d
00000030: de67 ab3e 5fd9 a9bd a852 79be 261c adbe
00000040: c9cd 2ebe b706 8d3e 9c35 4c3e fa2d b73d
00000050: bdd7 4b3e a896 cb3e 5169 26be 1c0f adbf
00000060: 7096 81be 488f 083d f713 c6bd cb42 fb3d
00000070: 113c 2f3e c9e9 d2bb d7ab 54bf febb eb3e
00000080: 3da8 973e 119a 72bd ec19 9fbe 5940 dbbc
00000090: d685 0b3e ed6e 073d f9a4 80bf 897d 9a3f
000000a0: 08f9 a83d 0c64 f0bc b002 80bd 0dd8 85bd
000000b0: 1fa1 cfbd de2f 683e cf40 2040 45c8 8ebf
000000c0: 1b98 b2bd 250c 183e 234e ae3d 2c02 403e
000000d0: f05d 3dbe 3980 48bd 7642 2fbf acc4 51bf
000000e0: 9c6a 0d3e e910 7fbe f904 263e ceed c13c
000000f0: e28d 1abd e717 303e 65e9 10c0 8513 7ebf
00000100: d1d5 e53d a733 0b3d ad19 b93d 254f 323e
00000110: 075d 2e3e 2552 cd3d 9521 85be d259 bc3f
00000120: 0eb9 cbbb c2bf 4d3e 7c9e 76be fb7a d3bd
00000130: fde6 893d 45db 8e3e 5b81 e2be 4d53 77be
00000140: 1874 07bd a802 63be 119b 43be 2236 4f3e
00000150: 226d e8bd 74b8 d83e cabc 4bbf c7f0 903f
00000160: a691 80bd c822 5b3e 52b7 5d3d 208b 7cbe
00000170: a3d4 683d 3dcf 16be 1a5b a3be a919 1e3f
00000180: d156 a23b 526c 3bbe 87b1 163a d205 35bd
00000190: 4745 1fbe a559 48be a709 60bf 7c2c a3bd
000001a0: 462f 223e db79 08be 4ffe 6cbe 4472 d2bd
000001b0: a02a 6dbe 88f9 d23d 5437 373f 44a1 cebf
000001c0: a7a1 fc3d e559 313e 4a1c 653e 40a3 b33c
000001d0: f234 bd3e cf6c 77be 355e aabc 65ed 83bf
000001e0: 1ab3 e5bd ad39 80bc badf 233e fb5d e4bd
000001f0: 87f6 fcbc 3b51 a43e d70e c73f 360f 333e
00000200: 615e 1f3c d4ca 093e a508 ff3d 6ab8 423c
00000210: 7ff7 0fbc 69f0 d9bd b0ea 513f eb73 493f
00000220: dd5c ebbd 74cc 6abb 6ddd 963d 88c9 f23c
00000230: b843 013e 391b 14be 7335 823f 79e2 3d3f
00000240: 12ed a53d 0de2 753c 5810 3abe 46a5 7cbc
00000250: fcbd 1d3e b66a 8f3e e5c6 723f ebe4 df3e
00000260: 9fec a6bd 3b2c 28be f947 bcbd d39d 86be
00000270: fcd0 68be 2e30 ca3e 5c5d c3bf 4477 243f
00000280: 2501 1bbe d710 47be 4616 61be de58 9ebd
00000290: 7b59 f3bd 6dff 55bd e9cb 3a3e 5aa5 26bf
000002a0: c05a c73d 5e10 80bd 75d2 d73d 3e59 7bbe
000002b0: d973 4cbe 023e 9bbc 6574 63bc 2b2f dfbe
000002c0: 88da 9a3e ed80 36be b9bb 3b3e a304 223e
000002d0: edec 9cbe 9367 9f3e e6cf b33f c138 10bf
000002e0: 4d9d a53d 64a7 333d d519 52be b865 46be
000002f0: dcd3 a1bb 13ff 26be e9fc 193f 9308 1b3e
00000300: 1242 21bd 864c 89be 95d5 c93d 52a6 2f3e
00000310: 7118 17be bf2e 1bbe 3165 a13f 8b7e 773d
00000320: a9fc 843e ee33 b2bc 1c1f 963e 8779 3dbe
00000330: e064 aa3e e617 05be d976 ddbc afc0 80bf
00000340: e5f2 b1bd 148c 113d d067 443e e22b b73d
00000350: 3cc5 a13e d584 923e a4c6 073f 232c 6ebd
00000360: b928 9b3c 2b68 20be 1f45 4abd e074 c3bd
00000370: 4ad7 efbc acdb ad3e 69f9 0940 bbb5 c83f
00000380: ff09 653d 45a7 903b f281 a23d 91b4 a23d
00000390: 803b 573e 831f b53d 20a1 8cbf 95af 2fbe
000003a0: 0bf7 a33d 5537 3fbe ea57 b33d c2c8 593e
000003b0: 063d 653e 005d 76be cc47 5fbf 6ffa 573f
000003c0: 8dea b93b 3213 093e fb46 55be c0f0 7a3e
000003d0: e914 25be 29e5 2c3e 9077 a8be def3 803f
000003e0: 6703 15be 503b 763d fa41 943c ac7e 48be
000003f0: 9b38 383d 2ab3 e3bc 2525 62bf ddf9 c03f
0.005757693 0.02556492 0.09232083 -0.05432657 -0.106591344 0.08230026 -0.055050228 1.8090736
-0.097000085 -0.058709417 0.07202567 0.10320331 0.33477682 -0.08293413 -0.24347937 -0.33810538
-0.17070688 0.27544186 0.19942325 0.08944316 0.19906516 0.3976338 -0.16251113 -1.3520236
-0.25310087 0.03333977 -0.09671777 0.12268599 0.17112757 -0.006436561 -0.83074707 0.46041864
0.29620543 -0.05922896 -0.31074464 -0.026764082 0.13625273 0.03306477 -1.0050346 1.206956
0.08250624 -0.029344581 -0.062505126 -0.06535349 -0.10138153 0.2267451 2.5039556 -1.1154867
-0.08720418 0.14848383 0.08510997 0.18750829 -0.18492866 -0.048950408 -0.68460786 -0.8194072
0.138102 -0.24908794 0.16212834 0.023672964 -0.037732966 0.17196618 -2.2642453 -0.99248534
0.11222423 0.033984806 0.090381004 0.17413004 0.17027675 0.100254335 -0.26002184 1.4714911
-0.0062171286 0.20092681 -0.24083894 -0.10326191 0.06733511 0.27901664 -0.44239315 -0.2415287
-0.0330697 -0.22168982 -0.19102122 0.20235494 -0.113489404 0.42328227 -0.79584944 1.132348
-0.0627778 0.21399987 0.054129906 -0.24662447 0.05684341 -0.14727493 -0.31905442 0.61757904
0.004954197 -0.1830304 0.00057484995 -0.044195004 -0.15553771 -0.19565447 -0.8751473 -0.07967469
0.15838346 -0.13327734 -0.23143886 -0.10275701 -0.23160791 0.103015006 0.715688 -1.6142964
0.1233552 0.17319448 0.22374073 0.02192843 0.36954457 -0.24162601 -0.020796875 -1.0306822
-0.112158015 -0.015652502 0.16003314 -0.11150738 -0.030879272 0.32093224 1.5551404 0.17486271
0.0097270915 0.13456279 0.12452821 0.011884788 -0.008787035 -0.10641558 0.8199873 0.786925
-0.11492322 -0.003582743 0.07366452 0.029637113 0.12623489 -0.1446351 1.0172561 0.74173695
0.08101858 0.015007508 -0.18170297 -0.015420264 0.15404505 0.280111 0.9483474 0.43729338
-0.08150601 -0.16423123 -0.09193415 -0.26292285 -0.22735971 0.39489883 -1.5262866 0.64244485
-0.15137155 -0.19440018 -0.21981153 -0.07731794 -0.118823014 -0.052245546 0.18241848 -0.65096056
0.09734106 -0.06253122 0.10538188 -0.24545762 -0.19966067 -0.018950466 -0.013882731 -0.43590674
0.3024485 -0.17822619 0.1833333 0.15822081 -0.3064951 0.31133708 1.404782 -0.563366
0.08086643 0.043860808 -0.20517667 -0.1937474 -0.0049385857 -0.1630824 0.60151535 0.1513999
-0.03936965 -0.26816195 0.09855191 0.1715329 -0.14755417 -0.15154551 1.2609006 0.060423415
0.25974014 -0.021753278 0.2932061 -0.1850339 0.33280087 -0.12997398 -0.02703421 -1.0058802
-0.086889066 0.03553398 0.19180226 0.08943917 0.3159579 0.28616968 0.53037477 -0.05814756
0.018940317 -0.15664737 -0.049382325 -0.095437765 -0.029277463 0.3395666 2.1558478 1.568046
0.055917736 0.0044144713 0.07934941 0.079445966 0.21018791 0.08843901 -1.0986671 -0.17156823
0.08006104 -0.18673451 0.08757003 0.2126799 0.2238656 -0.24058914 -0.8721893 0.84366506
0.0056737126 0.13386229 -0.20827858 0.24505901 -0.16121258 0.16884293 -0.3290372 1.0074422
-0.14552079 0.06011516 0.018097866 -0.19579571 0.04497586 -0.027795393 -0.8833793 1.5076252

value.0.bias f4 [32]
00000000: ead8 c73e 104a 78be 902d 96be 7d8e 133f
00000010: 94c5 f5bb 187a a1be 2091 88be 8e10 cfbc
00000020: 8746 31bd 687e 24be 1392 503a 828f 5b3e
00000030: 9d8a a03d 1f91 583d 94ab 823e e9a1 6dbe
00000040: 1af6 41bf 7f27 1abe 32c9 d6be 019b 103f
00000050: b60a 233e 3eee 34bc 5c98 e6be a074 81be
00000060: c57a cebd ee6b 37bf fefc 793e 820d de3c
00000070: 08fb e9be a920 523d 50b1 76be 0646 bd3e
0.3903268 -0.24247003 -0.29331636 0.57639295 -0.00750036 -0.31538463 -0.26673222 -0.025276449
-0.04328015 -0.16063845 0.0007956337 0.21441463 0.078389384 0.052872773 0.2552153 -0.23206295
-0.75766146 -0.15054129 -0.41950375 0.5648652 0.15922055 -0.0110431295 -0.45038116 -0.2528429
-0.1008201 -0.7164906 0.24412915 0.02710605 -0.45699334 0.05130068 -0.24091077 0.36967486

value.2.weight f4 [32, 32]
00000000: 053f ba3d b239 233e 10ea 6abe b19b 9a3c
00000010: 1921 913d 2260 063e 4c1c 1a3e 9395 69bd
00000020: 00bc 193e 38ce 11be 30b2 fb3d 02f9 20be
00000030: 4c5c f93d 16d2 903e 85ec 03be 622b a6be
00000040: f9db 9f3d 6171 0cbe 310e 10bf 7cc5 893c
00000050: c099 37be d763 f0bd 27c1 87bc cdb2 9fbd
00000060: 7edb 85bd 2931 25be 8a57 693e ad66 893d
00000070: b51a 6bbe 4acd 83bd 8be1 99bc 861f 64bd
00000080: 4c21 26be dac3 2cbe ae8f 9f3d b033 8f3d
00000090: 5a0c 3cbd f258 333e cc98 55bb 386f 7e3e
000000a0: 927e 0c3e fbf6 643d deb6 763d 6050 06be
000000b0: 4169 a33d 0eae 32bd 551a 31bd 2f28 483d
000000c0: 4bbf 77bd 99c8 d4bd 1a4c f6bd f14a 743d
000000d0: c32e b4bd 71b7 1c3c b617 1fbe 07fd ab3c
000000e0: d016 7fbd 359b d03d 1c67 eabd c02c dfbd
000000f0: 6280 06be 80f3 023e 7255 863d 29c9 ea3d
00000100: ea81 26bd 7bdc 653d f57b 203e 3443 9e3d
00000110: 63f9 b5bc 2b61 663e 5261 913d 37ba 59be
00000120: 940e 65be a9d8 2d3e 5d7b 2d3d 0014 0dbf
00000130: 8e9a 57bd dd4e 8dbd 33ac 0c3d 4bb1 8b3a
00000140: f4a7 ff3d 938c 713d 9f76 a8bd 1cd7 0b3d
00000150: 45ca b13b 7c71 f8bd b2d5 58bd ca64 6e3d
00000160: 6f31 dfbc 6877 2cbf bce8 b1bd fc7e 973e
00000170: c789 8ebe dd66 153d d895 6bbd f651 76be
00000180: 82d7 e4bc 1a60 bfbd 794e 913d 7081 f43d
00000190: 371e a93d 0cb0 ebbd e31e 2a3d 50f0 253e
000001a0: 2b16 533e 5ed9 f93d aa46 b8bd 6549 833d
000001b0: e39f 343e dc5e 193e 8ada b73c fd2e dfbd
000001c0: 1631 b03d c8fb f23d 8c2e c03d 3a5f 973d
000001d0: 1395 a03d d4a3 09be f9dd 9abd 575b 86bd
000001e0: 0e77 083e cca0 ae3d cdbb 4ebb 469e 91bd
000001f0: 3159 613d b75f edbd bca3 91bd 7524 033e
00000200: 8835 31be e864 46be 411b 36be 9938 2c3d
00000210: 132c 203d 4eda 2cbe 1f82 063e 42e0 c8bd
00000220: 8a34 4abe 726f 143e 841f ecbd b7d3 5cbd
00000230: ee9e 4cbe 32a2 38bd 3e6e 27bd 7412 1bbe
00000240: 8d6c b93d f2b3 81bc bcd7 a6bd 50ef c8bd
00000250: d3a5 dc3d 75be 28bd f644 4d3e 4818 e73c
00000260: 7911 433e 37fb 0c3e dbe4 48be 5312 19be
00000270: e9da 793d 9567 043e 6c91 963d e788 de3c
00000280: 1a0d 143d 5ffa 4a3d db19 103e bfb2 ec3d
00000290: ed77 903d 5d16 e83c a839 f7bc 4863 053e
000002a0: caab b03b 790b 89bd 814e 61bc e379 3d3d
000002b0: 175f d23c 3754 f73d f55c 8fbc c5f9 3c3e
000002c0: 26ee e73b 19b8 5b3c 3a70 093d b6e4 b3bd
000002d0: 98fc 19bc 8040 fe3c 4529 00be 05b7 8e3d
000002e0: bf34 acbd 24b4 173d 7223 ea3d 0986 3f3e
000002f0: f34b 9c3d 5af0 51be e257 0abe 0c9d 853d
00000300: 4c78 98bd f248 c73d 2869 57bd 9d83 22be
00000310: bb70 b2bd 92c4 913b cc6a ef3d 76ae 45bd
00000320: 99e6 e7bd 9213 9d3d 6643 b0bc 1699 97bd
00000330: fe9f 32be 3b05 a43d 6839 c5bd e21e e33d
00000340: a6ec 453c 5599 edbc 43b4 153e 8fe7 5f3d
00000350: 6ab3 bc3c cd16 3abe 7bfd 533d db2e f8bd
00000360: d840 86bd 3b69 c9bd 12ee c4bd 3c54 2abd
00000370: 7603 7e3d 624a 5ebd b175 e8bc e3c1 d1bd
00000380: a1b6 b33d fcbf 05bc 7d7e b33d b44d eebc
00000390: b549 d73d 81c8 4fbd 3273 f13d f959 903e
000003a0: c039 90be f813 b03d 3fa7 d13d 239d 763d
000003b0: 0921 1cbe 183d f1bd 7793 cfbd 6b3f f1bb
000003c0: a41c ffbc ba91 113e b4ec e6bc 26cc d6bd
000003d0: 3ae5 1fbd 9720 4f3c 6f81 82bc 721a 073e
000003e0: 6a2e 853c 7b62 9ebe ce19 173e f979 09be
000003f0: f6a9 8bbd c3bc bebb 0948 10be 9f5e a43c
0.09094051 0.15939978 -0.2294085 0.018873068 0.07086391 0.1312261 0.15049857 -0.05702741
0.15013123 -0.14238822 0.12289846 -0.15719989 0.12175807 0.28285283 -0.12883194 -0.32454973
0.07805628 -0.13715126 -0.56271654 0.0168178 -0.17929745 -0.11737793 -0.016571594 -0.077977754
-0.065360054 -0.16132034 0.227873 0.06709037 -0.22959407 -0.0643564 -0.018784305 -0.055694126
-0.16223639 -0.16871586 0.077910766 0.069922805 -0.045910217 0.17514399 -0.0032592295 0.24847114
0.13720158 0.0558996 0.06023299 -0.13116598 0.0797906 -0.043623023 -0.043238003 0.048866447
-0.060485166 -0.103898235 -0.12026234 0.059641782 -0.087979816 0.00956522 -0.15536389 0.020994676
-0.062277615 0.101858534 -0.11445448 -0.10897207 -0.13134912 0.127882 0.06559266 0.114641495
-0.04065124 0.05611847 0.15672286 0.07727662 -0.022213643 0.22498004 0.070986405 -0.21262442
-0.22368842 0.1697718 0.042353977 -0.5510864 -0.05263763 -0.068998076 0.03434391 0.0010657696
0.124832064 0.058971953 -0.0822575 0.03414069 0.0054257237 -0.121310204 -0.05293817 0.05820159
-0.027245251 -0.673697 -0.08686969 0.2958907 -0.2783949 0.03647505 -0.05751595 -0.24054703
-0.027934793 -0.09344502 0.070950456 0.11938751 0.08257716 -0.11508188 0.041533362 0.16204953
0.20613925 0.121996626 -0.08997853 0.06410483 0.17639117 0.14977592 0.022443075 -0.10897634
0.086031124 0.1186443 0.09383878 0.0739121 0.07840934 -0.13441402 -0.07561869 -0.065603904
0.13326666 0.08526763 -0.0031545043 -0.071102664 0.0550167 -0.11590522 -0.07111308 0.12806876
-0.17305577 -0.1937443 -0.17783834 0.042046163 0.039104532 -0.16880152 0.13135575 -0.09808399
-0.19746605 0.14495638 -0.11529449 -0.053912845 -0.19982502 -0.045076557 -0.04087662 -0.15143758
0.090539075 -0.015832875 -0.08146617 -0.0981127 0.10773816 -0.04119726 0.20045838 0.02820982
0.19049634 0.13767706 -0.19618551 -0.14948396 0.060999785 0.12930138 0.07351956 0.02716489
0.036145307 0.04955518 0.14072363 0.115575306 0.07054124 0.028330976 -0.03017886 0.13026154
0.0053915726 -0.06691641 -0.013751627 0.04625882 0.025680108 0.120766096 -0.01750038 0.18454655
0.00707795 0.0134105915 0.033554293 -0.087838575 -0.009398602 0.031036615 -0.12515743 0.06968502
-0.08408498 0.03703703 0.11432542 0.18703474 0.07631674 -0.20501843 -0.13510087 0.06524095
-0.0744482 0.0973071 -0.05259052 -0.15870519 -0.08712908 0.004448482 0.11690292 -0.048262082
-0.1132328 0.07669748 -0.021516513 -0.07402246 -0.17443845 0.0800881 -0.0963009 0.11089875
0.012080347 -0.029003778 0.14619546 0.05466419 0.02303477 -0.1817276 0.05175541 -0.12118312
-0.06555337 -0.09834524 -0.09615721 -0.04158424 0.06201502 -0.054270156 -0.028376432 -0.10242059
0.08775068 -0.008163448 0.0876436 -0.029089786 0.105121054 -0.050728325 0.1178955 0.28193644
-0.2816906 0.08597559 0.10236978 0.06020845 -0.15246977 -0.11779231 -0.101355486 -0.0073622963
-0.031141587 0.14215747 -0.02818904 -0.10488157 -0.039036967 0.012642047 -0.01593086 0.13193682
0.016257484 -0.3093451 0.14755937 -0.13425435 -0.06819527 -0.005820842 -0.14089979 0.02006465

value.2.bias f4 [32]
00000000: d566 9a3c 9ba2 2e3f 342e cd3e b5b9 ddbe
00000010: 4b06 65be 14ac c23e 390e 173e 7e6c 8e3e
00000020: f044 183e 3d55 10be 6312 723e 0786 31bd
00000030: d07e 203d 1f69 c2be 4b09 b13e 304e 54be
00000040: 7a35 343e 69d3 7abe bc40 fc3e 1d71 7b3d
00000050: 2530 993d 6f54 5b3e 07f4 ad3d d286 1c3f
00000060: d3cd c9bd 7219 a6be 506c 183c 719c cf3d
00000070: ae26 6e3e a309 5d3d eb7f 0ebe 7a15 423e
0.018847862 0.68216866 0.40074313 -0.43305746 -0.22365682 0.3802191 0.1475152 0.27817148
0.14870048 -0.14095016 0.23639826 -0.04334071 0.039183438 -0.37970826 0.34577402 -0.20732951
0.17598525 -0.24494709 0.49268138 0.06138717 0.07479886 0.21418928 0.0849381 0.6114322
-0.09853711 -0.32441288 0.009303167 0.10137261 0.23256943 0.05396427 -0.13915984 0.18953505

value.4.weight f4 [1, 32]
00000000: b040 833d 0b24 ee3d eb50 753d e4c9 79bd
00000010: cb84 36bd 4fbc a43d fb47 083e 6250 ef3c
00000020: 2ac1 f63d 7492 6cbd e530 af3d 393a 0c3d
00000030: 3bda 64bd 5b16 97bd f9f9 953d cd1f 86bd
00000040: bfe9 9e3d 1213 c9be 9e15 c43d 7af4 7bbd
00000050: 0616 213d 6435 733d 85fc df3d 3b9b 983e
00000060: ba38 01be fbd8 17be 8618 713d f8f0 67bd
00000070: 2964 843d 4163 353d 52dc c9bd fc44 603d
0.064088225 0.116279684 0.059891623 -0.060983554 -0.044560235 0.080437295 0.13308708 0.029213134
0.12048562 -0.057756856 0.08554248 0.034235213 -0.055872183 -0.07377311 0.07323069 -0.06549034
0.07759427 -0.39272362 0.09574436 -0.061512448 0.039327644 0.05937709 0.10936836 0.2980593
-0.12619296 -0.14828865 0.058861278 -0.05662629 0.064644165 0.04428411 -0.09856476 0.05475329

actor.0.weight f4 [32, 6]
00000000: d268 bd3e 5094 293d 7191 4cbe fe46 fd3e
00000010: 703c 95be 0735 0b3e ad70 ac3d 4adf 2dbe
00000020: cb8f eb3e 177c ac3c 0c11 463c 6b6d dabe
00000030: 3f94 fc3e b8d9 b53d 8a3b f0be 2d60 cd3e
00000040: 0505 8bbe 3da7 8cbe 78ff 25be 92ef a93d
00000050: 241b 53bf 7071 ed3c 9330 1b3e 7d1d 1d3f
00000060: 00fe 193f 104a f5bd c26b 4abd d201 8abe
00000070: 2414 0dbe e990 aebd 6cbc 93be 0576 b53e
00000080: ff82 9fbe 0c92 b0bd 578a a5be 3f8b 92bd
00000090: 8d12 9d3d fcdb f83d 8216 923e a032 1f3f
000000a0: 7c2e 07be 7502 8f3e 5ab2 fe3d 695a b7be
000000b0: c510 843e 80bf c13d 1b79 3cbe 971d 03be
000000c0: cff6 83bd f258 fabd b96a ee3e 999c 13bf
000000d0: 847a f8be fafc 07bf 8982 87be bbe2 e33e
000000e0: 90e0 95be 99a0 88bd 39e2 9a3d ca14 92be
000000f0: b0f4 7abe 2aee ba3e 700f 213e b4c7 cc3e
00000100: f8e8 29be 5e01 94be b224 adbe b28e 3e3e
00000110: c679 99be 5829 ec3e c561 b4be 3dbc 22bd
00000120: 446d b33e 22c4 e0be 239a c9bc 190c 79be
00000130: cbba 02bf 31a5 d9be 4707 ab3e d9ab 1abc
00000140: d517 323d 8af1 01bf e9f1 b1bd 37a9 babe
00000150: 4fb1 5d3d b153 39bf be47 dcbc 5389 aa3e
00000160: 5eaa e2bd 4157 15bd 86e2 9ebe 90cd 213c
00000170: cee9 0c3e 2dd2 343e f02a aabe 3190 b0bd
00000180: 18d2 83be 39a8 0fbf f242 923e 8abf 70be
00000190: e2a8 93bd f667 e6bd 3444 b8be b9bb cabe
000001a0: b93d 07bf 42d4 24be 9a56 873d 6060 45be
000001b0: d3ec 6eba 5ebb c63e aa78 b7bd 0027 463e
000001c0: 25ba dcbd 12af 193f 35c5 f2bd f261 003f
000001d0: fc05 89be 2575 5fbe adc9 fe3e f267 813d
000001e0: a04c 85bd 6259 bfbe eac3 20bf b67f 8d3e
000001f0: e079 91be 109a 503b cc83 913d e891 d03e
00000200: 875d e73d d983 3dbe 8477 e83c a827 fc3e
00000210: 3786 2ebe c853 403d 8f7a a4be 9d39 c8bd
00000220: 2f51 87bb 12be 79be 7eae ce3d 48df 2f3e
00000230: 2f89 50bf 1e49 d33d c866 613e 0326 aabd
00000240: 8622 8d3e e6ee 893e dec4 ec3e 6de5 263e
00000250: ca3b 713e 7075 5dbe 5fe5 63bd 7016 173f
00000260: fdb6 0cbd c8f6 ab3e 3ced a03e e003 ad3e
00000270: 790a 56be 514b 55bd 9bca 26be aa79 bb3e
00000280: 5569 913e af7a 993e 0a6a 5fbe aee2 af3e
00000290: 3171 6cbd 3186 ab3e 3b11 b6be 9aac 00bf
000002a0: cd22 fbbd e823 a8be 7db0 15bf 3cf9 b0be
000002b0: 2ac5 0f3e 4267 533d 300a 9e3e 0e7b d7bd
000002c0: 0a50 71be c9d2 3e3f 8893 36be c2da e63e
000002d0: e933 913c 57eb 4f3e 2032 2ebd df5d 21bf
000002e0: 1dd2 35be 5470 debd 96c3 5b3e f368 cfbe
000002f0: afb2 a2be 8e0f d3be 3bbd 85bd 5813 b6be
0.36994034 0.041401207 -0.19977356 0.49468225 -0.29147673 0.13594447 0.08419929 -0.1697971
0.46008143 0.021055264 0.012089025 -0.42661604 0.49331853 0.08879417 -0.46920425 0.4011244
-0.27152267 -0.27471343 -0.16210735 0.082976475 -0.8246329 0.028984755 0.15155248 0.6137312
0.601532 -0.11977017 -0.049419172 -0.26954514 -0.13777214 -0.08523733 -0.28854692 0.35441604
-0.3115463 -0.08621606 -0.32332107 -0.07155465 0.07669554 0.12151334 0.28532797 0.6218662
-0.13201326 0.27931562 0.124363616 -0.35811165 0.25794044 0.09460354 -0.18405573 -0.12804256
-0.064435594 -0.12223996 0.46565798 -0.57660824 -0.48530972 -0.53120387 -0.26466778 0.4450892
-0.2927289 -0.066712566 0.0756268 -0.28531486 -0.24507403 0.3650983 0.15728545 0.3999611
-0.16592777 -0.28907293 -0.3381706 0.18609121 -0.29975718 0.46125293 -0.35230842 -0.0397303
0.350443 -0.43899637 -0.02460963 -0.24321021 -0.51066273 -0.42508844 0.3340399 -0.009440386
0.04347976 -0.50759184 -0.08688719 -0.36457226 0.054124173 -0.7239333 -0.026889678 0.33307895
-0.11067651 -0.036460165 -0.310322 0.00987567 0.13761064 0.176583 -0.33235884 -0.08621252
-0.25746226 -0.5611606 0.285667 -0.23510566 -0.07209946 -0.11250298 -0.35989535 -0.39596346
-0.52828556 -0.16096595 0.06608315 -0.19275045 -0.0009114269 0.38814825 -0.08958562 0.19350815
-0.10777692 0.6003276 -0.118540205 0.5014945 -0.26762378 -0.21822031 0.4976324 0.06318654
-0.06508756 -0.3737288 -0.6279894 0.27636498 -0.28413296 0.003183011 0.071052164 0.40736318
0.11297136 -0.18507327 0.028377302 0.49249005 -0.17043386 0.0469549 -0.32124755 -0.09776614
-0.004129551 -0.24388912 0.100918755 0.17175019 -0.81459326 0.1031668 0.22011864 -0.083080314
0.27565402 0.26940078 0.46243948 0.16298456 0.23557964 -0.2162683 -0.055638667 0.5901861
-0.0343542 0.33586717 0.31430995 0.3379202 -0.20902433 -0.05207378 -0.16288225 0.3661626
0.28400674 0.29976413 -0.21817794 0.3435263 -0.057725135 0.33500817 -0.3556002 -0.5026337
-0.12262497 -0.32839894 -0.58472425 -0.3456515 0.14040056 0.051612146 0.30867147 -0.10521518
-0.23565689 0.7454038 -0.17829716 0.45088774 0.017724948 0.20304619 -0.04252827 -0.6303386
-0.17755933 -0.10861269 0.21461329 -0.40509757 -0.3177695 -0.41222805 -0.065302335 -0.35561633

actor.0.bias f4 [32]
00000000: 6242 963c 2561 a5bc 9dd8 213e b839 303f
00000010: 7ac4 8b3e 12b9 543e 7fd1 39be f7d3 a8be
00000020: 5d15 e1bd 6a1f 07be 774d b0bd 496a 143e
00000030: 19e9 313f 8dfa 543e dcaf 9abe 3855 e4bd
00000040: e63b ae3e 283f f93d 6464 ab3e 96af ccbd
00000050: d8d2 923e 2073 b03e 1cb5 47bf 7365 963e
00000060: f56e 863e 5bb8 343e 85fb 163f c17b efbd
00000070: d6c9 b33c df0e 79bd 6798 55be dbb7 93bd
0.0183422 -0.020187924 0.15805288 0.6883807 0.27298337 0.20773724 -0.18146323 -0.32974216
-0.10990403 -0.13195577 -0.08608525 0.1449367 0.69496304 0.20798703 -0.30212295 -0.11149067
0.34030074 0.12170249 0.3347503 -0.09994428 0.28676486 0.34462833 -0.78010726 0.29374275
0.26256528 0.17648451 0.5897754 -0.11693526 0.021946829 -0.060805198 -0.20858918 -0.07212802

actor.2.weight f4 [32, 32]
00000000: 0832 b83c 41c2 a73d 2057 30bd 2a67 5bbe
00000010: 9502 333e 1437 4d3e f400 933c 0ccc d9bd
00000020: 56d7 5fbd ac5c f93d d73f 863e 998c 913d
00000030: 0626 073e 5724 813d 13fc c2be 4c98 b1bd
00000040: c287 e73d d780 acbe 9835 4a3e c4c9 853e
00000050: 822c 4dbe 9f71 543d 88a0 2cbe 7e93 aa3d
00000060: 5e61 b23b 1cd2 e83d bb4a fb3e b751 053e
00000070: 4af7 a2be f44e 6bbd 566f 7b3e 7fa5 6fbe
00000080: 1f1b 4e3e f5ab a63b 405f e23c 9663 dabe
00000090: 44b3 e5bd 91c9 bc3d 5e86 1abe aaa9 e83d
000000a0: 9aa6 c6bc 315a 3bbe 054f 8fbe c03f 773e
000000b0: 994f ba3c 0080 9b3d 067f 4ebe 0901 5d3d
000000c0: 20a4 e53c 91b5 3abe 3739 e7bd ed91 71be
000000d0: 24ef 0c3e e2fe 62be 4d09 80bd 33cb 2dbe
000000e0: a871 683e e046 253d ffca c6be 1647 33bc
000000f0: 76d9 adbe 0ea1 58bd 3005 853e 4598 bdbe
00000100: b49f 1e3e b1f4 d93d 1e14 0abe fac3 10be
00000110: 8c14 80bd dacd 0dbe 4825 db3d 78b5 553c
00000120: e167 16be a728 38be 9a4f 11be 6631 1e3e
00000130: b1ad 90bb cd3e 23be b163 1abe 59ec e5bd
00000140: 3d16 d1bd 381d 60bd 2c39 59bd dbba 10bd
00000150: 2737 3f3b 79f3 003e 076a 073e 0e89 213e
00000160: 374b fdbd 9ab2 f6bd 2068 7cbd a976 013e
00000170: 1a3b 5abc aa7a c5bd 8b09 543d d963 37be
00000180: 1d6f c33e 8a20 863d ea78 e0bc 989a 673e
00000190: 1c1e 8abe 9a48 e53c ca60 d4be 6cf2 da3e
000001a0: 9f9d ae3d 4c91 fbbd 7ab6 96be 2c5c 05bf
000001b0: ab66 f73c 6d9a f33d 67f7 b03d 0816 aebd
000001c0: 54b2 ac3e 73cf cdbd 3951 7dbe 7e66 653d
000001d0: f702 713d 3108 b33d a791 1e3e 5981 00bd
000001e0: 277f 5f3e 684a 8dbf 8bbc 963e 9ec9 5abf
000001f0: b5a8 4d3e 666d cbbe a4ab 543e 7177 b53c
00000200: c349 9c3d 8d7a c23d 5b89 7e3e 4f17 82be
00000210: 081c 7e3d 83f9 02be 619f 7f3e bc07 0b3f
00000220: a961 f3bd 9c78 143e 2e73 efbc 1dfd 2c3e
00000230: 5201 a53e cf98 45be dfe2 203e 9ae4 7a3e
00000240: 1f53 2bbf 4984 7bbe 725e ca3d 59b9 583e
00000250: 6df1 963d 97f5 67bd 79bd 0b3d b312 063c
00000260: 50b2 e0bb 7dea 99bd b826 e4be cdc8 b43c
00000270: 37de c7bd c350 1ebf 2ef0 f5bd eab7 093e
00000280: aa2f 143d bc3c 353e 34ab 023e 61df 2a3d
00000290: 2ecb 743e c95a 1b3d 553e 903d 7ef2 c03d
000002a0: 135e 183e 9eb6 083e 0007 913d 076d 0e3e
000002b0: 2527 153e 3521 04bd 673f 1e3e 72cc 9a3d
000002c0: 95cd 8dbe 87ed 0dbf 392e 0b3e ac3e a23d
000002d0: 1e9b 353e bfa6 f03d cbab 51be 9b29 17bb
000002e0: 5d1a 293e f843 ddbd 1bb7 523e 6586 97bc
000002f0: e280 c3bd 584d 983d f376 6fbc cb77 afbe
00000300: 034f 273e 6789 953e 0bab 8e3e 4b6d a1bd
00000310: c8d6 88be 50ff 433c 745f a13e 9418 d7bd
00000320: 9f70 8a3d ce2d 793e bd5a 3e3d 24ab 953d
00000330: fe27 c2be 800e 61bf ea52 863e dfea 03be
00000340: cbae 62bd f623 cdbd 0fa3 a83e bd8c bf3d
00000350: 93fc 60be 776e 953e b842 95be b93b 7f3c
00000360: c434 fd3d 2c4f c03e 3f1e 8fbe 331d 263e
00000370: 0b65 1dbe 8f4a b6bd 6d71 5ebd d1fd 02bf
00000380: 3f48 24be ea83 1e3d d4e6 3bbe 03a8 88bc
00000390: 904b 16bf 462e c03b d48a 37be d8b1 0ebe
000003a0: 6ce4 2abe 5c90 dfbb f609 643e a56c f33b
000003b0: 40ea ee3d 577b af3d b388 c03e 9a7d 9e3d
000003c0: 17bb 723e f13d 383e f9a4 ddbb addb 6abd
000003d0: c2d1 993e e97c 01be 7a8a 4cbd 74dd c4bb
000003e0: 9408 bdbe 8265 533e fd89 71be fcd0 3b3e
000003f0: 0f2e 1c3e 65b3 b3be 06b0 36be 952e 103c
0.022484794 0.08191348 -0.04305184 -0.21426073 0.17481454 0.20040542 0.01794479 -0.10634622
-0.05464872 0.12175879 0.2622058 0.07106895 0.13198099 0.063057594 -0.38082942 -0.086716264
0.113051906 -0.33692047 0.19747007 0.26130497 -0.2003651 0.05186617 -0.16858113 0.08328913
0.005443736 0.113682 0.49080452 0.13019453 -0.31829292 -0.057448342 0.2455419 -0.23402975
0.20127533 0.005086417 0.02763331 -0.42654103 -0.11215833 0.09218133 -0.1509032 0.11360486
-0.024249364 -0.18296124 -0.27989975 0.24145412 0.022743033 0.075927734 -0.20165643 0.053956065
0.028032362 -0.18233325 -0.1129021 -0.23590823 0.137631 -0.22167543 -0.06251774 -0.16972046
0.22699606 0.040350795 -0.3882675 -0.010942241 -0.33954972 -0.05288797 0.2598052 -0.37030235
0.1549061 0.10642374 -0.13484237 -0.14137259 -0.06253919 -0.13848057 0.1070047 0.013043754
-0.14688064 -0.17984258 -0.14190522 0.15448532 -0.004415237 -0.15941925 -0.15077092 -0.1122672
-0.1020932 -0.054715365 -0.05303304 -0.03533445 0.002917716 0.12592877 0.1322404 0.15774938
-0.12367862 -0.12045784 -0.06162274 0.12642922 -0.013319755 -0.09642537 0.051766913 -0.17909183
0.3817071 0.06549175 -0.027401406 0.22617567 -0.26976097 0.02798872 -0.41480094 0.42763078
0.085261576 -0.122835726 -0.29436094 -0.5209377 0.030200323 0.11894689 0.08640938 -0.08500296
0.33729804 -0.100493334 -0.24738015 0.056005947 0.058840718 0.08741797 0.1548525 -0.031373356
0.21825849 -1.1038332 0.29440722 -0.85463893 0.20083888 -0.39731902 0.207686 0.02215168
0.076312564 0.09496031 0.24857084 -0.25408408 0.06203845 -0.12790494 0.24963142 0.54308677
-0.118838616 0.14499134 -0.029229727 0.1689343 0.3222757 -0.19296573 0.15711544 0.24501267
-0.6692371 -0.24562182 0.09881295 0.21164455 0.07370267 -0.056630697 0.034116242 0.008183169
-0.006857194 -0.07515428 -0.4456079 0.022068406 -0.09759181 -0.6184198 -0.12008701 0.13449064
0.03617827 0.1769895 0.12760621 0.041716937 0.23905632 0.037928376 0.07043139 0.09421252
0.14879636 0.13350913 0.07081413 0.13908778 0.14565714 -0.03225823 0.15453874 0.07558526
-0.2769591 -0.5544056 0.13591851 0.0792211 0.17734954 0.11750554 -0.2047569 -0.002306557
0.16513963 -0.1080398 0.20577662 -0.018496701 -0.09546067 0.07436627 -0.014615762 -0.34271082
0.16338734 0.29206392 0.2786487 -0.07882174 -0.26726365 0.011962727 0.31518137 -0.10502735
0.06759762 0.2433388 0.046473254 0.07308033 -0.37921137 -0.8791275 0.26235133 -0.12882565
-0.055342477 -0.10016625 0.32936904 0.093530156 -0.2197135 0.2918584 -0.29152465 0.015578204
0.1236358 0.37560403 -0.27952763 0.16222076 -0.15370576 -0.0890094 -0.05430739 -0.51168543
-0.16043185 0.03870002 -0.18349773 -0.016681677 -0.5870905 0.005864891 -0.17924052 -0.1393503
-0.16688699 -0.006822629 0.22269425 0.007428723 0.116657734 0.08568447 0.37604293 0.077388
0.23704182 0.17992379 -0.006764051 -0.057338405 0.30042845 -0.12645306 -0.04993675 -0.0060078446
-0.36920607 0.20644191 -0.23587795 0.1834144 0.15251945 -0.35097805 -0.17840585 0.0088001685

actor.2.bias f4 [32]
00000000: 9f5c 763e ccfa 51be 8d3e 3abe 2af9 273e
00000010: 90d0 e7bd bd48 a03d aaf9 2b3c 839b f03c
00000020: 94d2 593e 61cd 213d c6f9 dc3e 4e22 10be
00000030: 3a79 81be 0a5f f3bd f8bc 98be f6b6 97be
00000040: 15e5 133e 6f79 a4be 5389 b83e c8ba c03d
00000050: de91 0abe f52f bc3e 1597 a1be c607 bd3e
00000060: 0436 2cbc d03d 21bd 0314 d53d 1d4a e0bd
00000070: 367e c43e 0864 b9ba 35a1 0fbe f676 59be
0.2405877 -0.20505828 -0.18187924 0.16403642 -0.11319077 0.07826374 0.010496536 0.029371029
0.21271735 0.039502505 0.43159312 -0.14075586 -0.252878 -0.11883362 -0.29831672 -0.29631776
0.14442857 -0.32123896 0.3604227 0.09410626 -0.13532206 0.36755338 -0.3156058 0.36919993
-0.010510925 -0.03936559 0.104042076 -0.10951636 0.3837754 -0.0014144192 -0.1402634 -0.21236786

actor.4.weight f4 [2, 32]
00000000: 85a2 733e 8fd7 443e 3175 95bd 0e2b 62bf
00000010: 18a2 15bf 8008 2c3e c12f cabe c971 cdbe
00000020: ba14 0a3f b98d b83d fd2a 633e 7962 d1be
00000030: 18a7 c2be 6caf 203e 9a71 24bf fe1c 9f3e
00000040: 82dc a23e 648a 97be 5b81 953e 5929 203e
00000050: eb9f b93c 4b69 fcbc 833f 0cbf 0b87 6dbe
00000060: 97bc 4bbf 0bbf 913d f6fe 583e d07d fbbe
00000070: dec2 143e 6f13 8a3d 0c4d 79be f2f4 683e
00000080: a974 7dbe 08ea 973e 7367 19be 480d 17bd
00000090: c9e1 a5be 803a 61be 8cf2 783e 9789 983e
000000a0: 3e8a f2be ec30 e53e 406d 993e 0ad5 14be
000000b0: 1793 a53d 06c2 2fbe 7290 163e d3ae 44be
000000c0: 6aca 273d a0a1 71be 5fea 9b3e 234f 3a3e
000000d0: 61bb 893e 99d0 3c3e ec24 3fbe 63dc d33d
000000e0: 6b86 c13e e167 0a3f 6998 49be 0194 d0bd
000000f0: 8b80 863e c6fb 293f 193a 8dbe 92cc 5fbe
0.23792465 0.19222854 -0.07297743 -0.88346946 -0.5845046 0.16800117 -0.39489558 -0.40125874
0.53937876 0.090114065 0.22184367 -0.4089544 -0.38018107 0.15691918 -0.6423584 0.31076807
0.3180886 -0.2959777 0.29200253 0.15640773 0.022659263 -0.030811926 -0.5478441 -0.23196046
-0.7958464 0.07116517 0.2119101 -0.49119425 0.14527461 0.06741988 -0.24345797 0.22749689
-0.24751534 0.2967074 -0.14980869 -0.0368779 -0.32398823 -0.21994972 0.24311274 0.29792473
-0.47371095 0.44763887 0.29966164 -0.14534393 0.08084696 -0.17163858 0.14703539 -0.19207315
0.04096452 -0.23596811 0.30452248 0.18194251 0.2690077 0.18438949 -0.18666428 0.1034477
0.37797865 0.54064757 -0.19687046 -0.101844795 0.26269946 0.663998 -0.27583387 -0.21855381

actor.4.bias f4 [2]
00000000: aa82 ac3d 175a a33e
0.0842336 0.3190467

actor.0.weight f4 [32, 6]
00000000: 32bc bd3e 4e93 273d ddd5 4dbe a81e fc3e
00000010: fa74 94be eac3 0c3e d4ae aa3d 4305 2ebe
00000020: 5f85 eb3e 7678 a93c aba9 4a3c a548 dabe
00000030: 857e fc3e c4fc b03d 10bd efbe ff7b cd3e
00000040: 65ee 8abe 9d90 8cbe de08 25be 7fd5 a63d
00000050: bd30 53bf ef10 f33c 0f09 1e3e 9ad3 1d3f
00000060: c250 1a3f 4ea8 f5bd e55e 4bbd 4ca0 89be
00000070: 4991 08be 348b a5bd 009f 93be 6eb6 b53e
00000080: 09f8 9ebe 146a afbd 47a0 a5be 38e3 92bd
00000090: 7201 9d3d a01c fd3d 98f4 923e 7323 1f3f
000000a0: 9583 06be e857 8f3e 870a 003e d320 b7be
000000b0: 5868 843e bdd3 c13d 39ec 3ebe b590 05be
000000c0: eec1 85bd 69fd fabd 143c ee3e 93f0 13bf
000000d0: 23d0 f9be caa7 08bf d220 87be 97b6 e43e
000000e0: 3365 95be b263 88bd 4e2f 9b3d 8a01 92be
000000f0: a7b3 7abe b437 bb3e d776 223e db98 cc3e
00000100: 6c37 2dbe 95a8 95be 0349 adbe d379 3e3e
00000110: 73a4 99be db1f ec3e 52d0 b1be a230 0ebd
00000120: 0c8e b33e 57c1 e0be f1b4 cbbc f020 79be
00000130: 9400 03bf c730 dabe fd62 ab3e cf68 06bc
00000140: be2c 2d3d c8e3 01bf 9c6b b6bd a4c7 bbbe
00000150: fc8d 5d3d 7d5f 39bf 0e82 e9bc de98 a93e
00000160: 59a6 e8bd 344f 21bd e7f5 9ebe 280f 1f3c
00000170: 8e71 0c3e d567 353e a4a1 abbe 0b6b b6bd
00000180: c4e4 83be b9aa 0fbf 2d6a 923e 24af 6fbe
00000190: 421a 97bd 56d9 e9bd b4fb b7be 03fd cabe
000001a0: fb43 07bf adec 26be 3da3 8b3d 203a 43be
000001b0: f63b 36ba fec4 c63e 7c19 b9bd 042a 463e
000001c0: 89ba dcbd aeae 193f ec22 f2bd c57f 003f
000001d0: b9c9 88be 9f23 5dbe 8868 ff3e 74e3 833d
000001e0: 9a18 7dbd 095d c0be 7d8c 20bf 7c99 8e3e
000001f0: 4b87 8dbe 2b79 323c f099 8f3d 46d9 d03e
00000200: 8ae1 e63d 5c61 3cbe 2077 e83c 4427 fc3e
00000210: 4f3b 2ebe ffbd 3b3d 72f2 a4be cba9 c3bd
00000220: 5a14 c6ba b20f 77be 15ff cc3d bd39 2e3e
00000230: 6c82 50bf 196f ce3d 2c77 613e 3305 aabd
00000240: d703 8d3e 124b 8a3e 84cb ec3e cb8b 263e
00000250: 751d 733e c593 5bbe 629d 63bd b749 173f
00000260: e2da 06bd e6ce ac3e 951c a13e 3933 ad3e
00000270: e9c9 54be 2a0e 5dbd 581e 27be e438 bc3e
00000280: 5569 913e af7a 993e 4218 5fbe bae1 af3e
00000290: cf82 6ebd c207 ac3e 8483 b4be 84cb ffbe
000002a0: 7dd3 f9bd 7555 a8be c2a7 15bf 5be9 b0be
000002b0: 1c67 0d3e 0fef 493d 8c34 9d3e ddd8 d9bd
000002c0: 010f 70be 9ccd 3e3f 05a9 34be fdcf e73e
000002d0: cf52 863c 3cc4 503e 3884 29bd 9f68 21bf
000002e0: 356a 3ebe 89a0 efbd 3361 5b3e 364f d0be
000002f0: d297 a2be e0b4 d2be f3ab 73bd 8a19 b3be
0.37057644 0.040911965 -0.20101114 0.4924214 -0.28995496 0.1374661 0.08334127 -0.16994195
0.46000192 0.020687323 0.012369554 -0.42633548 0.49315277 0.08641961 -0.4682393 0.40133664
-0.27135006 -0.2745408 -0.16116664 0.0814619 -0.82496244 0.02967116 0.15433143 0.61651003
0.60279477 -0.11994992 -0.049651045 -0.2688011 -0.13336672 -0.080831915 -0.28832245 0.35490745
-0.3104861 -0.08565155 -0.32348844 -0.07172245 0.07666291 0.123589754 0.28702235 0.62163466
-0.13136132 0.27996755 0.12504016 -0.3576723 0.25860858 0.09464214 -0.186448 -0.13043483
-0.0653113 -0.122553654 0.4653021 -0.5778896 -0.48791608 -0.53381026 -0.26392227 0.44670555
-0.2917877 -0.0665964 0.07577382 -0.285168 -0.24482594 0.36565936 0.15865646 0.3996037
-0.16915673 -0.2923018 -0.33844766 0.1860116 -0.30008277 0.46118054 -0.34729248 -0.03471435
0.3506931 -0.43897507 -0.024866553 -0.24328971 -0.5117276 -0.4261534 0.3347396 -0.008203699
0.042278998 -0.5073819 -0.089072436 -0.3667575 0.054090485 -0.7241133 -0.028504398 0.3312444
-0.11359853 -0.039382175 -0.31046984 0.009708203 0.13715193 0.1771539 -0.3352176 -0.089071356
-0.25760472 -0.5611988 0.2859663 -0.23406655 -0.07378055 -0.11418407 -0.35934222 -0.39646158
-0.52838105 -0.16301222 0.068182446 -0.19065142 -0.0006951684 0.38822168 -0.09038064 0.19351965
-0.10777766 0.60032165 -0.11823067 0.5019496 -0.26716402 -0.2159562 0.4988444 0.064398676
-0.06179104 -0.3757098 -0.6271437 0.27851474 -0.27642283 0.0108931465 0.07011783 0.40790766
0.11273487 -0.18396515 0.028377116 0.49248707 -0.17014812 0.04583549 -0.3221622 -0.0955387
-0.0015112266 -0.24127081 0.100095905 0.17014213 -0.8144901 0.10079784 0.22018117 -0.08301773
0.27541992 0.270104 0.4624902 0.16264264 0.23741706 -0.21443088 -0.055570014 0.59096855
-0.032923587 0.337516 0.3146712 0.33828142 -0.20780148 -0.053968586 -0.16320169 0.36762154
0.28400674 0.29976413 -0.21786597 0.34351903 -0.058230218 0.3359967 -0.35256588 -0.49959958
-0.12198541 -0.328777 -0.58459103 -0.34553036 0.13808864 0.04930025 0.30704153 -0.106370665
-0.23443224 0.74532485 -0.17642601 0.4527587 0.016396908 0.20387357 -0.04138586 -0.63050264
-0.18595202 -0.117005415 0.21423797 -0.40685433 -0.31756455 -0.41153622 -0.059490155 -0.34980422

actor.0.bias f4 [32]
00000000: fcb1 8e3c cb83 9fbc a83e 203e 3fb0 2f3f
00000010: 6ebd 8b3e 93c6 543e 28f5 3abe 15c9 a7be
00000020: 8179 e1bd 34fc 08be 4a94 b0bd e0cb 143e
00000030: 39d4 313f c93a 563e 0d42 9abe e613 e2bd
00000040: 04c9 ad3e 8952 f93d cfc0 ab3e 1379 cbbd
00000050: 8314 913e 7739 b03e 07c1 47bf a77e 953e
00000060: 149c 863e a8cb 353e 9f8d 163f c635 eebd
00000070: 812f a43c 67a5 7bbd 77c9 54be 3b9c 91bd
0.017418854 -0.019472023 0.15648901 0.68628305 0.2729296 0.20778875 -0.18257582 -0.327706
-0.11009503 -0.13377458 -0.08622034 0.14530897 0.6946445 0.20920862 -0.30128518 -0.110389516
0.33942425 0.121739455 0.3354554 -0.099352024 0.28335962 0.34418842 -0.7802891 0.2919819
0.26290953 0.1775347 0.58809847 -0.1163135 0.020042183 -0.061437037 -0.20779978 -0.07109877
