results/SandingEnvEasy/ddpg_extension/model/model_parameters_0.pt (torch, 30018 bytes, 22 tensors)

value.0.weight f4 [32, 8]
00000000: 8a35 6bbe ee60 b0bb fe83 403e 1a43 48bd
00000010: 4e0f ddbc 925d d4bd 80ed ac3f b62b 90be
00000020: ef84 803d fc56 23bd aede 58be 9ff4 2fbd
00000030: 563a b33e 86b4 3b3e 2871 823f b1a2 1abf
00000040: 628c 1e3e f68b 083e 4044 603e 52f4 31be
00000050: 9750 8abd 362c 6dbe a26b 9b3f a11f 8dbf
00000060: 2acb 223e 90a3 b83d 39ac 28bd f2e3 34be
00000070: 852f 18be c806 933e 5fb2 ed3e 0f73 da3f
00000080: fc03 863d 133f 603e 7e58 3dbd fa9a 72be
00000090: 83e2 41be 9401 0dbb 74a7 a93f b3db aabe
000000a0: b775 f3bd 20d0 c93c 6141 af3e 0150 333e
000000b0: ae7c 16bd af98 f23d ad2f e8bf c0c6 d0be
000000c0: d8af a5bd b6ab 96bc c2dd 6ebd d6d1 46bb
000000d0: 0ef8 69be ea69 153b 8379 d8bf 8b1a f13f
000000e0: 7c86 5e3e 8e5e 783e 1562 943d 4817 a73e
000000f0: 45f9 b43d 870f 04be 4857 4f3e c808 3f3f
00000100: 84db d93c a02b 2cbe 845b c13d 6cde 66be
00000110: 2cda 513e 8666 b03e fd99 1d40 8168 863e
00000120: e64f 4abd 4cbb 733e c96c 03bd 8b7a 1a3e
00000130: 11dd c13e 3df2 80be c563 1ac0 bc47 9b3f
00000140: 9b02 bc3e e383 33bd 50e9 e4bd a5ca 44be
00000150: 2496 533d 92bc 383e e78b 993f 672f 4b3f
00000160: 9f9f 243e 1be1 163e fccb 70be 6137 533e
00000170: 1d1f b13c e2ea bc3b 273c 98bf 4c57 bd3e
00000180: dd0e 0a3e 48f1 c33d 9419 713e cf3f fcbd
00000190: d886 083e ad3a c3be 068e d43e decd 00be
000001a0: 266d 4fbe 1930 503d d36f 6d3e a2d6 2e3e
000001b0: 59c7 a03e 983a f83d 9fa7 ef3e 1374 9d3f
000001c0: f8ba 6a3e 4e7e 23be 933f 12be 0247 d5bd
000001d0: c3eb cd3e 626b 3bbe d38c 69bf 5807 773f
000001e0: e36f 273e ad8f 1ebe 8813 12be 584c b1bd
000001f0: e02e ffbd 58c3 47be 20d8 033f 4a07 9c3e
00000200: 29d7 4cbe 148b 7cbd 2f6f 8b3d 32fb 3bbe
00000210: 062b 21bd 9489 94bd 5bd7 113f d521 8dbf
00000220: 7c1c 8fbe 06d3 17be d425 54bd c9a4 2a3e
00000230: 8778 97bd d416 08be 3731 083e ecab 213f
00000240: 7904 8ebe c923 a0bb 7fd8 933e ae95 48be
00000250: 5369 c1bd 4ff3 b43e dcd6 a2bf 6e7a c13e
00000260: b70d 0d3e bf43 443e 9737 29be 4d21 7b3e
00000270: 4358 173e 3b73 debd 552d 5d3f 531a 833f
00000280: ba17 a8bd 696c 80be de8a 973d 3eb6 393e
00000290: 7aea 1bbe c650 2b3e de43 b4bf e622 2c3d
000002a0: 8225 683e 8a1d 823e aaa4 843c 0559 f13c
000002b0: 7a13 043e 1b97 013e 81c2 9cbe 8470 2cbf
000002c0: 543c 133d ac32 b3bd 87ec d2bc 025c e53d
000002d0: 2491 553e d119 cc3c ceca 2abf 94d0 1c40
000002e0: 16d4 e23d 7162 903d 09c7 e53c 5931 81be
000002f0: 44f3 7cbe 6773 d03e a16a 613e 9de2 8f3f
00000300: 968f a2bc edc8 6f3e 6fbe 103e 253f 56be
00000310: 0cc0 05bd 3b0f 543e 16ef b53e 96a2 2d3f
00000320: 63aa 03bd b391 8fbb 4750 0abe 4da9 f0bb
00000330: cade 233e 70be 323e 6881 06c0 1c73 3c3e
00000340: 62bc 493e 251d dd3d 19fa da3d c224 cfbd
00000350: 15e9 2f3e fbfa c5bd 42b5 bcbd d67f c63e
00000360: de6c 9a3c c93a 8bbd 201f b9bd 7064 b33d
00000370: b82e da3d df20 ac3e f6d8 2740 891e e53e
00000380: e7fb 62bd 8ceb a4bd e01b c73d 7dbe bebd
00000390: 3d83 6fbe 7486 b2bd 0ee1 7b3f 7796 53be
000003a0: 6807 63be 176f d43c 6e82 34be eb2b 45bd
000003b0: 7d46 44be d7e7 6dbe 6984 abbe c2d5 9f3f
000003c0: a4f8 c5bd d02f 4b3d b812 8dbe 45d8 6b3e
000003d0: a898 03be e8ae b63b 48e2 153c 9b76 1ebe
000003e0: 4405 88be 78f5 28be 8e03 6a3e 8af6 433e
000003f0: f940 f2bb 79ec 4bbd 6cb9 a3be 5ffa 133f
-0.22969642 -0.0053826487 0.18800351 -0.048892118 -0.026984837 -0.103694096 1.3509979 -0.2815835
0.06275355 -0.039877877 -0.21178696 -0.0429579 0.35005444 0.18330583 1.0190783 -0.604045
0.1548324 0.13334641 0.21901035 -0.17378357 -0.067536525 -0.23161396 1.2142222 -1.1025277
0.15897813 0.09015572 -0.04117987 -0.17665079 -0.14861877 0.2871611 0.4642515 1.7066363
0.06543729 0.21899061 -0.04622697 -0.23691931 -0.18934064 -0.0021515833 1.3254228 -0.33370742
-0.11887687 0.024635375 0.34229568 0.17510988 -0.036739998 0.11845528 -1.813955 -0.40776634
-0.0809018 -0.018392425 -0.058316953 -0.0030337474 -0.22848532 0.0022798725 -1.6912082 1.8836225
0.21730989 0.2425482 0.0724527 0.3263495 0.08836607 -0.12896548 0.20248139 0.74622774
0.026593931 -0.16813517 0.09441283 -0.22545785 0.20493382 0.3445322 2.4625237 0.26251605
-0.049392603 0.23801917 -0.032086167 0.15085809 0.37863973 -0.25184813 -2.4123394 1.2131267
0.36720738 -0.04382695 -0.11177313 -0.19217928 0.051656857 0.18040684 1.199582 0.79369205
0.16076516 0.14734308 -0.23515314 0.20626594 0.021621281 0.005765305 -1.1893357 0.36980665
0.13482232 0.09567505 0.23544914 -0.12316858 0.13332689 -0.38130704 0.41514605 -0.12578532
-0.2025648 0.05082712 0.23187189 0.17074063 0.3140209 0.12120551 0.46807572 1.2301048
0.22922885 -0.1596615 -0.14282064 -0.10413934 0.40218934 -0.18302682 -0.91230506 0.9649558
0.16351275 -0.15484495 -0.14265263 -0.086571395 -0.124601126 -0.19508111 0.51501656 0.3047431
-0.20003952 -0.061656073 0.06808316 -0.18357542 -0.03934767 -0.072528034 0.5696923 -1.102595
-0.2795142 -0.14826593 -0.05179389 0.16664423 -0.07396036 -0.13289958 0.13300024 0.63152957
-0.27737787 -0.0048870784 0.2887611 -0.19588348 -0.09443917 0.3534188 -1.272182 0.3778872
0.13774763 0.19166468 -0.16525112 0.24524422 0.14779763 -0.10861822 0.86397296 1.0242409
-0.082076505 -0.2508271 0.07399534 0.18135926 -0.15226164 0.16730031 -1.4083211 0.04202547
0.22670558 0.25413162 0.0161918 0.029461393 0.12898055 0.12655298 -0.30617145 -0.67359185
0.035946205 -0.08749899 -0.02574755 0.1119919 0.20856148 0.024914654 -0.66715705 2.4502306
0.110756084 0.07050026 0.028049009 -0.25232962 -0.24702173 0.40713045 0.22013332 1.1241032
-0.019843858 0.23416491 0.14135145 -0.20922525 -0.032653853 0.20708935 0.3553397 0.6782621
-0.032144915 -0.0043813824 -0.13507186 -0.007344401 0.16002956 0.17455459 -2.1016483 0.18403286
0.19700769 0.107965745 0.106922336 -0.10114433 0.17178757 -0.09667011 -0.0921426 0.38769406
0.01885074 -0.06798322 -0.0903914 0.08759391 0.10653442 0.3361883 2.6226172 0.4474986
-0.055416014 -0.080527395 0.097221136 -0.093136765 -0.23389907 -0.08717051 0.9839028 -0.20662867
-0.22170794 0.025931878 -0.1762788 -0.048137587 -0.19167514 -0.23232971 -0.33499458 1.2487109
-0.09666565 0.049606144 -0.27553344 0.23031719 -0.12851202 0.0055750497 0.009148188 -0.15474932
-0.26566517 -0.16499889 0.22852919 0.19137016 -0.0073929993 -0.049786065 -0.31977403 0.5780391

value.0.bias f4 [32]
00000000: a997 cabe d328 babc b25b a0be fec5 e4be
00000010: e463 b3bd 5848 9f3e 590f 2cbc 2e98 a43e
00000020: 75d3 d1be f7fe c9be dfc7 063f e4d7 3bbf
00000030: c5ee 94be 604b 03be 1dce 983e 6884 d6bd
00000040: f0f7 0f3d 60f8 463e fdd8 c3be 84ad 023f
00000050: 516c bbbe 9ef9 0bbf 5a45 9a3e ac7f 2ebf
00000060: 8ce1 8dbd b7c1 133f aa4b 07bf 61ff 56be
00000070: 2910 e33e c580 aebe 323e a43e fd6a b03e
-0.39568833 -0.022724545 -0.31319958 -0.44682306 -0.08759287 0.3110988 -0.010501706 0.32147354
-0.4098164 -0.39452335 0.5264873 -0.733763 -0.29088417 -0.12821722 0.29844752 -0.10474473
0.03514856 0.19430685 -0.38251486 0.51046014 -0.36606076 -0.5467776 0.30131036 -0.6816356
-0.06927785 0.5771746 -0.5284983 -0.20995857 0.44348267 -0.34082618 0.320787 0.34456626

value.2.weight f4 [32, 32]
00000000: 8887 ea3d 2ac7 8e3d 9b72 873d cfc7 0fbe
00000010: 3137 713c cfa6 a93d 7707 fcbc 4ebc 093d
00000020: 991e 29bd 5128 eb3d 71aa 023e 7b11 1a3d
00000030: cde8 263e 50bf 223d 77b7 0fbd e835 1f3e
00000040: 257d bebc 7c0f e43c 246e 03be 9221 3e3e
00000050: 1274 1cbe a650 f03d 1776 1ebe 9905 023e
00000060: 5230 67bd c24a abbe 9b37 0c3e 8490 153e
00000070: 1e8b 783d 7c2c 5fbe 28c6 813d 7487 043e
00000080: 83ba 56be e216 f7bc 2ca3 97bc 626f 9cbe
00000090: e3b4 073e 3252 a03d 8223 08bd 66fc 62bd
000000a0: 5fae a1be decd 9f3d 8dc3 35bd 36ee 26be
000000b0: 7598 2bbe 0eb2 9cbe 0b57 0d3e c7f9 ca3d
000000c0: d191 18be 62ef 0c3e 03e8 283d d267 0c3e
000000d0: cfe1 1ebe 2d36 863d 6333 6ebd dbea cfbd
000000e0: 63ac 0f3d 095b 053d 518f c93d 0f55 243e
000000f0: 60a7 a13d 310d c33d 4e1b 9fbd 8849 bd3d
00000100: 4d64 34bd 6374 7fbd 7f26 c13d b73f f23d
00000110: eb1a f3bc 7365 6d3b b5a8 03bc c07a 843e
00000120: d8d6 6abe 7b9a 38be 5e12 0b3e 5e5a c2bd
00000130: 0787 cbbd 85b6 113b 55da 433d ce1e 6a3d
00000140: 429b e33d 2013 9ebd 132a 7d3e bbf3 5ebd
00000150: c41a 5a3c d648 04be 28c2 69be 1ebc ccbd
00000160: a9eb fd3d 3c35 16be 4668 d13c a8e4 4a3d
00000170: 9c43 a7bb ffef d63d a0a4 ddbd c97d e8bd
00000180: 1165 9c3d e4e3 22bc 557d 2abe ceb8 df3d
00000190: b68c acbc 8218 3d3c fcda 30bd 6fba 543c
000001a0: c891 773d 4905 333e 7da2 543e 081d c7bd
000001b0: e67e 65bd 0e67 aabd bd9d 0ebe d0d6 ce3d
000001c0: a9e2 33b8 8138 2fbe c790 2d3e f0af 323e
000001d0: c42f 173d 1eb6 febd 6179 bdbd 5009 32be
000001e0: 313a 473c 6f69 ccbd 2fd3 4fbe 58b6 30bc
000001f0: 8ed1 e9bd 218c debc 5d8c 293e 8b29 103e
00000200: 3fc0 a3bd 4593 86be 5657 973d 2e12 a2be
00000210: 8d4a 19be 450b b7bd f417 933d b6b7 103b
00000220: 307b 863e 24ec 86bd c766 bcbd 633e 46be
00000230: 12c7 983d 1dc2 7abd 7e2a 123e c8a7 86be
00000240: ae17 8bbd 3ef3 cc3d 67b6 693e 156a d1bd
00000250: 7eec 003d 4ace 383e fe22 0a3e aa88 0fbd
00000260: d8ee 153e 48db 493d 6667 963b 13a5 62be
00000270: 60eb 95bd bf0a 37bb 25fc 243e ba80 aabd
00000280: b561 22bb dd0c be3d 7dfa 403e d609 45be
00000290: 965a 01be effe 953c 3fe4 7f3d a195 4dbb
000002a0: 3efe 4b3e 28f7 413d f7b7 fbbd b75c a9bd
000002b0: 0e96 343d 290f f63d 15c3 3ebd 04f9 eabc
000002c0: dfe1 253d 8836 bb3d 9ea6 25bd 59ce 913d
000002d0: 2afe 57be 8f2b 6fbe c1f9 3a3d f7ab 0ebe
000002e0: f8cd 113e 0e72 803e 0df5 613c 04b8 053e
000002f0: 7996 7c3c ab34 6cbd 2e23 e23c 9598 c83d
00000300: 9c9e d03d d4b2 b4bc ab22 5f3d 48e6 983d
00000310: 6391 f6bc c3d2 073e 4a73 753c 3982 143e
00000320: 8db5 8dbd 6c02 733d f18f 043e bc69 00be
00000330: 2ed0 023e 03ad 3bbe 1293 5fbd bc72 2b3d
00000340: 1d37 c7bb 671a 1f3d c97a 45bd 70c6 ffbc
00000350: db31 1d3e a250 11be 9dba 273e 928b e5bd
00000360: 1aa9 db3d e394 333e f84b 413d 5472 90bd
00000370: 6b67 9bbd d11c 383c 5526 09be e7ed f23d
00000380: c5bf 57bd 7e26 b43b ad13 003e 08c6 da3b
00000390: 59dd 09be a1d5 4b3e aaf4 ad3d 1fb5 8a3c
000003a0: 0559 b0bd eed2 913d d31a f83d c407 923b
000003b0: 9f65 0d3e 1e90 f7bb 4b0b 413d 814f 073e
000003c0: a8b2 babd 684f 1fbe 3357 a9bd 13be 8ebd
000003d0: 2d0c 743e a4f4 dabd 64ad 553e d849 003e
000003e0: 49a0 1d3e 1f38 c23d 3a73 aabd c8d3 32bd
000003f0: 2251 26bc 5097 813c fed5 bb3d b893 ce3d
0.11451632 0.06971581 0.06613656 -0.14041065 0.014722631 0.08283769 -0.030765278 0.033626847
-0.041288946 0.11482299 0.1276033 0.037614327 0.16299744 0.03973323 -0.035087075 0.15547907
-0.023253033 0.027839415 -0.12834984 0.18567494 -0.15278652 0.117341325 -0.15474735 0.12697448
-0.056442566 -0.33455473 0.13693087 0.1460591 0.060679547 -0.21794313 0.063366234 0.12942296
-0.20969586 -0.030162279 -0.018510424 -0.30553728 0.13252597 0.078281775 -0.033236988 -0.055416487
-0.31578347 0.07802938 -0.044375945 -0.16301808 -0.16757376 -0.30604595 0.13802736 0.099109225
-0.14899375 0.13763192 0.04123689 0.1371148 -0.15515827 0.06553302 -0.058154475 -0.10152217
0.03507651 0.03255752 0.098417886 0.16048072 0.078932524 0.095240004 -0.0776888 0.092425406
-0.044040967 -0.062366854 0.09431171 0.11828559 -0.029675921 0.0036223799 -0.008035828 0.258749
-0.22933519 -0.1802768 0.13581225 -0.094898924 -0.09937864 0.0022234034 0.04781564 0.057158284
0.111135975 -0.077184916 0.24723081 -0.05443166 0.0133120455 -0.1291841 -0.22827971 -0.09996818
0.12398464 -0.14668745 0.025562417 0.04953447 -0.005104495 0.10494994 -0.10822415 -0.113521166
0.076364644 -0.009942029 -0.16649373 0.109239206 -0.02106319 0.011541488 -0.04317759 0.012983902
0.060441762 0.17482485 0.2076511 -0.09722334 -0.056029223 -0.08320437 -0.1392736 0.10099566
-4.288802e-05 -0.17111398 0.1694976 0.17449927 0.036910787 -0.1243708 -0.09251667 -0.17386365
0.01215987 -0.09981047 -0.20295404 -0.010785662 -0.114169225 -0.027166428 0.1655745 0.14078347
-0.079956524 -0.26284233 0.07389705 -0.31654495 -0.14969845 -0.08937696 0.07182303 0.0022082157
0.2626586 -0.06588009 -0.09199291 -0.19359736 0.07459845 -0.061220277 0.14274022 -0.26299882
-0.06791626 0.10007332 0.22823487 -0.10225312 0.031475537 0.18047443 0.13489911 -0.035042442
0.14641893 0.04928139 0.004589963 -0.22133283 -0.07320285 -0.002792999 0.1611181 -0.08325334
-0.0024777476 0.09279797 0.18845554 -0.19242033 -0.12632212 0.018310038 0.06247353 -0.0031369703
0.19921204 0.047354847 -0.12290948 -0.08269637 0.044088416 0.1201461 -0.046572763 -0.028683193
0.04049861 0.091412604 -0.0404421 0.07119436 -0.2109305 -0.2335646 0.04564834 -0.13932787
0.14238727 0.25087017 0.013791335 0.13058478 0.015416735 -0.057667416 0.027604666 0.09794728
0.10186502 -0.022057928 0.05447642 0.07465798 -0.030098623 0.13263993 0.0149811 0.14502801
-0.06919394 0.05932848 0.12945534 -0.12540334 0.12774727 -0.18327717 -0.054583617 0.041857466
-0.006079568 0.03884354 -0.0482128 -0.031222552 0.1535105 -0.14190915 0.16379781 -0.112082615
0.10725613 0.17537265 0.04719159 -0.07053056 -0.07588085 0.011237339 -0.13393529 0.118617825
-0.05267312 0.0054977527 0.12507506 0.006676439 -0.13463344 0.19905712 0.084939316 0.016932068
-0.08610729 0.0712031 0.12114491 0.004456492 0.13808297 -0.007555022 0.04712991 0.13213922
-0.09116107 -0.15557635 -0.08268585 -0.069698475 0.2383277 -0.10691193 0.20866925 0.12528169
0.15393175 0.094833605 -0.08322759 -0.043659 -0.0101511795 0.015819222 0.09171675 0.10086769

value.2.bias f4 [32]
00000000: f574 5c3d 0ca1 983d 8d3f 063e 9c33 8a3e
00000010: 5fc4 a33e 2470 aebe 9cfb c83e 757e 253e
00000020: d3e3 a3be 0613 93be 4816 193e 38d9 7e3e
00000030: 3ae0 2e3e 0086 fabd 5a10 d2bd e6f8 c83c
00000040: 5e4f 9e3d fe67 8fbe 02ec abbe 1f33 143e
00000050: 9883 8bbe d989 07be 364f 0d3e 94e8 0e3e
00000060: e548 b2bd bfb9 4bbe 03c3 0c3e 76a4 6a3d
00000070: fbb7 b1be 44f5 d13d 991f 693d 8864 8fbe
0.053822476 0.07452592 0.1311018 0.269925 0.31985757 -0.34069932 0.39254463 0.16161521
-0.32009754 -0.2872545 0.14949906 0.2488755 0.17077723 -0.1223259 -0.10257025 0.024532747
0.07729982 -0.28009027 -0.33578497 0.14472626 -0.27248836 -0.13236178 0.13799748 0.13955909
-0.0870531 -0.19895075 0.13746266 0.05728575 -0.34710678 0.10251859 0.0569149 -0.28006387

value.4.weight f4 [1, 32]
00000000: e0b5 433d 0364 ce3d 1179 f03c de19 943d
00000010: 897f e73d e9a9 28bd bebd b83c cc43 263d
00000020: 80fe a2bd 07be 45bd ef03 933d 043a 9b3d
00000030: 81d9 82bd 6c8b 35bd 902a c3bc d571 04be
00000040: a7d8 6b3d c71c bfbd 387f c9bd 0b0c d83d
00000050: 57a4 83bd ca56 6bbd 2843 2cbe 0505 2d3d
00000060: 311f 30bd d985 81bd 9d10 1a3d 1da8 af3d
00000070: d469 cdbd 9896 463d 499a 453e 2db8 bebd
0.04778087 0.100776695 0.029354604 0.07231496 0.11303622 -0.041177664 0.022551414 0.040592
-0.07958698 -0.048276927 0.07178485 0.07579425 -0.06389142 -0.044322416 -0.023824006 -0.12934048
0.057579663 -0.09331661 -0.09838718 0.10549172 -0.0642783 -0.057455815 -0.16822493 0.042241115
-0.042998496 -0.063243575 0.0376135 0.08576987 -0.10029951 0.04848346 0.19297136 -0.093124725

value.0.weight f4 [32, 8]
00000000: f9e5 6abe 9220 ddbb 8a9b 403e 3d9e 44bd
00000010: f5aa dcbc 7844 d4bd a3de ac3f 7655 8fbe
00000020: e66c 7e3d e998 28bd 9a27 59be fc14 2fbd
00000030: 563a b33e 86b4 3b3e 3822 823f 3dbb 1abf
00000040: 90fc 203e 0377 083e 9d8d 603e 9a5b 31be
00000050: 9e8c 8bbd 35ca 6dbe dcfe 9b3f a925 8dbf
00000060: 2060 213e 71a0 b83d d3ae 2ebd d24e 34be
00000070: 6bd9 17be d831 933e 8fab ee3e 5811 da3f
00000080: 8e7b 843d 79c1 603e 6a90 39bd 6cdd 71be
00000090: c12d 40be 2683 feb9 8d6f a93f 0527 aabe
000000a0: dde8 f6bd da29 c83c 7375 ae3e d035 363e
000000b0: 986f 18bd 349f f13d b25f e7bf c08d d1be
000000c0: c543 a4bd 821d 98bc ee9f 74bd a56f 44bb
000000d0: ced0 6abe 1374 be3a f97a d8bf 63f6 f03f
000000e0: 942c 603e 1eef 773e 8801 963d 5fda a63e
000000f0: 5aa1 b43d 743b 04be fc24 4e3e 50cb 3e3f
00000100: 4fde d13c c3ad 2bbe 031b c33d a0ab 67be
00000110: 2cda 513e 8666 b03e 4e2c 1d40 1129 863e
00000120: cd48 4dbd 4dc1 723e 4b07 0bbd f042 1b3e
00000130: 5afc c23e e3a5 7fbe 4463 1ac0 01c5 9a3f
00000140: a116 bb3e bbf3 34bd e4bc e5bd 0a7b 44be
00000150: a2f8 6c3d 2b15 3f3e b02c 993f 1ce9 4a3f
00000160: 9873 223e 0337 163e 243d 72be 9662 523e
00000170: 9b07 b33c f18c c43b 741a 98bf c1d5 be3e
00000180: 5ac0 0b3e cd1b c53d 998a 713e f9c8 ffbd
00000190: df37 083e 2662 c3be 9c65 d53e de2a 03be
000001a0: c653 51be bfa1 4e3d 1caf 6e3e bf21 2c3e
000001b0: e781 a03e e424 f73d 77d0 f03e 9dbb 9d3f
000001c0: d0eb 6a3e 1006 24be a4c7 12be b148 d6bd
000001d0: cf27 ce3e 54f3 3abe 3d1e 6abf 9574 763f
000001e0: b61e 283e 95ff 1dbe 4675 12be 9674 afbd
000001f0: 5166 febd 0f5f 47be ae44 033f feee 9b3e
00000200: b0e3 4cbe ecf0 80bd bb69 8e3d bd02 3cbe
00000210: 1fab 2dbd a6c9 9abd dab5 113f 3be6 8cbf
00000220: 97a4 8fbe e389 17be a644 5bbd 850e 293e
00000230: b46b 99bd 7010 09be c890 083e abd7 213f
00000240: bd8c 8dbe 5045 74bb f832 943e dc25 4abe
00000250: 2bd2 c5bd 1ad9 b33e 62d1 a2bf 5902 c13e
00000260: b559 0e3e f80b 443e e68c 2abe ce7f 7a3e
00000270: 8e3b 183e acac dcbd 234f 5d3f 9963 833f
00000280: 34a8 a9bd 7f73 81be 3f6d 9b3d 3e39 383e
00000290: e6d0 1ebe 5a6a 283e 30a3 b3bf f1ba 1f3d
000002a0: 0b7b 673e 7746 833e dcc1 823c ec62 e83c
000002b0: 7bdd 053e 1c61 033e e4e1 9ebe a755 2bbf
000002c0: 0aab 143d 7fad b3bd db4f d2bc 1520 e63d
000002d0: c090 553e 6d19 cc3c 2270 2abf a2d4 1c40
000002e0: edfa e23d 35b2 903d 9be1 e23c 1ab6 80be
000002f0: e80d 7cbe 11e6 d03e 6be7 5e3e 3779 8f3f
00000300: ad92 9cbc f0f8 6f3e 6d82 113e 7a3d 57be
00000310: 7644 02bd 1bee 543e 8f00 b33e 4dfc 2d3f
00000320: 8656 07bd 40bc 8ebb 9bcf 09be 5187 a4bb
00000330: cade 233e 70be 323e 8476 06c0 5af0 363e
00000340: efeb 483e e7cc e03d ba86 db3d c95d d0bd
00000350: 5e0e 303e 6cb0 c5bd 8a1f c0bd 9c1c c83e
00000360: e0c4 9f3c 6347 90bd 6760 b9bd 549e b03d
00000370: b82e da3d df20 ac3e 3bd4 2740 7b8d e33e
00000380: 3d85 60bd 0388 a4bd 4c28 c83d 9049 bdbd
00000390: 480c 6fbe 8a98 b1bd c363 7c3f a1aa 52be
000003a0: f8f4 62be 34e9 e63c 9571 35be ec7b 45bd
000003b0: b067 44be 0a09 6ebe 591e aabe 0087 9f3f
000003c0: 4a99 c9bd 18bd 443d 21a3 8dbe c438 6b3e
000003d0: efd6 02be f0e5 ce3b 7995 1b3c a0d5 1dbe
000003e0: d460 88be e473 29be 0702 6e3e fbb4 443e
000003f0: e420 02bc 912c 4ebd 1263 a3be 4ea6 133f
-0.2293929 -0.0067482674 0.18809333 -0.04800247 -0.026936987 -0.10364622 1.3505443 -0.2799489
0.062115572 -0.04116145 -0.21206513 -0.04274462 0.35005444 0.18330583 1.0166693 -0.6044195
0.15721345 0.1332665 0.21929021 -0.173201 -0.0681393 -0.23221667 1.2187152 -1.1027118
0.15759325 0.09014977 -0.042647194 -0.17608193 -0.14829032 0.28748965 0.46615264 1.7036543
0.06468879 0.21948804 -0.04530374 -0.23619622 -0.18767454 -0.00048544368 1.3237168 -0.33232895
-0.12056134 0.024434019 0.34073982 0.17793965 -0.0372158 0.11797944 -1.8076079 -0.4092846
-0.080207385 -0.018568758 -0.059722833 -0.0029973772 -0.22931215 0.0014530442 -1.6912528 1.8825191
0.21892005 0.2421231 0.07324511 0.3258848 0.08819838 -0.12913305 0.20131296 0.7452898
0.0256187 -0.16765504 0.095266365 -0.22624063 0.20493382 0.3445322 2.4558291 0.26203206
-0.050118256 0.23706551 -0.033942502 0.15162253 0.38083154 -0.24965625 -2.4123087 1.2091371
0.36540702 -0.044177752 -0.11217669 -0.1918756 0.057854302 0.18660419 1.1966763 0.79261947
0.15864408 0.14669423 -0.23656136 0.2054542 0.021854213 0.005998247 -1.1883073 0.37272456
0.13647595 0.09624443 0.23588027 -0.12489504 0.13302563 -0.3816082 0.41679084 -0.12809321
-0.20442113 0.05044722 0.23308986 0.16809748 0.31349108 0.12067583 0.47034046 1.232288
0.22941518 -0.16017938 -0.1433397 -0.104630835 0.40264747 -0.18256885 -0.9145239 0.9627164
0.16417965 -0.15429528 -0.14302549 -0.08567159 -0.12421859 -0.19469856 0.5127667 0.30455774
-0.20008731 -0.06295952 0.0695376 -0.1836042 -0.042399522 -0.07557993 0.5691811 -1.1007761
-0.2805526 -0.14798693 -0.053532265 0.16509445 -0.07491246 -0.13385177 0.1333648 0.6321971
-0.27646437 -0.0037272759 0.28945136 -0.19741005 -0.09659227 0.35126573 -1.2720149 0.37697104
0.13901408 0.1914519 -0.16655311 0.24462816 0.14866468 -0.10775122 0.8644888 1.026477
-0.08284035 -0.2528343 0.075891964 0.17990586 -0.15509376 0.1644682 -1.4034176 0.03899664
0.22605531 0.25639698 0.01596158 0.028367482 0.1307277 0.12830013 -0.31031716 -0.6692757
0.036295928 -0.08773326 -0.025672844 0.11236588 0.20855999 0.024914468 -0.6657735 2.450478
0.110830165 0.0706524 0.027695468 -0.25138932 -0.2461468 0.40800527 0.21767966 1.1208867
-0.01911291 0.23434806 0.1420991 -0.21019545 -0.03180357 0.20793955 0.34961364 0.67963105
-0.0330415 -0.0043559372 -0.13458101 -0.005021014 0.16002956 0.17455459 -2.1009836 0.17865124
0.19621252 0.10976582 0.107190564 -0.10174138 0.1719298 -0.096527904 -0.093810156 0.39084327
0.019503057 -0.07044866 -0.090515904 0.08623949 0.10653442 0.3361883 2.6223285 0.4444388
-0.054814566 -0.08033755 0.09773311 -0.092425466 -0.23344529 -0.08671673 0.98589724 -0.20572902
-0.2216376 0.028187372 -0.1771911 -0.048213884 -0.19180179 -0.23245636 -0.33226278 1.2463074
-0.09843691 0.048031896 -0.2766352 0.22970873 -0.12777303 0.006314032 0.009496086 -0.15413523
-0.26636374 -0.16548115 0.23242961 0.19209664 -0.007942412 -0.05033547 -0.31911522 0.57675636

value.0.bias f4 [32]
00000000: 6d7f cbbe 610b b4bc 9701 a0be 85b7 e5be
00000010: 72a4 b4bd 83bf 9e3e 73d3 2ebc a424 a53e
00000020: 8106 d1be 3a4b cabe 0da5 063f f38a 3bbf
00000030: 80db 94be a886 01be 25b4 983e 63d3 d7bd
00000040: 7b15 163d ded7 473e 32a7 c3be d12b 023f
00000050: 5d9c b9be 6dd6 0bbf 9889 9a3e 5d98 2ebf
00000060: 4723 8abd 74e5 133f b8d8 06bf 5690 55be
00000070: 8eda e23e 09a3 aebe e1a6 a43e 764d b03e
-0.39745656 -0.021978082 -0.31251213 -0.44866577 -0.08820428 0.31005487 -0.010670531 0.32254517
-0.40825275 -0.39510518 0.525956 -0.73258895 -0.29073715 -0.12649024 0.2982494 -0.10538366
0.03664158 0.1951594 -0.38213497 0.5084811 -0.36252108 -0.5462406 0.301831 -0.6820124
-0.0674501 0.5777199 -0.52674437 -0.20855841 0.4430737 -0.3410876 0.32158569 0.34434098

value.2.weight f4 [32, 32]
00000000: 2733 ea3d 762b 8e3d 1991 883d 527b 0fbe
00000010: bcd4 773c 66ec a83d c474 00bd ac39 0b3d
00000020: f4f8 25bd c65e e83d 5ef0 023e b02a 183d
00000030: ca9a 273e 8a6f 213d efdf 10bd 15e5 1e3e
00000040: d454 c0bc 8cb4 e33c 51cc 03be 18d2 3d3e
00000050: 5de1 1bbe dcb7 f03d b6ff 1ebe b369 023e
00000060: 7bda 69bd 33f7 abbe e687 0c3e b3c5 153e
00000070: b0d2 7b3d df26 60be ea74 7f3d 22e1 043e
00000080: 5747 57be 0fe2 f2bc eb2d 96bc fe76 9cbe
00000090: 73cb 073e 797c a03d f08e 0cbd e012 63bd
000000a0: 1648 a0be ced3 9d3d a8b0 30bd 422b 27be
000000b0: efad 2bbe 077d 9cbe b1df 0c3e e718 ca3d
000000c0: b4f9 17be 3999 0c3e 7741 243d 2403 0c3e
000000d0: f0c7 1fbe 8b4a 873d 78fd 76bd 04c5 cfbd
000000e0: b284 063d 2c54 043d f9bd cb3d 71f9 223e
000000f0: 6335 a13d d04a c23d 8158 9fbd 99a1 bc3d
00000100: 0f93 32bd fbe9 7fbd 5994 c33d 4627 f33d
00000110: cbb0 efbc baa3 9d3b 7d32 ffbb d2f4 843e
00000120: 04d8 69be aa8e 38be 3e92 0b3e 1afb c1bd
00000130: d3f4 c8bd 9b18 2f3b c8a2 443d 343b 6b3d
00000140: c547 e33d 30a3 9abd b1ed 7c3e 692c 5dbd
00000150: e8ce 6c3c bfc4 03be dbaf 69be 5cc8 cbbd
00000160: e185 fd3d 6def 15be 3b36 d63c 283c 4a3d
00000170: edee 71bb 5651 d73d b340 dcbd b4a3 e5bd
00000180: 8697 9c3d 7179 20bc be83 2abe 32b6 df3d
00000190: 23da a8bc 0409 4c3c b306 2ebd 9be9 6a3c
000001a0: 7897 763d a1c4 333e 15ca 543e aeef c5bd
000001b0: 782a 61bd 29f8 a8bd 55d4 0ebe 160d cf3d
000001c0: 3c08 a5b8 51cb 2ebe 8d34 2d3e 5b38 333e
000001d0: 3d43 1b3d 64b5 fcbd 9476 bebd 9930 32be
000001e0: 03bb 463c 6338 cbbd f4b9 4fbe d10f 29bc
000001f0: 002e e8bd 95ba dabc 210f 2a3e c5da 103e
00000200: 19d6 a3bd cd87 86be 43d3 973d 8626 a1be
00000210: 44f0 17be 1398 b6bd 160f 943d a041 0f3b
00000220: bb93 863e 5381 87bd 97fb b9bd ab8f 47be
00000230: 58cb 993d f239 7bbd b682 113e 5e14 87be
00000240: 4eb6 8abd 1579 ce3d 13c9 693e 836d d4bd
00000250: e4f4 043d cd13 3a3e 4e09 0a3e 62c8 0abd
00000260: bb14 163e 4600 4b3d 9ca7 be3b 6f4b 62be
00000270: 2454 95bd c470 2bbb bf80 243e e84d a9bd
00000280: cb87 16bb bb29 c03d c368 413e ceb4 42be
00000290: d042 01be d681 953c 44ac 803d 5e03 7fbb
000002a0: 5389 4c3e 8d19 403d 813f f9bd 7829 a9bd
000002b0: 740c 353d 6c98 f53d 0702 37bd 4bd2 dbbc
000002c0: cc1d 273d eb62 bb3d 14b0 24bd eb0d 913d
000002d0: 3f04 58be 5017 6fbe 1a41 403d a8af 0cbe
000002e0: 632c 123e ab5e 803e 04ee 6d3c eb1e 063e
000002f0: 8112 803c 166f 6bbd 3383 e53c 3f5c c83d
00000300: 221a d13d 00b6 b7bc 6b71 613d 7212 993d
00000310: df8a f3bc b31d 083e 18a7 713c c638 143e
00000320: 540b 8dbd 1876 723d 33ad 043e d97a 01be
00000330: 977b 033e b044 3bbe fb4d 61bd bb91 293d
00000340: 6465 c8bb b25c 203d 1d92 44bd 8e73 03bd
00000350: 5080 1d3e 9778 11be 1015 273e 7f54 e5bd
00000360: 0928 dc3d dc90 333e c2e0 413d b0e1 8fbd
00000370: b2af 9abd cc9f 383c d346 09be c19d f33d
00000380: 7fc1 56bd 642e a83b 71ad 003e eb9a e13b
00000390: 8f6b 09be 8627 4c3e a3d5 ad3d e9e3 8d3c
000003a0: a655 afbd 69fd 913d 8599 f83d 8863 8e3b
000003b0: 7316 0e3e 5ac6 e6bb cd8c 3f3d 2017 073e
000003c0: c6e2 babd 581f 1fbe fd4b a9bd abc8 8ebd
000003d0: ae1f 743e e431 dabd c91d 553e 0664 003e
000003e0: d096 1d3e 449f c13d 32ce a9bd ab77 31bd
000003f0: e518 1abc f233 823c 6eab bc3d 103a cf3d
0.11435538 0.06941883 0.066683 -0.14011887 0.015126403 0.082482144 -0.031361356 0.033990547
-0.040520623 0.113462016 0.12787005 0.037150085 0.16367641 0.039413013 -0.03536981 0.15517075
-0.02347795 0.027796052 -0.1287091 0.18537176 -0.15222688 0.117538184 -0.15527233 0.12735634
-0.057093125 -0.33587036 0.13723716 0.14626198 0.061480224 -0.21889828 0.062367357 0.12976506
-0.21023308 -0.029648809 -0.018332442 -0.30559534 0.13261203 0.07836241 -0.034316003 -0.055437922
-0.31304997 0.07706414 -0.043137223 -0.16325095 -0.16765569 -0.30564138 0.13757206 0.09868031
-0.14841348 0.13730325 0.040101495 0.13673073 -0.15603614 0.06606015 -0.06030032 -0.101449996
0.03284139 0.032306835 0.09948344 0.15915467 0.07871511 0.094869256 -0.07780553 0.0921051
-0.043597277 -0.062479 0.095497794 0.11872725 -0.029259106 0.0048107775 -0.007788001 0.25968033
-0.2283631 -0.18023172 0.13630006 -0.09471722 -0.098123215 0.0026717547 0.048006803 0.057429507
0.11097673 -0.07550657 0.24700047 -0.05399743 0.014453627 -0.12868021 -0.2282099 -0.09950325
0.12379051 -0.14642115 0.026148906 0.049373776 -0.0036916093 0.105135605 -0.10754528 -0.112128645
0.07646088 -0.009794579 -0.16651818 0.10923423 -0.020611828 0.012453321 -0.042486858 0.014337922
0.060203046 0.17555477 0.20780213 -0.09664856 -0.054972142 -0.08250458 -0.13948186 0.10109918
-7.869347e-05 -0.17069747 0.16914578 0.17501967 0.03790592 -0.12339285 -0.09299961 -0.17401351
0.012129548 -0.09922864 -0.20285779 -0.010318712 -0.11336899 -0.026700297 0.16607334 0.14145954
-0.0799982 -0.26275483 0.07413342 -0.31474704 -0.14837748 -0.089157246 0.0722944 0.0021859184
0.26284584 -0.066164635 -0.0908119 -0.19488399 0.07509488 -0.061334558 0.14210019 -0.26382726
-0.06773053 0.10081688 0.2283061 -0.1037245 0.03246011 0.18171616 0.13480112 -0.033882506
0.14656346 0.049560808 0.0058183204 -0.22099088 -0.07291439 -0.0026159743 0.16064738 -0.082668126
-0.0022969123 0.093829595 0.1888762 -0.19014284 -0.12623143 0.018250387 0.06282857 -0.003891192
0.1997426 0.046899367 -0.121703155 -0.08259863 0.04420133 0.11991963 -0.044679668 -0.026833674
0.0407999 0.091497265 -0.040206984 0.07082733 -0.2109537 -0.23348737 0.046937086 -0.13738883
0.14274745 0.25072226 0.014522079 0.13097732 0.015633823 -0.057478987 0.028016662 0.097832195
0.102100626 -0.022425652 0.055039804 0.07474221 -0.029729305 0.1329258 0.014749311 0.14474782
-0.06886926 0.059194654 0.12956695 -0.12644519 0.12840115 -0.18287921 -0.05500601 0.041398745
-0.0061156023 0.0391509 -0.047990907 -0.032092623 0.15380979 -0.14206158 0.16316628 -0.11197757
0.107498236 0.17535728 0.047333486 -0.07025468 -0.075530425 0.011268567 -0.13405924 0.118953235
-0.052430626 0.0051324833 0.12566163 0.0068849227 -0.13419937 0.19936952 0.084880136 0.01732059
-0.08561258 0.07128412 0.121386565 0.004345361 0.13875751 -0.0070426883 0.046765137 0.13192415
-0.09125285 -0.155393 -0.08266447 -0.06971868 0.2384021 -0.10654047 0.20812143 0.12538156
0.15389562 0.09454206 -0.08291282 -0.043327015 -0.009405349 0.01589391 0.09212385 0.101184964

value.2.bias f4 [32]
00000000: 4e37 5b3d 30aa 963d fbb6 063e f764 8a3e
00000010: dab7 a33e 1c2d aebe 5707 c93e 937f 253e
00000020: c8ea a3be e391 92be 598f 183e ba66 7e3e
00000030: 9624 2f3e efb2 f9bd a920 d2bd 0399 cc3c
00000040: 6e68 9d3d af36 8fbe 8fe2 abbe 2394 143e
00000050: 5153 8bbe 7ffd 06be ac8a 0e3e fa97 0f3e
00000060: 06e4 b2bd 7bb2 4bbe cad6 0c3e 0fd5 6a3d
00000070: 55ca b1be b642 d33d af0d 6c3d 7276 8fbe
0.05351954 0.073566794 0.13155739 0.27030155 0.31976205 -0.3401879 0.39263412 0.16161947
-0.3201506 -0.28626928 0.14898433 0.24843875 0.171038 -0.12192332 -0.10260136 0.024975305
0.07685934 -0.27971408 -0.33571288 0.14509635 -0.27212003 -0.13182639 0.13920087 0.14022818
-0.08734898 -0.19892304 0.1375381 0.057332095 -0.3472468 0.103154585 0.057630237 -0.28020054

value.4.weight f4 [1, 32]
00000000: bf63 463d a50c cc3d 975f ec3c c129 953d
00000010: 2993 e73d db6d 28bd e5bb bc3c 3a00 273d
00000020: 3ad8 a4bd 2927 46bd 560e 953d 13ef 9b3d
00000030: 25e9 83bd 0113 34bd 9ac2 c5bc ced1 05be
00000040: a211 6c3d ca74 bebd 1db9 c9bd 5030 d83d
00000050: 45ff 83bd 60ed 6cbd f2e7 2bbe 7507 2f3d
00000060: 77b1 2abd e9cf 81bd db54 1a3d ee2b b03d
00000070: d5a2 cdbd 8421 463d 508b 493e 40d6 bdbd
0.04843497 0.09963349 0.028854175 0.072833546 0.113073654 -0.04112039 0.023038814 0.0407717
-0.080490544 -0.04837719 0.07278125 0.07613959 -0.06440953 -0.043963436 -0.024140645 -0.13068315
0.057634003 -0.092996195 -0.09849761 0.1055609 -0.06445173 -0.057843566 -0.16787699 0.04273172
-0.04167315 -0.06338484 0.03767858 0.08602129 -0.10040823 0.048371807 0.1968205 -0.092693806

actor.0.weight f4 [32, 6]
00000000: 6dfa 4cbe c397 e6be 60aa dcbd 8560 823e
00000010: e007 bfbc 7249 efbd 54bc 9fbd 4777 843c
00000020: 1ffe d3be 1971 d63e 56f7 80be 443c 043c
00000030: e7f3 7fbe 2beb e33d 9baa b73e 1298 453f
00000040: eb62 e5be e500 cd3d 50fe d8be ccaf ef3d
00000050: f754 d03e 35f2 323e 9159 993e 43ba c13e
00000060: 6c53 95be 1876 82be 4e98 e7be dabb 27be
00000070: a55e a53e 23c7 ab3e 4ff9 57bd 1276 433e
00000080: 1ab9 bbbe 6371 593e dc2a b63e 5628 c53d
00000090: be64 3d3e 5f03 7fbe c9ee 353f 3525 4b3e
000000a0: d635 08bf 5858 4bbf d73b 473f 2927 63bc
000000b0: 1482 d43e 28d6 413e 6f7b c93e 97b6 033e
000000c0: 1299 f83e acd2 df3e fa63 4e3d 32dd 343f
000000d0: ed86 8bbd f55e 4a3e 2da8 8c3e 6326 793e
000000e0: 6543 183e f1eb 98be beb8 f13e bf37 b0bb
000000f0: 046d 9bbe 151d 3d3e 7cc5 883e 1d2f 99be
00000100: beb7 023e a7b3 90be 79c1 d8bd 185b 5b3c
00000110: db1d 87be 08e0 3c3d 1a1a e63e b9e1 adbd
00000120: c841 a83d 72f5 02bf dd5a d6bd 7886 9b3e
00000130: 9171 2f3f c0ee 843d c752 1abe 31be 8a3e
00000140: b4c2 413e a2f9 9fbe 37bb 6f3e 5601 c7be
00000150: 2b57 553e e2bb ca3e d617 8e3e 5341 913c
00000160: 2700 a1be c989 4b3e 2413 603e 73db efbd
00000170: 272a aabe e3d3 01bb 9990 d1be 51b7 acbe
00000180: bc43 0b3d 4199 60bc 8314 b4be 14b5 a6be
00000190: 999b 833e 2755 ed3e e5b4 933d fb57 153e
000001a0: 2ff2 e3be bbf4 ad3e 7cc6 9c39 5302 0d3f
000001b0: ae52 a9be 8345 a03d b51c d6bc eac9 143e
000001c0: 50bf b5be 7613 b5be 95dc 303f 12c7 a9bd
000001d0: 1907 9f3d 67c8 693e e35f 993d 1eb8 bfbe
000001e0: 80ba 2cbe f2d4 c53e 4f1e 2abe 20d7 093f
000001f0: 5141 e93e 8ca9 803e 3297 983d 1516 3e3f
00000200: cf38 153f 5242 903e 3473 cc3e 3a8c e13a
00000210: df84 d93e 73b2 b63e 4b51 3f3e e84f 6dbe
00000220: 7b03 e93e 2a3f 5a3e 855a f9bd d3ff fbbd
00000230: 8a36 fdbe d53c cc3e 965c 263e 91d6 a0bd
00000240: e49d 9d3e 3982 71be e65b 07bd ea84 ddbe
00000250: 4959 e63e 4368 f03e edda 6b3e 7f74 1abf
00000260: 5f17 13be f822 28bd 5b30 a03d d40f 9c3e
00000270: e106 a33e c848 9ebe 71e3 893e 91d5 803e
00000280: 5648 0abe 74d1 5b3d 23b0 e2be 80c2 c93c
00000290: 9ffd e33e a9fb e7bd dc9e ba3b af80 a63d
000002a0: 631b f83e edf0 983e 61c5 88be b350 cdbe
000002b0: 7a43 ffbd 2f1e 71be da84 a8be 5847 123e
000002c0: 93e0 bbbe b38f dcbd 7a06 a2be 996a 19be
000002d0: 7178 b3be 9773 0cbf f065 13bd a71f b53d
000002e0: 1e7a efbd 1829 2cbc c222 96bd fba3 b5bb
000002f0: e19a 413e 1116 85be 358e e1be 0126 8b3e
-0.20017405 -0.4503766 -0.10774684 0.25464264 -0.023319185 -0.116839305 -0.077995926 0.016170157
-0.41404817 0.41883162 -0.25188702 0.008071009 -0.24995385 0.11128839 0.3587235 0.77185166
-0.4480203 0.10009936 -0.42381525 0.117034525 0.40689823 0.17475207 0.29951146 0.3783742
-0.29165208 -0.25480723 -0.45233387 -0.16380253 0.3229877 0.33550367 -0.052727994 0.19088009
-0.3666466 0.2123466 0.35579574 0.09626834 0.18495461 -0.2490363 0.7106748 0.19838412
-0.5320715 -0.79431677 0.77825683 -0.013864317 0.41505492 0.1892935 0.39351985 0.12862621
0.48554283 0.43715417 0.050388314 0.7065002 -0.068128444 0.19762786 0.27472058 0.2433105
0.14869459 -0.2986751 0.4721126 -0.005377739 -0.3035661 0.18468125 0.2671317 -0.29918757
0.12765405 -0.28262064 -0.10583777 0.013388418 -0.26389965 0.04611209 0.4494179 -0.08490319
0.08215672 -0.5115577 -0.104665495 0.3037603 0.68532664 0.064908504 -0.1507064 0.2709823
0.1892193 -0.31245142 0.2341126 -0.38868207 0.20834033 0.39596468 0.2775256 0.017731344
-0.3144543 0.1987678 0.21882302 -0.117117785 -0.33235285 -0.0019810132 -0.40930632 -0.3373361
0.034000143 -0.013708414 -0.351719 -0.32560027 0.2570465 0.4635403 0.07212237 0.14584343
-0.4452071 0.33975777 0.0002990252 0.5508167 -0.33070892 0.07825758 -0.026136735 0.14530149
-0.35497522 -0.3536641 0.6908658 -0.08289923 0.07765026 0.22830354 0.07488992 -0.37445158
-0.16868019 0.38639027 -0.16613124 0.5384388 0.45557645 0.25129354 0.07450713 0.74252445
0.5828981 0.28175598 0.39931643 0.0017207928 0.42484185 0.3568302 0.18683355 -0.23175013
0.45510468 0.21313158 -0.12175468 -0.12304654 -0.49455673 0.3989016 0.16246256 -0.07853425
0.30784523 -0.23584832 -0.033046626 -0.43265468 0.44989994 0.46954545 0.23032732 -0.6033401
-0.14364384 -0.041048974 0.07821723 0.30480826 0.31841186 -0.30914903 0.26931337 0.25162938
-0.13504156 0.053666547 -0.44275007 0.024628878 0.44529435 -0.11327297 0.005695207 0.08130013
0.48458394 0.29871312 -0.26713088 -0.4010063 -0.12464042 -0.2354667 -0.32913858 0.14285028
-0.36694774 -0.10769596 -0.31645566 -0.1498207 -0.35052827 -0.54863876 -0.035985887 0.08843928
-0.11693214 -0.010507844 -0.07330848 -0.0055432296 0.18906738 -0.25993398 -0.44053808 0.27177432

actor.0.bias f4 [32]
00000000: 8972 a1be 328d 8e3e f2f7 953e d6a7 80bd
00000010: 2582 81bc 0387 8dbe ff16 d5be f789 2bbe
00000020: e8c2 503e 7ba5 e2be 28b8 a93e f926 80bd
00000030: 6318 983e dc51 913e 5e19 97be 0ed6 c6be
00000040: f234 dfbe a77d 24be 412f c2bd d3fe 5d3e
00000050: 9b57 ae3e 49f0 40bc bedf 4fbd 2294 a13e
00000060: a057 fa3d 3bd8 703e d328 0ebd e195 383e
00000070: 18dd 923e d2cc 8d3e d277 7a3e 5bfc cd3e
-0.31532696 0.27842098 0.2929073 -0.06282012 -0.015809128 -0.27642068 -0.41619107 -0.16751848
0.20386851 -0.44266877 0.33148313 -0.062574334 0.29706106 0.28382766 -0.2951154 -0.38835186
-0.43595082 -0.16063558 -0.09481669 0.21679239 0.34051213 -0.011776038 -0.050750487 0.3155833
0.122237444 0.23519985 -0.0347069 0.18025924 0.28684306 0.27695328 0.2445977 0.40231594

actor.2.weight f4 [32, 32]
00000000: 9e27 bf3d 5155 96be fcca 943e 8280 b23e
00000010: f871 11be 440e 13bc e419 40be 3d41 dfbd
00000020: 28ab 343e 7c30 c539 e4fd 513e c25a 18be
00000030: 4b45 f23c 7b8a 7ebe 3f86 efbd 41c1 f9be
00000040: e467 4cbe 0470 f0bc 07dd 0e3e e708 00bf
00000050: 9d53 acbe 4374 443e 7f5c 2dbf 27b3 6ebe
00000060: ec69 03be ff3e 02be f163 283e a247 7f3e
00000070: c9e4 7d3d c4a6 d3bd c721 723e cae1 4a3e
00000080: 7ac9 1a3d 0856 923e b057 64be b63a 53be
00000090: e791 003e 5dea 723e 4e52 cfbe 462e d13e
000000a0: 1d85 0d3f 4d6f dfbd 3e1c 043e 5b22 74bd
000000b0: 14df 153e 00ba 78be da32 be3e cc56 14bf
000000c0: 7c90 d9be a513 723e 482f a2bd 88f9 85be
000000d0: 8537 2ebe 133c 6abe 0416 68bd 41a9 313e
000000e0: a264 1abf 8bf2 8abd 5295 47be 42ca 293c
000000f0: d9a9 e5bd 10d2 a7bd 11e2 9abd 69c1 e33c
00000100: 9b9b d73d d2c3 19be 4124 41be fcd4 07bf
00000110: 0215 09bd 3d9d 8ebe 29ae a53d 892b 1f3f
00000120: fb83 293e 4605 d8be f450 dfbe fb89 b03e
00000130: c2cb 283e 7fb3 a0be 2e52 0abf 2b87 9a3e
00000140: 1333 333e b524 be3d 186a 203a 9d99 123d
00000150: 3d39 a2be f6fc 183e 8621 61be d07d 213c
00000160: a66f 84bd d40b e5bd e6a3 07bc de5d 3dbf
00000170: 70af 3abe 98cb 873e 6327 763e 98e7 c63d
00000180: 7c88 45bf b4de 5a3e bb05 a63d 55c2 1bbf
00000190: 3d84 163d ed76 d2bd 90ba 8ebe 4e59 fb3d
000001a0: debb 9f3e 205a 013d 9fe3 2c3c dcd6 3f3e
000001b0: c601 1abd 0f14 f6bd 23aa 0cbe 6970 533d
000001c0: c98f 6cbd 7214 093e 8725 d1be c30c 263e
000001d0: 66bc e13d efbb 283e fdc2 cebc e9cb 32be
000001e0: 49c9 193e 2d78 02bf ce77 c6be 1dc2 e8be
000001f0: 6b01 b43d f376 fa3d 311c 303f e569 1a3e
00000200: faf9 623e 1f44 063e d8a8 e03d 7ca4 483e
00000210: 0e66 32be 60f2 32be 5421 853c 3dcb 973c
00000220: 7ace e63d 59fe d4bd 9372 93be fd08 a2be
00000230: 9809 af3e b1fd 1fbd 35e3 da3d e231 483c
00000240: a110 c4be bc86 a7be 6bb9 723c 63cb 513e
00000250: 8130 81bd 495c 99bd 53a9 8b3e 2e63 6e3e
00000260: 3cf0 8f3d 39eb a6bd 22b1 973e ff39 0a3d
00000270: 11fd 063d cc5d 4ebe e46a 253e bd0b 59be
00000280: 2d40 763e 77b1 d4bd e914 d3be 4d35 963c
00000290: a1cb 243d e102 9dbe 3079 b03e 4b89 6ebe
000002a0: a560 6c3d e0bf a93e 30cc 193d 21cc ce3e
000002b0: 2f61 d9bd 5818 d63c 657e 58bd e8f4 76bc
000002c0: b9f3 c9bd 7184 08bf 5915 1ebe e158 c3bd
000002d0: 9f93 c3be d31f 8f3e ab89 d9be 2bf3 503d
000002e0: 0bc1 133d 1eb7 353e 58ef b43d cd86 87bd
000002f0: d5b6 a9be bac1 d7bd 6f8c 373e d89c 8239
00000300: 4899 593d f978 143e b10d 75bd 90f1 bd3d
00000310: 6043 0f3e c726 56be 9089 133d cd77 dfbe
00000320: 149e c03d cf96 1b3e 25ae ac3d f7ae 723d
00000330: 12c9 6c3e 10e3 8fbd 6cd3 a0bd 12b1 f83d
00000340: b924 5a3e 2700 113c ee00 953d 2e89 66be
00000350: c255 743e f3bd 643d 4dd8 603e 9b07 d8bc
00000360: 5c79 803d 82ac 60be c55b abbe e52a 803e
00000370: bbbb 2f3d d988 39be be8f 0ebe 6cca 08be
00000380: 1f96 45bc d091 c3bc 194b 07bf 020b e33a
00000390: 49ce 7d3e 30bb 043e 97be c9bd 542a 7a3e
000003a0: 1d6d b23e 87f5 21be d9e7 e3bc 5c86 2c3e
000003b0: c074 40be f4ad 9dbd f288 bcbd 4f9e 6b3e
000003c0: 6bcb cebd 5054 44bd 45bc 953b e3d1 b33d
000003d0: 55c2 ef3c fe78 c33e 4737 9fbe aade 28bd
000003e0: 8d2c 4dbe 75f5 00bc 24d2 67be 68da 843b
000003f0: b54b c9bd bb14 223d 6a59 da3a 88f9 45bd
0.09333728 -0.29361966 0.29061115 0.3486367 -0.14203632 -0.008975569 -0.18759876 -0.10901115
0.17643416 0.00037610892 0.20507008 -0.14878371 0.029574057 -0.24857514 -0.11695527 -0.48780254
-0.19961506 -0.029350288 0.13951503 -0.50013584 -0.33657542 0.19184975 -0.6771926 -0.23310529
-0.12833375 -0.12719344 0.16444375 0.2492967 0.061985765 -0.103345424 0.23645698 0.19812694
0.0377898 0.28581262 -0.22299075 -0.20627865 0.12555657 0.23722215 -0.4049248 0.40855616
0.5528124 -0.10909901 0.12901399 -0.059603076 0.14635879 -0.24289703 0.37148172 -0.5794494
-0.42493045 0.23640306 -0.079191744 -0.2616694 -0.17013367 -0.22874479 -0.05666162 0.17349721
-0.60309803 -0.06784543 -0.19490555 0.010363163 -0.112140365 -0.08194363 -0.0756265 0.027802186
0.10527726 -0.15016106 -0.18861486 -0.53059363 -0.0334673 -0.27854338 0.08089859 0.62175804
0.16554253 -0.42191523 -0.4361645 0.3448027 0.16483977 -0.31386945 -0.54031646 0.3018125
0.17499952 0.09284345 0.0006119325 0.03579103 -0.31684294 0.14940247 -0.21985444 0.009856656
-0.06466608 -0.11183897 -0.0082788225 -0.73971355 -0.18230987 0.26522517 0.24038462 0.09712142
-0.77161384 0.21374017 0.08106562 -0.608434 0.036747206 -0.102765895 -0.2787671 0.12272893
0.3119802 0.03158009 0.010552316 0.18734306 -0.037599348 -0.120155446 -0.13736777 0.051620875
-0.05775431 0.13386706 -0.40848944 0.16215806 0.11022262 0.16477941 -0.025239462 -0.17460598
0.1501819 -0.50964624 -0.3876328 -0.45460597 0.08789333 0.12229719 0.68793017 0.15079458
0.22165671 0.13111924 0.109697044 0.19593996 -0.17421743 -0.17475271 0.016251244 0.018529529
0.11269851 -0.104000755 -0.2879835 -0.31647483 0.34187007 -0.0390603 0.106878676 0.012218924
-0.38293937 -0.32719982 0.014814715 0.20487742 -0.063080795 -0.07488305 0.27277622 0.23280022
0.07028243 -0.08150334 0.2962733 0.033746716 0.032956187 -0.20152968 0.16154057 -0.21195884
0.24047919 -0.10385411 -0.4122689 0.018335963 0.04023326 -0.3066626 0.3446746 -0.2329456
0.057709355 0.33154202 0.037548244 0.40390113 -0.106142394 0.026134655 -0.052854914 -0.015073039
-0.098609395 -0.5332709 -0.15437831 -0.09538437 -0.38198563 0.27953967 -0.42487845 0.051013153
0.036072772 0.17745635 0.08834714 -0.06617508 -0.33147302 -0.10534997 0.17924665 0.0002491239
0.053124696 0.14499272 -0.05982751 0.0927459 0.13990545 -0.2091323 0.03601986 -0.43646088
0.09405151 0.15194248 0.08431653 0.05924889 0.23123577 -0.070257306 -0.078528255 0.121431485
0.21303071 0.008850134 0.07275568 -0.22513267 0.23860839 0.055845212 0.21957512 -0.026370814
0.062731475 -0.21940807 -0.33468452 0.25032726 0.042903643 -0.1811861 -0.13922021 -0.13358468
-0.012059717 -0.02387324 -0.52848965 0.0017322006 0.24785723 0.12962031 -0.09850805 0.2443021
0.34848872 -0.15816317 -0.027820515 0.16848129 -0.18794537 -0.076991946 -0.09205808 0.23009609
-0.10097393 -0.04793197 0.0045695626 0.08780267 0.02926747 0.38178247 -0.3109686 -0.041227974
-0.20036526 -0.0078710215 -0.22638756 0.0040543564 -0.09828893 0.03957055 0.0016658728 -0.048333675

actor.2.bias f4 [32]
00000000: 55c0 0f3d 579b 2c3d a4a9 e43d 9f26 953d
00000010: c4ee 1a3e e526 debd 6050 11bc 0c10 a23e
00000020: 0a89 3fbe 5489 2fbe 48f6 3d3c 921f a93e
00000030: a22e aabe 7c09 b83d 8eb0 e3bc d287 d43e
00000040: 0233 6e3e 0fb9 93bd 188d e3bd 0274 59be
00000050: 3ee0 b3bc bdaa 4e3e 1ff4 d5bd 37e6 2fbd
00000060: 3e02 0cbe 9aa2 9a3e 5142 5cbe 65bf b73d
00000070: 6110 a93d e8bf 9cbd d81b 55be b166 883d
0.03509553 0.04214033 0.11165169 0.07282757 0.15130144 -0.10847262 -0.008869261 0.31652868
-0.1870462 -0.1714223 0.011594363 0.330319 -0.33238703 0.08986184 -0.027794149 0.41509873
0.23261645 -0.072130315 -0.11110896 -0.2123566 -0.021957513 0.20182319 -0.10446953 -0.04294416
-0.1367273 0.3020218 -0.21509673 0.089720525 0.08255077 -0.07653791 -0.20811403 0.06660212

actor.4.weight f4 [2, 32]
00000000: fbf2 bebe 474a f9bc 9f30 a0be 9f7a edbe
00000010: 6f81 0c3c 2f50 66be 3c6a 8fbd 3ffd 90be
00000020: bbb4 683e d246 613e bbcf b5be 54a8 963e
00000030: 598e 933e f67f e83d 9267 1c3e b564 9bbe
00000040: e531 473d e926 f13d a8a7 c13e c1ab a9bd
00000050: f7fa 9dbe 404a acbd 9022 2b3e 3b13 76be
00000060: 0b0c 173e 5a6d 733c a6e3 4fbe 41c7 5b3e
00000070: 7fd2 acbe 58f6 84be d217 cbbe 6bec 01bd
00000080: 358c fc3e 9605 183f 2868 563f 9cab 8e3e
00000090: a4d8 bfbe 4258 fa3e d9fa 483e bc50 03be
000000a0: 3726 5abc 2f77 c03c 0c90 8f3e ea65 3f3f
000000b0: 7167 9a3d 69ce ccbd 73ff d23e 39b0 00bd
000000c0: 5ad3 dfbe 354f 9b3d 8099 3cbe 734b ab3e
000000d0: 5913 773e 7dcc b6be 61d9 5b3e 0598 09be
000000e0: 5562 89be a033 79be 157e 913f 39c0 65be
000000f0: eeab 903f d06e bfbb a976 f03e 0c6e 83be
-0.37294754 -0.030430926 -0.31287095 -0.46382615 0.008575781 -0.22491525 -0.070026845 -0.2831821
0.22725193 0.21999672 -0.35510048 0.294253 0.2881954 0.113525316 0.15273884 -0.3035027
0.048631568 0.11775 0.37823224 -0.082847126 -0.30855533 -0.084125996 0.16712403 -0.24030773
0.14750688 0.014857614 -0.20301685 0.21462728 -0.33754346 -0.25969195 -0.3966661 -0.031719606
0.4932572 0.59383523 0.8375268 0.27865303 -0.3746997 0.4889546 0.19626941 -0.12823766
-0.013314775 0.023494331 0.28039587 0.74764884 0.07539261 -0.10000307 0.41210517 -0.03141806
-0.43715936 0.07583467 -0.1841793 0.33456 0.24128474 -0.35702887 0.21469642 -0.13436897
-0.26832834 -0.243361 1.1366602 -0.22436608 1.1302469 -0.0058420673 0.4696553 -0.25669897

actor.4.bias f4 [2]
00000000: e466 cbbc 4dc0 9cbe
-0.024829336 -0.30615464

actor.0.weight f4 [32, 6]
00000000: 09fc 4ebe 2070 e5be 754c e1bd 7d49 843e
00000010: da9a b1bc 33ee ebbd a585 9cbd 7c40 7b3c
00000020: c677 d3be 5821 d73e 3142 80be 66e0 1a3c
00000030: 062b 7fbe b924 e33d 55de b53e 94e5 463f
00000040: 6586 e2be fc72 d83d a92c d8be 9503 f53d
00000050: 484f d03e ed89 353e e550 993e 97b1 c13e
00000060: a077 95be 7421 82be c8bf e7be 7900 28be
00000070: d444 a53e 52ad ab3e 626d 56bd c3ca 433e
00000080: eedb bbbe 6eac 593e 8d2a b63e 6128 c53d
00000090: 44c0 3c3e c324 7fbe 1f2f 363f 9297 4d3e
000000a0: 041e 09bf 8640 4cbf 3edb 463f 2ad5 81bc
000000b0: ad90 d73e e412 3d3e 0b3e c83e b93b 013e
000000c0: 69c0 f73e fd47 e13e 4f5d 493d 6a58 343f
000000d0: 1807 89bd db9e 4b3e f897 8a3e 6a55 783e
000000e0: 544e 1c3e ab31 9abe 9f38 f13e fa3e d0bb
000000f0: b78c 9bbe 9ff1 3d3e 3012 8a3e e51b 9abe
00000100: 3519 013e ee82 91be 9da8 d5bd 2ef1 5f3c
00000110: 4315 87be 3135 3a3d b619 e63e 1de2 adbd
00000120: 301b a53d ff2b 03bf 7c8b d6bd 9e18 9c3e
00000130: f571 2f3f 24ef 843d b9fc 1abe af13 8c3e
00000140: 91b8 3e3e 482e a0be dd99 6f3e 0312 c7be
00000150: 1760 553e fb66 ca3e e1a5 8d3e 8269 903c
00000160: e1c8 9ebe 4ff8 4f3e 0857 5f3e 4cea ecbd
00000170: 5f78 abbe 8a6e a9bb dcd4 d2be 94fb adbe
00000180: 2c41 073d 9fc4 78bc b6d5 b3be 2655 a7be
00000190: 359b 833e c354 ed3e 0822 923d 60d3 153e
000001a0: b0fa e3be 8cd4 ad3e 18c6 9c39 ef01 0d3f
000001b0: 87b7 a9be c021 a33d 538e e4bc 62ed 163e
000001c0: 4cd1 b5be 7225 b5be a98f 303f 3d17 adbd
000001d0: 0209 a03d eba2 6a3e a92f 983d 2c04 c0be
000001e0: 2ca6 2ebe b95d c23e a9d2 27be 5d44 0a3f
000001f0: ed40 e93e 28a9 803e fb49 943d ae26 3f3f
00000200: 7bbf 143f 3e1b 913e d2e0 c93e f36b 58bb
00000210: 924c d93e 492c b73e 53b7 3f3e d05f 6cbe
00000220: 328b e83e 944e 593e a4b7 f3bd 1cf5 fdbd
00000230: 4511 fdbe 1afd cc3e 8333 243e aa28 a5bd
00000240: 9e0b 9e3e 430a 71be 24b6 02bd 7b31 ddbe
00000250: e558 e63e df67 f03e ced2 6c3e 36b7 1abf
00000260: d0be 0fbe 73c1 18bd f453 a03d ba18 9c3e
00000270: 0171 a33e 3ada 9ebe faa0 893e 7e53 803e
00000280: 68ab 07be 3845 663d d418 e3be 111a d53c
00000290: e12e e23e 43bd e2bd 7373 ed3b f1ad a93d
000002a0: 51f0 f73e 6bcc 983e e7d8 88be 9451 cdbe
000002b0: 624c fbbd a122 6fbe 9f7e a8be f0ac 0f3e
000002c0: 1060 bcbe f3a0 ddbd cbf7 a2be 404d 1bbe
000002d0: 97db b2be 303a 0cbf e60f 1abd 9de6 b13d
000002e0: db37 f3bd 0417 4abc d9a6 95bd 4e08 afbb
000002f0: 9163 423e 1615 85be fd40 e2be 3973 8a3e
-0.20213331 -0.44812107 -0.11000911 0.25837317 -0.021680284 -0.11520042 -0.07642678 0.0153351985
-0.41302317 0.42017627 -0.250505 0.009452915 -0.24918756 0.11090989 0.35521188 0.7769406
-0.4424316 0.105688065 -0.42221573 0.11963574 0.40685487 0.17728396 0.2994453 0.37830803
-0.2919283 -0.25416148 -0.45263505 -0.1640643 0.32279074 0.3353067 -0.05235041 0.19120316
-0.3669123 0.21257183 0.3557934 0.09626842 0.18432719 -0.24916367 0.7116565 0.2007735
-0.53561425 -0.79785955 0.7767829 -0.015848715 0.42102566 0.18464237 0.39109835 0.12620439
0.48388985 0.44000235 0.04916125 0.7044741 -0.06690806 0.19884817 0.27069068 0.24251333
0.15264255 -0.3011602 0.4711351 -0.0063551636 -0.30380794 0.18549202 0.26967 -0.30099407
0.12607272 -0.28420204 -0.10432551 0.013668342 -0.2638341 0.045460884 0.4494149 -0.08490393
0.08061826 -0.5123901 -0.10475823 0.3048753 0.6853326 0.06490925 -0.15135469 0.27358767
0.18625094 -0.3128531 0.23398538 -0.3888093 0.20837437 0.39531693 0.27665618 0.017628435
-0.31012633 0.20309566 0.21810544 -0.11568126 -0.33490273 -0.005170648 -0.41178024 -0.33981
0.033021137 -0.015183597 -0.35123986 -0.3268215 0.2570435 0.4635373 0.07135397 0.14631414
-0.44527197 0.33951223 0.0002990223 0.55081075 -0.33147833 0.07965422 -0.027899897 0.14738992
-0.35511243 -0.3538013 0.6896921 -0.08451698 0.07814218 0.22913711 0.074309655 -0.37503183
-0.17055577 0.3796213 -0.16388954 0.54010564 0.45557347 0.25129056 0.07240673 0.74668396
0.58104676 0.28341097 0.39429337 -0.0033023327 0.4244123 0.35775974 0.18722276 -0.23083425
0.45418698 0.21221381 -0.11900261 -0.124002665 -0.49427238 0.4003685 0.16035275 -0.08064397
0.30868238 -0.23539071 -0.031911984 -0.43201813 0.44989696 0.46954247 0.2312729 -0.6043581
-0.14037633 -0.037293863 0.07828513 0.30487615 0.31922153 -0.3102587 0.26880628 0.250637
-0.1324898 0.056218356 -0.4435488 0.026013406 0.4417639 -0.11071255 0.0072464286 0.0828513
0.48425534 0.2984346 -0.26727983 -0.40101302 -0.12270428 -0.23353054 -0.32909104 0.14030814
-0.3679204 -0.10821714 -0.31829676 -0.15166187 -0.3493316 -0.5477629 -0.03761282 0.08686564
-0.11875888 -0.012334589 -0.07307214 -0.005341566 0.18983294 -0.2599265 -0.44190207 0.27041033

actor.0.bias f4 [32]
00000000: 08c0 9fbe a106 8e3e 3b74 953e 74e1 85bd
00000010: 9a78 76bc cf88 8dbe 1423 d4be 2c62 2abe
00000020: 469d 4e3e 0e2b e0be 5f0c a93e 73b6 82bd
00000030: 48fe 973e 0ec0 913e 7460 97be 332e c6be
00000040: 7010 dfbe 717b 23be 3ad8 c3bd 655c 5f3e
00000050: 1771 ae3e b3a8 e5bb d554 51bd a176 a13e
00000060: e5db f73d 9ae6 6f3e b3d6 13bd 7aeb 393e
00000070: b5d2 923e 2537 8d3e 2cbd 7a3e ad80 cd3e
-0.31201196 0.27739432 0.2919024 -0.065371424 -0.015043402 -0.2764344 -0.41433012 -0.16639012
0.20177183 -0.43782848 0.3301725 -0.06382456 0.2968619 0.2846684 -0.29565775 -0.38707122
-0.43567228 -0.15965058 -0.09562726 0.2181259 0.34070656 -0.007008636 -0.051106293 0.3153582
0.121024884 0.23427811 -0.036093425 0.18156233 0.28676382 0.27581134 0.24486226 0.40137234
