results/SandingEnvMiddle/ddpg_extension/model/model_parameters_2.pt (torch, 32066 bytes, 22 tensors)

value.0.weight f4 [32, 12]
0	0x3c451ac7	0.01203031
1	0x3cad2743	0.021136886
2	0x3e51ab2e	0.20475456
3	0xbe467202	-0.19379428
4	0xbd6559ea	-0.05599395
5	0x3e76dc40	0.24107456
6	0x3e42949b	0.19002001
7	0xbdcdebb9	-0.10054726
8	0x3e4d29b5	0.20035441
9	0x3e6368cd	0.22207947
10	0xbf766728	-0.96251154
11	0x3f0edd91	0.55806834
12	0xbd620c7e	-0.055187695
13	0x3d9ab94f	0.07554876
14	0xbe5a0348	-0.21290314
15	0xbe17fb8e	-0.14842054
16	0x3eb5a363	0.35476217
17	0x3def3bc3	0.116813205
18	0x3e7e39e8	0.24826777
19	0x3e4a59a8	0.19760764
20	0x3d5de9d2	0.054178067
21	0x3e21ea22	0.15811971
22	0x3f23eaf6	0.64030397
23	0x3fc959f4	1.5730577
24	0xbd31d50d	-0.04341607
25	0xbe18cc24	-0.14921623
26	0xbe2f5913	-0.17123823
27	0x3e0525f6	0.13002762
28	0xbd08054a	-0.03320817
29	0xbe0aff36	-0.13573918
30	0x3d9487bf	0.07252454
31	0x3e9cf056	0.30652112
32	0xbe7ebdd1	-0.24877097
33	0x3e4ac03f	0.19799899
34	0xbfc272f7	-1.5191334
35	0xbd29dfe7	-0.041473296
36	0xbe233620	-0.15938616
37	0x3e6f76c2	0.23385146
38	0xbd872a9e	-0.065999255
39	0x3e018a86	0.12650499
40	0xbe04ba6a	-0.12961736
41	0xbdd4b27d	-0.103856064
42	0x3cbf35d2	0.023341093
43	0x3e6079ed	0.21921511
44	0x3e7d95ff	0.2476425
45	0x3e7fb0a6	0.2496973
46	0xbf4d6401	-0.8023072
47	0x3f3e2359	0.74272686
48	0xbdb58e1d	-0.088649966
49	0x3dc82c89	0.097741194
50	0xbe10f28e	-0.14155027
51	0x3ddb4e5d	0.10708306
52	0xbd6f385a	-0.05840335
53	0xbe1e764c	-0.15474814
54	0xbdd85bcc	-0.10564384
55	0x3d95314c	0.07284793
56	0x3dc1a092	0.094544545
57	0xbd2b5f2b	-0.041838806
58	0xbf3ced3f	-0.7379951
59	0x3f484e35	0.78244334
60	0x3e117299	0.14203872
61	0x3db56035	0.08856241
62	0xbe38ece6	-0.1805912
63	0x3ddd0942	0.107927814
64	0xbe4dcb35	-0.20097049
65	0x3d951572	0.07279481
66	0xbcd4631f	-0.02592617
67	0xbdff926a	-0.12479098
68	0xbbb1d9d8	-0.0054275803
69	0x3d17f1fd	0.037096012
70	0x3f1591bb	0.5842549
71	0x3f3bd102	0.73365796
72	0x3dada7b2	0.08479251
73	0xbd1db27b	-0.03850029
74	0xbe0e1279	-0.13874234
75	0x3db4e078	0.088318765
76	0x3daf69a9	0.08565075
77	0xbd55353a	-0.052052714
78	0x3dc176e7	0.09446507
79	0x3d26421f	0.0405904
80	0x3e55f933	0.20895843
81	0x3e92c9f8	0.28669715
82	0x3eb5416d	0.35401478
83	0x3f831de6	1.0243499
84	0x3e1c326f	0.15253614
85	0xbdf318d2	-0.118699685
86	0xbe45bd68	-0.19310534
87	0x3de73fb1	0.11291445
88	0x3da5d4c2	0.08097221
89	0xbe0e14ac	-0.13875073
90	0xbe32e5a3	-0.17470412
91	0xbe88babf	-0.26704976
92	0x3e38b960	0.18039465
93	0xbe43ba4e	-0.19114038
94	0xbd2fd2ac	-0.04292552
95	0xbfce58b4	-1.612082
96	0xbe44210c	-0.19153231
97	0xbe34700a	-0.17620865
98	0xbcb6042c	-0.022218786
99	0x3ca8d8ac	0.02061113
100	0x3e94a313	0.29030666
101	0xbdcbb7c1	-0.09947158
102	0xbdf1f3bb	-0.11814066
103	0x3e8bc6d3	0.27300128
104	0xbdb88f75	-0.09011737
105	0x3ec7c6a7	0.39018747
106	0xbf26cb6c	-0.6515415
107	0xbbb60069	-0.005554248
108	0x3d1df3d8	0.038562626
109	0xbc866da5	-0.016409704
110	0xbe445156	-0.19171652
111	0xbb94112d	-0.004518649
112	0xbdd701e6	-0.10498409
113	0x3e71fe30	0.23632121
114	0xbe302333	-0.17200927
115	0x3e350f09	0.17681517
116	0x3e8ab351	0.27089933
117	0x3d1292ac	0.03578441
118	0x3f50900c	0.814698
119	0x3f1f8861	0.6231747
120	0xbe03fc5b	-0.12889235
121	0x3e183376	0.14863381
122	0xbe0be82b	-0.13662784
123	0xbe157fb1	-0.14599492
124	0xbc8bd75a	-0.017070461
125	0x3e736a69	0.23771061
126	0x3e1d160a	0.15340438
127	0xbdbeacce	-0.09310304
128	0x3ca0ae5e	0.019614395
129	0x3cc810d6	0.02442209
130	0xbf8d1b39	-1.1023933
131	0xbeb24b4f	-0.3482308
132	0xbe4db8a4	-0.20089966
133	0xbdf4e8d2	-0.119584695
134	0xbda96379	-0.08270926
135	0x3bb0ffb4	0.005401576
136	0xbd63c0d8	-0.055603832
137	0x3c845ac8	0.01615657
138	0xbe8203dd	-0.25393572
139	0x3b37d654	0.0028051334
140	0xbd2c3df2	-0.042051263
141	0xbe6d01cf	-0.23145221
142	0xbf1d0eb5	-0.61350566
143	0xbf82c829	-1.0217334
144	0xbe161e3d	-0.14659972
145	0x3cee3415	0.029077569
146	0x3d809e9d	0.06280253
147	0x3e04b9f2	0.12961558
148	0xbc035762	-0.008016439
149	0x3d4ee738	0.050513476
150	0xbd8755c4	-0.06608155
151	0x3ead2b2d	0.33822003
152	0x3e70c357	0.23512016
153	0xbdb5aa88	-0.08870417
154	0xc045724f	-3.0851018
155	0x3f4d1dae	0.8012341
156	0x3e3e5367	0.18586503
157	0xbe1881b8	-0.14893234
158	0x3c1e9b42	0.009680571
159	0xbe2a8fc9	-0.16656412
160	0x3df58883	0.11988928
161	0xbcd5d3a8	-0.026101902
162	0xbe699037	-0.2280892
163	0xbe598493	-0.2124198
164	0xbd1964d6	-0.03744968
165	0xbd09d279	-0.033647988
166	0xbed91d7a	-0.424053
167	0xbfe21020	-1.7661171
168	0xbe372549	-0.17885317
169	0xbe18aeda	-0.1491045
170	0xbe088324	-0.13331276
171	0xbe0c438d	-0.13697644
172	0x3db38493	0.08765521
173	0x3d9d256d	0.07673154
174	0x3e6a88c9	0.22903742
175	0x3e8b9595	0.2726256
176	0xbe36ad38	-0.17839515
177	0xbe805696	-0.2506606
178	0xbca191d5	-0.019722858
179	0x3fb2b0b6	1.3960178
180	0xbdb5b816	-0.08873002
181	0x3de037ea	0.10948165
182	0x3da2f89f	0.07957577
183	0xbdb11570	-0.08646667
184	0xbd6ab8ec	-0.05730526
185	0xbe56a315	-0.20960648
186	0xbe22a0e1	-0.15881683
187	0x3d036415	0.032077868
188	0x3dc1bb58	0.09459561
189	0xbe3d4504	-0.18483359
190	0x3f928565	1.1446959
191	0xbffd307f	-1.9780425
192	0xbd8b3f8a	-0.067992285
193	0xbb2dbda8	-0.002651075
194	0x3d9e6b66	0.077353284
195	0x3ca6aaa9	0.020345049
196	0x3c22b012	0.009929674
197	0xbdd48efb	-0.10378834
198	0x3dbddcb0	0.092706084
199	0x3e71356e	0.23555538
200	0x3e7eba35	0.2487572
201	0x3e7a0e35	0.24419482
202	0xc029f5c7	-2.655626
203	0xbf997ebe	-1.1991804
204	0xbe267204	-0.16254431
205	0x3d632af7	0.055460896
206	0x3e20821e	0.15674636
207	0xbdf4eec9	-0.11959607
208	0x3eb1ee9e	0.34752363
209	0xbe1930ea	-0.14960065
210	0xbda86b14	-0.082235485
211	0xbcbf2b45	-0.023336062
212	0xbdc76bcb	-0.09737357
213	0xbe62732f	-0.22114252
214	0x3fa6241b	1.2979769
215	0xbdfb786f	-0.1227883
216	0xbc43f37e	-0.0119599085
217	0x3d36f650	0.044668496
218	0xbe614957	-0.22000633
219	0xbe16186d	-0.14657755
220	0xbe343fd2	-0.1760247
221	0xbe2d2f52	-0.16912583
222	0x3ad3be76	0.0016154784
223	0x3e84b8e2	0.25922304
224	0xbd7cd495	-0.06172617
225	0x3db56b12	0.08858313
226	0x3ec5b01b	0.3861092
227	0xbefdeb34	-0.49593508
228	0xbdb9b910	-0.09068501
229	0x3daf6deb	0.08565887
230	0xbeca7dc6	-0.39549083
231	0x3d173fed	0.0369262
232	0xbd4f8bfe	-0.050670616
233	0x3dc1d060	0.094635725
234	0x3e8304bd	0.25589553
235	0x3e748cc6	0.23881826
236	0xbe33fb87	-0.17576419
237	0xbd715137	-0.058915343
238	0xbfa3ca0b	-1.2796034
239	0x3f5278b6	0.8221544
240	0xbe1bd3c5	-0.15217502
241	0x3e05510e	0.13019201
242	0x3df00773	0.11720171
243	0x3dea0226	0.11426191
244	0xbe0d504f	-0.13800167
245	0xbb8247b8	-0.0039758347
246	0xbda656f1	-0.081220515
247	0xbbe57bb7	-0.0070032733
248	0xbead3252	-0.33827454
249	0xbe980508	-0.2969134
250	0xbe4964aa	-0.19667307
251	0x3eaf1bac	0.342008
252	0x3d825f25	0.06365804
253	0x3d95f493	0.073220395
254	0xbdd68986	-0.10475449
255	0x3e12bec3	0.14330582

value.0.bias f4 [32]
0	0xbd71ba85	-0.05901577
1	0xbeabcb72	-0.33553654
2	0xbef8c341	-0.48586467
3	0x3e8d9df5	0.27659574
4	0xbe84d932	-0.25946957
5	0xbd9cd5e4	-0.07657984
6	0xbdc94558	-0.098276794
7	0xbf026c38	-0.5094638
8	0x3ef6aa1a	0.48176652
9	0xbd5d8783	-0.054084312
10	0xbe118dca	-0.14214244
11	0xbea455b0	-0.32096624
12	0xbdbcda14	-0.092212826
13	0xbcce2815	-0.025165597
14	0xbe742131	-0.23840787
15	0x3d1c654e	0.03818255
16	0x3e6635f2	0.22481516
17	0x3f17a154	0.5923054
18	0xbee640cd	-0.44971314
19	0xbd97ca43	-0.07411625
20	0x3e0b241e	0.13587996
21	0xbdabe969	-0.08394129
22	0x3e2ca4e0	0.1685977
23	0xbc5d95e0	-0.0135245025
24	0xbd0c41d8	-0.03424248
25	0xbd9f2c02	-0.07772066
26	0x3e8d175d	0.27556887
27	0x3e812283	0.25221643
28	0xbb47ba26	-0.0030475943
29	0x3e9d6e64	0.30748284
30	0xbde407e9	-0.11134321
31	0x3e8061ff	0.25074765

value.2.weight f4 [32, 32]
0	0x3ca1bb19	0.019742535
1	0x3dd44bfc	0.10366055
2	0xbe1eb4a4	-0.15498596
3	0x3d63dafd	0.055628765
4	0x3e221550	0.15828443
5	0x3e0bcf81	0.13653375
6	0xbe059da9	-0.13048424
7	0x3c9ec491	0.01938084
8	0x3ca7a9f4	0.020466782
9	0xbe2622d2	-0.1622422
10	0x3da4c97f	0.08046245
11	0x3e30010d	0.17187901
12	0x3d1d459d	0.038396467
13	0xbe50de4c	-0.203973
14	0x3d3e3f3a	0.046447016
15	0x3c9173c0	0.01775539
16	0x3d8a6a32	0.067585364
17	0xbe027de0	-0.1274333
18	0x3d810531	0.06299818
19	0xbdabb1c1	-0.08383513
20	0x3c3bef62	0.0114706475
21	0xbe4a4e84	-0.19756514
22	0x3d03aa7a	0.032145
23	0xbe058215	-0.13037904
24	0x3b00d852	0.0019660187
25	0xbbbe942b	-0.005816003
26	0x3bba32a4	0.0056823064
27	0x3e52f171	0.20599915
28	0xbded1ec5	-0.115781344
29	0xbe0ae3a6	-0.13563403
30	0x3e30df19	0.17272605
31	0xbc803487	-0.015650047
32	0xbd1a4bd8	-0.037669986
33	0x3df25516	0.11832635
34	0x3d7da4a0	0.061924577
35	0x3d0db283	0.03459407
36	0x3c95e080	0.018295527
37	0x3db1b0ab	0.08676275
38	0x3cb9c4d6	0.022676867
39	0x3ca1ebb9	0.019765722
40	0xbde2ecef	-0.11080348
41	0x3d2e375b	0.04253326
42	0xbda38b2d	-0.0798553
43	0x3e19b8fc	0.15011972
44	0x3d9d9f20	0.07696366
45	0x3d4f2d10	0.050580084
46	0xbda9cfec	-0.08291611
47	0xbd39a6c1	-0.045325045
48	0xbd3afb18	-0.045649618
49	0xbc120ab0	-0.008913681
50	0x3dfc8a98	0.12331122
51	0x3dec2468	0.115303814
52	0x3e3a8347	0.18214141
53	0xbe7231ea	-0.23651853
54	0x3c94015d	0.018067056
55	0x3e23906f	0.15973066
56	0xbd424014	-0.04742439
57	0x3bc1e39a	0.005917025
58	0xbdcbe188	-0.09955126
59	0x3d055ec7	0.03256109
60	0x3e2402fc	0.16016763
61	0x3cb3d691	0.0219529
62	0x3db8cd6a	0.090235546
63	0x3e00acd6	0.12565932
64	0xbf04d954	-0.51894116
65	0xbd8ef9ff	-0.06981277
66	0x3e215ea6	0.15758762
67	0x3d586078	0.052826375
68	0xbcddb3e3	-0.027063316
69	0x3ddf3fa6	0.10900812
70	0x3c729946	0.014807051
71	0x3e0271a1	0.12738658
72	0x3d2e2f70	0.04252571
73	0x3dc32c23	0.09529903
74	0xbe78431a	-0.24244347
75	0xbde911ed	-0.11380372
76	0xbe1b2088	-0.15149128
77	0x3dd27781	0.102767
78	0x3d2da167	0.042390253
79	0x3c186ae2	0.009302827
80	0x39dcd028	0.00042116758
81	0xbd41b087	-0.04728749
82	0x3d99c703	0.075086616
83	0xbdec1aed	-0.11528573
84	0xbddc4d60	-0.107569456
85	0xbe618bdc	-0.22026008
86	0xbd82783a	-0.06370588
87	0xbd0abc16	-0.03387078
88	0x3e5808d7	0.21097122
89	0xbd5ae3e0	-0.053439975
90	0x3c752a53	0.014963704
91	0xbc445a83	-0.01198447
92	0x3c9bade5	0.019003818
93	0x3d2ab092	0.041672297
94	0x3e309173	0.17242984
95	0x3cf9d5bb	0.030497422
96	0xbe16086e	-0.14651653
97	0xbd0a9f9f	-0.033843633
98	0xbe064f48	-0.13116181
99	0x3db2b57f	0.08726024
100	0x3d9304ae	0.07178627
101	0x3dabbfce	0.08386193
102	0xbaf2c927	-0.0018523083
103	0x3d78fb93	0.060786795
104	0xbcfe6b92	-0.031057153
105	0xbd509387	-0.050921943
106	0x3d21fa28	0.03954521
107	0x3e104df8	0.14092243
108	0x3e12c546	0.14333066
109	0x3e308665	0.17238767
110	0xbef3e57e	-0.47636026
111	0x3d5afd94	0.053464487
112	0xbd821dd5	-0.06353346
113	0xbd7d2712	-0.06180484
114	0xbdd25381	-0.10269833
115	0xbe4a45bd	-0.19753166
116	0x3d718dbe	0.058973067
117	0x3d170bb8	0.03687641
118	0xbd31336c	-0.04326193
119	0xbe0f1beb	-0.13975494
120	0x3dce25d2	0.100658074
121	0xbeab87ae	-0.33501953
122	0x3e39ad88	0.18132603
123	0x3dea0f34	0.11428681
124	0xbd73d636	-0.05953046
125	0x3dead728	0.11466819
126	0xbd223130	-0.03959769
127	0xbdf584e8	-0.119882405
128	0xbd9be24e	-0.076115236
129	0x3d89bf88	0.06725985
130	0xbd83a2a4	-0.064275056
131	0xbca51597	-0.020151896
132	0xbd57ee73	-0.052717637
133	0xbcadb5e7	-0.021204902
134	0xbb036a4d	-0.0020052374
135	0xbe1125bd	-0.14174552
136	0xbd2acde6	-0.041700266
137	0x3bbb2a8e	0.00571186
138	0x3dea9a51	0.11455215
139	0x3e0879fc	0.13327783
140	0xbd63eb03	-0.055644047
141	0x3e552e2f	0.20818399
142	0xbe5ecc29	-0.21757568
143	0x3da358e8	0.07975942
144	0x3dcd98de	0.10038923
145	0xbe0e85d6	-0.13918242
146	0x3d9fbbdd	0.07799504
147	0xbe2528d7	-0.1612886
148	0xbd3f1315	-0.046649057
149	0x3d3adf4b	0.045623105
150	0xbddeb982	-0.108752266
151	0x3e0a4080	0.13501167
152	0xbad265d0	-0.0016052071
153	0xbcf3bb3e	-0.02975237
154	0xbd2371cd	-0.03990345
155	0x3e32a5e2	0.17446092
156	0x3de83d87	0.113398604
157	0x3dcf1490	0.10111344
158	0xbd6085ff	-0.05481529
159	0x3d9df334	0.07712403
160	0x3c104c45	0.008807247
161	0xbe8fd1a6	-0.28089637
162	0x3d93cedd	0.072171904
163	0x3d94b683	0.07261374
164	0xbb9c439c	-0.004768802
165	0x3de95e70	0.11394966
166	0x3dc29d1c	0.095026225
167	0xbead836f	-0.33889338
168	0x3e94e761	0.29082778
169	0xbe4c2a47	-0.19938003
170	0xbd99cf4d	-0.075102426
171	0xbd9272f2	-0.0715083
172	0xbe716700	-0.23574448
173	0x3daf2f3d	0.08553932
174	0xbdd780da	-0.10522623
175	0xbd2fc425	-0.042911667
176	0xbc04ef13	-0.00811364
177	0xbdf37322	-0.11887194
178	0x3c21110e	0.009830726
179	0xbe26cf30	-0.16289973
180	0x3c1e3297	0.009655616
181	0xbe477dcf	-0.19481586
182	0x3e4168cf	0.18887638
183	0xbdbd5fa0	-0.09246755
184	0x3dea96b4	0.114545256
185	0xba996447	-0.0011702859
186	0x3aa12ea0	0.001229722
187	0xbf011775	-0.5042642
188	0xbca39fe1	-0.019973697
189	0xbd00974b	-0.031394284
190	0x3d54164f	0.051779088
191	0xbc42a22f	-0.011879488
192	0xbd15d076	-0.036575757
193	0x3d9e7409	0.07736976
194	0xbe588af8	-0.21146762
195	0x3e70541c	0.23469585
196	0x3d2175ad	0.039418865
197	0xbd66fa4c	-0.056391045
198	0x3d29a8b7	0.041420665
199	0xbd349cc4	-0.044094816
200	0x3cb90f2e	0.022590246
201	0x3e303206	0.17206582
202	0xbd02cd5b	-0.031934123
203	0x3e73ef52	0.23821762
204	0xbe50e14e	-0.20398447
205	0xbd04a4fd	-0.032383908
206	0xbf1f6818	-0.6226821
207	0xbdaa3ded	-0.08312593
208	0x3c7d7db4	0.0154718645
209	0x3d574b00	0.05256176
210	0xbdc48d64	-0.095972806
211	0xbead6076	-0.33862656
212	0x3c137ccc	0.009001922
213	0x3c0b018c	0.0084842555
214	0xbe4bc80e	-0.19900534
215	0xbe810df7	-0.25205967
216	0xbe23b962	-0.15988687
217	0x3dc36b97	0.095420055
218	0xbda50278	-0.080571115
219	0xbe826a3c	-0.25471675
220	0xbf3401ee	-0.70315444
221	0x3b87d3fc	0.0041451436
222	0x3d6bc7e9	0.057563696
223	0xbc98caa2	-0.01865131
224	0xbd8ad458	-0.067787826
225	0xbe7efed6	-0.249019
226	0xbe24a9b8	-0.16080368
227	0x3d80181e	0.062546
228	0x3def36b0	0.11680353
229	0x3e09cfd6	0.1345819
230	0xbcf8c990	-0.03036955
231	0x3a7517aa	0.00093495345
232	0x3e057f3e	0.1303682
233	0xbd61ded8	-0.05514416
234	0xbd7b84d4	-0.06140597
235	0x3da8dcc5	0.082452334
236	0xbe34dfea	-0.17663541
237	0xbcb2d935	-0.021832088
238	0xbdd0bac2	-0.10191871
239	0x3d874b0d	0.06606112
240	0xbd9c6cf7	-0.07637971
241	0x3d8c2046	0.06842093
242	0x3e14e181	0.14539148
243	0x3ddf2ca1	0.10897184
244	0xbdd9021d	-0.10596106
245	0x3d727965	0.059197802
246	0xbd1a91fc	-0.037736878
247	0xbc7c0c0d	-0.0153837325
248	0xbe01b3a3	-0.12666182
249	0xbc05217a	-0.008125657
250	0x3e21c523	0.15797858
251	0x3ce73423	0.028223103
252	0xbd977ce2	-0.073968664
253	0xbc979db1	-0.01850781
254	0xbdf154f0	-0.11783779
255	0x3e033125	0.12811716

value.2.bias f4 [32]
0	0xbee19a56	-0.4406306
1	0xbea8fcf0	-0.33005476
2	0xbe1087e4	-0.14114338
3	0xbe78c6be	-0.24294564
4	0x3ee77f3b	0.45214257
5	0xbde9a845	-0.11409048
6	0xbe24c6d0	-0.16091466
7	0x3e0cb5e4	0.13741261
8	0xbe40622d	-0.18787451
9	0x3ea8c8b4	0.32965624
10	0xbe416671	-0.18886735
11	0xbe2ba70e	-0.16762945
12	0x3eaa83c8	0.33303666
13	0x3ea2634b	0.3171638
14	0xbeb4b6f2	-0.35295826
15	0x3e9bb9b1	0.3041511
16	0xbe5adaae	-0.21372482
17	0xbed002c6	-0.40627116
18	0xbde03ac7	-0.10948711
19	0xbe205b94	-0.15659934
20	0x3e91e5cf	0.28495643
21	0xbded017e	-0.1157255
22	0xbd5fe8d5	-0.054665405
23	0x3e3f88c0	0.1870451
24	0xbcc6ed89	-0.024283187
25	0xbead6b80	-0.33871078
26	0xbee582fb	-0.44826493
27	0xbd8ac1d9	-0.06775255
28	0x3eb717cb	0.3576034
29	0x3d39de3d	0.04537796
30	0x3e3bf8ff	0.18356703
31	0x3e88b19b	0.26698002

value.4.weight f4 [1, 32]
0	0xbd9d9923	-0.07695224
1	0xbd3c17eb	-0.045921247
2	0xbd3b38e1	-0.04570854
3	0xbd527957	-0.05138525
4	0x3da0c599	0.07850189
5	0x3e2037ff	0.15646361
6	0xbda10673	-0.07862558
7	0x3dbe68fa	0.092973664
8	0xbf35f2e1	-0.7107373
9	0x3cc7b19a	0.02437668
10	0xbdc7bd0e	-0.09752856
11	0xbd72c369	-0.05926839
12	0x3d8d09a6	0.06886606
13	0x3d4e16c1	0.05031467
14	0xbd2b07dd	-0.041755546
15	0x3d8d154d	0.068888284
16	0xbda0a33d	-0.07843635
17	0xbd980c7c	-0.07424256
18	0x3d5d61ba	0.054048277
19	0xbd1f571e	-0.03890144
20	0x3df489d3	0.119403504
21	0xbe8389b1	-0.25690988
22	0xbd99ae3a	-0.07503934
23	0x3d3ddb29	0.046351586
24	0xbdcf3bde	-0.10118841
25	0xbd7f065e	-0.06226193
26	0xbd81a255	-0.063297905
27	0xbd5a77dd	-0.053336967
28	0x3dad051f	0.084482424
29	0xbd9581b0	-0.073001266
30	0xbf27c08e	-0.6552819
31	0x3da29729	0.07938988

value.0.weight f4 [32, 12]
0	0x3c3f1c30	0.011664435
1	0x3cb92223	0.022599285
2	0x3e51289b	0.20425646
3	0xbe47fbfe	-0.19529721
4	0xbd6cbda7	-0.057798054
5	0x3e753e4b	0.23949544
6	0x3e42c012	0.19018582
7	0xbdcd94d9	-0.10038156
8	0x3e4c8602	0.19972995
9	0x3e62c51a	0.22145501
10	0xbf77b566	-0.9676117
11	0x3f0eb094	0.55738187
12	0xbd61f645	-0.0551665
13	0x3d9bf9d4	0.0761601
14	0xbe5b9f87	-0.21447574
15	0xbe19342a	-0.14961305
16	0x3eb4946a	0.3526948
17	0x3df02ed6	0.11727683
18	0x3e7e71cc	0.24848098
19	0x3e4a918c	0.19782084
20	0x3d6082f6	0.054812394
21	0x3e229067	0.15875398
22	0x3f24b46f	0.6433782
23	0x3fc8ca2c	1.5686698
24	0xbd2ed853	-0.04268677
25	0xbe186068	-0.14880526
26	0xbe2fb7d8	-0.17159975
27	0x3e05a852	0.1305249
28	0xbd0aee82	-0.033918865
29	0xbe0b8ff2	-0.1362913
30	0x3d91a9e6	0.07112484
31	0x3e9c38df	0.3051214
32	0xbe7e0abf	-0.24808787
33	0x3e4b7351	0.19868208
34	0xbfc235f6	-1.5172718
35	0xbd2a7031	-0.0416109
36	0xbe2140f6	-0.15747437
37	0x3e6ec77c	0.23318285
38	0xbd88b6c4	-0.06675485
39	0x3e017d65	0.1264549
40	0xbe05374a	-0.13009372
41	0xbdd7ede4	-0.10543421
42	0x3cc35bba	0.02384745
43	0x3e60fea7	0.21972142
44	0x3e7d4778	0.24734294
45	0x3e7f6220	0.24939775
46	0xbf4e0f75	-0.80492336
47	0x3f3c38ad	0.7352398
48	0xbdb6a407	-0.089180045
49	0x3dcc048c	0.09961805
50	0xbe1035a7	-0.14082967
51	0x3dd90d22	0.10598208
52	0xbd6d60b2	-0.057953544
53	0xbe1e68ff	-0.1546974
54	0xbddb587e	-0.10710238
55	0x3d92349a	0.07138939
56	0x3dc28391	0.094977506
57	0xbd299936	-0.04140588
58	0xbf3bc6ca	-0.73350203
59	0x3f492f04	0.78587365
60	0x3e111b7a	0.14170638
61	0x3db89357	0.09012478
62	0xbe3989d2	-0.1811898
63	0x3ddbdd6c	0.10735592
64	0xbe4dc93e	-0.20096299
65	0x3d941847	0.07231193
66	0xbcccaa98	-0.02498369
67	0xbdfda445	-0.123848476
68	0xbbc2dc2a	-0.0059466558
69	0x3d15d1b1	0.03657693
70	0x3f15ac9e	0.5846652
71	0x3f3ab174	0.7292702
72	0x3da8b3ec	0.082374424
73	0xbd1bcbc2	-0.038036115
74	0xbe0c5eab	-0.13707988
75	0x3db4eab3	0.08833828
76	0x3daf350f	0.08555042
77	0xbd537d93	-0.05163343
78	0x3dc0f6e0	0.09422088
79	0x3d2541f7	0.040346112
80	0x3e56be87	0.20971118
81	0x3e932c97	0.28744957
82	0x3eb39314	0.3507315
83	0x3f83b12c	1.0288444
84	0x3e1b7d36	0.15184483
85	0xbdf4a08c	-0.119446844
86	0xbe455b21	-0.19273044
87	0x3de70465	0.11280135
88	0x3da8a7ae	0.08235107
89	0xbe0ec7ed	-0.13943453
90	0xbe327fc0	-0.17431545
91	0xbe8887ce	-0.2666611
92	0x3e39bd77	0.18138681
93	0xbe42b637	-0.19014822
94	0xbd3650ea	-0.04451076
95	0xbfce2ba8	-1.6107073
96	0xbe446791	-0.19180132
97	0xbe350d74	-0.17680913
98	0xbcb3fcee	-0.021971192
99	0x3cb90df9	0.02258967
100	0x3e942630	0.28935385
101	0xbdc7d2ad	-0.0975698
102	0xbdf3b29f	-0.11899304
103	0x3e8b571c	0.27214897
104	0xbdb50a06	-0.088398024
105	0x3ec8a805	0.3919069
106	0xbf276a6a	-0.6539675
107	0xbbb62841	-0.005558998
108	0x3d1a1ac5	0.037623186
109	0xbc65a564	-0.014016483
110	0xbe449306	-0.1919671
111	0xbba5994a	-0.005053674
112	0xbdd8ec16	-0.10591905
113	0x3e727ddd	0.23680826
114	0xbe3134a0	-0.17305231
115	0x3e33fd9c	0.17577213
116	0x3e8af537	0.2714021
117	0x3d14a1d3	0.03628714
118	0x3f500c99	0.8126922
119	0x3f200ac7	0.62516445
120	0xbe0265e8	-0.12734187
121	0x3e1884eb	0.14894454
122	0xbe09cc01	-0.13456728
123	0xbe163007	-0.14666758
124	0xbc8cc4a8	-0.017183617
125	0x3e759df6	0.23986039
126	0x3e1cc850	0.15310788
127	0xbdbf483f	-0.09339952
128	0x3c99cd40	0.018774629
129	0x3cc12fb8	0.023582324
130	0xbf8d48f0	-1.1037884
131	0xbeb3a07e	-0.35083383
132	0xbe4dbd48	-0.20091736
133	0xbdf2bfb7	-0.11852973
134	0xbdaa95d5	-0.083293594
135	0x3bb3fcbe	0.0054927757
136	0xbd66d10c	-0.056351706
137	0x3c837bda	0.016050268
138	0xbe81b364	-0.25332177
139	0x3b60107c	0.0034189513
140	0xbd2d426c	-0.042299673
141	0xbe6d42e9	-0.23170055
142	0xbf1c579d	-0.6107119
143	0xbf81c826	-1.0139205
144	0xbe17c09e	-0.14819571
145	0x3cd96209	0.026536005
146	0x3d7a8801	0.06116486
147	0x3e0095c3	0.1255713
148	0xbc0a18f6	-0.008428803
149	0x3d5135ee	0.051076822
150	0xbd862759	-0.06550474
151	0x3ead76cc	0.33879697
152	0x3e708007	0.23486339
153	0xbdb6312a	-0.08896096
154	0xc045408a	-3.0820642
155	0x3f4a4fc2	0.7902795
156	0x3e3e9b3e	0.18613908
157	0xbe176212	-0.14783505
158	0x3c336078	0.010948293
159	0xbe298895	-0.16556008
160	0x3df08bbe	0.11745404
161	0xbccef556	-0.02526347
162	0xbe69cef7	-0.22832857
163	0xbe59c353	-0.21265917
164	0xbd17c44b	-0.037052434
165	0xbd0831ee	-0.03325074
166	0xbed98e11	-0.424912
167	0xbfe28130	-1.7695675
168	0xbe37d1bb	-0.179511
169	0xbe19c0ef	-0.15015005
170	0xbe08362d	-0.13301916
171	0xbe0d4ac0	-0.13798046
172	0x3db62fba	0.08895822
173	0x3d9a4464	0.07532576
174	0x3e6a0fc8	0.22857583
175	0x3e8b591c	0.27216423
176	0xbe359857	-0.17733894
177	0xbe7f984d	-0.24960442
178	0xbc83c081	-0.016083004
179	0x3fb2d795	1.397204
180	0xbdb657b1	-0.089034446
181	0x3de2c3c6	0.11072497
182	0x3da44afc	0.08022115
183	0xbdb093d2	-0.086219445
184	0xbd6cce40	-0.057813883
185	0xbe55c765	-0.20876844
186	0xbe21bea3	-0.15795378
187	0x3d06ed02	0.032940872
188	0x3dc2fad8	0.09520501
189	0xbe3ca539	-0.18422402
190	0x3f926bb8	1.1439123
191	0xbffcbb97	-1.9744748
192	0xbd8bba00	-0.06822586
193	0xbb1bd750	-0.002377946
194	0x3d9ec803	0.07752993
195	0x3ca8af58	0.020591423
196	0x3c223a18	0.009901546
197	0xbdd53472	-0.10410394
198	0x3dbbedc5	0.0917621
199	0x3e703dfc	0.23461145
200	0x3e7fb4a2	0.2497125
201	0x3e7b08ab	0.24515025
202	0xc029c40f	-2.6525915
203	0xbf99a7d1	-1.2004339
204	0xbe28280b	-0.16421525
205	0x3d59eb35	0.053202827
206	0x3e1ed15b	0.1550955
207	0xbdf9f3c0	-0.12204695
208	0x3eb2f99c	0.34956062
209	0xbe18c169	-0.1491753
210	0xbdac66e4	-0.08418062
211	0xbccf1a7b	-0.025281182
212	0xbdc58a2d	-0.096454956
213	0xbe618262	-0.22022393
214	0x3fa61546	1.2975242
215	0xbdfdeb4c	-0.12398395
216	0xbc5bb81b	-0.013410593
217	0x3d358808	0.044319183
218	0xbe6141e0	-0.21997786
219	0xbe157479	-0.14595212
220	0xbe34132c	-0.17585438
221	0xbe2bf3f2	-0.16792277
222	0x3ac51509	0.0015036176
223	0x3e84aa36	0.2591111
224	0xbd79edf8	-0.06101796
225	0x3db6de60	0.089291334
226	0x3ec656d4	0.3873812
227	0xbefcb1e8	-0.49354482
228	0xbdb93c4b	-0.09044703
229	0x3db1e823	0.08686855
230	0xbeca6cf7	-0.3953626
231	0x3d173d32	0.036923595
232	0xbd500ff0	-0.05079645
233	0x3dbfac02	0.0935898
234	0x3e830305	0.2558824
235	0x3e748956	0.23880515
236	0xbe340805	-0.17581184
237	0xbd71831a	-0.05896292
238	0xbfa354e6	-1.2760284
239	0x3f51e2fb	0.8198697
240	0xbe1b7248	-0.15180314
241	0x3e03ff1e	0.12890288
242	0x3df40602	0.119152084
243	0x3de8f4f6	0.113748476
244	0xbe0ea9a5	-0.13931902
245	0xbbd82463	-0.0065961345
246	0xbda83eb6	-0.08215086
247	0xbc01fbdb	-0.007933582
248	0xbeacf9db	-0.33784375
249	0xbe97cc91	-0.2964826
250	0xbe4a2f51	-0.19744612
251	0x3ead112b	0.3380216
252	0x3d808196	0.062747166
253	0x3d95d1b0	0.07315385
254	0xbdd6b580	-0.10483837
255	0x3e12a854	0.14322025

value.0.bias f4 [32]
0	0xbd744946	-0.05964019
1	0xbeabed3d	-0.33579436
2	0xbef8496b	-0.48493513
3	0x3e8d76ab	0.276296
4	0xbe840a01	-0.25788882
5	0xbd9f3d7e	-0.077754006
6	0xbdc7bac5	-0.0975242
7	0xbf02ae80	-0.51047516
8	0x3ef747fa	0.482971
9	0xbd61609a	-0.055023767
10	0xbe11a11e	-0.14221618
11	0xbea49c75	-0.32150617
12	0xbdbd60b0	-0.09246957
13	0xbccd2561	-0.025042238
14	0xbe72a445	-0.23695476
15	0x3d1adad5	0.03780635
16	0x3e673066	0.22577056
17	0x3f175af5	0.59123164
18	0xbee605e4	-0.4492637
19	0xbd97218f	-0.07379448
20	0x3e0a7b1d	0.13523526
21	0xbdabaaa3	-0.08382156
22	0x3e2c4d61	0.16826393
23	0xbc6d89b0	-0.014498159
24	0xbd0658c4	-0.032799497
25	0xbd9d40e2	-0.07678391
26	0x3e8d2b14	0.27571929
27	0x3e815b43	0.2526494
28	0xbb430d63	-0.0029762618
29	0x3e9e047e	0.30862802
30	0xbde76be6	-0.11299877
31	0x3e80a354	0.2512461

value.2.weight f4 [32, 32]
0	0x3ca6b96a	0.020352084
1	0x3dd61943	0.10454037
2	0xbe1e432b	-0.1545531
3	0x3d62afe5	0.055343527
4	0x3e21d7ab	0.15804927
5	0x3e0c1892	0.13681248
6	0xbe046fba	-0.12933245
7	0x3c9f64f2	0.019457314
8	0x3ca8bf61	0.02059907
9	0xbe25ef03	-0.16204457
10	0x3da52174	0.08063021
11	0x3e2fc21b	0.17163889
12	0x3d1bfca0	0.03808272
13	0xbe4fdbf7	-0.20298754
14	0x3d413881	0.047173027
15	0x3c9234f8	0.017847523
16	0x3d89a174	0.06720248
17	0xbe029966	-0.1275383
18	0x3d809272	0.06277932
19	0xbdaa943a	-0.08329053
20	0x3c45b555	0.012067159
21	0xbe49c1ec	-0.19702882
22	0x3d039290	0.032122195
23	0xbe05e026	-0.13073787
24	0x3ae87893	0.0017736129
25	0xbbc97b27	-0.006148714
26	0x3bd839be	0.0065986803
27	0x3e542a6d	0.20719309
28	0xbdece02c	-0.11566195
29	0xbe0b4f12	-0.13604382
30	0x3e326bce	0.17423937
31	0xbc817ce1	-0.015806617
32	0xbd189aa8	-0.037256867
33	0x3df3a547	0.118967585
34	0x3d7ba774	0.061438993
35	0x3d0cd3d9	0.03438172
36	0x3c950382	0.01819015
37	0x3db1be09	0.086788245
38	0x3cb2a943	0.021809226
39	0x3c9f1fa5	0.019424269
40	0xbde1c29b	-0.11023446
41	0x3d2b791f	0.041863557
42	0xbda322f0	-0.07965648
43	0x3e1973a8	0.14985526
44	0x3d9fca3c	0.07802245
45	0x3d4ea0b1	0.050446216
46	0xbda95b6f	-0.08269393
47	0xbd38aa46	-0.04508426
48	0xbd3f65c5	-0.046727914
49	0xbbf6dfa9	-0.0075339866
50	0x3dfc438c	0.12317571
51	0x3dec4cf9	0.11538119
52	0x3e3ad619	0.18245734
53	0xbe73642e	-0.23768684
54	0x3c93316c	0.017967902
55	0x3e23380f	0.15939353
56	0xbd479c76	-0.048733197
57	0x3bb68196	0.005569647
58	0xbdcc8e98	-0.09988135
59	0x3d02f133	0.031968307
60	0x3e242c36	0.1603249
61	0x3cb1e0b2	0.021713588
62	0x3db7cd64	0.08974722
63	0x3e0095fa	0.12557212
64	0xbf04b807	-0.51843303
65	0xbd906a05	-0.070514716
66	0x3e2125e1	0.15737106
67	0x3d57165d	0.05251156
68	0xbcde3d7c	-0.027128927
69	0x3ddff3e6	0.10935192
70	0x3c5d5ad1	0.013510422
71	0x3e0200d2	0.12695625
72	0x3d29abde	0.04142367
73	0x3dc1e289	0.09467036
74	0xbe777c20	-0.24168444
75	0xbde8d9eb	-0.113696896
76	0xbe1fb282	-0.15595439
77	0x3dd2333b	0.10263678
78	0x3d350ca3	0.044201504
79	0x3c1b60e2	0.009483548
80	0xba345d08	-0.0006880318
81	0xbd41d595	-0.04732283
82	0x3d99c55d	0.07508347
83	0xbde7f354	-0.11325708
84	0xbddbb819	-0.10728473
85	0xbe6306ae	-0.22170517
86	0xbd81f9b4	-0.06346455
87	0xbd08bf5e	-0.033385627
88	0x3e5926e4	0.21206242
89	0xbd5cb660	-0.053884864
90	0x3c768d3b	0.01504832
91	0xbc481e1d	-0.012214211
92	0x3ca121a8	0.019669369
93	0x3d2be4e4	0.041966334
94	0x3e2e972c	0.17049855
95	0x3cfc18de	0.030773576
96	0xbe1535f2	-0.1457136
97	0xbd1036dd	-0.03520857
98	0xbe081c13	-0.1329196
99	0x3db07b52	0.086172715
100	0x3d919f7a	0.07110496
101	0x3dab412c	0.0836204
102	0xbb688d2c	-0.0035484536
103	0x3d77f6d3	0.060538124
104	0xbd0532dc	-0.032519206
105	0xbd559d2b	-0.05215184
106	0x3d1fa845	0.038978834
107	0x3e0e03f0	0.1386869
108	0x3e12cac2	0.14335158
109	0x3e30d02b	0.1726691
110	0xbef4d080	-0.47815323
111	0x3d5e5c7a	0.05428741
112	0xbd85349a	-0.065041736
113	0xbd80a179	-0.062807985
114	0xbdcfb649	-0.1014219
115	0xbe4a3e61	-0.19750358
116	0x3d6b6f41	0.057479147
117	0x3d122ae3	0.03568543
118	0xbd306d16	-0.043072782
119	0xbe108fc9	-0.1411735
120	0x3dc9f5c9	0.09861333
121	0xbeaa37be	-0.33245653
122	0x3e392433	0.18080215
123	0x3deb72d8	0.11496514
124	0xbd74e2fe	-0.05978679
125	0x3debe0df	0.115175
126	0xbd272906	-0.040810607
127	0xbdf4d3aa	-0.11954434
128	0xbd9b0190	-0.075686574
129	0x3d88f27a	0.06686874
130	0xbd837c6b	-0.06420215
131	0xbca4d1cb	-0.020119568
132	0xbd5911a7	-0.05299535
133	0xbcab95ef	-0.020945517
134	0xbb0021c5	-0.0019551378
135	0xbe1152a6	-0.14191684
136	0xbd2e1353	-0.042498898
137	0x3bd4c53c	0.0064932387
138	0x3deacbcc	0.114646524
139	0x3e0922fd	0.13392253
140	0xbd637ffd	-0.05554198
141	0x3e553104	0.20819479
142	0xbe5d3b2b	-0.21604602
143	0x3da2c81c	0.07948324
144	0x3dce749c	0.10080835
145	0xbe0f8738	-0.14016426
146	0x3da016e6	0.078168675
147	0xbe24d5db	-0.16097204
148	0xbd3b4f54	-0.04572995
149	0x3d377a7c	0.044794545
150	0xbddf361c	-0.108989924
151	0x3e0a31bc	0.13495535
152	0x39fb1cd0	0.00047895918
153	0xbcefa2bc	-0.029252402
154	0xbd1f31fd	-0.038866032
155	0x3e327ef8	0.17431247
156	0x3de8e719	0.113722034
157	0x3dce7124	0.100801736
158	0xbd601d56	-0.054715477
159	0x3d9df464	0.077126294
160	0x3bc797bc	0.006091086
161	0xbe8fcbab	-0.28085074
162	0x3d94b74f	0.07261526
163	0x3d95149d	0.07279322
164	0xbb93ea5f	-0.004514023
165	0x3de8153a	0.11332174
166	0x3dc14340	0.09436655
167	0xbeae26b2	-0.34013897
168	0x3e94607c	0.28979862
169	0xbe4b2f1c	-0.1984219
170	0xbd9883b4	-0.074469954
171	0xbd912692	-0.07087435
172	0xbe70e623	-0.2352529
173	0x3dac71f6	0.08420174
174	0xbdd3eedb	-0.103482924
175	0xbd2f5cfa	-0.04281328
176	0xbc06c048	-0.008224554
177	0xbdf48483	-0.11939337
178	0x3c1d4fe7	0.00960157
179	0xbe259958	-0.16171777
180	0x3c2e5d87	0.010642416
181	0xbe4767b7	-0.19473158
182	0x3e41482a	0.18875185
183	0xbdbc1ee6	-0.09185581
184	0x3dea1d2c	0.11431345
185	0xbb15c1f5	-0.0022851203
186	0xbb2f7139	-0.0026770367
187	0xbf017e91	-0.5058375
188	0xbca551a3	-0.020180529
189	0xbd032a78	-0.032022923
190	0x3d4e45e6	0.05035963
191	0xbc4faf94	-0.012676138
192	0xbd155ea4	-0.03646721
193	0x3da22f15	0.079191364
194	0xbe58d2b0	-0.21174121
195	0x3e6f2138	0.23352516
196	0x3d1facc7	0.038983133
197	0xbd648f10	-0.055800498
198	0x3d2afda0	0.041745782
199	0xbd307037	-0.043075766
200	0x3caefb27	0.021359993
201	0x3e3230c7	0.1740142
202	0xbd01e1f6	-0.031709634
203	0x3e74531c	0.23859829
204	0xbe52054f	-0.20509838
205	0xbcf2b79d	-0.02962857
206	0xbf1edf05	-0.6205905
207	0xbda9f1c5	-0.08298067
208	0x3c539121	0.012913019
209	0x3d534d08	0.051587135
210	0xbdbe1fd8	-0.092834175
211	0xbeac6e53	-0.3367792
212	0x3c312fd7	0.010814629
213	0x3be7891c	0.0070659053
214	0xbe4a2815	-0.19741853
215	0xbe816146	-0.25269526
216	0xbe24bc58	-0.16087472
217	0x3dbfcd49	0.09365327
218	0xbd9de60c	-0.077098936
219	0xbe8220fa	-0.25415784
220	0xbf33ef8a	-0.7028738
221	0xb8cc1d1c	-9.7329e-05
222	0x3d730ffd	0.05934142
223	0xbc7c87e7	-0.015413261
224	0xbd8ca15c	-0.06866714
225	0xbe80b705	-0.25139633
226	0xbe246343	-0.1605349
227	0x3d802377	0.062567644
228	0x3deef470	0.116677165
229	0x3e09bba6	0.13450488
230	0xbcf88069	-0.030334668
231	0x39b70cd1	0.0003491403
232	0x3e058cc9	0.13041987
233	0xbd60fca8	-0.05492845
234	0xbd7c90f4	-0.061661676
235	0x3da82ea0	0.08212018
236	0xbe339f49	-0.17541231
237	0xbcb99876	-0.022655707
238	0xbdd1bf2f	-0.102415435
239	0x3d86dc1a	0.0658495
240	0xbd9b947a	-0.07596679
241	0x3d8a2ba6	0.067466065
242	0x3e14e7ca	0.14541546
243	0x3ddef2cf	0.10886156
244	0xbdda97e1	-0.106735
245	0x3d714a7b	0.05890892
246	0xbd1b7cd7	-0.037960853
247	0xbc7c0475	-0.015381922
248	0xbe038c7a	-0.12846556
249	0xbbf93069	-0.007604648
250	0x3e2045d8	0.15651643
251	0x3ce18ff5	0.027534464
252	0xbd9835de	-0.07432149
253	0xbc9a7b73	-0.018857693
254	0xbdefe4b5	-0.11713544
255	0x3e02ed63	0.12785868

value.2.bias f4 [32]
0	0xbee12446	-0.43972987
1	0xbea8ebc4	-0.32992375
2	0xbe10b729	-0.1413237
3	0xbe79c578	-0.24391735
4	0x3ee7782a	0.45208865
5	0xbdeabf8a	-0.114623144
6	0xbe259ac3	-0.16172318
7	0x3e0c5c1b	0.1370701
8	0xbe40c097	-0.18823467
9	0x3ea8701a	0.32898027
10	0xbe41651f	-0.18886231
11	0xbe2bba5d	-0.1677031
12	0x3eaa4fe7	0.33264086
13	0x3ea2dd35	0.31809393
14	0xbeb4b7a0	-0.35296345
15	0x3e9b6300	0.30348969
16	0xbe5a91de	-0.21344706
17	0xbecf7fff	-0.4052734
18	0xbddf1cff	-0.108942024
19	0xbe22161f	-0.15828751
20	0x3e91acb6	0.2845208
21	0xbdec921d	-0.115513064
22	0xbd603700	-0.054739952
23	0x3e3f5f9b	0.18688814
24	0xbcc56867	-0.024097634
25	0xbead7ee7	-0.3388588
26	0xbee55620	-0.4479227
27	0xbd89ade5	-0.06722621
28	0x3eb6bdd8	0.35691714
29	0x3d370bac	0.044688866
30	0x3e3c4de8	0.18389094
31	0x3e888526	0.26664084

value.4.weight f4 [1, 32]
0	0xbd9e4f68	-0.07729989
1	0xbd3c48b0	-0.045967758
2	0xbd39b8f7	-0.04534241
3	0xbd52ad4b	-0.051434796
4	0x3da0faeb	0.07860359
5	0x3e1fec03	0.15617375
6	0xbd9f30db	-0.0777299
7	0x3dbe9072	0.093048945
8	0xbf35ed5f	-0.71065325
9	0x3cc435ba	0.0239514
10	0xbdc68de4	-0.09695032
11	0xbd6e52ea	-0.05818454
12	0x3d8cd6c8	0.06876904
13	0x3d503b9d	0.0508381
14	0xbd2d2a0b	-0.042276423
15	0x3d8bf5ec	0.06834015
16	0xbda07e3f	-0.078365795
17	0xbd998810	-0.07496655
18	0x3d5e7377	0.054309335
19	0xbd222072	-0.039581724
20	0x3df3c449	0.11902673
21	0xbe82126d	-0.25404683
22	0xbd9ca2d0	-0.076482415
23	0x3d3d749a	0.046253778
24	0xbdcfa630	-0.101391196
25	0xbd7fbfed	-0.062438894
26	0xbd8115a1	-0.063029535
27	0xbd5bf7fc	-0.053703293
28	0x3dad3810	0.08457959
29	0xbd94b3cd	-0.07260857
30	0xbf28679a	-0.65783083
31	0x3da0c2e2	0.07849671

actor.0.weight f4 [32, 10]
0	0xbe0b2c4a	-0.13591114
1	0x3ccb68e0	0.024830282
2	0x3eee49f8	0.4654081
3	0x3e8a4f75	0.27013746
4	0x3e9a90df	0.30188653
5	0x3ed0889c	0.40729225
6	0x3eb0e1e9	0.34547356
7	0x3e1c81b7	0.15283857
8	0xbee56510	-0.44803667
9	0xbef24f2a	-0.47326022
10	0x3b4bfc6c	0.0031125797
11	0xbc1eff8d	-0.009704483
12	0xbdad50d8	-0.08462685
13	0x3e3b906d	0.18316813
14	0xbea2f1f7	-0.3182523
15	0x3d8bcb69	0.06825907
16	0xbec952d5	-0.39321008
17	0xbdd682e1	-0.10474182
18	0x3c6f1e8f	0.014594688
19	0x3e8800a2	0.26562983
20	0x3d5adefc	0.05343531
21	0xbd2fe83a	-0.042946078
22	0xbec48094	-0.38379347
23	0x3ea21faa	0.31664783
24	0x3d0c5e00	0.034269333
25	0x3f418862	0.7559873
26	0x3da66d5d	0.08126328
27	0x3e5217ce	0.20516893
28	0x3e1d60c5	0.15368946
29	0x3ea92b5f	0.33040902
30	0xbd17fe94	-0.03710802
31	0xbc00fc94	-0.007872719
32	0x3cfdb999	0.030972289
33	0xbeb709fb	-0.35749802
34	0x3e5f5edb	0.21813528
35	0x3f0221c5	0.5083278
36	0x3ec7491d	0.38922969
37	0x3e8f9093	0.2803999
38	0x3eddeb0d	0.43343392
39	0x3dce711d	0.100801684
40	0x3e913b9d	0.28365794
41	0xbe5f742a	-0.21821657
42	0x3e198b4a	0.14994541
43	0x3e83c3c6	0.257353
44	0xbeebe350	-0.46071863
45	0xbde2aa16	-0.110675976
46	0x3e67a919	0.226231
47	0xbe0703cd	-0.13185044
48	0x3eacd337	0.33754894
49	0x3e1db9b9	0.15402879
50	0x3e8790dd	0.2647771
51	0xbe571307	-0.21003352
52	0x3e828d2a	0.25498325
53	0x3deba75a	0.11506529
54	0xbd9ced50	-0.07662451
55	0xbdd9a0be	-0.10626362
56	0xbecec96c	-0.40388048
57	0xbd5ab82e	-0.053398304
58	0x3deb8040	0.11499071
59	0x3e846f89	0.25866345
60	0x3ea6af21	0.32555488
61	0xbde776d3	-0.11301961
62	0x3dd64b27	0.10463553
63	0xbea78d30	-0.32724905
64	0x3dd19f5a	0.10235472
65	0xbe6b7007	-0.22991954
66	0xbe8cf04f	-0.2752709
67	0xbed55f6f	-0.41674373
68	0xbe85cf50	-0.2613473
69	0x3e4059db	0.18784277
70	0x3e4f66fb	0.20254128
71	0xbc9d06df	-0.019168315
72	0xbde2f7ea	-0.11082442
73	0x3e4b39e8	0.19846308
74	0x3e3551c7	0.17706977
75	0x3f0be801	0.54650885
76	0xbe7f198b	-0.24912088
77	0x3d425516	0.047444426
78	0xbeaa96b9	-0.33318117
79	0x3d3ae2d4	0.045626476
80	0x3e58e913	0.21182661
81	0xbe4641bc	-0.19361013
82	0x3eb85495	0.3600203
83	0xbef1b761	-0.4721022
84	0xbeea46d1	-0.45757154
85	0x3d98d6da	0.07462855
86	0x3e1b44da	0.15162984
87	0xbe92c046	-0.28662318
88	0xbe7cbd50	-0.24681592
89	0x3d9bbcf3	0.076043986
90	0xbe4c54df	-0.19954251
91	0x3e91d40f	0.284821
92	0x3df91105	0.12161449
93	0x3eb27794	0.34856856
94	0xbee7c0b6	-0.45264214
95	0xbe12e5b5	-0.14345439
96	0xbd5a8c8d	-0.053356696
97	0xbca8958a	-0.020579118
98	0x3db96c36	0.09053843
99	0xbdbb9446	-0.0915914
100	0xbea26d9f	-0.3172426
101	0x3d443190	0.04789883
102	0xbea65943	-0.32489976
103	0xbd487898	-0.048943132
104	0xbe220eea	-0.15826002
105	0xbcfdb8fc	-0.030971996
106	0x3ede1503	0.43375406
107	0x3dc98006	0.09838872
108	0xbee35d8f	-0.44407317
109	0xbee63e1b	-0.44969258
110	0x3ed296b9	0.41130617
111	0xbe45a813	-0.19302396
112	0xbeddd63d	-0.43327513
113	0x3e00549e	0.12532279
114	0x3c5c1075	0.013431658
115	0x3e1ca5be	0.152976
116	0x3db09c32	0.08623542
117	0xbe9a0c9b	-0.30087742
118	0x3edfa8be	0.43683428
119	0x3cdb2331	0.026750179
120	0x3e8a71c1	0.27039912
121	0xbdfe4eaa	-0.12417348
122	0xbdd6e16b	-0.10492214
123	0xbb4ff50e	-0.0031731757
124	0x3df74041	0.12072802
125	0xbe38e61b	-0.18056528
126	0x3dbbe220	0.09173989
127	0x3e9276db	0.28606305
128	0x3ee55885	0.44794098
129	0x3ec27dc1	0.37986568
130	0xbe940978	-0.28913474
131	0x3df40de2	0.119167104
132	0x3ea4faf3	0.3222271
133	0x3e95a10f	0.2922444
134	0xbe5db3f9	-0.21650685
135	0x3e9558fc	0.29169452
136	0x3edc01eb	0.42970213
137	0x3e74b622	0.23897603
138	0x3ec9b3c0	0.3939495
139	0x3dee69f2	0.11641301
140	0x3e3d15df	0.18465374
141	0xbdff2d08	-0.12459761
142	0x3e17146d	0.14753886
143	0x3e4782cc	0.19483489
144	0xbd9dc129	-0.07702858
145	0xbeaf3e0a	-0.3422702
146	0xbe44b127	-0.19208203
147	0x3c754cbc	0.014971908
148	0xbdfa4dfc	-0.122219056
149	0xbea4513d	-0.3209323
150	0x3eb91118	0.36145854
151	0x3d44f606	0.04808619
152	0x3d8557ae	0.06510864
153	0xbebc96d7	-0.36833832
154	0x3e0ab89c	0.13546985
155	0x3ec2f985	0.38080993
156	0x3d806a4f	0.06270277
157	0x3c194185	0.009354
158	0xbe802f7b	-0.25036225
159	0xbdf187c3	-0.117934726
160	0xbdff3404	-0.12461093
161	0xbe5d0a4c	-0.21585959
162	0x3a2d9358	0.0006621382
163	0x3df57027	0.11984282
164	0x3eb4efc5	0.3533918
165	0xbe291983	-0.16513638
166	0x3d24bfc3	0.04022194
167	0xbe377e7a	-0.1791934
168	0x3da7aecc	0.08187637
169	0x3dc5736a	0.09641154
170	0xbe6508cb	-0.22366636
171	0x3e458251	0.19287993
172	0xbe4fb226	-0.20282802
173	0x3d03ab48	0.03214577
174	0x3e45a999	0.19302978
175	0xbee6907a	-0.45032102
176	0xbe76dc75	-0.24107535
177	0x3d47d184	0.048783794
178	0xbe2b1508	-0.16707242
179	0xbe3e5ab2	-0.18589285
180	0xbebc885b	-0.3682278
181	0x3eba4540	0.3638096
182	0xbe26acb6	-0.16276821
183	0x3e077e17	0.13231693
184	0x3e003318	0.1251949
185	0xbe88be85	-0.26707855
186	0xbdcbbcfb	-0.099481545
187	0x3e9889fa	0.29792768
188	0xbd0ed238	-0.03486845
189	0xbdddebfe	-0.108360276
190	0x3e403766	0.18771133
191	0x3d032fec	0.032028124
192	0xbddbf435	-0.10739938
193	0x3e94f1dc	0.29090774
194	0x3e3eda29	0.18637909
195	0xbe2c4682	-0.16823772
196	0xbe8e3ec4	-0.2778226
197	0xbec159fc	-0.37763965
198	0xbe31d4ed	-0.17366381
199	0x3d866b68	0.06563455
200	0x3d5e5dc0	0.054288626
201	0xbdeaadd4	-0.11458936
202	0xbc8a2c7c	-0.016866915
203	0xbe51f4b3	-0.20503502
204	0xbea4c4a7	-0.32181284
205	0x3e90de92	0.28294808
206	0xbe984e01	-0.29747012
207	0x3e080c4c	0.13285941
208	0x3efed367	0.49770662
209	0x3d9927d6	0.07478301
210	0x3e9a5ace	0.30147403
211	0xbe6667f4	-0.22500592
212	0x3e6cd479	0.23127927
213	0xbdf7b91f	-0.12095856
214	0x3e0e012b	0.13867633
215	0x3dabcd20	0.08388734
216	0x3e368ea4	0.1782785
217	0x3e1ba71e	0.15200469
218	0x3ea34fe5	0.31896892
219	0x3cdfcd65	0.02731962
220	0x3dfa203c	0.122131795
221	0x3e0fecc9	0.1405517
222	0x3ed6b17b	0.41932282
223	0xbe8466e7	-0.25859758
224	0xbdb7a604	-0.08967212
225	0xbed4125f	-0.41420266
226	0x3dfad386	0.12247376
227	0xbe4dbd9e	-0.20091864
228	0xbee4db17	-0.44698402
229	0xbe727a23	-0.23679404
230	0xbe70a318	-0.23499715
231	0x3e3976ba	0.18111697
232	0x3d239592	0.039937563
233	0xbe9a76a6	-0.30168647
234	0x3cc8dac0	0.02451837
235	0x3cf957bb	0.030437341
236	0x3e470d5a	0.19438687
237	0xbd8024b2	-0.06256999
238	0x3e0f7355	0.1400884
239	0xbe8defff	-0.27722165
240	0x3eec1515	0.46109834
241	0xbae1ccd6	-0.0017227184
242	0x3ee7ca0c	0.45271337
243	0xbd1fb982	-0.038995273
244	0x3f030528	0.5117974
245	0xbda50a5f	-0.08058619
246	0xbe179cd5	-0.1480592
247	0x3c877a13	0.016537702
248	0x3e2d72ec	0.1693837
249	0xbebab30d	-0.3646473
250	0xbd9da4c4	-0.07697442
251	0xbda109ee	-0.07863222
252	0x3e27c453	0.16383485
253	0x3e8d511d	0.27600947
254	0xbd459a84	-0.04824306
255	0xbedd0866	-0.4317047

actor.0.bias f4 [32]
0	0xbeeff378	-0.4686544
1	0x3dbdf559	0.09275312
2	0xbd9f0b81	-0.07765866
3	0xbd3a2d78	-0.04545352
4	0xbad2d504	-0.0016085212
5	0xbc302b9d	-0.010752586
6	0xbe25b1ad	-0.16181059
7	0x3dfa8805	0.12232975
8	0xbe7cffb6	-0.24706921
9	0x3e45cb30	0.19315791
10	0xbe8ae588	-0.27128243
11	0xbf14f064	-0.58179307
12	0x3ec3d18c	0.3824581
13	0xbd74a6e7	-0.059729483
14	0xbdd86484	-0.10566047
15	0xbea97d0b	-0.33103213
16	0x3e7354ec	0.23762864
17	0x3e963802	0.29339606
18	0xbde5739d	-0.11203692
19	0x3e711b87	0.23545657
20	0x3e83d632	0.25749356
21	0x3e05a00d	0.13049336
22	0xbe53831b	-0.20655482
23	0xbd56e131	-0.052460853
24	0xbece14b1	-0.4025016
25	0xbddff13a	-0.10934682
26	0x3e64f594	0.22359306
27	0xbe31b255	-0.17353185
28	0x3e8791d0	0.26478434
29	0xbe3faad6	-0.18717512
30	0xbe5948b0	-0.21219134
31	0xbe8d73e9	-0.27627495

actor.2.weight f4 [32, 32]
0	0xbe89a86c	-0.26886308
1	0x3c933ad0	0.01797238
2	0xbe9a6251	-0.30153134
3	0x3daad0e6	0.083406255
4	0x3df757f4	0.120773226
5	0xbe2466b8	-0.16054809
6	0x3e261946	0.16220579
7	0xbe36e034	-0.17858964
8	0x3eab1b5a	0.33419305
9	0x3d628763	0.055304896
10	0x3e54aae4	0.20768315
11	0x3e1e621f	0.15467118
12	0xbdeb7f80	-0.11498928
13	0x3ea2da58	0.31807208
14	0xbe612753	-0.21987657
15	0x3eb6a991	0.35676244
16	0xbebeb842	-0.37249953
17	0x3d6ce946	0.057839654
18	0x3e5b4e7e	0.21416661
19	0xbd084287	-0.03326657
20	0xbda292b0	-0.07938135
21	0x3e8790bb	0.26477608
22	0x3d55e98c	0.05222468
23	0x3e8e22ba	0.2776087
24	0xbf56181a	-0.83630526
25	0x3ce10355	0.02746741
26	0xbe1f444e	-0.155534
27	0x3e821448	0.25406098
28	0x3da1d7c1	0.0790248
29	0xbd87d9db	-0.066333495
30	0xbded054d	-0.11573277
31	0xbf47d5bc	-0.7806051
32	0x3eb67100	0.35633087
33	0x3e0cc612	0.13747433
34	0xbeb5766f	-0.3544192
35	0x3ef0f343	0.47060594
36	0xbe03bc60	-0.12864828
37	0xbc848c23	-0.016180104
38	0xbdf4450d	-0.11927233
39	0x3d80b175	0.06283847
40	0x3d4022a2	0.04690803
41	0x3eb7f6c6	0.3593046
42	0x3ca0bb8c	0.01962068
43	0xbd58c7f8	-0.05292508
44	0x3d8b1480	0.067910194
45	0xbdd92337	-0.1060242
46	0x3e3c30f1	0.18378045
47	0x3d46b7d8	0.04851517
48	0xbc2eae71	-0.010661707
49	0xbee91f23	-0.45531568
50	0xbeb5dee8	-0.35521626
51	0x3cba1fd6	0.022720259
52	0x3e0cca92	0.1374915
53	0xbe939b4d	-0.28829423
54	0x3d9c8b9f	0.07643818
55	0xbdf8bf3c	-0.1214585
56	0xbe9355f4	-0.28776515
57	0xbec11cab	-0.37717184
58	0x3b85eb56	0.004086892
59	0xbe3dcf5e	-0.18536136
60	0x3e44e42d	0.19227667
61	0xbd89dff8	-0.06732172
62	0x3e1b8462	0.15187219
63	0xbed9e7f1	-0.4255977
64	0xbad1f2cc	-0.0016017794
65	0x3d9833f2	0.07431783
66	0xbe115d2a	-0.14195696
67	0x3f0062ed	0.5015095
68	0xbe1b835d	-0.1518683
69	0xbe14a077	-0.14514337
70	0x3dd923dd	0.106025435
71	0x3d8a3516	0.067484066
72	0x3e80f5f0	0.25187635
73	0x3e15867b	0.14602081
74	0x3db9be02	0.09069444
75	0x3e02b9fb	0.12766258
76	0x3db6135a	0.0889041
77	0xbf2c5ff0	-0.6733389
78	0x3dedf19d	0.1161835
79	0xbc2a761d	-0.010404137
80	0x3e53c127	0.2067915
81	0x3e7bfd76	0.24608406
82	0xbd65ff1d	-0.056151498
83	0x3c97e011	0.01853946
84	0x3e3d0fb4	0.18463022
85	0xbdecd0cd	-0.11563263
86	0xbda6b888	-0.08140665
87	0x3c3fafa0	0.011699587
88	0xbee6786e	-0.45013756
89	0xbe2ad483	-0.1668263
90	0x3e024bed	0.12724276
91	0xbb9dcd03	-0.004815699
92	0x3db003fe	0.085945114
93	0xbc7beb15	-0.015375872
94	0xbe45b780	-0.19308281
95	0xbddeedc2	-0.108851925
96	0x3e8c0004	0.27343762
97	0x3de40b11	0.11134923
98	0xbe728481	-0.23683359
99	0x3dfd4f71	0.12368668
100	0x3e35489b	0.17703478
101	0xbe4fdfc6	-0.20300207
102	0x3d36c23c	0.04461883
103	0xbe8a3cbd	-0.26999465
104	0x3e11cc76	0.14238152
105	0x3dc050c2	0.09390403
106	0xbdb7e1ce	-0.08978616
107	0xbe42c2bd	-0.190196
108	0xbe8339ac	-0.25629938
109	0x3e7d3164	0.24725872
110	0xbda844fd	-0.082162835
111	0x3dc9a10e	0.09845172
112	0xbc7529cc	-0.014963578
113	0x3ea412c2	0.3204556
114	0xbd4fb1a6	-0.050706528
115	0x3d15960f	0.03652006
116	0x3d21420b	0.039369624
117	0x3d291a4e	0.04128485
118	0xbd88a072	-0.066712275
119	0x3e315671	0.17318131
120	0xbd948dce	-0.072536096
121	0x3d2359cd	0.039880563
122	0x3ea5a6fe	0.32353967
123	0xbb2675d8	-0.002539983
124	0xbebbd99c	-0.3668946
125	0x3dccfecc	0.10009536
126	0x3e47edc2	0.19524291
127	0xbe42824a	-0.18995014
128	0x3c4e148a	0.012578139
129	0x3cc38f20	0.023871958
130	0x3e6f8dcf	0.2339394
131	0xbe8aa094	-0.27075636
132	0xbe3d6ddb	-0.18498938
133	0xbe3426d9	-0.17592944
134	0x3e5ce531	0.21571805
135	0x3ea080eb	0.31348357
136	0x3d256ad6	0.04038509
137	0xbed917bd	-0.42400923
138	0xbd9a7263	-0.07541349
139	0xbbc7f621	-0.006102339
140	0x3e401887	0.18759356
141	0xbdd1fdd1	-0.1025349
142	0xbd9b1171	-0.07571686
143	0x3e5e85e6	0.21730766
144	0x3e3cc048	0.18432724
145	0x3dfdeed1	0.12399066
146	0x3e06dcf7	0.13170229
147	0xbc94c6dd	-0.018161232
148	0x3e2a4516	0.16627917
149	0xbd1ac614	-0.03778656
150	0xb97aae6f	-0.0002390684
151	0xbe1f2b25	-0.15543802
152	0xbeba4174	-0.36378062
153	0xbc98fcd4	-0.018675245
154	0xbe1ac4b6	-0.15114102
155	0x3d6d2928	0.057900578
156	0x3e05f9fe	0.13083646
157	0x3e07e7b7	0.13271986
158	0xbe78d14d	-0.24298592
159	0x3dea09c6	0.114276454
160	0xbe76185a	-0.24032727
161	0x3da01744	0.078169376
162	0xbf0167fa	-0.5054928
163	0x3d94d302	0.07266809
164	0x3e2bd988	0.167822
165	0xbe15eebf	-0.14641856
166	0x3c1c5a5d	0.009543029
167	0x3eabf996	0.33588856
168	0xbbdc7763	-0.006728099
169	0x3e286fac	0.1644885
170	0xbd5d8263	-0.054079425
171	0xbe0aa43a	-0.1353921
172	0x3df8fd4f	0.1215769
173	0xbf343318	-0.7039046
174	0x3c4b2902	0.012399914
175	0x3f0b50e0	0.5442028
176	0xbfba4540	-1.4552383
177	0x3b64336c	0.003482069
178	0xbe98acc4	-0.2981931
179	0xbe646789	-0.2230512
180	0x3e192ae0	0.14957762
181	0x3e25d962	0.16196206
182	0x3e2c616e	0.16834041
183	0xbcc25b9c	-0.023725323
184	0xbec2e064	-0.3806182
185	0xbd8cc52f	-0.06873547
186	0xbf2d2fb9	-0.67650944
187	0xbd6200ba	-0.055176474
188	0xbee6887a	-0.45025998
189	0xbe7a62ba	-0.24451724
190	0x3e5021d2	0.20325401
191	0xbf1709ae	-0.58999145
192	0x3e596183	0.21228604
193	0x3e24cb23	0.16093116
194	0x3ea33a59	0.31880453
195	0x3d378642	0.044805773
196	0x3d86faf4	0.06590834
197	0x3db65753	0.089033745
198	0x3e79e53d	0.24403854
199	0x3e5d0644	0.21584421
200	0x3e44e6bf	0.19228648
201	0xbd382c2c	-0.044964
202	0x3d9ce621	0.07661081
203	0x3e086d9a	0.1332306
204	0xbe488a18	-0.19583929
205	0x3d035aae	0.0320689
206	0xbe0bcbb2	-0.13651922
207	0x3d8e73ea	0.069557026
208	0x3d7d9dc2	0.061918028
209	0xbd8ac1d1	-0.06775249
210	0x3eb9b46a	0.36270458
211	0x3e0e0dee	0.13872501
212	0x3b7395df	0.0037168188
213	0x3e931058	0.28723407
214	0x3e0ed602	0.13948825
215	0x3dcc1612	0.09965147
216	0x3dc86937	0.09785693
217	0xbec89e3e	-0.3918323
218	0x3e28d580	0.16487694
219	0xbe534cc6	-0.20634755
220	0x3e1d8c44	0.15385538
221	0xbe028490	-0.12745881
222	0xbe9ca9a4	-0.30598176
223	0x3e16a756	0.14712271
224	0xbd0684ef	-0.03284162
225	0xbd553f35	-0.052062232
226	0x3d55177c	0.05202435
227	0xbcd6f193	-0.026238238
228	0xbde0ab79	-0.10970206
229	0x3dfa28e1	0.12214828
230	0x3e873e5d	0.26414767
231	0x3e88cae3	0.2671729
232	0xbdfd6ae9	-0.12373907
233	0x3dda6955	0.10664622
234	0xbe148393	-0.14503317
235	0xbd0247b5	-0.031806666
236	0x3e3e69e9	0.18595089
237	0xbb8129d1	-0.0039417525
238	0x3dd3358c	0.10312948
239	0xbcbe15a2	-0.023203675
240	0xbd4f08e6	-0.050545596
241	0x3e1b955b	0.15193693
242	0xbe05a0ab	-0.13049571
243	0xbe3f6a40	-0.18692875
244	0x3dd96f3c	0.106169194
245	0x3de69770	0.11259353
246	0x3de68ef3	0.11257734
247	0x3c8dd9df	0.017315803
248	0x3e95d59f	0.29264542
249	0xbc966bef	-0.018362014
250	0xbd4beb76	-0.0497851
251	0x3d184eb3	0.03718443
252	0x3e2ea009	0.17053236
253	0xbcc0b47a	-0.023523558
254	0x3df76060	0.12078929
255	0x3df5cef3	0.12002363

actor.2.bias f4 [32]
0	0xbe8f229d	-0.27956095
1	0x3e6effff	0.23339842
2	0x3e73803f	0.23779391
3	0xbcc4b127	-0.024010254
4	0xbe05f6e9	-0.1308247
5	0x3d87d406	0.06632237
6	0x3e16ab43	0.14713769
7	0x3e884ee3	0.26622686
8	0xbd1f2cb9	-0.03886101
9	0x3d8f4a8e	0.06996642
10	0xbe16d20c	-0.14728564
11	0x3e3276a3	0.17428069
12	0x3d2fdb62	0.04293383
13	0xbd975a4a	-0.07390268
14	0x3dace18e	0.08441459
15	0x3d8901bf	0.06689786
16	0xbdd1c83f	-0.10243272
17	0x3dfed136	0.124422476
18	0x3c112ee7	0.00886128
19	0xbccd4eaf	-0.025061933
20	0x3e5516bd	0.20809455
21	0x3c16794e	0.009184195
22	0x3c4bb20b	0.0124325855
23	0xbdb33df7	-0.08752053
24	0xbcfd64a8	-0.030931786
25	0x3c2260f5	0.009910812
26	0xbd8b8069	-0.06811602
27	0x3d04b1cb	0.03239612
28	0x3c9b0f6b	0.01892825
29	0x3e8b9f1f	0.27269837
30	0x3e7747c2	0.24148467
31	0xbd8d66af	-0.06904351

actor.4.weight f4 [2, 32]
0	0xbe604dec	-0.21904725
1	0x3ecde493	0.4021345
2	0xbc73baba	-0.014876062
3	0xbdcf1b3a	-0.10112615
4	0x3e273994	0.16330558
5	0xbee549d9	-0.44782904
6	0xbe623c35	-0.2209328
7	0x3e2b2146	0.16711912
8	0xbe1940ed	-0.14966173
9	0x3edb7450	0.42862177
10	0x3f2a4eb5	0.6652635
11	0xbec0b056	-0.37634534
12	0x3e0923f8	0.13392627
13	0xbd368f26	-0.04457011
14	0xbdbfadc5	-0.09359316
15	0x3e303bd7	0.17210327
16	0xbed71647	-0.42009184
17	0xbd1b0987	-0.037850883
18	0xbce5be14	-0.028044738
19	0xbc1c3f47	-0.009536571
20	0x3ea1eaae	0.3162436
21	0x3e0d91a7	0.13825093
22	0x3dd91019	0.105987735
23	0xbe039d36	-0.1285294
24	0x3d939cb9	0.07207627
25	0x3dbe9410	0.093055844
26	0x3e25d0c0	0.16192913
27	0xbe27dd29	-0.1639296
28	0xbe566e27	-0.20940457
29	0x3e498783	0.196806
30	0x3e5cb097	0.21551739
31	0xbf252fac	-0.64525867
32	0x3ec982b5	0.39357534
33	0xbeff71d5	-0.49891534
34	0xbeadac08	-0.33920312
35	0x3e7b5662	0.24544671
36	0x3e862e93	0.26207408
37	0x3f4f5feb	0.81005734
38	0x3e54a68a	0.20766655
39	0x3c16f3e5	0.009213422
40	0x3ec78bfb	0.38973984
41	0x3e6ca362	0.231092
42	0xbed97a5c	-0.42476165
43	0x3d9d80c9	0.076905794
44	0x3e14e0b1	0.14538838
45	0xbeaea34f	-0.3410897
46	0x3e542bd1	0.2071984
47	0xbf09237d	-0.53569776
48	0x3f34ce2c	0.70627093
49	0xbeb1bb90	-0.3471341
50	0xbf171b03	-0.5902559
51	0xbf4a3fc5	-0.79003555
52	0xbed48e5e	-0.41514868
53	0xbed53461	-0.41641524
54	0xbea8a92d	-0.3294157
55	0xbe3c8d4b	-0.18413274
56	0x3ee09c58	0.4386928
57	0xbf486478	-0.78278303
58	0xbdd351f1	-0.103183635
59	0xbe0ae35a	-0.1356329
60	0x3ee69f37	0.45043346
61	0xbe933f5b	-0.28759274
62	0x3eb3fe7f	0.35155103
63	0x3f19ed35	0.60127574

actor.4.bias f4 [2]
0	0x3d576cd5	0.052594025
1	0xbd10d1ad	-0.035356212
