results/SandingEnvMiddle/ddpg_extension/model/model_parameters_1.pt (torch, 32066 bytes, 22 tensors)

value.0.weight f4 [32, 12]
00000000: 7154 15be 39e2 0d3e 2ec6 49be b41c eabd
00000010: e24d 3abe 1f11 edbd 636a 5abe b998 72bd
00000020: 8f15 9ebd f99f a1bd b410 823e 8afe b03f
00000030: 9a93 ed3d e0f4 25be eb31 d03d db1d 21be
00000040: 3769 ce3d a211 4cbe 99ae 9d3d 445c 703e
00000050: 3781 ea3d e194 643e e95b 903e 86cb 7c3f
00000060: 77c7 9f3b 2014 103e ec76 7cbd 6859 913d
00000070: b297 9fbd 3de9 9a3d 9001 90be 0f0d 50be
00000080: 6ea3 c23c 87eb 57be 603c 13c0 c869 0c3f
00000090: e08f 973c 0a13 f5bd e65c c83e 5113 8c3d
000000a0: dde2 733d 7165 64be ee29 72be 6cbd 083e
000000b0: 7ebd 8dbc 8d9d 7abe d6bf 803e ef9d 9a3f
000000c0: 8476 5a3e 1bb5 7fbc 84ac 25be 71af 103e
000000d0: 20a3 143d 6022 30bd ac9d 753e 8143 853b
000000e0: 9b25 1f3d afaa 373d b564 2540 b01f ea3e
000000f0: d579 2cbd 92c8 74be 9014 46bd 2673 fa3c
00000100: 60b1 013e a307 e73d ecf0 12be d214 1e3e
00000110: a015 50be ba4a 37be 03b9 10bf 1b02 103f
00000120: b58a 05be d2de c6bd e748 2ebd d053 c3bc
00000130: 61f9 6fbc c9e4 823c d69b dabc 8df1 bebb
00000140: dff1 d0bd 9242 3e3e 2566 a1bd c5b9 aebe
00000150: 4407 843d e8bc 47bb 49e3 f53d 7ddf 7f3e
00000160: 9fae 773e 9885 c93d 5ed9 453d 53b8 903d
00000170: 08d9 f0bd d359 a13e 1837 c7bd 67b8 9d3e
00000180: b96c 9f3e 08f9 c53c 572b febb 6ca6 153d
00000190: d754 83be dc4f db3d 40f3 613e cdac 583d
000001a0: e767 563e 9310 74be 351c 0abf 8d0a f63e
000001b0: a692 e1bd 9ebf a23d 8871 8d3c 51a0 a13e
000001c0: 5e0f b63c 60d2 18bb 2238 0ebe 0e27 a5be
000001d0: 30a4 023c bb88 1d3e 6ab1 6dbe 9705 673f
000001e0: a7a9 01be 2117 683d 8a33 fdbd 90db 09be
000001f0: a675 0d3e 180c f2bd 5984 0fbe 409d 77bd
00000200: fa36 073e f29f 1bbe 59f2 ca3e d16d f9bc
00000210: 908e b13d fd58 ed3c b2fc 113e f804 103e
00000220: 1fc8 24bd bafb 4ebd 1ef5 23be db77 33bd
00000230: 96ab 0e3e 834b dc3d 0d5f 9c3e 2b5e eebe
00000240: 26de 9ebe e6d2 473d 83c3 833e 9b13 c13c
00000250: 032f b5bd cd54 f43d 979e ddbd 278d d93d
00000260: cf96 6fbe 926c 8b3d d3d8 943e 640b 1e40
00000270: e76a 673e 543d 2b3e dbf8 d63c d840 b63d
00000280: f491 6d3e 810c 5b3e 001f cc3d 3800 94bc
00000290: 457e 2cbe 3b75 38be 683a 01be d353 81be
000002a0: 3f52 223d 76cb 813e 68a5 6dbe e486 f83c
000002b0: 2a54 7f3e 387b 153e 4768 223d 2d71 873e
000002c0: 0391 853e 9445 30bd 3834 dbbe 1115 c13e
000002d0: 59ec ffbd 6847 283e 506a e03c 6dd5 30be
000002e0: 7578 373e 771f 60bb a2a1 41be d779 b7bd
000002f0: f392 493e ba0f 833c 880b a73e 99b2 0abe
00000300: d1c6 2bbc 84fe 5a3e a889 49be 3abc 30be
00000310: 2743 8f3d 4094 cf3d 05f0 e13d 4623 62be
00000320: 0bf4 2fbe 0c06 7dbe 561c cf3d 704d 3abf
00000330: 3326 12be f21c 693c db2a 01be 4cb6 debc
00000340: cace 763d cabf 20be 718f 9a3d fb54 abbd
00000350: 66cf fa3d 2669 21bd d7bb 19bf 56e3 edbf
00000360: 42fb e7bd f672 893d b4e4 9c3e 80bc 73be
00000370: b019 c9bc 0cf6 943d 0e20 2ebd 32dd 233d
00000380: 3915 1d3e 9193 3fbe 736c df3d 07aa adbf
00000390: 1995 213e 981b 033c d23e bbbd 1b3f 803e
000003a0: f3e3 2a3e ec6a 22bd 8888 143c 0ed7 cd3d
000003b0: 4e31 21be 6ccf 52be 0c99 08bf 5f08 063f
000003c0: 1727 bb3d ef58 0abe e9b8 f7bd a267 de3d
000003d0: 1f69 be3d 9ec6 14be f1f4 59be 910f 12be
000003e0: 4297 53bd 1429 e13b d263 67be 91fa 27bf
000003f0: dc2a de3c 88d2 543c 36ec 39be ad41 eabc
-0.14582993 0.13855828 -0.19704506 -0.11431256 -0.18193772 -0.11575531 -0.21329646 -0.05922768
-0.07718956 -0.078918405 0.25403368 1.3827679 0.116004184 -0.16206694 0.10165771 -0.15734045
0.10078662 -0.19928601 0.076993175 0.23472697 0.11450427 0.22322418 0.28195122 0.9874805
0.004876073 0.14070177 -0.06163685 0.07097131 -0.077926055 0.07564018 -0.28126192 -0.20317481
0.02375957 -0.2108594 -2.30056 0.5484891 0.018501222 -0.11966522 0.39133376 0.06839622
0.059542526 -0.22304322 -0.23648807 0.13353509 -0.017302271 -0.24474163 0.2514636 1.2079448
0.21334273 -0.015607144 -0.1617909 0.14129426 0.03628838 -0.043001533 0.23985928 0.004066885
0.038854223 0.04484051 2.5842717 0.457273 -0.042108376 -0.23904637 -0.048359454 0.030572485
0.1266532 0.112807535 -0.14349717 0.1543763 -0.2032075 -0.178996 -0.56532305 0.5625321
-0.13041194 -0.09710468 -0.042549994 -0.023843676 -0.014646859 0.015978234 -0.026685636 -0.005827135
-0.10202383 0.18580082 -0.07880811 -0.34126106 0.06446698 -0.0030477587 0.12006242 0.24987598
0.24187706 0.09839934 0.048303 0.07066407 -0.117601454 0.31513843 -0.09727305 0.3080475
0.31137636 0.024166599 -0.0077566314 0.036535665 -0.25650665 0.10708591 0.22065449 0.05289917
0.20938073 -0.23834448 -0.5394929 0.48054925 -0.11014299 0.07946704 0.01726605 0.31567624
0.022224125 -0.0023318753 -0.138886 -0.3225636 0.007973716 0.1538419 -0.2321221 0.90242904
-0.12662373 0.056662682 -0.12363346 -0.13462663 0.1381441 -0.11818713 -0.1401533 -0.0604527
0.13204566 -0.15197733 0.39638022 -0.030447872 0.0866977 0.028973097 0.14256552 0.14064395
-0.040229913 -0.050533034 -0.16011474 -0.043815475 0.13932642 0.1075659 0.30541268 -0.4655622
-0.3102886 0.048785113 0.257351 0.023568919 -0.088468574 0.11930237 -0.10821264 0.10622626
-0.23397373 0.068078175 0.29071674 2.4694452 0.22599374 0.16722614 0.02624171 0.08899087
0.23200208 0.21391489 0.0996685 -0.01806651 -0.16845043 -0.1801347 -0.12619936 -0.25259265
0.039629217 0.2535054 -0.23207629 0.030337758 0.2493445 0.14597785 0.039650228 0.26453534
0.26087198 -0.043035105 -0.42813277 0.37711385 -0.124962516 0.1643349 0.027394444 -0.17268915
0.17917044 -0.0034198442 -0.18909314 -0.08958786 0.19684963 0.01599871 0.32625985 -0.13544692
-0.010484413 0.21386153 -0.19681418 -0.17259303 0.0699523 0.10135698 0.11032108 -0.22083768
-0.17182939 -0.24709338 0.101128265 -0.7277441 -0.14272384 0.0142280925 -0.12614004 -0.027186535
0.060255803 -0.15698162 0.075468905 -0.08365818 0.12246589 -0.039406918 -0.60052246 -1.8585002
-0.113272205 0.0671138 0.30643237 -0.23802376 -0.024548382 0.07273492 -0.04251104 0.04000587
0.15340127 -0.18708636 0.10909357 -1.3567513 0.15779532 0.008002184 -0.091428414 0.25048146
0.16688518 -0.03965275 0.009065755 0.10050784 -0.15741464 -0.20586938 -0.5335853 0.52356523
0.09138315 -0.13510488 -0.12095816 0.1085961 0.09297394 -0.14528891 -0.21284844 -0.1426375
-0.051657923 0.006871352 -0.22596672 -0.6561671 0.027120046 0.012989648 -0.18156514 -0.02859577

value.0.bias f4 [32]
00000000: 171f 6abe e679 8dbe 971b 1a3e 4104 153e
00000010: ed7d 8e3d 1f36 ce3e 60e6 893e 5d22 87bd
00000020: 0c60 963e 637d 9b3e 3c1f ddbe 6e5a df3b
00000030: 4ffd 0d3e 1b17 11be 7255 843e 1cf5 d53e
00000040: 4b57 ddbd 2e05 d33d e42b 9dbe a8d0 a4be
00000050: 9cba b2bd 9e3a 98be c8ae 41be 6d7f 633e
00000060: be37 a33d 2bb3 89bb c042 3cbe b6be 6f3d
00000070: 30b5 8abe 90db afbe 1478 803e a34b d3be
-0.22863422 -0.27632064 0.15049587 0.14552404 0.06957612 0.40275666 0.26933575 -0.06598351
0.29370153 0.303691 -0.43187892 0.0068162 0.13866161 -0.1416897 0.2584644 0.41788566
-0.108076654 0.10303722 -0.30697548 -0.32190442 -0.08726999 -0.2973222 -0.1891433 0.22216578
0.07969616 -0.0042022667 -0.18384838 0.058531485 -0.2709136 -0.343472 0.25091612 -0.41268644

value.2.weight f4 [32, 32]
00000000: 099d 0e3e b534 cbbd 360f 4a3d 15a2 dcbd
00000010: e8db ea3d fa46 7d3e 3ec2 88bd f178 083e
00000020: 01c6 b4be 1336 f93d 5598 f93d 8c31 8f3c
00000030: bf76 973d e3d8 99bb b07d ae3d fe2f a0bd
00000040: 52ab 89bd 8fc6 dfbd 19d5 cd3d 0afa da3d
00000050: 5aca 13be 792f d6bd de70 a83d bd38 79bd
00000060: 2851 01bd f5dc 383e 2aba d7bd 9e5f b53d
00000070: 7352 9dbd c453 a53b b5ae 26be 2aa8 2dbd
00000080: 6d6e 0ebe 9590 573e e0d2 133e b0a1 9cbd
00000090: eecc 26be 5ac4 303c 550f 143e 5333 5bbd
000000a0: 1c95 aebc aa29 ffbc a850 32bd 2224 cd3b
000000b0: 82e3 4bbe d5d3 c8bc 1e79 603d 6a40 0f3d
000000c0: 5d44 503d 72f4 48bd 6649 a4be 17eb 6c3d
000000d0: 7a6b a13c 9b1d 163d 7a1d a93d b81d 343d
000000e0: 2e58 33bd daed 02be 2e7e d63c 0736 dd3d
000000f0: 1f2e f63c 414b 27be 3326 e7bd 512d 233d
00000100: f350 a73d 629c 0d3c a1bc ce3d 3759 593c
00000110: afa4 193e 7e58 b2be 699f febd 3354 55be
00000120: 494e 19be a77a 80bd 7c17 143e 22c0 8b3d
00000130: 4b45 ed3d ce61 f3bd e628 4cbc 7f54 913c
00000140: bed0 c1bd f07a dc3c b7f7 1cbe 7aab d53d
00000150: 7d3f 0ab8 ae1b 05be dceb 373e c472 983d
00000160: 26b0 bf3d 5fd8 6fbd b968 70bd acca cabe
00000170: 9a72 23be d9c8 11be c575 c73d ce7d 283e
00000180: 7230 10be 9cb2 4c3d 42b8 9e3c 965b 473c
00000190: 9208 4a3d ddf4 a43d 3f92 2b3e 75d7 6bbe
000001a0: eafc c13d 3ee4 19be 45c9 1bbe cf57 8b3d
000001b0: d1af 893e ddea a5bc d4e3 e83c 9778 e6bc
000001c0: e567 363e 8cfc d23d fdde 1cbe a081 32bb
000001d0: 8c29 95bc 9e35 1abe a56e bfbd b946 9b3d
000001e0: a310 9abd afca 25be f7eb 25be c7fc 1b3e
000001f0: 5f59 323e 76f0 dfbc db5c 00be 42bb 093d
00000200: ed61 993d fb73 d83d 2371 c4bd 0862 acbe
00000210: e97f 513e c599 ebbc 69f9 483e 6c6e 0f3e
00000220: cf56 543c 6fd0 793d cdb9 a5bd ceb1 1f3d
00000230: 3f49 d6bd 8b59 69be 485f 593e ea1c 4b3e
00000240: 1b6f 4cbe 8d19 f33b 941f 083e 591e b63e
00000250: 313b dabd d27d 7f3c 909b fdbb 9d86 223d
00000260: 9c1d c6bd 09a6 393e 43a8 0dbe 4105 50bd
00000270: 6f12 283d 775a 0ebe 371b 48be 0d79 3a3d
00000280: 559a 4fbd 3bfb 513e 36e0 c4bc 38be 2abe
00000290: 14ce 22be b19f 9fbd f49b a13d 394d 623e
000002a0: 77d6 b3bc 7aaf 80bb f2ec 263e 2fb0 433e
000002b0: dcb1 fdba bd23 5cbe 4e94 06be 03e7 173e
000002c0: c674 ecbe a6ab 37be d753 bfb9 bd19 8d3e
000002d0: 04db a1bd ae3d a0bc f08e 923d 8cea 0abe
000002e0: d17d f13d c2f3 0e3e ed44 5bbc c31c adbc
000002f0: a50c 17bd 01d2 b83d 8686 4e3d 383b bfbd
00000300: 7705 19bd e97f d6bd 3ae0 143e 08e6 eabb
00000310: 2d3f 523e 603f 803d 1383 303e 94b7 7ebe
00000320: db4a 3fbe 826b 60bd babc d2bd 9962 493e
00000330: ab06 ec3d 8af2 a13c eb13 82bc fe9d 1fbe
00000340: cc10 81bd 6cdf 3dbd 62f1 a03d 98b7 acbd
00000350: a900 87bd 3538 5fbd ac8c 4ebd c08e c73d
00000360: ee95 543e 244c 233e bd92 a53d 6108 05bb
00000370: 6d9d ad3d c4d7 2f3e f39c 50be 8c3e 84bd
00000380: d2c4 a93c b0c3 01be cc63 8a3d 04e5 30bd
00000390: cf7e 5dbd 5d2f 013e ffb6 bdbc dee0 d5bd
000003a0: 50ac 113e 8a28 e73d 1392 a33c ec66 a83d
000003b0: 1526 dfbb e6db 43be c77b 30be 051f 203e
000003c0: 45fa 8ebd 830f a83d bc0c 5cbe 61be e6bd
000003d0: d1d5 01bc 10ff 1c3d ae1a ec3d 212d 673c
000003e0: d224 603d 6dbc b8bd ca75 163a 09cd b2be
000003f0: 9c0d 85be a51d 33bf d8cf d1bc 8e75 c73d
0.13927092 -0.099221624 0.049330913 -0.10773102 0.11467725 0.24734107 -0.06677674 0.13327385
-0.35307315 0.12168517 0.12187258 0.01747968 0.07395696 -0.0046950444 0.08520067 -0.07821654
-0.0672213 -0.10926544 0.10050411 0.106922224 -0.1443266 -0.104582734 0.08224653 -0.060845125
-0.031571537 0.18053038 -0.10533555 0.08856128 -0.076817416 0.005045386 -0.16277583 -0.042396702
-0.13909312 0.21051247 0.14435911 -0.07648027 -0.16289112 0.010789001 0.14458974 -0.053515743
-0.021311335 -0.031147797 -0.04353395 0.006260411 -0.19911006 -0.024515072 0.054803006 0.03497354
0.050846446 -0.049061246 -0.3208725 0.057841387 0.01970457 0.036649328 0.08257575 0.043973655
-0.043785267 -0.12786046 0.026183214 0.108013205 0.03005129 -0.16337301 -0.11286583 0.03983814
0.08169737 0.008643242 0.10094572 0.013265899 0.15004228 -0.3483314 -0.12432749 -0.208329
-0.1497127 -0.06273394 0.14462084 0.06823756 0.11585482 -0.11883889 -0.012460923 0.017740486
-0.094636425 0.02691409 -0.1532887 0.10433097 -3.2960892e-05 -0.1299884 0.17961067 0.07443765
0.093597695 -0.058555957 -0.05869362 -0.3960775 -0.15961686 -0.14236774 0.0973926 0.1645424
-0.1408098 0.049975023 0.01937497 0.012167832 0.04932458 0.080545165 0.16755007 -0.23031409
0.09472068 -0.15028474 -0.15213497 0.068038575 0.2689195 -0.020253593 0.02842895 -0.028133674
0.1781307 0.10302076 -0.15319438 -0.0027237907 -0.018208288 -0.15059516 -0.09347276 0.07581849
-0.075227045 -0.16190599 -0.16203295 0.15233146 0.17416905 -0.02733634 -0.12535422 0.03362585
0.07489381 0.105689965 -0.095918916 -0.33668542 0.2045895 -0.028759846 0.19626392 0.14006966
0.01296015 0.060989793 -0.08092079 0.038987927 -0.10463189 -0.22788064 0.21227753 0.19835249
-0.19964258 0.0074188174 0.13293296 0.35570028 -0.10655821 0.015593963 -0.0077394918 0.03967916
-0.09673616 0.18129744 -0.13833718 -0.05078626 0.041033205 -0.13901697 -0.19541632 0.0455256
-0.050684292 0.20505993 -0.024032693 -0.16674125 -0.15898925 -0.077941306 0.07891074 0.2209977
-0.02195285 -0.0039271684 0.16301325 0.19110177 -0.0019355374 -0.21498008 -0.13142511 0.14834218
-0.4618284 -0.17936572 -0.00036492824 0.275587 -0.07903102 -0.019560661 0.071561694 -0.13566035
0.11791576 0.13960174 -0.013383132 -0.021131879 -0.036877293 0.0902443 0.05042126 -0.09337467
-0.037358727 -0.10473616 0.1453866 -0.007168535 0.20531912 0.06262088 0.17237501 -0.24874717
-0.18680899 -0.054790027 -0.10289903 0.19666518 0.11524709 0.019768972 -0.015878638 -0.15587613
-0.06302032 -0.04635565 0.0785854 -0.08433455 -0.06591923 -0.054496963 -0.050427124 0.09744024
0.20760319 0.15947014 0.08084629 -0.0020299184 0.08477292 0.17172152 -0.20372371 -0.06457242
0.020723734 -0.12672305 0.06757316 -0.043187156 -0.054076012 0.12615724 -0.023158548 -0.10443281
0.14225888 0.11287029 0.019967115 0.08222756 -0.0068099597 -0.19126853 -0.17234717 0.15636833
-0.06981329 0.082060836 -0.21489233 -0.11266781 -0.007924513 0.038329184 0.11528526 0.014109881
0.054722615 -0.09020314 0.0005739598 -0.34922054 -0.25986946 -0.6996711 -0.025611803 0.09739219

value.2.bias f4 [32]
00000000: f635 673e c4a2 2b3e c8c0 95bd 5e73 013e
00000010: 145a c63d 7b31 933d 2abe 07bd f85a 7d3e
00000020: e489 7e3e c824 373e 7efe b2bd e735 23bd
00000030: 7e7a f33c de78 7fbe 57b5 1c3e e371 c2bd
00000040: b7cf 8f3c a822 a63e 8dc3 bcbe 14fe 7ebe
00000050: 4f15 5bbd 68bd 56bd c681 cebd 8d00 42be
00000060: 38da 793d 3fa8 18bd 9ba2 ef3d a01a 2e3e
00000070: 24a6 84be 02aa c5bc 59f3 cdbc 22fa 3d3c
0.22579178 0.16761309 -0.07312161 0.12641665 0.0968515 0.07187172 -0.03314034 0.24741733
0.24857289 0.17885125 -0.08739947 -0.039846327 0.029721495 -0.24948451 0.1530355 -0.094943784
0.0175551 0.32448316 -0.36867943 -0.2490161 -0.05348712 -0.052426726 -0.10083346 -0.18945523
0.060999125 -0.037269827 0.117009364 0.17002344 -0.25908005 -0.024128918 -0.025140451 0.011595281

value.4.weight f4 [1, 32]
00000000: 374d 5c3d cf99 823c 88a9 8f3d 6ba7 acbd
00000010: b6a6 223d efb0 5b3d 1e50 ad3d 30d2 813d
00000020: 378c bc3d de34 f63d ede7 843c e0d4 8f3d
00000030: 1943 933d c23f 3dbd 12c3 753d b366 e3be
00000040: f080 82bd 71b5 7a3d 7e86 bfbd 5d50 9fbd
00000050: ed0e 253d 857c b3bd 7de3 943d b4f0 23be
00000060: 4569 18bd 41f9 1f3d bd45 d93d c836 4b3d
00000070: bd20 f2bc 6929 7d3d 37f9 a1bd ca22 d0bd
0.053784575 0.015942482 0.070147574 -0.0843037 0.03970977 0.053635534 0.08462547 0.06338918
0.09206431 0.12021802 0.016223872 0.070230246 0.07190532 -0.046203382 0.060000487 -0.4441429
-0.06372249 0.061208192 -0.09351824 -0.07779 0.040297437 -0.087639846 0.072699524 -0.1600979
-0.037209768 0.039056066 0.10609005 0.04961279 -0.029556626 0.06180707 -0.07908862 -0.101628855

value.0.weight f4 [32, 12]
00000000: 8503 15be c51c 0f3e 52e9 49be 2e3a ebbd
00000010: 0329 39be 7e35 edbd 6b3b 5bbe c4dc 75bd
00000020: 15d8 9cbd 7f62 a0bd 58f6 813e efc4 b03f
00000030: 5927 eb3d 182f 25be 7f8a cf3d 2844 21be
00000040: dcbb cd3d 6bc0 4cbe 9fb5 9d3d c45f 703e
00000050: 6d0a ea3d 8659 643e 2b74 903e 1431 7d3f
00000060: 47bd 863b dfcb 0f3e 1bef 81bd e526 903d
00000070: 228b 9dbd 7f5e 973d a774 8fbe 36f3 4ebe
00000080: f4da bd3c 9984 58be 2d41 13c0 3bc8 0c3f
00000090: 3d39 843c 4296 f4bd 116b c83e 29f3 8b3d
000000a0: 5911 7b3d 6481 64be 8f79 71be cb6d 093e
000000b0: 82c7 89bc cb1e 7abe 2850 7f3e 2607 9b3f
000000c0: 8b12 5b3e 42a9 76bc 25c1 25be aa3f 103e
000000d0: 0f5e 133d 9b52 33bd 00f5 743e 955a 603b
000000e0: b47e 213d c803 3a3d 6439 2540 b1a2 e83e
000000f0: 49a8 2ebd 139d 74be 0865 45bd d51c f93c
00000100: a5f3 003e 0228 e73d 8f44 12be 2fc1 1e3e
00000110: 301e 50be 4a53 37be 0fe0 11bf 3c12 103f
00000120: bd3b 05be 33d4 c5bd 0eb6 2ebd 8fe7 bdbc
00000130: 4cf4 5fbc 7125 793c 7e61 d5bc 3508 aabb
00000140: 6d5b d1bd cf0d 3e3e e287 a7bd 736a adbe
00000150: 0eaf 843d 12f9 92bb 6eb6 ef3d 3216 7f3e
00000160: 0f37 783e 599b ca3d e9ad 463d 9d22 913d
00000170: 5a08 f2bd 020e a13e b4d5 c3bd 6ea8 9c3e
00000180: 3b29 a03e d0b1 bd3c b213 debb 4884 153d
00000190: 4375 82be ce22 dd3d dc2d 603e 3c97 513d
000001a0: 1646 583e 6432 72be ca68 09bf 6b0f f73e
000001b0: ece6 debd 2429 a63d bee5 943c 9a2d a23e
000001c0: 6ccd a53c dab8 eeba 0636 0dbe 01a6 a4be
000001d0: 79f0 da3b fa35 1c3e f8b5 6ebe 8ee1 673f
000001e0: c6af 01be b601 6e3d 0034 fbbd 10cd 08be
000001f0: 8b6b 0d3e 2a01 efbd 5e3f 10be 7589 7abd
00000200: e329 073e 09ad 1bbe c498 cc3e bad7 ddbc
00000210: dad4 b03d 9ef3 ee3c fd91 123e 8a66 0e3e
00000220: d82e 24bd d09a 52bd b52c 23be 2a56 30bd
00000230: 0866 0e3e 69c0 db3d 7e88 9d3e e928 eebe
00000240: efb5 9fbe ec34 423d e372 823e f864 c83c
00000250: a100 b8bd cbfa f23d b010 dfbd 0e1b d83d
00000260: b7b8 6ebe bc28 8d3d ad55 943e e0ca 1d40
00000270: 2d65 673e 6b2c 2c3e 7f50 f53c 3354 ba3d
00000280: 593d 6e3e 6de0 5a3e 550e cd3d ff42 90bc
00000290: a5b9 28be 9bb0 34be ff67 02be 0a08 84be
000002a0: ab56 2c3d aa87 833e 4a10 6ebe 350b db3c
000002b0: 47f2 7a3e eceb 143e 1e6e 2f3d e911 893e
000002c0: af3e 843e 5ad8 3abd 841a dbbe 696a bf3e
000002d0: 7573 fdbd beec 273e 40e5 df3c 9bbc 2fbe
000002e0: 6474 383e 803e 61bb dcb2 41be 429c b7bd
000002f0: fede 483e 4be0 7a3c a17a a53e 1617 0bbe
00000300: 1115 1fbc f165 5a3e fc38 49be 5cf1 2fbe
00000310: 9ed1 903d 7317 cf3d ebac df3d d344 63be
00000320: c556 2fbe c668 7cbe 2559 d73d 0599 3abf
00000330: 06b3 12be a571 413c 5f77 02be a4e8 e0bc
00000340: 1263 7b3d 3826 21be 814c 993d eb97 acbd
00000350: 4aa2 fc3d 59c3 1dbd 45a6 19bf a8d1 edbf
00000360: 8b2f e8bd 3e40 8d3d a193 9d3e 68eb 71be
00000370: 7db2 d2bc 492e 983d dac7 2cbd 6635 253d
00000380: fa61 1d3e d046 3fbe da56 e43d af99 adbf
00000390: be05 223e dd1f ac3b c8ca b8bd accb 7f3e
000003a0: 2b7e 2c3e 579f 27bd 0247 df3b 713a c93d
000003b0: ab7c 21be c91a 53be b1c8 08bf 7b20 053f
000003c0: bf7c bd3d 8795 0abe 5b17 fabd 13cf de3d
000003d0: 2ed9 c13d 91f6 13be 1937 5abe b951 12be
000003e0: 84c6 53bd 10af df3b a6ad 66be 6cef 27bf
000003f0: e147 e23c d4ef 513c 1468 3bbe fdd0 eabc
-0.14552124 0.13975818 -0.19717911 -0.11485706 -0.18082051 -0.115824685 -0.21409385 -0.06002499
-0.07658402 -0.07831287 0.25383258 1.3810099 0.11482114 -0.16131246 0.10133838 -0.15748656
0.10045597 -0.19995277 0.07700657 0.23474032 0.1142777 0.22299775 0.2821363 0.9890301
0.004111919 0.14042614 -0.06344434 0.070386685 -0.07692553 0.073910706 -0.28018686 -0.20209965
0.023175694 -0.21144332 -2.300853 0.5499303 0.016140575 -0.11942722 0.39144185 0.068334885
0.06129584 -0.22314984 -0.23581527 0.13420789 -0.016818766 -0.24425809 0.24932921 1.2111557
0.21393792 -0.015055003 -0.1618696 0.14086786 0.035978373 -0.04377995 0.23921585 0.0034233679
0.039427474 0.045413762 2.5816278 0.45436624 -0.042640958 -0.23888044 -0.048192054 0.030409256
0.12592943 0.11286928 -0.14283966 0.15503381 -0.20324016 -0.17902866 -0.5698251 0.56277823
-0.1301107 -0.096596144 -0.04265409 -0.023181705 -0.013669085 0.015206681 -0.026047464 -0.0051889666
-0.10222516 0.18559955 -0.081802145 -0.33870277 0.064787015 -0.004485258 0.117047176 0.2491081
0.24239753 0.098929115 0.048505697 0.0708668 -0.11817999 0.31456 -0.09562245 0.30597252
0.31281456 0.023156077 -0.00677725 0.036503106 -0.2548009 0.10797654 0.21892494 0.05116962
0.21120486 -0.23652035 -0.5367552 0.4825395 -0.108838886 0.08113316 0.018175956 0.31675416
0.020239554 -0.0018213049 -0.1379014 -0.321579 0.0066814986 0.15254965 -0.23311603 0.90578544
-0.12664708 0.0581071 -0.122657776 -0.13359475 0.13810556 -0.11670144 -0.14086673 -0.061166245
0.13199572 -0.15202726 0.399603 -0.027080406 0.08634348 0.0291689 0.14313503 0.13906303
-0.040083736 -0.051417172 -0.15935023 -0.043050922 0.1390611 0.10730059 0.30768198 -0.46515587
-0.31193492 0.04741375 0.25478277 0.024462208 -0.08984495 0.11864241 -0.10891855 0.10552035
-0.2331265 0.06892535 0.28971615 2.4655075 0.22597189 0.16813819 0.02994561 0.09098091
0.2326559 0.21374674 0.10012499 -0.017610071 -0.16477068 -0.17645495 -0.12734984 -0.25787383
0.04207484 0.2568944 -0.23248401 0.026738742 0.24506484 0.14543122 0.042829625 0.26771477
0.25829074 -0.045616485 -0.42793667 0.37385872 -0.12375537 0.16398904 0.027330995 -0.17161791
0.1801315 -0.0034369528 -0.18915886 -0.08965351 0.19616315 0.015312265 0.3232012 -0.13583025
-0.0097096125 0.2132795 -0.19650644 -0.17181915 0.07071231 0.101118945 0.10921653 -0.22194223
-0.17122944 -0.24649343 0.1051505 -0.7288974 -0.14326105 0.01180688 -0.12740849 -0.027454682
0.061373778 -0.15737236 0.07485295 -0.084274136 0.12335642 -0.038516376 -0.6001933 -1.8579607
-0.11337193 0.06897019 0.30776694 -0.23624957 -0.025719875 0.07430703 -0.04218278 0.040334128
0.15369406 -0.18679357 0.11149378 -1.3562526 0.15822503 0.005252822 -0.090230525 0.24980038
0.16845004 -0.040923443 0.0068138847 0.098256 -0.15770213 -0.20615686 -0.5343123 0.52002686
0.09252309 -0.13533603 -0.12211486 0.1087934 0.09465252 -0.14449526 -0.2131008 -0.14288987
-0.05170299 0.006826289 -0.22527179 -0.65599704 0.027622165 0.012813527 -0.18301421 -0.028664107

value.0.bias f4 [32]
00000000: d944 69be 9797 8dbe 3339 193e 5574 143e
00000010: 4c45 8f3d 80f4 cd3e 558e 893e 0a5b 88bd
00000020: aa39 963e 30e5 9a3e 6d8b dcbe 63fb d03b
00000030: 115f 0f3e eb8d 0ebe d68c 823e 44cf d53e
00000040: 78b9 dcbd ae01 d23d 342e 9dbe 8b44 a3be
00000050: 3cdb b2bd 33bd 97be 8973 41be b255 643e
00000060: 6149 a43d 7b2a 92bb d07d 3cbe 27f2 733d
00000070: c59b 8abe d475 aebe 3bb2 813e faf7 d1be
-0.2278017 -0.27654716 0.14963226 0.14497502 0.06995639 0.402256 0.26866403 -0.06657989
0.2934087 0.3025298 -0.43075123 0.006377624 0.14001109 -0.13921325 0.25498074 0.41759694
-0.10777563 0.102542266 -0.30699313 -0.31888232 -0.08733222 -0.29636535 -0.1889173 0.22298315
0.080218084 -0.0044606305 -0.18407369 0.059557106 -0.27071968 -0.3407427 0.25331292 -0.41009504

value.2.weight f4 [32, 32]
00000000: 781f 0e3e 50f0 cdbd 1701 473d cd98 e0bd
00000010: 1f35 e73d 3566 7e3e 3b18 86bd d4f1 073e
00000020: 45a8 b5be ed15 f93d b911 fc3d 9898 8b3c
00000030: 400a 983d b2be ccbb 6449 b23d 9635 9cbd
00000040: 7265 88bd e9b0 dcbd b5ea cf3d 72e5 d93d
00000050: 6c03 14be 89af d3bd 6236 aa3d d7b0 79bd
00000060: 6e98 fabc 69ed 383e e387 d1bd f21e b33d
00000070: 0645 9dbd f447 773b 51a1 27be 37a5 28bd
00000080: 6bc0 0ebe 98f8 573e 25ab 133e f10b 9bbd
00000090: e40c 26be 7623 303c cbb8 133e 6b3c 53bd
000000a0: 1c19 adbc 192c f5bc 4585 33bd 31c4 c23b
000000b0: 981d 4dbe 3bd6 d9bc 1c2c 673d 3d15 133d
000000c0: c717 513d b601 47bd cb2d a3be 291a 693d
000000d0: a82e a33c ba1f 183d 738e ac3d 0d07 333d
000000e0: bbcc 26bd 134a 02be b219 dd3c cb07 de3d
000000f0: d5c2 f23c 4d1d 28be 88c0 eabd dde9 293d
00000100: 560e a73d 5f80 133c 9e27 cd3d d259 783c
00000110: 70d4 193e 93a5 b2be 44dd fdbd f3ee 54be
00000120: b484 19be 5def 7ebd 5c45 133e ac70 8c3d
00000130: e499 ed3d a3d5 f2bd 40c5 2fbc d30c 8b3c
00000140: 16b9 c2bd b74a da3c 93a6 1dbe b37c d73d
00000150: 7951 e6b9 60f9 04be 0049 383e 0ce3 983d
00000160: 6013 bf3d c25a 71bd c1db 71bd 8efd ccbe
00000170: dee6 22be a0b5 11be 287d c53d 3b15 283e
00000180: 62a7 0fbe e840 4a3d 5422 9e3c 0d26 3f3c
00000190: ca5a 483d 5ef7 a43d 4306 2d3e c4be 69be
000001a0: e0b8 c03d 794a 19be 9b7e 1abe 5f30 8b3d
000001b0: 9f7a 893e 4223 8fbc 2bc1 e83c 288e eabc
000001c0: bcf6 353e 25b5 d53d fa06 1ebe e133 24bb
000001d0: 7f4d 8fbc d9fd 17be 4657 bebd f54e 9c3d
000001e0: eef8 99bd 69ec 26be db51 25be 9571 1d3e
000001f0: 588a 323e 0252 ddbc 07b6 02be 67be 0c3d
00000200: 933c 9a3d 9302 d83d 8160 c3bd 67d8 acbe
00000210: acb2 513e c770 f1bc 5f5e 483e cf36 0f3e
00000220: 1be4 583c a493 7b3d 64ed a6bd 7b82 213d
00000230: 434d d7bd 3b2f 69be f092 593e e7bb 4a3e
00000240: 28e8 4bbe 4e0a ff3b a156 093e 186b b53e
00000250: 16c7 d9bd 5c42 7e3c 4982 04bc 5ed0 223d
00000260: 3844 c6bd e3ca 393e cbf7 0dbe 8774 50bd
00000270: 4769 293d ef1b 0ebe f09f 48be a374 3c3d
00000280: 53db 54bd 45f7 503e 7712 d4bc 8090 2bbe
00000290: 6f19 22be 8050 9dbd 83b8 a03d d82e 623e
000002a0: 243d b7bc 67ad 7bbb 050d 253e 4ba6 423e
000002b0: c847 40bb 3b4b 5cbe ba33 06be aea3 163e
000002c0: 063f edbe 9703 38be c0a0 dbba 0efb 8d3e
000002d0: 7b38 a1bd ed2a a2bc 07a4 923d 75da 0abe
000002e0: 1005 f43d cbc3 0e3e 355e 65bc be2a b0bc
000002f0: 25f8 1abd bf2e b73d a6ae 4a3d 166a bebd
00000300: 1828 1abd 8d9e d6bd d778 153e 2e03 e6bb
00000310: 431a 523e e2cc 803d e869 303e 1572 7fbe
00000320: 6560 3ebe 3b2d 60bd e518 d1bd 3d4b 493e
00000330: 6868 ed3d 072c 913c d293 87bc 85e1 1dbe
00000340: 78ec 81bd 956c 3cbd 5a89 a53d 2aa5 aebd
00000350: e489 87bd dbde 61bd 9402 4cbd 94ad c63d
00000360: 4760 553e 1962 233e 5643 a03d fb5c 0cbb
00000370: c102 ae3d 88f3 2f3e 71ee 4fbe 1559 82bd
00000380: 22d1 a73c 9617 02be 7818 8a3d 7860 2dbd
00000390: dee5 61bd 7fa7 003e 47de c2bc e811 d6bd
000003a0: 4e65 123e 3893 e73d f6d5 a33c 856a a43d
000003b0: 4885 0cbc c3da 44be 4c55 2ebe 5521 203e
000003c0: 749e 8fbd b0f4 a83d 99b7 5bbe aee9 e1bd
000003d0: c7a6 03bc c44d 1e3d 3544 ea3d 465d 563c
000003e0: 7de8 613d 869f b8bd 0346 973a 6d4f b2be
000003f0: 9360 85be 2df2 32bf 2a2a e0bc 93ac c93d
0.13879192 -0.100556016 0.048585024 -0.109666444 0.11289429 0.24843676 -0.0654759 0.13275844
-0.35479942 0.12162385 0.12308068 0.017040536 0.0742383 -0.0062483186 0.087054044 -0.07627408
-0.06659974 -0.107759304 0.10152189 0.10639466 -0.1445443 -0.10336215 0.08311154 -0.060959663
-0.030590262 0.18059315 -0.102309965 0.08746137 -0.07679181 0.0037732096 -0.16370131 -0.041173186
-0.13940589 0.21090925 0.14420755 -0.07570637 -0.16215855 0.010750642 0.14425962 -0.05157129
-0.021130137 -0.029928254 -0.043828268 0.005943798 -0.2003082 -0.02659141 0.05643855 0.035908926
0.051048066 -0.048585616 -0.31870875 0.056909714 0.019919708 0.03713963 0.084256075 0.043707896
-0.04072259 -0.1272357 0.026989792 0.1084133 0.029633919 -0.16417427 -0.11462504 0.041482795
0.08157031 0.009002774 0.10017322 0.015158134 0.15022445 -0.34891948 -0.12395719 -0.20794277
-0.14992028 -0.062239993 0.14381927 0.06857428 0.11601618 -0.11857154 -0.01072818 0.016973889
-0.095079586 0.026646955 -0.15395574 0.10521831 -0.0004392972 -0.12985754 0.17996597 0.07465181
0.09329867 -0.058924444 -0.059047464 -0.40037197 -0.15908381 -0.1422944 0.09643012 0.16414349
-0.14028695 0.049378306 0.019303478 0.011666787 0.04891471 0.08054994 0.1689692 -0.22826678
0.09410262 -0.14969815 -0.15087359 0.067963354 0.26851365 -0.017472867 0.028412422 -0.028632239
0.17769903 0.10434941 -0.15432349 -0.0025055336 -0.017493008 -0.14842929 -0.0929399 0.07632247
-0.07518183 -0.16301121 -0.16144507 0.1537536 0.17435586 -0.027016643 -0.1276475 0.03436127
0.07531085 0.10547366 -0.09539891 -0.33758852 0.20478314 -0.029472722 0.1956725 0.13985752
0.013237978 0.061420098 -0.081507474 0.039431076 -0.105127834 -0.22771923 0.21247458 0.19798242
-0.1991278 0.007783211 0.13411953 0.3543327 -0.10633676 0.015518751 -0.008087703 0.039749496
-0.096809804 0.18143801 -0.13864057 -0.05089238 0.041360166 -0.13877843 -0.19592261 0.04600967
-0.051966976 0.20406826 -0.025887711 -0.16754341 -0.15830015 -0.0768137 0.07847693 0.22088182
-0.022368021 -0.0038402916 0.16118248 0.19008748 -0.002933966 -0.21513073 -0.1310567 0.14710876
-0.46337146 -0.1797012 -0.0016756281 0.27730602 -0.07872101 -0.01979586 0.07160192 -0.13559897
0.11915028 0.13941877 -0.0139995115 -0.021504756 -0.037834305 0.08944463 0.049482964 -0.09297578
-0.037635893 -0.1047946 0.14596878 -0.007019422 0.2051783 0.06289078 0.172279 -0.24945863
-0.18591459 -0.054730635 -0.102098264 0.19657607 0.115921795 0.01772119 -0.016549978 -0.1541806
-0.06343931 -0.04600199 0.08082838 -0.08527596 -0.066180974 -0.055144172 -0.049807146 0.09701076
0.20837508 0.1595539 0.07825343 -0.0021417725 0.08496619 0.17182744 -0.20305802 -0.06364647
0.020485464 -0.1270431 0.06742948 -0.042328328 -0.05515086 0.12563895 -0.02378763 -0.10452634
0.14296457 0.113073766 0.019999485 0.080281295 -0.008576699 -0.19224076 -0.17024726 0.15637715
-0.070126444 0.082497954 -0.21456756 -0.11030899 -0.008035368 0.03864838 0.11438791 0.013083762
0.05515336 -0.09014802 0.0011541251 -0.34826222 -0.26050243 -0.6990078 -0.027363855 0.09847369

value.2.bias f4 [32]
00000000: 1d38 673e d994 2b3e 8b96 95bd 891b 023e
00000010: bda4 c53d 26ba 913d f83e 09bd c3ee 7b3e
00000020: b18f 7d3e a294 363e 1f75 b3bd af90 24bd
00000030: 9496 f13c e04c 7fbe 9e34 1c3e e36d c2bd
00000040: 128f 923c fd00 a63e 6046 bcbe 0ddc 7dbe
00000050: 56bd 65bd ea89 54bd 5980 cfbd e310 42be
00000060: fa0f 7c3d 3746 19bd faea ed3d ba0e 2d3e
00000070: 8afe 84be f5ea c5bc a436 cbbc 8034 4a3c
0.2258 0.16756 -0.073041044 0.12705816 0.09650562 0.07115583 -0.033507317 0.24602799
0.24761845 0.17830136 -0.087625735 -0.040177044 0.029490747 -0.24931669 0.15254447 -0.094936155
0.017890487 0.3242263 -0.36772442 -0.24790974 -0.056088768 -0.051889338 -0.10131902 -0.18951754
0.061538674 -0.037420478 0.11617084 0.16900149 -0.25975448 -0.024159888 -0.024806328 0.012341619

value.4.weight f4 [1, 32]
00000000: c784 5f3d c37d 883c 1a15 903d 8dcb acbd
00000010: a3e1 233d 86da 583d b07d ad3d cc70 813d
00000020: a01b bc3d d01c f53d 6ed7 833c 12d2 903d
00000030: 0b29 943d 1620 3fbd fc5d 723d 76be e2be
00000040: de54 82bd 8f49 793d b00c c1bd fd3b a0bd
00000050: 382c 273d 3dfa b2bd 3c9a 943d 77ac 23be
00000060: d05f 19bd 4cd3 1d3d 4df3 da3d 662f 493d
00000070: a9ed eebc 9993 7d3d ad09 a2bd 9980 d0bd
0.054569986 0.01666153 0.07035275 -0.08437262 0.040010106 0.052942775 0.084712386 0.063203424
0.091849566 0.11968386 0.016093936 0.07071318 0.07234391 -0.04666146 0.05917166 -0.44285935
-0.063638434 0.060861167 -0.09426248 -0.07823942 0.040813655 -0.087391354 0.0725598 -0.15983759
-0.03744489 0.038531587 0.10690937 0.04911747 -0.02916606 0.06190834 -0.07912002 -0.10180778

actor.0.weight f4 [32, 10]
00000000: 0bd1 dcbd caa5 933e f8cd 093f c258 26be
00000010: 7e0c cabd 24be a7be afdb 143d afd5 053e
00000020: 1362 933e 2eb2 0c3e 11b9 cdbe 5122 88be
00000030: 98f7 1dbc 0766 5abe aa4d c83e d1de 49be
00000040: e786 663e 01f9 78be ce41 c63e a972 a13d
00000050: f798 fe3d 9796 18be 51e4 68be e3cf b8be
00000060: 791e bb3d 42a2 853e 73d8 b93e 3c0b 0d3f
00000070: b19d 3dbe 38c3 9a3d 2a80 1fbf 7759 953e
00000080: 36dc adbd 584c 5ebe d42f 083e 3227 06be
00000090: ca84 55be 88ec d63d 81ce 80be 6588 81be
000000a0: c070 a63e 4072 ddbd c2aa 01be 296e 043f
000000b0: 4b3a b5be eec9 983e 0e91 7c3e 099a 9a3e
000000c0: 349c c83d 338e 403e 1ecb 64be cc45 033f
000000d0: 5ce3 a6be f414 f9bd b837 a5be c046 143e
000000e0: 966c 55be 3f98 e4be 01a2 0f3e b10b 8e3e
000000f0: a83a 5abe cf6e ac3d ed42 743e 0cb0 a53e
00000100: b829 9d3e ca81 6c3e 5874 b83e 04bd be3e
00000110: edb0 d9bd ba9e fbbe e76a e53d d21e 47be
00000120: 281e ae3e 7f67 163c a81e b0be a17e a3bd
00000130: 7ce5 963e 98be 8bbe 1315 8b3e 8f5a b73e
00000140: 5069 b0be 19ec b73d e86d fd3e a32f aebd
00000150: 29ae 77be c2c8 7f3e efc4 ed3b 4e1a b2be
00000160: f1df c43e 2c34 34be d218 1ebd 4601 a9be
00000170: 99c9 67be 7eb3 f0bd 189e 243f 6656 f6bd
00000180: 406d 883e be7c 9c3e 2e10 15be 71ce b23d
00000190: 7775 323d daf8 b03e 7a63 b63e d8d8 6a3e
000001a0: 1750 ad3e 3f96 debe a5c8 123e 49aa 12be
000001b0: 181f 3dbe 8b5d 96bd 0a88 35be 852c aebe
000001c0: 40dd 21be 9cf8 6b3e 84d4 01be 6532 58be
000001d0: 22bb 80be 3644 c83d cc45 a33e ecfc ac3e
000001e0: 1581 8dbe 4fa2 dd3e e855 ff3e 5f98 3b3e
000001f0: 6bbc 4d3e c534 4a3e 817b cbbd cfcb 113e
00000200: 3102 2e3d 036f 11be 0e44 9cbd bbf0 d33d
00000210: a179 083f 2298 da3d 8bb0 483e 83cd 48be
00000220: 09ea 46be d295 b5be e377 79be 813e b7be
00000230: d3df 133e 499b 523e de35 dcbd b89e 643e
00000240: 4d34 253f a291 403e 9ab1 43be 8e38 9dbc
00000250: 6e76 8f3e b4fd bf3e 2262 dab9 f48f 073e
00000260: 19bf 28be 4ab9 d63e b14a 1e3e f440 4cbe
00000270: 33a4 c0be d52d 99be 9de1 a8bd 6e85 593d
00000280: 3e8a 90be 8c77 6ebd 5cb3 27bd ef4c 24be
00000290: 1553 1ebf 15fc 0bbd 25da aebe 79a3 c2be
000002a0: 4d0c 3fbd 62bc 35be 32ba b8bd eb96 a83b
000002b0: e42f ea3d 507b 103f 9001 953d 2f9c a83e
000002c0: ac8c 123e 4ffa 703d 5066 243e d652 a73e
000002d0: acbb a83e 2212 a63e 25f8 d73e 4b36 8fbe
000002e0: 7bfa 7fbe b2c3 a43b a38e 0a3e c4f1 88be
000002f0: 804e fd3d a55c 363e f75a 963e fdd0 b63e
00000300: 563a a13e 3cad aabe 06fa d23e eaa2 603e
00000310: fa46 443e 5b1d f1bc da4b 90be 9381 3e3d
00000320: d98e a13e d340 ddbd 83ea e73d c8c2 043f
00000330: 125c 84bd b329 b73b 8761 14be 5916 2ebe
00000340: edf8 683d dfce b8be 481b bdbe fc38 42be
00000350: 2726 953e 42a7 803e f520 9fbe 5617 2e3e
00000360: 20a9 03bf 1111 40be 4ed4 7a3e ca08 163d
00000370: 6b64 cd3d 76f5 94be 314b d83e 8ea1 de3e
00000380: 03b2 813e 0823 0bbe 8b47 873d 7f32 d83d
00000390: 282b 953d 1f3e 263d 0c26 94bc e6ec 9b3c
000003a0: 8949 8fbe 5075 edbe 5aa8 80be 78cf 9dbe
000003b0: 9593 9ebe 0c8c 0bbb ba00 a0be 6607 75be
000003c0: b3a7 31be 2d05 52be e322 033f a50e 58be
000003d0: 0faa 183d a02b 043c 8dc0 3fbe edf8 813e
000003e0: 7994 6c3e 4762 423e 63ee c0bc 5f95 483e
000003f0: 1915 72be 2b9e 443d 2384 603e 3c9e f63e
-0.10782059 0.28837425 0.5382991 -0.16244796 -0.09865664 -0.32762253 0.03634232 0.13069795
0.28785762 0.13739845 -0.40180257 -0.2658868 -0.0096415505 -0.21327983 0.39121753 -0.19713904
0.22512399 -0.24313737 0.3872208 0.07883198 0.124315195 -0.14901195 -0.22743346 -0.36096105
0.091366716 0.26100355 0.3629795 0.5509527 -0.18517186 0.07556766 -0.6230494 0.2916982
-0.084892675 -0.2170881 0.13299495 -0.1310089 -0.20851436 0.104943335 -0.2515755 -0.25299373
0.32507896 -0.10812807 -0.12662795 0.5173059 -0.35396037 0.2984156 0.24664709 0.30195644
0.097954184 0.18804245 -0.22343108 0.51278377 -0.32595336 -0.121621996 -0.32269073 0.14480114
-0.20842203 -0.44647405 0.14026643 0.27743295 -0.21311438 0.084195726 0.23853655 0.32360876
0.3069589 0.23096386 0.36026263 0.37253582 -0.10629449 -0.49144536 0.11202031 -0.19445351
0.34007382 0.009179949 -0.3439839 -0.07983137 0.29471958 -0.2729385 0.27164516 0.35811278
-0.34455347 0.08980579 0.49497914 -0.0850518 -0.2418753 0.24978927 0.0072561423 -0.34785694
0.38452104 -0.17598027 -0.03859789 -0.33008784 -0.22635497 -0.117529854 0.6430373 -0.12028198
0.2664585 0.3056392 -0.14556953 0.08730782 0.043569054 0.3456486 0.3562277 0.22934282
0.33850166 -0.43474004 0.14334352 -0.14322771 -0.18468893 -0.07342061 -0.17727676 -0.3401834
-0.15807056 0.23044056 -0.12678725 -0.21112974 -0.2514277 0.09778635 0.31889188 0.33786714
-0.27637544 0.43287894 0.4987023 0.18319844 0.20091407 0.19746692 -0.09935666 0.14237903
0.04248256 -0.14202504 -0.07630168 0.1034865 0.5331059 0.10673548 0.19598596 -0.19609646
-0.19425215 -0.35465866 -0.2436214 -0.35789874 0.14440851 0.20567049 -0.10752462 0.22326171
0.6453293 0.18805555 -0.19110718 -0.019192006 0.28020042 0.37498248 -0.00041653315 0.13238508
-0.16479148 0.4193824 0.1545818 -0.19946653 -0.37625274 -0.2991778 -0.08246157 0.053105764
-0.2823047 -0.058219478 -0.040942535 -0.16044973 -0.61845523 -0.03417595 -0.34150806 -0.38015345
-0.04664259 -0.17747644 -0.09019889 0.005144944 0.11434916 0.5643816 0.07275689 0.3293166
0.14311475 0.058832463 0.16054654 0.32680386 0.32955682 0.3243571 0.42181507 -0.2797111
-0.24997894 0.0050282115 0.13530974 -0.26746953 0.12368488 0.17808779 0.29366276 0.3570632
0.3148982 -0.33335292 0.41206378 0.21937147 0.191677 -0.029432943 -0.2818287 0.04651029
0.31554297 -0.1080338 0.113240264 0.5185971 -0.064628735 0.0055896877 -0.14490329 -0.17000712
0.05687802 -0.3609533 -0.36934876 -0.1896705 0.2913067 0.25127608 -0.31079832 0.1700109
-0.5142994 -0.1875651 0.2449505 0.036629476 0.10028919 -0.29093522 0.42244866 0.4348263
0.25331125 -0.13587582 0.066054426 0.10556506 0.07283622 0.040586587 -0.018084548 0.01903386
-0.2798579 -0.46378565 -0.25128442 -0.3082235 -0.3097197 -0.0021293191 -0.31250554 -0.23928604
-0.17349128 -0.20509787 0.5122511 -0.21099336 0.037271556 0.008067042 -0.18725796 0.25385228
0.23103513 0.18982802 -0.023551172 0.1958823 -0.2364086 0.048002403 0.21925406 0.48167598

actor.0.bias f4 [32]
00000000: b8c1 ac3e 0e16 c8bd 84f0 a6be 25b1 72bc
00000010: 29dc e6bd f74b a33e bb78 143e 6de8 08bd
00000020: e272 603e 5bfd 05be ab33 eb3d e8c2 8e3e
00000030: 5362 82bd 8f6a e6bd f1c9 1dbc 90c0 e13c
00000040: 08e9 873e c9b0 593e 5eb1 fdbc 0012 8fbe
00000050: 6a84 28be 4e9e 0d3e d2e5 2fbe a2c2 a6bc
00000060: 811c be3e 17e4 68be 756d c7be 9d49 813e
00000070: ab04 4c3d bdb2 22be 4abf 1d3e a577 84be
0.33741546 -0.097698316 -0.32605374 -0.014812742 -0.11272461 0.31893894 0.1449918 -0.033424783
0.21918824 -0.13084929 0.11484464 0.27883077 -0.0636641 -0.11250793 -0.009630666 0.027557641
0.26544976 0.21258844 -0.030968364 -0.2794342 -0.16456762 0.1382992 -0.17177513 -0.02035648
0.37131122 -0.2274326 -0.38950697 0.25251475 0.04980914 -0.15888496 0.15405002 -0.25872532

actor.2.weight f4 [32, 32]
00000000: 8486 603e c60d 7bbf 0747 dbbd 91db 3e3e
00000010: bb8b b93c 7bfe 833d f282 9bbe b691 103e
00000020: ff97 a9bd 2e96 c6bd 6e18 453e af60 d5bd
00000030: 9a0e 73bd f966 983d 084a 093c 70eb ed3d
00000040: e579 2a3e 05bb 883d 0197 863c 37f5 07bd
00000050: 0e94 803e efd6 e5bd f50c 863e e0c9 db3d
00000060: b8bb 44be f5c7 54be e551 e83d 502e 0c3d
00000070: e8e2 3f3e 4469 aa3e 60a2 27be 3930 c1bd
00000080: b13d ff3d a2a8 953d 2771 bb3c 95c4 163e
00000090: a685 67be de42 1d3d f38e b5be bbf5 ed3d
000000a0: c25d 033e 9aaa 4f3e b4d7 ca3e 00af 413e
000000b0: 40dc 4e3e 62c5 ffbd bb88 d2bc 3232 7d3a
000000c0: 2191 86be a394 e8bc 638d a73e 2713 993e
000000d0: 9d84 b7bd b35b bbbd fb05 143e 5343 6a3e
000000e0: 3aee 5b3e 9138 eb3d ef67 babd 9ea1 033e
000000f0: 3f00 bc3d 4b38 e5bc a9e3 8cbe 8424 0dbd
00000100: 254a 633e 2033 1bbe 8b24 0fbd d722 93be
00000110: 2400 943e c05a cbbd 7537 403e 96d1 653e
00000120: 555f 62be 247e 253e b408 40be 4ac1 cebd
00000130: 630b 8dbe d207 0cbe e67e 1e3e f054 693d
00000140: 11a8 153e 2f06 bd3e 633c 4cbd 5443 a13b
00000150: 5560 8c3d 9e28 b93c bc1e 5f3e bafc cfbd
00000160: 57a5 b93b cad4 5c3d c967 293e 2571 7cbe
00000170: 84c7 5f3e 2efb a23d 9876 1b3e ead0 a13d
00000180: 882a 0f3d 53e6 6a3e 4da7 9e3d 5c37 783d
00000190: 7df0 9dbe 8dde ff3b aa78 fdbe 7a37 23be
000001a0: 38b7 cb3e 9939 d03d 65a8 933e c4a5 283c
000001b0: 570f 5f3e 24f1 b43c 74dd a5bd 89ee 1e3b
000001c0: 6234 84be 8a10 3d3e ac3b 213e 7633 d43d
000001d0: 1878 d73d 5e10 0e3e 3b72 0d3d 3555 d1be
000001e0: 0045 a13d 7d94 c43c 29fe 963d 192f 543d
000001f0: 40ad 4f3e 80b6 58be 1942 043e ed49 50be
00000200: 7877 a4be e945 1fbe 8bde 9a3e 04ed 2b3e
00000210: 94dc 683d 642f 80be 9ec1 613e 01b2 9b3d
00000220: e927 3dbf e280 c63e 57d9 bc3d 5024 03be
00000230: 6f7d bbbe fe54 173e 2c59 d6bd 3247 5d3d
00000240: 405c a83d 5991 d23d 8c9c 95be d4d2 cc3d
00000250: 1934 b9bd d06b 67bf 0360 3e3e fe15 433e
00000260: 023d 643d 1767 7e3e 1d51 50be 30bc 92bf
00000270: 9870 9a3e a0d2 853e cf0c f9bd 5bbd 9c3e
00000280: 2186 47bb 3eb8 cfbd 5f8d 9bbc 86bb 383e
00000290: 305c 9a3c b65f 9cbc 8e6c 88be 09e5 5abe
000002a0: a03f 30bf f642 c8bd 43ab d2be 55d4 cd3c
000002b0: b6ca b53e 4341 813d 5438 96bd 89a8 763e
000002c0: eb38 62bd 2502 8bbe 341b 83be 312f 50bd
000002d0: a012 823d 2973 3dbe db11 08bf 9fb2 923e
000002e0: 89cd a4bc 5ec0 ad3e 8ddf e2bc adba 2c3e
000002f0: 3764 6f3e 24da bd3d 3824 19be 62ef d23a
00000300: 023c 52bf fa36 a1bd 07a6 8bbd d1d5 a3bd
00000310: fec7 6a3d a926 1b3e 9f71 453d 749c 103e
00000320: 157c eb3b 747a 303e ad70 14be 8f80 9cbe
00000330: b6fd 8cbe de39 233e d5a1 913d 766e dbbc
00000340: 0b00 c93c 778e 4c3e 59ab 0cbe 2768 1f3d
00000350: 4cc0 d2bc 5d1b 79be 9296 9a3d 0240 5b3e
00000360: 2b04 2a3d 1921 093e 1071 073e 7afe 1bbe
00000370: a452 a3bc 28e7 e93d c51f 89be 8036 4b3e
00000380: 4cb9 323c 1e48 2ebe 0280 463e 5fea f93c
00000390: 2f71 37bd 4b6e 0bbc 4ccc dabe 915e ec3d
000003a0: 3d35 a83e 1a5c a8be 6a6c c9bd 5e79 23be
000003b0: c83b bbbd 0fc3 873e a8cc a9be 2b78 06bd
000003c0: 7695 393e fba9 843d 1617 f0bd 61b6 b1be
000003d0: 30a3 fcbd 3bd9 8a3e 8945 a4bd 1102 183d
000003e0: def2 1f3e 2483 cebe d744 433e 49e7 833e
000003f0: 094b 9ebe 5656 04bf 1af3 1bbd 47d7 8bbb
0.21926314 -0.9806789 -0.10706907 0.18638445 0.022649636 0.06445023 -0.3037334 0.14118084
-0.08280944 -0.09696613 0.192476 -0.104188316 -0.059340097 0.074415155 0.008379467 0.11617172
0.16648062 0.06676296 0.016429426 -0.03319284 0.25112957 -0.11222636 0.2618176 0.10731864
-0.19212234 -0.20779403 0.11343745 0.034223855 0.18738902 0.33283436 -0.16370535 -0.09433026
0.124629386 0.07307555 0.022881104 0.14723428 -0.22609577 0.038393848 -0.35460624 0.11619135
0.12828735 0.20279923 0.39617693 0.18914413 0.20201206 -0.1248882 -0.025699964 0.0009658664
-0.262826 -0.028391188 0.32725057 0.29897425 -0.08960841 -0.091483496 0.14455406 0.22877245
0.21477595 0.114853986 -0.09101855 0.12854621 0.091797344 -0.027980944 -0.2751744 -0.034458652
0.22196253 -0.15156221 -0.03494696 -0.28737518 0.28906357 -0.099294186 0.18771155 0.22443232
-0.22106679 0.161614 -0.1875332 -0.10095461 -0.2754775 -0.13674858 0.15478095 0.05696577
0.14614893 0.3691878 -0.049862277 0.004921356 0.068543114 0.022602376 0.21789068 -0.10155626
0.005665462 0.05391387 0.16543497 -0.24652536 0.21853453 0.07958065 0.15181959 0.07901175
0.03495267 0.22939424 0.07746754 0.06059967 -0.3084754 0.0078085125 -0.49506122 -0.15939131
0.39788222 0.10167236 0.28839412 0.010293428 0.21783195 0.022087641 -0.080988795 0.0024251065
-0.25821215 0.1846334 0.1574542 0.10361378 0.10520953 0.13873431 0.034532767 -0.4088532
0.07874489 0.023996586 0.07372696 0.05180273 0.20280933 -0.21163368 0.12915839 -0.203407
-0.32122397 -0.15554012 0.30247912 0.16789633 0.056850985 -0.25036156 0.22046515 0.07602311
-0.73889023 0.38770205 0.09221142 -0.12806821 -0.36619136 0.14778516 -0.10466227 0.054022975
0.0822072 0.10281629 -0.29220998 0.1000115 -0.0904314 -0.90398884 0.18591313 0.19051358
0.055722244 0.24844013 -0.20343442 -1.146368 0.30164027 0.26137257 -0.12160646 0.30613217
-0.0030444937 -0.10142563 -0.01898831 0.18040285 0.018842787 -0.019088607 -0.2664532 -0.21376432
-0.68847084 -0.09778397 -0.41146287 0.025125662 0.3550622 0.06311276 -0.073349625 0.24087729
-0.055230062 -0.27150074 -0.25606692 -0.050826255 0.06351209 -0.18500961 -0.53152245 0.28651902
-0.020117538 0.33935827 -0.027694488 0.16868086 0.23378073 0.09270123 -0.14955223 0.001609307
-0.82122815 -0.07871814 -0.068187766 -0.079997666 0.057319634 0.15151466 0.04820406 0.14122182
0.0071864226 0.17234212 -0.14496107 -0.30566832 -0.27537316 0.15940043 0.07110945 -0.02678607
0.024536153 0.19976221 -0.13737239 0.038917687 -0.02572646 -0.24326845 0.0754825 0.21411136
0.04150788 0.13391532 0.13226724 -0.15233794 -0.019936867 0.11421043 -0.2678205 0.19845009
0.010908436 -0.17019698 0.19384769 0.030507265 -0.044785675 -0.008510183 -0.4273399 0.115414746
0.32853118 -0.32882768 -0.098351315 -0.15964267 -0.09142262 0.26516005 -0.33163953 -0.032829445
0.18123421 0.06477734 -0.11723153 -0.34709457 -0.12335813 0.2711886 -0.08021075 0.037111346
0.1561999 -0.40334427 0.19069229 0.25762394 -0.30916622 -0.5169424 -0.038073637 -0.0042676064

actor.2.bias f4 [32]
00000000: 8df2 10be 175e 9b3d 61bf 8dbc 8f59 113e
00000010: 045d 523e 5ba0 84be 854a d7bd 5776 9fbd
00000020: ea34 543e 9a53 bdbd 98b4 6e3e 3b19 813d
00000030: 3c95 4b3e 52a4 a03d 727f 843d dc21 75bb
00000040: 09da 2b3e 1257 ae3d 62b7 eebd 20ec 373d
00000050: 7534 203e b5e4 0b3e d1cd 1bbe 8379 403e
00000060: 1d92 bfbd a46c 0abe 9f38 4d3d d1c5 9b3d
00000070: 5d5a 2a3d 368a 0abc 052f 173e 220a b6bd
-0.14155026 0.075863056 -0.01730317 0.1419432 0.20543295 -0.25903592 -0.1051226 -0.077862434
0.2072331 -0.09244461 0.23311079 0.063036405 0.19881147 0.078438416 0.06469621 -0.0037404215
0.16782393 0.08512701 -0.11656071 0.04490292 0.15645011 0.13661464 -0.15215231 0.18796353
-0.09354041 -0.13518006 0.050102826 0.0760609 0.041590083 -0.008455804 0.1476403 -0.088886514

actor.4.weight f4 [2, 32]
00000000: c859 b83e efcc 893e c95d 9cbd 8e32 e13d
00000010: 9e16 f3be 4659 563e 1425 1dbe 49b9 53be
00000020: 36bd 603e 00da 00bf c106 5fbb ae8c 52be
00000030: bfe4 34be ad08 6e3e 8d5c 993e 952f 99be
00000040: 1033 0ebf 42de 433e 8750 073f 67bf 15bf
00000050: e697 a5be 16b2 1ebd 8d05 16be 078b bf3e
00000060: a376 98bb 3d16 6b3f f3ae 5c3e ffb2 213e
00000070: a653 163d 7eb7 3e3f 74bd 4fbe 0b2a ba3e
00000080: ddea 5e3e 3c0c 5fbc f3af 8c3e f358 acbe
00000090: 654b 343f 6f56 54bf cfb6 983e 1a4a 5dbf
000000a0: 4801 493e b828 55bf f32b 19bf aae2 e93e
000000b0: a280 31bf 5d78 053e a601 17bf 08ed 1bbe
000000c0: d64d 58bf 8c5e acbe 064e 683e e846 4dbe
000000d0: cdf8 f9be f6f6 13bf c1de cebe 4f46 b8be
000000e0: 6cad cfbe 9e30 543f 97c8 c23d 1e6d 9b3e
000000f0: 4e97 853c 15dd 363e 7128 45bf c939 92be
0.36005998 0.26914164 -0.076350756 0.10995971 -0.47478193 0.20932493 -0.15346175 -0.2067615
0.21947178 -0.5033264 -0.0034031125 -0.20561478 -0.17665385 0.23245497 0.29953423 -0.29919115
-0.55546665 0.19127753 0.5285725 -0.5849518 -0.32342452 -0.038744055 -0.14650555 0.37410757
-0.0046528145 0.9183081 0.21551113 0.15790938 0.036700867 0.74498737 -0.20287114 0.363602
0.2176928 -0.013613757 0.2747799 -0.33661613 0.7042754 -0.8294439 0.29826972 -0.86441195
0.19629395 -0.83265257 -0.59832686 0.45680743 -0.69336903 0.13034196 -0.5898689 -0.15227139
-0.8449377 -0.33665884 0.22686014 -0.2004658 -0.48822632 -0.5779871 -0.40404323 -0.3599114
-0.40561998 0.82886684 0.09510916 0.30356687 0.0163075 0.17857774 -0.77014834 -0.28559712

actor.4.bias f4 [2]
00000000: be74 7a3e 97fa e1bd
0.24458596 -0.11034124
