results/SandingEnvMiddle/ddpg_extension/model/model_parameters_0.pt (torch, 32066 bytes, 22 tensors)

value.0.weight f4 [32, 12]
0	0xbe5aed90	-0.21379685
1	0x3de20797	0.11036604
2	0xbe1ddad4	-0.15415508
3	0x3d0c4f63	0.034255397
4	0x3bec82b5	0.00721773
5	0x3e492065	0.19641264
6	0x3ed4bd3f	0.41550633
7	0x3ed52571	0.41630128
8	0x3d0321a3	0.0320145
9	0x3ad128b4	0.0015957565
10	0xbff7d829	-1.9362842
11	0x3f5caa74	0.8619759
12	0xbc30f8ef	-0.010801538
13	0xbd911286	-0.07083611
14	0xbe3c0982	-0.18363002
15	0xbe196ab7	-0.14982115
16	0x3da86690	0.08222687
17	0x3e3030d2	0.17206123
18	0x3e4a93f9	0.1978301
19	0xbcfee6f7	-0.031115992
20	0xbdc923bd	-0.0982127
21	0x3dd23a09	0.102649756
22	0x3e929d7b	0.28635773
23	0xbb3a324d	-0.002841133
24	0x3e138293	0.14405279
25	0x3e3f6ea9	0.18694557
26	0x3cb610e6	0.022224855
27	0x3cbefe3f	0.023314593
28	0xbd3dc94a	-0.046334542
29	0xbcf52f71	-0.029929848
30	0xbe220c89	-0.15825094
31	0x3e21d0c3	0.15802293
32	0xbbefdf98	-0.0073203556
33	0xbe965dc5	-0.29368415
34	0x402ef4b7	2.7336862
35	0x3f8c4229	1.095769
36	0x3dec0669	0.1152466
37	0x3e8031d4	0.25038016
38	0xbda293e8	-0.07938367
39	0x3e026549	0.1273395
40	0x3d6b5a0d	0.057458926
41	0x3ea38a7c	0.31941593
42	0xbe3f7a29	-0.18698944
43	0x3d550211	0.052003924
44	0x3e4222d3	0.18958597
45	0xbe604045	-0.21899517
46	0xbea8ef8b	-0.32995257
47	0xbf3dbf3c	-0.74119925
48	0x3e1301de	0.14356181
49	0xbcdb3ee4	-0.026763387
50	0x3df94de5	0.1217306
51	0x3dbdf74f	0.09275686
52	0xbc43f2cc	-0.011959743
53	0xbe5c108d	-0.21490689
54	0x3e86f12d	0.26355878
55	0xbe4f1118	-0.20221364
56	0x3e022fa2	0.12713483
57	0xbe14848e	-0.1450369
58	0xbfb23357	-1.3921918
59	0x3e909147	0.28235838
60	0x3d167518	0.036732763
61	0xbdccc170	-0.09997833
62	0x3c4bf9b4	0.012449671
63	0xbcc188c4	-0.023624785
64	0x3bc682e5	0.0060580843
65	0xbaee5bdc	-0.0018185335
66	0x3db54e17	0.08852785
67	0x3ddbcf2b	0.107328735
68	0x3dc6be8f	0.09704315
69	0x3e5d75f3	0.21627025
70	0x3f323310	0.69609165
71	0xbfb96801	-1.4484864
72	0x3cbe3976	0.023220759
73	0xbc143532	-0.009045886
74	0x3dc48fce	0.09597741
75	0x3d1dc4ef	0.03851789
76	0x3e9cb88f	0.30609557
77	0xbe60faf8	-0.21970737
78	0xbe433dbe	-0.19066522
79	0xbc03ad21	-0.008036883
80	0xbd5bb45c	-0.0536388
81	0x3d0051ce	0.031328015
82	0x3f9fbf44	1.2480245
83	0xbf2fc6cb	-0.6866271
84	0x3e79783a	0.24362269
85	0x3bd1cce3	0.006402598
86	0xbc4b2509	-0.012398967
87	0x3e8afa89	0.27144268
88	0x3e088606	0.13332376
89	0x3e34d762	0.17660287
90	0x3e679203	0.22614293
91	0x3d94266c	0.07233891
92	0x3e194f45	0.14971645
93	0x3e08d025	0.13360651
94	0xbf81ec50	-1.0150242
95	0x3f147626	0.5799278
96	0xbde2dd7b	-0.110774
97	0x3e050a43	0.12992196
98	0xbb2df92a	-0.0026546218
99	0x3c6a5751	0.014303044
100	0xbabd0320	-0.0014420487
101	0x3ba65980	0.005076587
102	0x3e242d32	0.16032866
103	0xbe16fb28	-0.14744246
104	0x3ddda9b9	0.10823388
105	0xbda81dd1	-0.08208812
106	0xc0334abd	-2.8014367
107	0x3fd7cf19	1.6860076
108	0xbe4a6562	-0.19765237
109	0x3e2fb0e3	0.1715732
110	0xbc4afd05	-0.012389426
111	0xbc6120c4	-0.013740722
112	0x3e6cc271	0.23121049
113	0xbe107ba9	-0.14109673
114	0x3ebaf8f0	0.3651805
115	0xbcc5da3a	-0.02415191
116	0xbe89d444	-0.26919758
117	0xbbf14225	-0.0073626214
118	0x3dbf4d47	0.09340911
119	0x3fac8521	1.3478128
120	0xbe115760	-0.14193487
121	0x3d808373	0.06275072
122	0x3e46a3f5	0.19398482
123	0x3d0aaaba	0.033854224
124	0x3b9b490e	0.0047389334
125	0xbbab11b6	-0.005220617
126	0x3deb2d2a	0.11483224
127	0xbe60c2dc	-0.21949333
128	0x3ebb124c	0.36537397
129	0x3dbe242e	0.092842445
130	0xbefb67cd	-0.4910263
131	0xbf9b412d	-1.2129265
132	0xbd241b72	-0.040065236
133	0x3e1be90d	0.1522562
134	0x3cb10dad	0.021612966
135	0x3e6e148d	0.23250027
136	0xbe103514	-0.14082748
137	0xbd91e66b	-0.07124027
138	0x3d0c349a	0.034229852
139	0xbda691fd	-0.08133314
140	0x3e3be614	0.18349487
141	0xbe5b7f12	-0.21435192
142	0xbd983165	-0.07431296
143	0xbff2dadc	-1.897304
144	0xbd43569e	-0.047690026
145	0xbe286507	-0.16444789
146	0x3e0f8cfe	0.14018628
147	0x3d8beff7	0.06832879
148	0x3e0c856d	0.13722773
149	0xbce02535	-0.027361492
150	0xba8ada3f	-0.0010593607
151	0xbe41fa58	-0.18943155
152	0xbe1a0722	-0.15041783
153	0x3e647b0c	0.22312564
154	0x3d5b1633	0.053487968
155	0xbfee8bc8	-1.8636408
156	0x3dfd1fea	0.12359603
157	0x3cbe29d7	0.02321331
158	0xbda2a1bd	-0.079410054
159	0x3e5bcdf9	0.21465291
160	0x3d03548d	0.032063056
161	0x3dab6e1c	0.08370611
162	0xbe7f38d7	-0.24924026
163	0xbe69e2cd	-0.22840424
164	0x3e8c5386	0.27407473
165	0x3d97fe6a	0.074215725
166	0x3f45b896	0.7723478
167	0x3f08c6e3	0.5342848
168	0xbcf95117	-0.030434174
169	0x3e18eb98	0.14933622
170	0xbe09b985	-0.13449676
171	0xbd6f2a0c	-0.05838971
172	0x3b9b5a78	0.0047410093
173	0xbe524063	-0.20532374
174	0x3d171f1c	0.036894903
175	0xbe0ecff1	-0.13946511
176	0x3c9f0b7e	0.01941466
177	0x3d78fbb4	0.060786918
178	0xbfaab869	-1.3337528
179	0xbe64b9c0	-0.22336483
180	0xbe1c14d7	-0.15242325
181	0x3ea0e568	0.31425023
182	0x3c85bfcf	0.016326813
183	0x3db3286a	0.08747943
184	0xbcf78f0e	-0.030219581
185	0xbda0d1d5	-0.07852522
186	0x3dd1cc38	0.1024403
187	0xbd2479cf	-0.04015523
188	0x3d4c2d25	0.04984774
189	0x3e9bb349	0.3041022
190	0x3f514cec	0.81758
191	0x3e8726b1	0.26396707
192	0x3e147dd6	0.14501128
193	0xbe162cfb	-0.14665596
194	0x3e28aa81	0.16471292
195	0xbbd6af97	-0.0065516937
196	0xbe095f9a	-0.13415375
197	0xbd8b53dc	-0.06803104
198	0xbe5650ab	-0.2092921
199	0x3bd32100	0.006443143
200	0xbe722588	-0.2364713
201	0xbd4af6ca	-0.049551763
202	0x3e324e0c	0.17412585
203	0xbf4bcf7e	-0.7961348
204	0xbd81c19c	-0.06335756
205	0xbe2eaeb0	-0.17058825
206	0x3dacab33	0.08431091
207	0x3e82371b	0.25432667
208	0x3bb1a982	0.0054218182
209	0xbc4e473c	-0.012590226
210	0xbd34c697	-0.044134703
211	0x3db74015	0.089477696
212	0x3cf2c1a8	0.029633358
213	0x3eb896b9	0.36052492
214	0xbea1552e	-0.315103
215	0x3e089071	0.1333635
216	0x3e15a6f4	0.14614469
217	0x3d1bbdd8	0.038022846
218	0x3d4a68d1	0.049416367
219	0x3df83f08	0.12121397
220	0x3e61495b	0.22000639
221	0x3d739315	0.05946644
222	0xbddbcd67	-0.10732537
223	0x3dc9ce3d	0.0985379
224	0xbabec047	-0.0014553153
225	0x3e9108bb	0.28326973
226	0x3fc7f144	1.5620503
227	0x3fc30e19	1.5238677
228	0x3e09c0f0	0.13452506
229	0xbdff2655	-0.12458483
230	0xbe377091	-0.17914034
231	0xbdb723b3	-0.08942356
232	0xbd342d32	-0.043988414
233	0x3e8b255b	0.27176937
234	0x3d89d89a	0.067307666
235	0xbe816ed3	-0.25279865
236	0x3de0382e	0.109482154
237	0xbe000a49	-0.12503923
238	0xbea0d096	-0.31409138
239	0xbf2e76f4	-0.6815026
240	0x3d4e22ec	0.050326273
241	0xbe67510e	-0.22589514
242	0x3c2923ab	0.010323445
243	0xbe031af1	-0.12803246
244	0x3e6ad849	0.22934069
245	0xbda319aa	-0.079638794
246	0x3dcd6ec0	0.100308895
247	0xbe682f94	-0.226744
248	0xbe7d5cb3	-0.24742393
249	0x3db08f81	0.08621121
250	0x3ef810df	0.48450372
251	0x3ed0c8cd	0.407782
252	0xbdda07e9	-0.1064604
253	0x3da200bd	0.07910297
254	0x3dd19cc3	0.10234978
255	0x3c581d9a	0.013190651

value.0.bias f4 [32]
0	0xbd98d093	-0.074616574
1	0xbe5aee10	-0.21379876
2	0x3e21f62f	0.15816568
3	0xbd68c97a	-0.056832768
4	0x3e775c5e	0.24156329
5	0x3e36b1e5	0.17841299
6	0x3e8efeca	0.27928764
7	0xbd86291f	-0.06550812
8	0xbe2397b2	-0.15975836
9	0xbec3f838	-0.38275313
10	0x3da4badd	0.08043454
11	0x3d16cbe3	0.036815535
12	0xbde0aa9e	-0.10970043
13	0x3e9b664a	0.30351478
14	0xbec139fb	-0.37739548
15	0x3f540c8e	0.82831657
16	0x3bc17518	0.0059038512
17	0xbe443309	-0.19160093
18	0x3dd01984	0.10161117
19	0xbd92f103	-0.071748756
20	0xbe57fc14	-0.21092254
21	0xbd6b75f6	-0.057485543
22	0x3e9b8114	0.30371916
23	0xbe0b5057	-0.13604866
24	0xbed291fc	-0.41127002
25	0x3dabea9b	0.08394357
26	0xbe467cbb	-0.19383518
27	0xbcda91dd	-0.026680881
28	0xbda6fc89	-0.08153636
29	0xbe982108	-0.297127
30	0x3eecb0f4	0.46228755
31	0xbd94ef64	-0.07272223

value.2.weight f4 [32, 32]
0	0x3e638221	0.22217609
1	0x3d9ae2f5	0.0756282
2	0xbdafe7d5	-0.0858914
3	0xbc5c5878	-0.013448827
4	0x3d94afd9	0.07260103
5	0xbe46f63f	-0.19429873
6	0x3da08b13	0.07839026
7	0x3d5b330a	0.05351547
8	0xbec5292f	-0.38507983
9	0xbe514f7f	-0.20440482
10	0xbd7264de	-0.059178226
11	0x3d7597da	0.05995927
12	0xbc310e63	-0.010806653
13	0x3d49edc1	0.049299005
14	0x3a9b6286	0.0011854924
15	0x3c86f7aa	0.016475517
16	0x3e30c521	0.17262699
17	0x3d92f2c3	0.071752094
18	0x3db0bd33	0.08629837
19	0x3db54d3f	0.08852624
20	0xbbeeee17	-0.007291566
21	0xbe658e12	-0.22417477
22	0x3e2e6b06	0.17033014
23	0xbe81d48d	-0.25357476
24	0x3d92a2b8	0.071599424
25	0xbe265f01	-0.16247179
26	0x3d10c0d3	0.03534014
27	0xbe956a7d	-0.29182807
28	0xbd5dad68	-0.05412045
29	0xbde16aa3	-0.110066675
30	0xbba93ca8	-0.0051647015
31	0x3d0791f1	0.033098165
32	0x3ccc7b3a	0.024961103
33	0x3de4d59b	0.111735545
34	0x3dc91985	0.098193206
35	0xbce822a5	-0.028336832
36	0x3cca38fd	0.024685377
37	0x3e508792	0.20364216
38	0x3e0bbc7a	0.13646117
39	0x3dfd4731	0.12367094
40	0x3d8eb87b	0.069687806
41	0x3d8142c0	0.0631156
42	0x3da8c075	0.08239833
43	0xbda3084b	-0.07960566
44	0xbdfc6dcc	-0.123256296
45	0x3df6681f	0.12031578
46	0x3e047660	0.12935781
47	0xbe17565a	-0.14779034
48	0xbd52b190	-0.051438868
49	0xbe3ffe79	-0.18749417
50	0x3e199fc1	0.15002348
51	0xbd4d550d	-0.05012994
52	0x3e18c3b6	0.14918408
53	0xbe1f0d2b	-0.15532367
54	0xbe2e3f25	-0.17016275
55	0xbda24799	-0.079238124
56	0xbe2a241b	-0.16615336
57	0xbd9d0bd2	-0.0766827
58	0x3da2509b	0.079255305
59	0x3e16425f	0.14673756
60	0xbcf083d1	-0.02935973
61	0x3df9fb49	0.12206132
62	0x3e26f85c	0.16305679
63	0xbe32d7ea	-0.17465177
64	0x3d1e24c8	0.038609296
65	0xbd34613f	-0.044038054
66	0xbe6882a8	-0.22706091
67	0x3e616019	0.22009315
68	0x3e3cd9c2	0.18442443
69	0xbe562be5	-0.20915182
70	0xbe5b1bf3	-0.2139738
71	0x3e2c315d	0.16815706
72	0xbda65a81	-0.08122731
73	0x3d1980aa	0.03747622
74	0xbd979f01	-0.074033745
75	0x3e4f3027	0.20233212
76	0xbc99ec81	-0.018789532
77	0xbe160c50	-0.14653134
78	0xbd6b7988	-0.057488948
79	0xbe1d6d3b	-0.153737
80	0xbda9b85b	-0.08287116
81	0xbd8eae3e	-0.06966828
82	0xbdc52755	-0.096266426
83	0xbe1084b5	-0.14113124
84	0x3dae33f1	0.08506001
85	0x3e28da3c	0.164895
86	0xbd97cf6b	-0.07412609
87	0xbda7737b	-0.08176323
88	0x3d1b9514	0.03798397
89	0x3e459795	0.19296105
90	0xbd525c32	-0.051357456
91	0x3e34cfb8	0.17657363
92	0x3d9aa669	0.075512715
93	0xbd4df5a8	-0.050283104
94	0x3e06d6e3	0.1316791
95	0x3dd58621	0.10425974
96	0x3da2ce87	0.07949548
97	0xbda40a65	-0.08009795
98	0x3e1cac4b	0.153001
99	0x3c9b20d8	0.01893656
100	0xbe6c7d56	-0.23094687
101	0x3dab1717	0.083540134
102	0xbdd74a14	-0.10512176
103	0xbd2b9ce8	-0.041897684
104	0x3e7271c8	0.23676217
105	0xbe6667b3	-0.22500496
106	0xbdb07b5a	-0.086172774
107	0x3da92f47	0.082609706
108	0xbe37a595	-0.17934258
109	0x3e077876	0.13229546
110	0x3d3f3a2c	0.046686336
111	0xbe711d55	-0.23546346
112	0x3ce47793	0.027889049
113	0x3e39bcfb	0.18138497
114	0x3d3d7b4a	0.046260156
115	0x3dd9cf42	0.106352344
116	0x3da3a436	0.07990305
117	0xbe052212	-0.13001278
118	0xbe165dc1	-0.14684202
119	0xbd709ec2	-0.058745153
120	0xbe82c4d6	-0.255408
121	0x3e3ebbfe	0.18626401
122	0x3c786c4a	0.015162537
123	0xbd12260a	-0.035680808
124	0x3de18760	0.11012149
125	0x3e383967	0.17990647
126	0x3dd4ec0f	0.10396587
127	0x3d9898cd	0.074510194
128	0x3d1bbc29	0.03802124
129	0xbc342c77	-0.010996929
130	0xbea4fbd1	-0.3222337
131	0xbd3731da	-0.044725277
132	0xbd4bbd3c	-0.049741015
133	0x3cebb5fb	0.028773298
134	0x3e518484	0.20460707
135	0xbd69adc3	-0.057050478
136	0xbe2ab0cb	-0.16669004
137	0x3d89db82	0.06731321
138	0x3cb5c6cd	0.022189522
139	0x3e28782c	0.16452092
140	0x3e0295d7	0.12752472
141	0xbd153c89	-0.036434684
142	0x3c3886a2	0.011262568
143	0x3dac370a	0.08408935
144	0x3ce01fab	0.02735885
145	0xbe3f6cc9	-0.18693842
146	0x3c15f3d1	0.009152369
147	0xbc24202f	-0.010017439
148	0xbde15bfa	-0.11003871
149	0xbe69b773	-0.22823887
150	0xbd860b0a	-0.06545074
151	0xbdab3d9d	-0.08361361
152	0x3dcb1b98	0.099173725
153	0xbe84aaa7	-0.25911447
154	0x3d3c5bf6	0.04598614
155	0xbd951e8f	-0.07281219
156	0x3e44a0c2	0.19201949
157	0x3b67783d	0.003531947
158	0x3d50815d	0.05090462
159	0xbd2d472a	-0.042304195
160	0x3e03c7a1	0.12869121
161	0xbd0d85ba	-0.03455136
162	0xbe8111f0	-0.25208998
163	0xbd95b40d	-0.073097326
164	0x3baf2e20	0.0053460747
165	0xbc79070c	-0.015199434
166	0x3dac5a1d	0.08415625
167	0xbd9a7cba	-0.07543321
168	0xbea0e76c	-0.3142656
169	0xbe227d9d	-0.1586823
170	0x3c55a04f	0.013038709
171	0x3e1a5d09	0.15074553
172	0x3ca5981e	0.020214137
173	0x3e3826fa	0.17983618
174	0xbe226946	-0.15860471
175	0x3e35da63	0.17759089
176	0x3e1e2e8d	0.15447445
177	0xbdc61783	-0.09672453
178	0x3e1e4803	0.15457158
179	0x3d6689b2	0.05628366
180	0x3e218b96	0.15775904
181	0xbdd57d48	-0.10424286
182	0xbe489ca2	-0.19591
183	0x3dfe3e22	0.12414195
184	0xbe37bee7	-0.17943917
185	0x3c8cb149	0.01717438
186	0x3d0a2336	0.033724986
187	0xbdbe9448	-0.09305626
188	0x3e29db73	0.1658762
189	0x3ce7d105	0.02829791
190	0xbd3a9036	-0.045547687
191	0x3c2fd4d7	0.010731897
192	0x3d36b649	0.044607434
193	0x3d28c280	0.041201115
194	0x3e1cf305	0.1532708
195	0x3dddf867	0.108383946
196	0xbca9f027	-0.020744396
197	0xbd05751f	-0.0325824
198	0x3e1e137d	0.15437122
199	0x3da5a8b2	0.08088817
200	0x3da914fd	0.08255956
201	0x3e049574	0.12947637
202	0x3c020e1d	0.007937935
203	0x3cc479ff	0.023983954
204	0xbe77d4e3	-0.24202304
205	0x3df09bb9	0.11748452
206	0xbe5bad79	-0.21452893
207	0x3d713c29	0.058895264
208	0xbded97f3	-0.11601248
209	0x3d5d3151	0.05400211
210	0xbda12b61	-0.07869602
211	0xbceaba99	-0.02865343
212	0x3d945f20	0.07244706
213	0xbd3bf270	-0.045885503
214	0xbee31794	-0.44353926
215	0xbe4de750	-0.2010777
216	0xbda19d89	-0.078913756
217	0x3e1b442f	0.15162729
218	0x3e26c9de	0.16287944
219	0xbe78015c	-0.24219269
220	0xbdd21ecf	-0.102597825
221	0x3cf783f1	0.030214282
222	0x3da2414e	0.07922612
223	0x3e45780e	0.19284078
224	0xbe8ad31b	-0.27114186
225	0x3e353171	0.17694642
226	0xbcfee0f5	-0.031113127
227	0xbe1991a3	-0.14996962
228	0x3d682e6c	0.056684896
229	0xbcc02076	-0.023452979
230	0x3d440088	0.04785207
231	0x3e2b7293	0.16742925
232	0x3e3c1386	0.18366823
233	0xbe8853ab	-0.26626334
234	0x3dae90c7	0.08523708
235	0xbdad2d0d	-0.084558584
236	0x3e63d97a	0.2225093
237	0xbd817990	-0.06322014
238	0xbd03e8af	-0.032204326
239	0x3cab045d	0.020876104
240	0xba6f4eb5	-0.0009128855
241	0xbea7a717	-0.32744667
242	0xbd8852c7	-0.066564135
243	0x3d0c9f53	0.03433163
244	0xbba5653a	-0.0050474675
245	0xbde39258	-0.11111897
246	0x3e15c4dd	0.14625879
247	0xbd7e87bd	-0.06214117
248	0x3e0c2cdf	0.13688992
249	0xbe0b4c22	-0.13603261
250	0xbdd3d110	-0.1034261
251	0x3df226fe	0.118238434
252	0x3d1a78ea	0.03771297
253	0x3e500cb2	0.20317343
254	0x3af791b4	0.0018888027
255	0x3d336f12	0.043807097

value.2.bias f4 [32]
0	0xbda74c84	-0.08168891
1	0x3e206ecc	0.15667266
2	0xbdfdf12c	-0.123995155
3	0x3ec2fe66	0.38084716
4	0x3e6e83b8	0.23292434
5	0xbdcce050	-0.10003722
6	0x3eb4564b	0.35222086
7	0x3c7c7701	0.015409232
8	0xbc133987	-0.008985884
9	0x3dd7c358	0.10535306
10	0x3e5c5296	0.21515879
11	0x3d6c9442	0.057758577
12	0xbe3ca602	-0.18422702
13	0x3e48c1cd	0.19605179
14	0x3db0de70	0.086361766
15	0x3e1ce33a	0.15321055
16	0xbd925083	-0.07144263
17	0x3de7eb06	0.11324124
18	0x3d1510b4	0.036392882
19	0x3e98783f	0.2977924
20	0x3d981dbe	0.07427548
21	0x3da86d4d	0.082239725
22	0xbeaee51e	-0.34159178
23	0xbdecd434	-0.11563912
24	0x3eab7acc	0.33492124
25	0x3d97b54d	0.07407627
26	0xbd479ab3	-0.048731517
27	0x3d67e632	0.056616016
28	0x3e05b1a8	0.13056052
29	0xbe4847a2	-0.19558576
30	0x3e730d0f	0.2373545
31	0x3e09a849	0.13443102

value.4.weight f4 [1, 32]
0	0xbcf1abdb	-0.029500892
1	0x3d899cd9	0.067193694
2	0xbd97f4e5	-0.07419757
3	0x3da22e38	0.07918972
4	0x3dc1698c	0.094439596
5	0xbd56ac10	-0.052410185
6	0x3d86c979	0.065813966
7	0x3d84173c	0.06449744
8	0x3d071bd6	0.03298553
9	0xbee23853	-0.44183597
10	0x3dae584b	0.08512934
11	0xbe04e153	-0.1297658
12	0xbca85890	-0.020550042
13	0x3d311ea2	0.043242104
14	0xbe16eae0	-0.14738035
15	0x3d17036d	0.0368685
16	0xbe044c2b	-0.12919681
17	0x3d0b4b97	0.034007635
18	0xbd60658a	-0.054784335
19	0x3d841f05	0.06451229
20	0x3d615a8d	0.055017997
21	0x3dc7a31c	0.097479075
22	0xbd8c0621	-0.068371065
23	0xbd8cd168	-0.068758786
24	0x3d3ce778	0.046119183
25	0xbec3c37f	-0.3823509
26	0xbd9a872e	-0.07545315
27	0x3d9bee5f	0.07613825
28	0x3d852725	0.06501607
29	0x3d5a6742	0.05332113
30	0xbd908f05	-0.07058529
31	0x3d87e008	0.066345274

value.0.weight f4 [32, 12]
0	0xbe5b3ed6	-0.21410689
1	0x3de15be5	0.110038556
2	0xbe1ddec2	-0.15417007
3	0x3d02d3dd	0.03194033
4	0x3c0ed9fb	0.008718963
5	0x3e47f368	0.19526446
6	0x3ed4ddd2	0.41575485
7	0x3ed54604	0.4165498
8	0x3d07f425	0.03319182
9	0x3b35bc41	0.0027730616
10	0xbff76343	-1.9327167
11	0x3f5c9140	0.86159134
12	0xbc328ef4	-0.0108983405
13	0xbd944f80	-0.07241726
14	0xbe3a4a3b	-0.18192379
15	0xbe19626f	-0.14978956
16	0x3da602d8	0.08106011
17	0x3e356f9b	0.17718355
18	0x3e490f69	0.19634785
19	0xbd0585b8	-0.032598227
20	0xbdc64e64	-0.096829206
21	0x3dd50f62	0.10403325
22	0x3e94ee1a	0.29087907
23	0xbba207b9	-0.0049447683
24	0x3e1296ac	0.1431529
25	0x3e3fa2ae	0.18714401
26	0x3cb8ced8	0.022559568
27	0x3cc13eb6	0.023589473
28	0xbd3e0378	-0.046390027
29	0xbcfae22f	-0.03062543
30	0xbe219e41	-0.15783025
31	0x3e223f0b	0.15844361
32	0xbbfc2790	-0.007695146
33	0xbe968ee3	-0.2940589
34	0x402ec2c8	2.7306385
35	0x3f8bea07	1.0930794
36	0x3deb15b6	0.114787504
37	0x3e80a745	0.25127617
38	0xbda4f337	-0.08054202
39	0x3e00b396	0.12568507
40	0x3d6a3204	0.057176605
41	0x3ea41002	0.32043463
42	0xbe3ec45b	-0.18629591
43	0x3d57d94a	0.052697457
44	0x3e437761	0.19088508
45	0xbe5eebb7	-0.21769606
46	0xbea82898	-0.3284347
47	0xbf3d8a75	-0.74039394
48	0x3e12d619	0.14339484
49	0xbcc9ba22	-0.024624888
50	0x3df5ef86	0.12008576
51	0x3dbbf21e	0.091770396
52	0xbc527868	-0.01284609
53	0xbe5c1e11	-0.21495844
54	0x3e85b455	0.26114145
55	0xbe518abb	-0.20463078
56	0x3e03cb12	0.12870434
57	0xbe12e91e	-0.1434674
58	0xbfb24544	-1.3927388
59	0x3e912cfe	0.2835464
60	0x3d1860a8	0.037201554
61	0xbdccde71	-0.10003365
62	0x3c571447	0.013127393
63	0xbcbd6f0e	-0.023124244
64	0x3bd6061b	0.0065314895
65	0xba33c248	-0.0006857258
66	0x3db53fbd	0.08850048
67	0x3ddbc0d1	0.10730136
68	0x3dc64b66	0.0968235
69	0x3e5d3c5d	0.21605058
70	0x3f31b6f4	0.6941979
71	0xbfb9834a	-1.4493191
72	0x3cc07c95	0.023496905
73	0xbc12debd	-0.008964238
74	0x3dc73d74	0.09728518
75	0x3d22e798	0.039771646
76	0x3e9c8d3b	0.305765
77	0xbe62b2ab	-0.22138469
78	0xbe429c74	-0.19004995
79	0xbbf3309b	-0.0074215657
80	0xbd5aac7b	-0.053387146
81	0x3d0159af	0.03157967
82	0x3fa0365d	1.251659
83	0xbf307ce7	-0.68940586
84	0x3e78faaf	0.24314378
85	0x3bb69f18	0.0055731647
86	0xbc83faa9	-0.016110735
87	0x3e8b94a2	0.27261835
88	0x3e09bf06	0.13451776
89	0x3e364ed8	0.17803514
90	0x3e66b5d0	0.22530293
91	0x3d926e08	0.07149893
92	0x3e19ef85	0.15032776
93	0x3e097065	0.13421781
94	0xbf81b478	-1.01332
95	0x3f140f5d	0.5783594
96	0xbde4df39	-0.11175389
97	0x3e050075	0.12988456
98	0xbb302f63	-0.0026883713
99	0x3c5f412a	0.013626376
100	0xbb134c53	-0.0022475913
101	0x3bac3bc0	0.005256146
102	0x3e24b57b	0.16084854
103	0xbe1672df	-0.14692257
104	0x3ddb4f1f	0.107084505
105	0xbdaa786b	-0.08323749
106	0xc033237a	-2.7990403
107	0x3fd76519	1.6827728
108	0xbe499d04	-0.19688803
109	0x3e2f8a82	0.1714268
110	0xbc7101bc	-0.014709886
111	0xbc86aef4	-0.016440846
112	0x3e6c4f00	0.23077011
113	0xbe10ee5f	-0.14153431
114	0x3ebb5519	0.36588362
115	0xbcc017d5	-0.023448864
116	0xbe89629c	-0.26833045
117	0xbbd4d94e	-0.0064956313
118	0x3dc5e57b	0.096629106
119	0x3fac0056	1.3437603
120	0xbe107a03	-0.14109044
121	0x3d83c9df	0.06434988
122	0x3e459ca7	0.1929804
123	0x3d021ddb	0.031766754
124	0x3b9c5719	0.004771125
125	0xbbac1738	-0.0052517913
126	0x3de99fb8	0.11407417
127	0xbe61899d	-0.22025152
128	0x3ebbae4f	0.36656424
129	0x3dc09440	0.094032764
130	0xbefa4f15	-0.4888846
131	0xbf9b2a14	-1.2122216
132	0xbd256b25	-0.040385384
133	0x3e1e19a5	0.1543947
134	0x3ca976f7	0.02068661
135	0x3e6d361b	0.23165171
136	0xbe0e259b	-0.13881533
137	0xbd8def12	-0.06930365
138	0x3d0e50ec	0.034745142
139	0xbda583c8	-0.08081776
140	0x3e3b05d9	0.1826395
141	0xbe5c5f4d	-0.2152073
142	0xbd93bfd7	-0.07214325
143	0xbff2a8e9	-1.8957797
144	0xbd3d3835	-0.04619618
145	0xbe2869e9	-0.16446652
146	0x3e0fa72b	0.14028613
147	0x3d8b9b47	0.06816726
148	0x3e0b34cd	0.1359436
149	0xbce01275	-0.027352551
150	0xb9675441	-0.00022061264
151	0xbe411e7a	-0.18859282
152	0xbe1925f9	-0.14955892
153	0x3e655c35	0.22398455
154	0x3d5fcd2b	0.054639023
155	0xbfee9d5d	-1.8641773
156	0x3dfc4acc	0.12318954
157	0x3cbb6241	0.022874
158	0xbda2fb16	-0.07958047
159	0x3e5bc0d2	0.21460274
160	0x3d066cee	0.032818727
161	0x3daaa6d3	0.083326004
162	0xbe7f2829	-0.24917664
163	0xbe69d21e	-0.2283406
164	0x3e8c6c97	0.27426597
165	0x3d98629a	0.07440682
166	0x3f46730a	0.77519286
167	0x3f088a01	0.5333558
168	0xbcf49f0f	-0.029861001
169	0x3e1901ad	0.14942046
170	0xbe0ac520	-0.1355176
171	0xbd73315c	-0.059373245
172	0x3b8d8d35	0.0043198117
173	0xbe5128db	-0.20425741
174	0x3d175b80	0.036952496
175	0xbe0ec0d6	-0.13940749
176	0x3c9dd57c	0.019266836
177	0x3d7860bc	0.060639128
178	0xbfaa872e	-1.3322504
179	0xbe61ddb1	-0.22057225
180	0xbe1c50e8	-0.15265238
181	0x3ea039ba	0.31294042
182	0x3c8790c1	0.016548516
183	0x3db4f229	0.08835251
184	0xbcf79b73	-0.030225491
185	0xbda299f7	-0.07939523
186	0x3dd78bd0	0.10524714
187	0xbd18faa6	-0.037348412
188	0x3d47fa6f	0.048822816
189	0x3e9b2cf4	0.30307734
190	0x3f4fdc25	0.8119529
191	0x3e88a218	0.26686168
192	0x3e148b12	0.14506176
193	0xbe16a60a	-0.14711776
194	0x3e299da7	0.16564046
195	0xbbca6603	-0.0061767115
196	0xbe09bffd	-0.13452144
197	0xbd8bd3e0	-0.06827521
198	0xbe56b321	-0.2096677
199	0x3bc6d22f	0.0060675363
200	0xbe7380d4	-0.23779613
201	0xbd5063ef	-0.050876554
202	0x3e29b3dc	0.16572517
203	0xbf4ac251	-0.79202753
204	0xbd80cb79	-0.06288809
205	0xbe2eb82b	-0.17062442
206	0x3db0a44c	0.08625087
207	0x3e834b08	0.25643182
208	0x3b901743	0.0043973043
209	0xbc4af768	-0.012388088
210	0xbd3273c2	-0.043567427
211	0x3db86982	0.09004499
212	0x3cecd54b	0.0289103
213	0x3eb837f4	0.3598019
214	0xbea38254	-0.3193537
215	0x3e0acb76	0.13554177
216	0x3e16afb5	0.14715464
217	0x3d1d58b4	0.038414672
218	0x3d51afd8	0.05119309
219	0x3df7c5f6	0.12098305
220	0x3e5eae0e	0.21746084
221	0x3d6f02c1	0.058352236
222	0xbdde5613	-0.10856261
223	0x3dc74591	0.097300656
224	0xb89edb06	-7.5748234e-05
225	0x3e91bd8f	0.28464934
226	0x3fc81e0d	1.5634171
227	0x3fc3446a	1.5255253
228	0x3e09a253	0.13440828
229	0xbe002adc	-0.1251635
230	0xbe36a806	-0.17837533
231	0xbdb6c703	-0.08924677
232	0xbd37cf0d	-0.044875193
233	0x3e8bc5d8	0.2729938
234	0x3d8b571c	0.06803724
235	0xbe810f2e	-0.25206894
236	0x3ddcc7ea	0.10780318
237	0xbe01c269	-0.12671818
238	0xbea1c6f8	-0.31597114
239	0xbf2e1eae	-0.68015563
240	0x3d5035ae	0.050832443
241	0xbe64632c	-0.22303456
242	0x3c3001b8	0.010742597
243	0xbe03a3ea	-0.12855497
244	0x3e6b6686	0.22988328
245	0xbda39d3c	-0.079889745
246	0x3dd0cb68	0.10195047
247	0xbe66813f	-0.22510241
248	0xbe7fea69	-0.24991764
249	0x3dab741f	0.08371758
250	0x3ef8c67c	0.48588932
251	0x3ed0db3c	0.40792263
252	0xbddb0a8c	-0.10695371
253	0x3da28195	0.07934872
254	0x3dd17b0c	0.102285475
255	0x3c4c69a5	0.0124763595

value.0.bias f4 [32]
0	0xbd9952f0	-0.07486522
1	0xbe58c30c	-0.21168154
2	0x3e21866f	0.15773939
3	0xbd646532	-0.05576057
4	0x3e79a10a	0.24377838
5	0x3e36784f	0.17819332
6	0x3e8e9fb3	0.27856216
7	0xbd852dd3	-0.06502881
8	0xbe24ea00	-0.16104889
9	0xbec49b9c	-0.3839997
10	0x3da72aee	0.08162485
11	0x3d13d4e1	0.03609169
12	0xbde10aac	-0.109883636
13	0x3e9b7fad	0.30370846
14	0xbec0ed9e	-0.37681288
15	0x3f53864d	0.826268
16	0x3bb25652	0.005442419
17	0xbe44f091	-0.19232394
18	0x3dd35161	0.10318256
19	0xbd932230	-0.07184255
20	0xbe5acbdf	-0.21366833
21	0xbd6cbd3f	-0.057797667
22	0x3e9a46b9	0.30132082
23	0xbe0b1de7	-0.13585626
24	0xbed2cd0f	-0.41172072
25	0x3dab9b61	0.083792455
26	0xbe45630a	-0.19276062
27	0xbcdf2362	-0.027238552
28	0xbda8c23b	-0.082401715
29	0xbe98761e	-0.29777616
30	0x3eecd6dc	0.46257675
31	0xbd939fa8	-0.072081864

value.2.weight f4 [32, 32]
0	0x3e6386b5	0.22219355
1	0x3d9c86ea	0.0764292
2	0xbdb60a97	-0.088887386
3	0xbc70d38d	-0.014698875
4	0x3d92af85	0.07162384
5	0xbe466ae6	-0.19376716
6	0x3da3705e	0.07980417
7	0x3d595361	0.053058032
8	0xbec4a49a	-0.3840683
9	0xbe524c73	-0.20536976
10	0xbd796c7e	-0.06089448
11	0x3d703d0a	0.05865196
12	0xbc297d53	-0.010344821
13	0x3d46a4ae	0.048496895
14	0x3ac46d79	0.0014986239
15	0x3c6f5cb2	0.014609503
16	0x3e304a4d	0.17215843
17	0x3d93e809	0.072219916
18	0x3daef162	0.08542134
19	0x3db6ca95	0.08925358
20	0xbbae237c	-0.0053142887
21	0xbe66aa75	-0.22525962
22	0x3e2d92f7	0.16950594
23	0xbe81cd2e	-0.25351852
24	0x3d8fccb2	0.070214644
25	0xbe25740f	-0.16157554
26	0x3d17d962	0.037072547
27	0xbe94cb45	-0.29061332
28	0xbd5819d0	-0.05275899
29	0xbde54e34	-0.11196557
30	0xbbcad2a9	-0.0061896634
31	0x3d0e2b49	0.03470925
32	0x3cc0d14c	0.0235373
33	0x3de63f95	0.11242596
34	0x3dcb29de	0.09920095
35	0xbcf5dbf9	-0.030012118
36	0x3cd03dc8	0.025420085
37	0x3e50c8d0	0.20389104
38	0x3e0a8b1e	0.13529631
39	0x3dfb4a60	0.12270045
40	0x3d8df45f	0.06931376
41	0x3d8222b7	0.063542776
42	0x3da952c5	0.0826774
43	0xbda25a4e	-0.079273805
44	0xbdfc322a	-0.123142555
45	0x3df641b0	0.12024248
46	0x3e0418ca	0.12900081
47	0xbe175832	-0.14779738
48	0xbd50b48f	-0.050953444
49	0xbe3fa11a	-0.18713799
50	0x3e1950a1	0.14972164
51	0xbd4dc40d	-0.050235797
52	0x3e18218e	0.1485655
53	0xbe1e8e99	-0.15484084
54	0xbe2e171a	-0.17001
55	0xbda37545	-0.07981352
56	0xbe2b1b64	-0.16709667
57	0xbd9c99a9	-0.07646496
58	0x3da24f69	0.079253025
59	0x3e1727fd	0.14761348
60	0xbcf22caa	-0.029562313
61	0x3df9c271	0.1219529
62	0x3e26ea2e	0.1630027
63	0xbe330428	-0.17482054
64	0x3d1818bb	0.03713296
65	0xbd3d2f26	-0.046187542
66	0xbe696c3c	-0.22795194
67	0x3e62e9b9	0.2215947
68	0x3e3aada5	0.18230303
69	0xbe588321	-0.21143772
70	0xbe5dfb19	-0.21677817
71	0x3e2c1122	0.1680341
72	0xbda34ebd	-0.079740025
73	0x3d17ea99	0.037088964
74	0xbd96fced	-0.073724605
75	0x3e4eb4f1	0.20186211
76	0xbc9edc48	-0.019392148
77	0xbe157be4	-0.14598042
78	0xbd6bf847	-0.057609823
79	0xbe1c733d	-0.15278335
80	0xbdabcd5f	-0.08388781
81	0xbd8fcad4	-0.07021108
82	0xbdc6e52a	-0.09711678
83	0xbe116a3e	-0.14200684
84	0x3daa7118	0.08322352
85	0x3e29f40f	0.16597007
86	0xbd916420	-0.070991755
87	0xbda58a2e	-0.08082996
88	0x3d21684c	0.039406106
89	0x3e44db57	0.19224297
90	0xbd57470c	-0.05255799
91	0x3e347104	0.17621237
92	0x3d99c280	0.07507801
93	0xbd4aa4c2	-0.04947353
94	0x3e079c5e	0.13243243
95	0x3dd34b80	0.10317135
96	0x3da188bc	0.07887408
97	0xbda3a0cd	-0.07989655
98	0x3e1cd911	0.1531718
99	0x3ca0e5a2	0.019640747
100	0xbe6d2d9f	-0.23161934
101	0x3dab62b4	0.083684355
102	0xbdd8c4b6	-0.10584395
103	0xbd2edc0e	-0.04269033
104	0x3e713b99	0.23557891
105	0xbe6694e1	-0.2251773
106	0xbdb239d7	-0.08702438
107	0x3da792de	0.081823096
108	0xbe384c12	-0.17997769
109	0x3e074f8a	0.13213935
110	0x3d3b218b	0.045686286
111	0xbe71feb0	-0.23632312
112	0x3cdfb951	0.027310045
113	0x3e399414	0.18122894
114	0x3d3ff78c	0.04686694
115	0x3dd957fc	0.10612485
116	0x3da24912	0.07924093
117	0xbe05c808	-0.13064587
118	0xbe1662ed	-0.14686175
119	0xbd7105ae	-0.058843307
120	0xbe8225f4	-0.2541958
121	0x3e3f0043	0.18652444
122	0x3c7f0f6e	0.015567644
123	0xbd12ad13	-0.035809588
124	0x3de1c687	0.11024194
125	0x3e37a76d	0.17934962
126	0x3dd3de9d	0.103451945
127	0x3d981955	0.07426707
128	0x3d17a91c	0.03702651
129	0xbc3e98c4	-0.011633102
130	0xbea58293	-0.32326183
131	0xbd36c5ce	-0.044622235
132	0xbd50c784	-0.050971523
133	0x3cfaaace	0.030599024
134	0x3e52d77e	0.20590016
135	0xbd6065bd	-0.054784525
136	0xbe2bcaab	-0.1677653
137	0x3d8865fe	0.066600785
138	0x3cb64aa2	0.022252385
139	0x3e283edd	0.1643023
140	0x3e03213e	0.1280565
141	0xbd10f14d	-0.035386372
142	0x3c1c728a	0.009548793
143	0x3dac7a55	0.084217705
144	0x3ce01f51	0.027358683
145	0xbe3f820b	-0.18701951
146	0x3c45672a	0.012048522
147	0xbc35f09a	-0.011104727
148	0xbddfad57	-0.10921734
149	0xbe69d00f	-0.22833274
150	0xbd89b858	-0.06724614
151	0xbda3b4f8	-0.079935014
152	0x3dcb0bb6	0.09914343
153	0xbe8426d0	-0.25810862
154	0x3d3dc108	0.046326667
155	0xbd95443f	-0.072884075
156	0x3e444164	0.1916557
157	0x3b66c218	0.0035210904
158	0x3d46b63c	0.048513636
159	0xbd261537	-0.040547576
160	0x3e03e6e1	0.12881042
161	0xbd0eacd4	-0.03483279
162	0xbe80befa	-0.25145704
163	0xbd916b9c	-0.07100603
164	0x3ba30b63	0.0049757226
165	0xbc783464	-0.01514921
166	0x3daf63ef	0.08563983
167	0xbd9833f0	-0.07431781
168	0xbea0cd52	-0.31406647
169	0xbe220d26	-0.15825328
170	0x3c525caa	0.012839476
171	0x3e1a5644	0.1507197
172	0x3ca91fd0	0.020645052
173	0x3e382a71	0.1798494
174	0xbe2194bc	-0.15779394
175	0x3e3573e7	0.17719994
176	0x3e1e86bb	0.15481083
177	0xbdc60c12	-0.09670271
178	0x3e1f0725	0.15530069
179	0x3d6890ae	0.056778602
180	0x3e228790	0.15872025
181	0xbdd3602d	-0.103210784
182	0xbe48a814	-0.19595367
183	0x3e01ae02	0.12664035
184	0xbe37001f	-0.1787114
185	0x3c8af44a	0.01696219
186	0x3d091d87	0.033475425
187	0xbdbdf3c3	-0.092750095
188	0x3e2a0a33	0.16605453
189	0x3ce5b8f9	0.028042303
190	0xbd3a9346	-0.045550607
191	0x3c32f2c7	0.01092214
192	0x3d35f9ef	0.04442781
193	0x3d247342	0.04014898
194	0x3e1a5738	0.15072334
195	0x3ddaff22	0.10693194
196	0xbc9a70c6	-0.018852603
197	0xbd04d7bc	-0.032432303
198	0x3e1ea106	0.15491113
199	0x3da37ce7	0.079828076
200	0x3da94f00	0.08267021
201	0x3e043b96	0.12913355
202	0x3c209c76	0.009802928
203	0x3cbc621e	0.022996005
204	0xbe7655da	-0.24056187
205	0x3df11502	0.11771585
206	0xbe5be2e1	-0.21473266
207	0x3d6f23c1	0.058383707
208	0xbde9ea76	-0.11421673
209	0x3d64b38a	0.055835284
210	0xbda1e988	-0.07905871
211	0xbcf81d85	-0.030287514
212	0x3d944798	0.07240218
213	0xbd334ecf	-0.04377633
214	0xbee42a28	-0.44563413
215	0xbe50611c	-0.20349544
216	0xbda1aac1	-0.07893897
217	0x3e1bbb93	0.15208273
218	0x3e27e767	0.16396867
219	0xbe7691a1	-0.2407899
220	0xbdd01fb1	-0.10162295
221	0x3ceee99e	0.029164132
222	0x3d9fe3c3	0.07807114
223	0x3e45f801	0.19332887
224	0xbe8abcd8	-0.270972
225	0x3e359109	0.17731108
226	0xbced8fea	-0.028999288
227	0xbe18d89d	-0.14926381
228	0x3d6810d2	0.056656666
229	0xbcbf8cb4	-0.023382522
230	0x3d461760	0.048362136
231	0x3e29c5da	0.1657938
232	0x3e3ba888	0.18326008
233	0xbe876471	-0.26443818
234	0x3dad4d06	0.08461957
235	0xbdabdd24	-0.083917886
236	0x3e630ab8	0.22172058
237	0xbd81bcbd	-0.06334827
238	0xbd0523c2	-0.032504804
239	0x3ca835f0	0.020533532
240	0xba856064	-0.0010175821
241	0xbea7cd86	-0.3277399
242	0xbd8792b7	-0.066197805
243	0x3d0d036b	0.034427088
244	0xbbab6f4e	-0.0052317744
245	0xbde210e8	-0.11038381
246	0x3e1621e4	0.14661366
247	0xbd7b2b9a	-0.06132088
248	0x3e0cdb82	0.1375561
249	0xbe0b88ad	-0.13626356
250	0xbdd4222b	-0.103580795
251	0x3df25a38	0.11833614
252	0x3d1ab2ab	0.037768047
253	0x3e50b81b	0.2038273
254	0x3a39912b	0.00070788217
255	0x3d31eb4e	0.043437295

value.2.bias f4 [32]
0	0xbda79c3b	-0.081840955
1	0x3e209c84	0.15684706
2	0xbdfe60fd	-0.12420843
3	0x3ec2c66c	0.3804201
4	0x3e6e816c	0.23291558
5	0xbdcc37d8	-0.09971589
6	0x3eb47ab9	0.3524988
7	0x3c794ded	0.015216333
8	0xbc116f5c	-0.008876648
9	0x3dd8b8e2	0.105821386
10	0x3e5cd50c	0.21565646
11	0x3d6ce390	0.057834208
12	0xbe3bf635	-0.1835564
13	0x3e49dd45	0.19713314
14	0x3db120b0	0.08648813
15	0x3e1c17e5	0.1524349
16	0xbd9199ab	-0.07109388
17	0x3de64e0e	0.112453565
18	0x3d13e7ab	0.036109608
19	0x3e984a08	0.2974398
20	0x3d9a1df8	0.07525247
21	0x3da9b47a	0.08286376
22	0xbeaee589	-0.34159496
23	0xbdecfd3d	-0.11571739
24	0x3eab7f54	0.3349558
25	0x3d9bac90	0.07601273
26	0xbd4467c6	-0.04795053
27	0x3d64ec39	0.055889342
28	0x3e04eaf6	0.12980255
29	0xbe473026	-0.19451961
30	0x3e7337f2	0.2375181
31	0x3e09b589	0.13448156

value.4.weight f4 [1, 32]
0	0xbcef1d94	-0.029188909
1	0x3d89588b	0.06706341
2	0xbd9a87a2	-0.07545401
3	0x3da2926d	0.07938085
4	0x3dc2c3b3	0.09509983
5	0xbd577be5	-0.05260839
6	0x3d862a74	0.06551066
7	0x3d8385f1	0.06422032
8	0x3d041584	0.03224708
9	0xbee24b09	-0.44197872
10	0x3daeed1b	0.08541318
11	0xbe04d675	-0.12972434
12	0xbca4416c	-0.020050727
13	0x3d34696a	0.044045843
14	0xbe16fbc2	-0.14744475
15	0x3d1616b9	0.036642764
16	0xbe048d0b	-0.12944429
17	0x3d09549e	0.033527963
18	0xbd6219ad	-0.055200268
19	0x3d85a3ed	0.06525407
20	0x3d64843e	0.05579018
21	0x3dc5a5a8	0.09650737
22	0xbd8bf815	-0.06834427
23	0xbd8fd2c5	-0.07022623
24	0x3d3eb27e	0.046556942
25	0xbec67e55	-0.3876826
26	0xbd9e04b3	-0.0771574
27	0x3d9ba6e3	0.076001905
28	0x3d845b32	0.064627066
29	0x3d56515c	0.052323684
30	0xbd908aeb	-0.070577465
31	0x3d88190b	0.066454016

actor.0.weight f4 [32, 10]
0	0xbe517cb0	-0.20457721
1	0xbee32e74	-0.44371378
2	0x3e91b795	0.28460374
3	0xbeab1947	-0.33417723
4	0x3e09b4d9	0.13447894
5	0xbea59a85	-0.32344452
6	0xbd84ab92	-0.06478037
7	0xbd9d1e20	-0.076717615
8	0xbd0bd88b	-0.03414206
9	0xbe4ee685	-0.20205124
10	0x3ea99302	0.3311997
11	0x3d198f4a	0.037490167
12	0x3df15015	0.117828526
13	0x3f22cb8c	0.6359184
14	0x3e928a6d	0.28621235
15	0x3ebee405	0.3728334
16	0xbb39d20c	-0.0028353957
17	0xbec9400d	-0.3930668
18	0xbe1c58e9	-0.15268292
19	0xbc51cc1e	-0.012805013
20	0xbe932078	-0.2873571
21	0xbe8fec30	-0.28109884
22	0x3da804f3	0.08204069
23	0x3d7b4d0c	0.061352775
24	0xbded801b	-0.115967
25	0xbf20f02b	-0.6286647
26	0x3dc9a9e2	0.09846856
27	0xbe8fd5a4	-0.28092682
28	0xba710e13	-0.00091955176
29	0xbe9c5a89	-0.30537823
30	0x3ecc5a21	0.39912513
31	0xbf2d0820	-0.6759052
32	0xbe915d70	-0.283916
33	0xbdcd3e4c	-0.10021648
34	0xbe9d2f80	-0.30700302
35	0x3df0d1d0	0.117587686
36	0xbc7fb27d	-0.01560652
37	0xbc9e2b28	-0.019307688
38	0xbd5da85f	-0.05411565
39	0x3e890223	0.26759443
40	0x3ea89d34	0.32932436
41	0xbc1cdfbd	-0.009574828
42	0xbeb01202	-0.3438874
43	0xbf0a934c	-0.5413101
44	0x3d5fd0e9	0.05464259
45	0xbeaaddc5	-0.33372322
46	0x3e30ffcd	0.1728508
47	0xbb6ee5a9	-0.0036452806
48	0xbdbecda7	-0.09316569
49	0x3de92811	0.11384595
50	0xbe15157c	-0.14558977
51	0xbe0ca8d0	-0.13736272
52	0xbd76eb99	-0.060283277
53	0x3ea56190	0.32300997
54	0xbead1993	-0.33808574
55	0x3db59756	0.08866756
56	0x3e13cd27	0.14433728
57	0xbe16cdf3	-0.14727001
58	0xbe07ae7a	-0.13250151
59	0x3e1443b2	0.14478949
60	0x3e8ff0f3	0.28113517
61	0x3db1106d	0.08645711
62	0xbee359f1	-0.44404557
63	0x3e33a3c4	0.1754294
64	0xbd493fe1	-0.049133185
65	0x3eaef03d	0.34167662
66	0x3d666d4a	0.05625657
67	0x3e90f4c4	0.2831174
68	0xbc8c31e9	-0.017113643
69	0x3e9735d5	0.29533258
70	0x3dd8fa3d	0.10594604
71	0x3e873e7c	0.2641486
72	0x3e57494f	0.21024059
73	0xbef45456	-0.47720593
74	0x3e34baf5	0.17649443
75	0x3ebdab56	0.3704478
76	0xbc9c0816	-0.019046824
77	0xbe90a533	-0.28251037
78	0xbe590e0b	-0.21196763
79	0x3eaa28e8	0.33234334
80	0xbf082df0	-0.53195095
81	0x3ed7ca6c	0.42146623
82	0x3e495c66	0.19664153
83	0xbe7afbbe	-0.24510095
84	0xbdec5c68	-0.115410626
85	0xbee3aa51	-0.4446588
86	0x3d8620f2	0.065492526
87	0xbe7563b8	-0.23963821
88	0xbe43a40c	-0.19105548
89	0x3eaa3d4c	0.3324989
90	0xbca8c9b3	-0.02060399
91	0x3e2b7024	0.16741997
92	0xbdaba23a	-0.08380552
93	0xbf08be88	-0.5341573
94	0x3eba3d64	0.36374962
95	0xbdcb49fb	-0.0992622
96	0x3ee2b487	0.44278356
97	0x3ea6ea89	0.3260081
98	0xbe66add0	-0.22527242
99	0xbd8d2237	-0.068912916
100	0x3ec6e47b	0.38846192
101	0xbe349e08	-0.17638409
102	0x3eb7d3d0	0.35903788
103	0xbd8d840a	-0.0690995
104	0x3eab361f	0.3343973
105	0x3da61eda	0.08111353
106	0xbce9f678	-0.028559908
107	0xbe670120	-0.22559023
108	0x3e839501	0.25699618
109	0x3da7b2e3	0.08188417
110	0xbe151d49	-0.14561953
111	0xbdd83189	-0.10556323
112	0xbe90090b	-0.281319
113	0x3d414592	0.047185488
114	0x3e99461b	0.299363
115	0x3e9b4fca	0.30334312
116	0x3dfc8130	0.12329328
117	0xbe4e91c0	-0.20172787
118	0xba0708c2	-0.00051511463
119	0xbe9ccd88	-0.30625558
120	0xbef7cbed	-0.4839777
121	0xbdcba604	-0.09943774
122	0x3f035cb3	0.5131332
123	0x3e2812c8	0.16413414
124	0xbd887626	-0.0666316
125	0xbdcafeae	-0.099118575
126	0x3eaabd22	0.33347422
127	0xbe14b9a6	-0.14523944
128	0xbd8d6531	-0.06904066
129	0xbe45bf84	-0.19311339
130	0x3e802938	0.25031447
131	0x3efb7cf6	0.49118775
132	0x3e1e5c6b	0.15464942
133	0x3dbbba8f	0.091664426
134	0xbdee03e1	-0.116218336
135	0xbebc162e	-0.36735672
136	0x3d89a65e	0.06721185
137	0x3dae3f86	0.0850821
138	0xbc580096	-0.013183733
139	0x3e6677dc	0.2250666
140	0x3eac7819	0.33685377
141	0xbe633b2a	-0.22190538
142	0x3e336472	0.17518786
143	0xbd5124ba	-0.051060416
144	0x3e873641	0.2640858
145	0x3e82ccc1	0.2554684
146	0x3d7669c6	0.060159467
147	0x3dc73019	0.09725971
148	0x3ed67ee7	0.41893694
149	0x3ebd0b3b	0.3692263
150	0xbe9bfb0f	-0.3046498
151	0x3f02a0a5	0.51026374
152	0xbebe1c9e	-0.37131208
153	0x3dbbbfa3	0.09167411
154	0xbd54be45	-0.051939268
155	0x3e055f7c	0.13024706
156	0xbd02ee37	-0.03196546
157	0xbe28b9ca	-0.16477123
158	0x3dbc89e4	0.09205988
159	0x3d1f8eaa	0.038954414
160	0xbee8e358	-0.4548595
161	0xbcd830c9	-0.02639045
162	0x3e520e29	0.20513214
163	0xbe8eab14	-0.27864897
164	0x3e8e87c7	0.27837965
165	0x3e75c2e9	0.24000134
166	0xbd5fe450	-0.054661095
167	0x3c7743e3	0.015091869
168	0x3f00c418	0.50299215
169	0x3e4d6911	0.20059611
170	0xbe8cf4ea	-0.27530605
171	0xbe33095d	-0.1748404
172	0x3bd6ea47	0.0065586898
173	0x3d2e01d6	0.04248222
174	0xbe5fd57f	-0.21858786
175	0xbefb1377	-0.49038288
176	0x3e228ea1	0.15874721
177	0x3ebc8778	0.36822104
178	0x3e5ce300	0.21570969
179	0x3dfe79c5	0.124255694
180	0x3e6eb5f8	0.23311603
181	0x3e4a20a7	0.19739018
182	0xbe7a80bb	-0.2446317
183	0x3eed6c98	0.46371913
184	0xbe667986	-0.22507295
185	0x3d1b9d77	0.037991967
186	0xbe77e71a	-0.24209252
187	0xbe3735c8	-0.1789161
188	0x3dc968db	0.09834453
189	0x3e9b9c15	0.3039252
190	0xbde3bb72	-0.11119737
191	0x3e1de497	0.15419231
192	0xbec16f5a	-0.37780267
193	0x3d62e750	0.055396378
194	0x3da49641	0.08036471
195	0xbebbceba	-0.36681157
196	0x3da7b58d	0.08188925
197	0x3edcdfa3	0.4313937
198	0x3e5e61ab	0.21716945
199	0xbda759db	-0.081714354
200	0xbefc2417	-0.49246284
201	0xbe9612e5	-0.2931129
202	0xbe800962	-0.2500716
203	0x3e9b3804	0.30316174
204	0x3ca8f62d	0.020625198
205	0x3e489f5a	0.19592038
206	0xbddbf15f	-0.10739397
207	0xbf10f6cf	-0.566266
208	0x3e873eca	0.26415092
209	0x3dd16d2c	0.10225901
210	0x3cc978c3	0.024593716
211	0x3e39bb40	0.18137836
212	0x3e98f403	0.29873666
213	0x3e262d9c	0.16228336
214	0xbef30fd5	-0.47473016
215	0xbe0aa360	-0.13538885
216	0x3dbf6468	0.09345323
217	0x3df7e386	0.121039435
218	0xbeff29b4	-0.49836504
219	0xbf09cfad	-0.53832513
220	0x3e6c27ca	0.23062053
221	0xbdbfe878	-0.09370512
222	0x3cd20664	0.025637813
223	0x3e5ea56c	0.21742791
224	0xbe8e92ea	-0.27846462
225	0xbeb0a346	-0.34499568
226	0x3e530f3a	0.20611277
227	0xbe78b232	-0.24286726
228	0xbe29dc89	-0.16588034
229	0xbe834090	-0.25635195
230	0xbdd8d78d	-0.10587988
231	0xbe4b3f35	-0.1984833
232	0x3ef1f887	0.47259924
233	0xbef7c28a	-0.4839061
234	0xbe0fc12c	-0.14038533
235	0xbd5f2e94	-0.05448778
236	0xbe09e5a2	-0.13466504
237	0xbe8fb17e	-0.28065103
238	0xbe35ebf1	-0.17765786
239	0xbd4267d4	-0.0474623
240	0x3e797e0c	0.2436449
241	0x3c6197af	0.013769074
242	0xbeb19ff4	-0.34692347
243	0x3d0fa8cf	0.035073098
244	0xbda246bc	-0.07923648
245	0xbd526c26	-0.05137267
246	0xbe17650e	-0.14784643
247	0xbf10f771	-0.56627566
248	0xbd036bd2	-0.032085247
249	0xbea42fd3	-0.32067737
250	0xbdea2219	-0.11432285
251	0x3d9e3b88	0.077261984
252	0xbe55dc05	-0.20884712
253	0x3d208c30	0.039196193
254	0xbec69b4a	-0.3879035
255	0xbd33f279	-0.04393241

actor.0.bias f4 [32]
0	0x3d48e0d0	0.049042523
1	0xbd252d1d	-0.040326227
2	0xbe7bb6ae	-0.24581406
3	0x3ee4a102	0.4465409
4	0xbf2f9d61	-0.68599516
5	0xbda9b3c8	-0.08286244
6	0xbda5a6de	-0.08088468
7	0x3e808deb	0.25108275
8	0x3da954aa	0.082681015
9	0xbe190df9	-0.14946736
10	0x3e874747	0.26421568
11	0xbeba7f0a	-0.36425048
12	0x3d36f2dc	0.044665202
13	0x3de3a74e	0.11115895
14	0x3e42575c	0.18978637
15	0x3e0227b9	0.12710465
16	0x3ea3eb7f	0.32015607
17	0x3e24cd8e	0.16094038
18	0x3dbebdc3	0.09313538
19	0x3cc75140	0.024330735
20	0x3ed4b8a8	0.41547132
21	0x3ea1ef5e	0.31627935
22	0x3ebe5bcd	0.37179413
23	0x3eb410d0	0.35169077
24	0x3e2c2170	0.1680963
25	0xbe956f5b	-0.2918652
26	0x3ee4f9e2	0.44721895
27	0x3e8adf2f	0.271234
28	0x3c2da8c3	0.010599318
29	0x3e2d2a66	0.16910705
30	0x3d2b1ccb	0.041775506
31	0xbe75f080	-0.24017525

actor.2.weight f4 [32, 32]
0	0x3dbf0e73	0.09328928
1	0xbdfd4c24	-0.12368038
2	0x3e887c57	0.26657364
3	0xbdd025d7	-0.101634674
4	0xbe00c0e9	-0.1257359
5	0xbe0ce590	-0.13759446
6	0xbf0cccda	-0.5500008
7	0xbdd1a4f3	-0.1023654
8	0xbeb1e777	-0.34746906
9	0xbf34d68c	-0.7063987
10	0x3d74616c	0.05966322
11	0x3e46d5fa	0.19417563
12	0x3dbeba69	0.09312899
13	0x3dd3bbe8	0.10338575
14	0x3e93a9bc	0.28840435
15	0xbf06ccbc	-0.5265615
16	0xbc6bd70c	-0.014394533
17	0xbc87a40f	-0.016557721
18	0xbd9f2b03	-0.07771876
19	0x3e902ace	0.28157657
20	0x3a2b0910	0.0006524483
21	0x3e36f856	0.1786817
22	0x3e71eff1	0.23626687
23	0x3ee6ff36	0.45116585
24	0x3d51b6a7	0.05119958
25	0xbe8bfc78	-0.27341056
26	0x3ea771bb	0.32703957
27	0xbc9121b5	-0.017716268
28	0xbc944b5a	-0.018102337
29	0x3e5b7032	0.21429518
30	0x3bf31822	0.0074186483
31	0xbed7f56f	-0.42179438
32	0xbc58a50f	-0.013222947
33	0x3eb05661	0.34440902
34	0xbe68100a	-0.22662368
35	0x3eab8732	0.33501583
36	0x3dfacc6a	0.1224602
37	0x3d484bd6	0.048900448
38	0x3d8af3b8	0.06784767
39	0xbc31a310	-0.0108421
40	0xbf447a3b	-0.7674901
41	0x3e18a0c3	0.14905076
42	0xbd15716f	-0.03648513
43	0x3d65c0dc	0.05609213
44	0x3d9f7e0f	0.07787716
45	0xbd053fdf	-0.032531615
46	0xbac8d1db	-0.0015321331
47	0x3ea3221e	0.31861967
48	0x3e4d2bd0	0.20036244
49	0x3eaf6da7	0.34263346
50	0xbe2dece2	-0.16984895
51	0xbd9a4d5a	-0.07534285
52	0xbdf8a4e3	-0.12140825
53	0xbee37e1f	-0.4443216
54	0x3dd4d197	0.103915386
55	0xbe05a228	-0.13050139
56	0xbdd09cdd	-0.10186169
57	0x3d96c848	0.07362419
58	0x3e5eb678	0.21749294
59	0x3e0c60d3	0.1370881
60	0x3ea7b820	0.32757664
61	0xb996a672	-0.0002873424
62	0xbe509829	-0.20370544
63	0x3e18d684	0.14925581
64	0x3eac5a1a	0.33662492
65	0x3ea1e839	0.31622484
66	0x3e8e84de	0.27835745
67	0x3daf6a0c	0.08565149
68	0xbd0228ba	-0.03177712
69	0x3d734c02	0.05939866
70	0xbeb33598	-0.35001826
71	0xbdade4d3	-0.084909104
72	0x3e87953e	0.2648105
73	0xbe352eba	-0.17693606
74	0x3e2da445	0.16957195
75	0x3d9d911b	0.07693692
76	0xbe039bf4	-0.1285246
77	0x3ce9d475	0.02854369
78	0x3e5e576b	0.21713035
79	0xbe9ff451	-0.31241086
80	0x3e4118a1	0.18857051
81	0x3eac8302	0.336937
82	0xbd7afa23	-0.061273705
83	0x3eadcf83	0.3394738
84	0x3ca83e42	0.0205375
85	0x3dd89c51	0.1057669
86	0xbe0d99fb	-0.1382827
87	0x3ccad046	0.024757516
88	0x3d46bf93	0.048522543
89	0x3bb1f4a1	0.0054307734
90	0xbde97393	-0.11398997
91	0x3eb204b3	0.3476921
92	0xbe739e0b	-0.23790757
93	0xbcef04c3	-0.029177075
94	0x3de6dc9c	0.11272547
95	0x3c8806df	0.016604839
96	0x3df76914	0.12080589
97	0x3e7892cc	0.24274749
98	0x3da4f6bd	0.08054874
99	0xbc870200	-0.016480446
100	0xbe9ad5e6	-0.30241317
101	0x3e2b6545	0.1673785
102	0xbe822b97	-0.2542388
103	0xbe9e7225	-0.3094646
104	0xbe8bd882	-0.2731362
105	0xbe087706	-0.13326654
106	0xbf0728ca	-0.52796614
107	0x3e95dec3	0.29271516
108	0xbdaa4060	-0.0831306
109	0xbe1921bb	-0.14954273
110	0xbee9557d	-0.45573035
111	0x3e319cd6	0.17344984
112	0x3e7369a9	0.23770775
113	0x3defdbf4	0.117118746
114	0xbe69fb84	-0.22849852
115	0xbef3fbfc	-0.47653186
116	0x3e9aa2c7	0.30202314
117	0x3e34aade	0.17643306
118	0x3db7451a	0.08948727
119	0xbe92b16e	-0.28650993
120	0xbebb041b	-0.3652657
121	0xbcc65372	-0.024209712
122	0x3e5322aa	0.20618692
123	0xbe3b9ea1	-0.18322231
124	0xbec298e2	-0.38007265
125	0x3e4aeb23	0.1981626
126	0xbeb0c850	-0.34527826
127	0xbe6d4bd8	-0.23173463
128	0x3d84f8f0	0.064927936
129	0xbe747883	-0.23874097
130	0x3d0338d4	0.032036617
131	0x3e1790c2	0.14801314
132	0xbe3b0c01	-0.18266298
133	0x3e2606e8	0.16213572
134	0xbebd70df	-0.37000176
135	0x3f05d105	0.52272063
136	0xbcbd4940	-0.023106217
137	0xbcc99141	-0.024605395
138	0x3eb8f138	0.36121535
139	0xbd2555f6	-0.040365182
140	0x3ee5d9dd	0.4489278
141	0x3e52db93	0.20591573
142	0xbd1405d9	-0.03613839
143	0x3d9d5208	0.07681662
144	0x3e20a576	0.15688118
145	0x3e9e0d44	0.30869496
146	0xbd046956	-0.03232702
147	0xbd8ed8df	-0.06974959
148	0x3d3f607c	0.046722874
149	0xbc359d99	-0.0110849375
150	0xbe1d8a9e	-0.1538491
151	0x3e331bb9	0.17491044
152	0xbf0f7dcb	-0.5605132
153	0xbe9fe89a	-0.31232148
154	0xbdbe94f9	-0.09305758
155	0xbd9038a7	-0.070420556
156	0xbe5092c5	-0.20368488
157	0x3dc3017b	0.09521767
158	0x3dd97238	0.106174886
159	0x3eca0d69	0.39463356
160	0x3df7e256	0.12103717
161	0xbef4980d	-0.47772256
162	0x3dd262d2	0.10272755
163	0xbdc47f91	-0.09594644
164	0x3de3de47	0.111263804
165	0x3e1b7925	0.15182932
166	0x3ece8c7d	0.4034156
167	0x3e93600c	0.28784215
168	0x3e874ab2	0.26424176
169	0xbeeb3f03	-0.45946512
170	0x3ed1fca3	0.4101306
171	0xbe90c6f1	-0.2827678
172	0xbe319140	-0.17340565
173	0x3df93f58	0.12170285
174	0x3bba6bad	0.0056891055
175	0x3ea50096	0.3222701
176	0xbdaeb306	-0.0853024
177	0x3c7dc02f	0.015487715
178	0x3cdca382	0.026933435
179	0x3dcd6f5c	0.10031006
180	0x3df50558	0.1196391
181	0x3e8851ae	0.26624817
182	0x3db4d638	0.088299215
183	0x3d1ab93e	0.037774317
184	0x3e11e467	0.14247285
185	0xbd12cfed	-0.035842825
186	0xbe037614	-0.12838012
187	0x3ddfb943	0.10924008
188	0xbdf828a8	-0.121171296
189	0xbd911046	-0.07083182
190	0xbd17b677	-0.037039246
191	0x3e34181a	0.17587319
192	0x3db86130	0.09002912
193	0x3c10df63	0.008842322
194	0x3e42979a	0.19003144
195	0x3db3213b	0.087465726
196	0x3dc82bd3	0.09773984
197	0x3e5c572a	0.21517625
198	0xbe185e45	-0.14879711
199	0x3df8cb31	0.12148131
200	0x3e201267	0.1563202
201	0x3cb66eb6	0.022269588
202	0xbe009d3d	-0.12559982
203	0xbe02ce00	-0.12773895
204	0x3dbc0b44	0.09181836
205	0xbe9b983e	-0.3038959
206	0x3ca88815	0.020572701
207	0xbe63a40e	-0.2223055
208	0x3e1eb59c	0.15498966
209	0x3e1fe8d5	0.15616162
210	0x3da3f276	0.0800523
211	0x3e7410b3	0.23834495
212	0x3e6e4f15	0.23272355
213	0x3c9f447b	0.019441834
214	0xbd8751cf	-0.066074006
215	0x3de80c3f	0.11330461
216	0x3e4e657c	0.201559
217	0xbe181458	-0.1485151
218	0xbd10b653	-0.035330128
219	0x3c27812c	0.010223668
220	0xbcd2c7ce	-0.02573004
221	0x3e69c6cd	0.22829743
222	0x3d2f1543	0.042744886
223	0xbdc9c105	-0.09851269
224	0x3ced964a	0.029002327
225	0x3de5ad3e	0.11214684
226	0x3e42b7bc	0.19015402
227	0xbeb06d15	-0.34458223
228	0xbe364559	-0.17799892
229	0x3bd509e8	0.006501425
230	0xbe512499	-0.20424117
231	0xbd775e5e	-0.06039273
232	0x3ce8d93a	0.028423894
233	0x3ed05baf	0.4069495
234	0x3de4b302	0.111669555
235	0x3e4b5a25	0.19858606
236	0x3ed669f5	0.41877714
237	0x3e3e1a62	0.18564752
238	0x3e8509d4	0.2598406
239	0x3e00e960	0.12589025
240	0xbca8a17a	-0.02058481
241	0xbd22c7ff	-0.039741512
242	0x3dc0a9fd	0.09407423
243	0x3ddfdc29	0.10930664
244	0xbe92f235	-0.28700414
245	0x3dd0ec39	0.10201306
246	0x3df386f0	0.11890972
247	0x3ea2c471	0.31790498
248	0xbc8ad00f	-0.016944913
249	0x3dc6882f	0.09693944
250	0x3b9bf16f	0.0047590057
251	0xbe975d3f	-0.2956333
252	0xbe829c8a	-0.25510055
253	0x3e9e983d	0.30975524
254	0x3e4f29ae	0.20230743
255	0xbd557252	-0.052110977

actor.2.bias f4 [32]
0	0x3ebf3d3e	0.37351412
1	0x3d4f234a	0.050570764
2	0xbd4169a2	-0.04721988
3	0xbe852346	-0.26003474
4	0x3e180277	0.1484469
5	0x3dc9727c	0.09836289
6	0xbd051b1f	-0.032496568
7	0x3dfefa34	0.12450066
8	0x3e75faee	0.24021503
9	0x3d342a51	0.04398567
10	0xbe8092d5	-0.25112024
11	0xbeb4e24d	-0.35328904
12	0x3e828175	0.25489393
13	0xbd383fec	-0.044982836
14	0xbe3813b0	-0.1797626
15	0x3da5ba18	0.08092135
16	0xbdc1bfdb	-0.09460422
17	0x3ea65c91	0.32492498
18	0x3da36a97	0.07979315
19	0xbd5bf0b3	-0.053696346
20	0x3e17f43d	0.14839263
21	0x3e055417	0.13020359
22	0x3e0e9afb	0.13926308
23	0x3d832c71	0.06404961
24	0xbb716f36	-0.0036839969
25	0xbe5a061f	-0.21291398
26	0xbd2aeece	-0.04173165
27	0x3c264c9a	0.010150099
28	0x3d9ed4ae	0.07755409
29	0xbd6d55fe	-0.057943337
30	0x3e8d8418	0.27639842
31	0xbdbcb47f	-0.092141144

actor.4.weight f4 [2, 32]
0	0x3f42b25b	0.760534
1	0x3ede6265	0.43434444
2	0xbe0fabfa	-0.14030448
3	0xbe1f817b	-0.15576737
4	0x3f06d5a5	0.52669746
5	0xbe9f9610	-0.31169176
6	0x3cacc1fe	0.021088596
7	0x3e538b93	0.20658712
8	0xbf0cbe04	-0.5497744
9	0xbf00bd99	-0.50289303
10	0x3c13d10e	0.0090220105
11	0xbeed6130	-0.4636321
12	0x3f5b5778	0.8568034
13	0x3f15f502	0.5857698
14	0xbeb1fbb0	-0.34762335
15	0x3e504aab	0.20340984
16	0x3d9292ce	0.07156907
17	0xbc4cc633	-0.012498426
18	0x3e97bb29	0.2963498
19	0xbeb82cb9	-0.3597162
20	0xbe18c78a	-0.14919868
21	0xbeb945ca	-0.36186057
22	0x3ea1a83f	0.31573674
23	0x3e905497	0.28189537
24	0x3d80b511	0.06284536
25	0xbf1f08a0	-0.62122536
26	0xbe61a0db	-0.22034018
27	0xbf105a6a	-0.5638796
28	0xbf1edb1a	-0.6205307
29	0xbb1de9c5	-0.0024095636
30	0x3eea8998	0.458081
31	0x3a7c4ffe	0.0009624957
32	0xbeb4b1df	-0.35291955
33	0x3ec86818	0.39141917
34	0xbead2c48	-0.33822846
35	0x3ef77c40	0.48336983
36	0x3e465e59	0.19371928
37	0x3c18c2c3	0.009323779
38	0xbe6e776d	-0.23287745
39	0x3ec12ceb	0.37729582
40	0xbf3ccb89	-0.7374807
41	0xbe7c0c63	-0.246141
42	0x3d9cc876	0.076554224
43	0x3ef52598	0.47880244
44	0xbe7a3087	-0.24432574
45	0x3eaa1350	0.3321786
46	0x3e86d48d	0.26334038
47	0xbef04c24	-0.4693309
48	0x3ed1d5a3	0.40983304
49	0xbeb0fc16	-0.34567326
50	0xbf2749b5	-0.65346843
51	0x3e812765	0.25225368
52	0xbe6bec19	-0.23039283
53	0xbe5e1063	-0.21685939
54	0x3da8f6ad	0.08250175
55	0x3e9795bf	0.29606435
56	0xbf0acdaa	-0.5422007
57	0xbd5cd898	-0.053917497
58	0x3ef8fcc6	0.4863035
59	0x3f1f8df2	0.62325966
60	0x3dddd6d4	0.10831991
61	0x3f18eb62	0.59734166
62	0xbe653375	-0.2238291
63	0xbf0abe95	-0.54197055

actor.4.bias f4 [2]
0	0x3e934fea	0.28771907
1	0x3c7d1668	0.015447237
